ModelParameters-ACDC/Voxelmorph_Loss_0_Smth_0.01_LR_0.0001_Mode_0/DICE_0.48952_SSIM_0.94202_MSE_0.000593_Epoch_0004.pth (torch, 898940 bytes, 18 tensors)

unet_model.encoder.0.0.main.weight f4 [32, 2, 3, 3]
00000000: e8ca d9be af14 87bd 777a 043d 3a72 57bc
00000010: 14a1 013f 6b77 4b3e 071d 9ebe d280 383d
00000020: 26ec b53d 59d3 b53e aeb3 cc3d 2165 68bd
00000030: 7c9a 903d a664 c4be c14c c9be bd9b 823e
00000040: 1621 443d 2995 37bd ada6 b0be 5171 213e
00000050: ae7c 4c3e 367e fbbd 1047 05be 11ab ff3d
00000060: 37ff c23d 7083 7e3d cde5 d5bc 5ee5 17be
00000070: 3294 55be 768c c43d 3664 6d3e e510 7ebe
00000080: e7af 583d 74dc 573d 988b d53d cb2c ae3d
00000090: 4f05 993d 2441 cdbd 7d3d 92be 65d4 c4be
000000a0: 08b6 afbe 3adc 9a3c 4d1e c9bd 86e8 973d
000000b0: eb3a b83c 6dc1 a73e e6f5 2bbe 90f5 a5bd
000000c0: 9b8d b4be 87f1 a2be 7091 aabd 0ece 76bb
000000d0: 91e4 8cbd 22b1 913e d1f0 88be d735 dcbd
000000e0: b100 4dbe a054 bcbe 906a a7be 1194 2dbe
000000f0: f361 03bf bbfb b8be 3697 bfbe dd25 a5bd
00000100: 1530 f63d 6a9d 52bd 1d39 79be 4115 11be
00000110: 4fe8 74be 70f6 b0be 4314 81bc 49f3 0ebe
00000120: 29e7 02be 8c89 c73d 56d0 0f3e 3f48 b6be
00000130: 65b1 bbbd e3fe 393e fdd1 453e 06ca 7f3d
00000140: 54de ba3e 2cdc abbe c956 903d 436b 0bbe
00000150: fa4f d8be 14fa cabe 7fb1 3d3e a69b b83e
00000160: b56d 593e fabb 3eba dc1c b6bd 36c2 a93e
00000170: 8bd6 743e 6c8d 463e e89d 823e 3558 ba3e
00000180: 374d 4abd 0c29 653e c663 803e 08bb 2bbe
00000190: b27b 8dbe 694b 85be 8a44 a3be 2be9 9cbe
000001a0: cdf6 27be c305 41bd 3546 40be 3d46 52bd
000001b0: 6825 83bd cb56 15be be2f 76be 5ad3 613d
000001c0: cdba eebd d5b2 82be fc83 283d cfd9 a1bd
000001d0: 2f19 b23d 9d65 11be 60b4 1bbe 2b19 81be
000001e0: 13f0 603e bcff 8c3e e048 673e 711b 29be
000001f0: 4bec cc3e 65ca 9a3e 16c2 e13d f385 b13e
00000200: a99d 3abe bc8c 203e 5241 b43e 29c4 103c
00000210: 5877 253e 37d8 f33d a3e1 97be 3211 1ebc
00000220: c65a 073c a24a 23ba 73c0 2cbc 2194 073e
00000230: 5b60 d93d c764 26be 457c 353e db8c 12be
00000240: 5b7d 45be f7f7 4e3e 0129 92bd 5568 d33d
00000250: 3d33 983e b00d 293e d7d8 ac3c 4fea 64be
00000260: d444 8fbe d3f9 e8bd 581a 19bf 92a0 1fbe
00000270: 1ce9 76bc cc90 073c e9bc 8d3e 1023 a03d
00000280: 67e7 d43e 8e53 c43d d456 46be 6e2e a2bc
00000290: 24dd 9fbd 4303 e6be fc13 3ebe 6f98 b6bd
000002a0: 78c5 64be 47f1 0c3d 2ebb 913d 3ea9 273e
000002b0: 2487 103e 46d1 313d 7c11 993e 9dee 993d
000002c0: d5ca 0c3e 5702 1a3e 413c d93d 5c20 0dbd
000002d0: 7c7f 483e 03fc 5bbd ce46 9bbd e38d bd3e
000002e0: 738f 51be 8783 b9be 8782 213c 6266 4339
000002f0: 101d aebe 2843 3d3e dd19 8e3e 6e52 bfbd
00000300: 436f 953e c2ac 603d 56be d73d f4ca 903d
00000310: d8f1 373d 2751 61be 139c be3d dc32 563e
00000320: 78e6 5cbe aa19 b43e 9d38 753e 415b 623d
00000330: c011 933e 1663 bb3c 9cc7 a9be 31d6 733e
00000340: 0d3a 75bd fa5e 583d 05b5 393e 4b4d 82be
00000350: 4ca9 90be afc3 06bd d142 d3be e1d2 06be
00000360: 3c31 063f e9f8 5e3d 28f1 9abd a7d1 0e3f
00000370: ffe9 9b3e 00bf 313e 977c 2fbe 383e 2bbd
00000380: ddb4 2dbe 871b f1be 88b4 07bd 39ca 093d
00000390: 419e 04bf 2900 ecbe 9ada 34be 88b1 ce3d
000003a0: 35be a03d 7ed9 403e 3e3c 743d 1bbd a93e
000003b0: 590d a83e df7d edbe d2aa a2bb 5cd9 913e
000003c0: c19b 14be b4b7 00bf b846 9ebd e982 d1bd
000003d0: c84b b8be be1c afbd bef8 85be dce0 48bc
000003e0: fd31 443e 0a02 083e 437b ac3e cab0 873e
000003f0: 5173 b23d a09f e93c 8a0c cc3c 22a6 59be
-0.42537618 -0.06595742 0.032343354 -0.013149792 0.5063641 0.19869773 -0.3088152 0.045044728
0.08882932 0.35512808 0.09995209 -0.05673707 0.070607156 -0.3835804 -0.3931637 0.25509444
0.047883116 -0.044819985 -0.34502164 0.15765883 0.19969437 -0.12279932 -0.1301539 0.124838
0.095213346 0.062137067 -0.026110554 -0.1483359 -0.20857313 0.09597103 0.23182759 -0.24811132
0.05290213 0.052700475 0.10427016 0.08504637 0.07471716 -0.1002219 -0.28562537 -0.38443294
-0.34318566 0.01890384 -0.098202325 0.07417397 0.022489032 0.3276476 -0.16793022 -0.08103478
-0.35264286 -0.31824896 -0.08328521 -0.003765944 -0.06879533 0.28455454 -0.26746228 -0.10752457
-0.20019795 -0.36783314 -0.32698488 -0.16951014 -0.51321334 -0.36129555 -0.37420052 -0.080638625
0.1202089 -0.051419653 -0.24338193 -0.14168264 -0.23916744 -0.34563017 -0.015756732 -0.13959993
-0.12783493 0.09743032 0.14044318 -0.35601994 -0.09164695 0.18163638 0.19318385 0.062448524
0.36497748 -0.33566415 0.07047803 -0.13615136 -0.42248517 -0.3964392 0.1852474 0.3605625
0.21233256 -0.00072759355 -0.08892223 0.33155984 0.23909967 0.19389886 0.25511098 0.36395422
-0.049390044 0.2237894 0.2507612 -0.16770566 -0.27633435 -0.26034096 -0.3188823 -0.30646643
-0.16402741 -0.047124635 -0.18776782 -0.051336516 -0.06403619 -0.1458389 -0.2404165 0.0551332
-0.11656723 -0.25527063 0.041141495 -0.07902872 0.0869621 -0.14198919 -0.15205526 -0.25214514
0.21966581 0.2753886 0.22586393 -0.16514374 0.40024027 0.3023254 0.11023347 0.34672508
-0.18224205 0.15678686 0.35206085 0.008835831 0.16158807 0.11906474 -0.29664335 -0.009647654
0.008261388 -0.00062290777 -0.01054393 0.132401 0.106140815 -0.16249381 0.17723186 -0.14311545
-0.192861 0.20211779 -0.07136727 0.10322634 0.29726592 0.16509128 0.021099491 -0.22355007
-0.279822 -0.11375775 -0.5980582 -0.15588596 -0.015070226 0.008274268 0.2768319 0.07819188
0.41582796 0.09586249 -0.1936906 -0.01979753 -0.07805851 -0.44924363 -0.18562311 -0.08915793
-0.22340953 0.034409788 0.0711578 0.16373155 0.14114052 0.04341247 0.29896152 0.07516215
0.1374925 0.15039955 0.10607196 -0.03445469 0.19579881 -0.053707134 -0.07581864 0.37022313
-0.20464878 -0.3623316 0.00985778 0.0001863479 -0.34006548 0.1848265 0.27754107 -0.09341894
0.29186448 0.054852255 0.105343506 0.0706996 0.044908375 -0.22003613 0.093071125 0.20917839
-0.21572292 0.3517583 0.23947378 0.055262808 0.2872448 0.022874396 -0.33160102 0.23812176
-0.059869815 0.05282495 0.1813546 -0.25449595 -0.28254163 -0.032901462 -0.41261914 -0.13166381
0.52418876 0.054436598 -0.07565528 0.55788654 0.30451962 0.17358017 -0.17137371 -0.041807383
-0.16963525 -0.47091314 -0.033131152 0.03364012 -0.51803976 -0.46093872 -0.17661515 0.10092455
0.07848779 0.18832967 0.059627764 0.3315209 0.32822683 -0.46385095 -0.004964211 0.28486145
-0.1451254 -0.5028031 -0.07728332 -0.10230047 -0.35995317 -0.08550404 -0.26166338 -0.012260642
0.19159694 0.13282028 0.3368779 0.26502067 0.08713401 0.028518498 0.024908323 -0.21254781

unet_model.encoder.0.0.main.bias f4 [32]
00000000: 466d fe3c e10e 6e3c 57fc e43b 3bfe a73d
00000010: 25db 093c 4a68 d5bd 512a 633d 4cf0 a6bd
00000020: ab87 4eba afdd 593d 3841 42be 8c3c 33bb
00000030: 8a98 903d e137 683d 7832 6f3b 233e 1a3d
00000040: ec59 833d be88 7ebc 1534 a9bc 4946 253c
00000050: 6050 a83c 5102 13bc 0109 2a3b 3d46 c03d
00000060: bafe 0d3d 98bd a93c a777 043d 19ae 6ebd
00000070: 0329 533d 6d3a 34bd b7f0 2d3c 34a9 4dbd
0.031057965 0.014529915 0.006988089 0.082027875 0.0084140645 -0.10420282 0.055460278 -0.08151302
-0.00078784925 0.05318993 -0.18970191 -0.0027349321 0.070603445 0.056693915 0.0036498588 0.037656914
0.064136356 -0.015535532 -0.020654717 0.010087558 0.020546138 -0.00897272 0.0025945308 0.09388397
0.034666754 0.020720288 0.032340672 -0.0582715 0.051552784 -0.04400103 0.010616473 -0.050210193

unet_model.encoder.1.0.main.weight f4 [32, 32, 3, 3]
00000000: 1a3e 283e e03d 66ba 0f68 623d 7ec6 fa3d
00000010: c2fd 8bbe b34f 353d 72fe bf3d a5d4 b13d
00000020: 6178 4f3e a39a 0c3d 4b07 c03d b702 b13d
00000030: 0b06 483c c798 773e 3be1 4bbd bb50 a93d
00000040: 0fa6 5ebc 8fc0 413c 2099 21bd 933b 403d
00000050: 7a4e 0b3d eb9f 843d 66cf 253e f82b 85bc
00000060: 37b8 073e 34e2 8f3d 0150 a53d 16bd 8f3c
00000070: 6620 87bd 3b5b 20be 6206 ab3d 52cf ca3c
00000080: 0bfc 37bd 60b1 51bc 9909 0a3d 0a0a c5bc
00000090: 68c2 213b 28dd 91bd 22ad 283e 741b ce3b
000000a0: 932a 983e 7b58 d3bd c8f3 4bbb 66e8 27be
000000b0: 2337 32be d04a a83d c9b9 8abd be12 8c3d
000000c0: 881f db3d 21a6 30bc d030 57bd bea5 07bd
000000d0: 3592 1dbd f499 5b3d c753 8dbe a769 a2bd
000000e0: 9146 ec3d 615b a5be 75cd 4fbe c7a6 7fbc
000000f0: c301 463d dcbe 373d 7c1c 10bd d0de c2bc
00000100: a5b2 e63d 99c4 9b3d 8876 bcbd 8b8a b73d
00000110: 633f 063e a1c3 93bd cbc6 3b3d b51b 853c
00000120: 9d4f 4abe 84c6 1abe e014 313e 4517 27be
00000130: 1eb8 863e 4383 99bd 1f23 b93c 2dff 0fbd
00000140: e1f4 81bd eb5d 8d3c 32b4 0c3d 1897 e2bd
00000150: 8249 ebbd 30ca 9cbe 2058 e1bd c681 08be
00000160: b0f0 91bd 9d5f 953d 2a0b 0dbe 62b4 a8bd
00000170: d251 7b3d e699 14be f160 fbba 5037 393e
00000180: 506f 43be 9f11 39bd 61aa b63d 6e0c b53d
00000190: 7cc1 1ebe d2ce 6abe 0e47 083c 9b3e 3abf
000001a0: 86a0 a6bd 6034 7dbd dae3 ae3d 4f7e 503d
000001b0: 5767 65bb ab77 bb3d 7979 40bc 1f02 883c
000001c0: 686d 073e a74d 35be 58c8 623c 7cdf 843c
000001d0: 7ce5 71be 629a 0bbb 6e4e 33be b944 783d
000001e0: ac78 b8bb 099b 9c3e 5fa7 90bd 5f2e 133e
000001f0: 5d84 ad3c 206c 45be cfb9 d9bd 4dc5 d4bc
00000200: 6cc8 95bd 26fb 83be a972 07be b566 5ebe
00000210: f105 debd ddad 8fbc 11de 35bd 6106 143c
00000220: 8368 853e 3176 d5ba 3d11 83bc 7e90 ef3e
00000230: 91b6 9fbc a1c7 783d 7120 a43d dd0c da3c
00000240: 96ee bd3c b1c9 c8bd e971 b7bd 7708 363e
00000250: 14ee dbbd a5bd 183e 1070 e1bc e052 c33c
00000260: 03a5 803d 6fbe af3c e5dd 22bd acee d83c
00000270: e368 fe3d 242e bebe b883 313e 49e4 ffbd
00000280: 2efb 89bd b3a7 ff3c 8a5e 9dbc 8637 a53c
00000290: 7a36 053d a4d3 f3bc 40a2 80bb cd2a 623c
000002a0: b7f0 50bc d7a4 3cbc 20f7 44bd 2b43 b6bd
000002b0: 2387 4cbd 2912 d0bd 047e 60bd 2fce edbe
000002c0: 325c 793d 4974 15be 7f93 01bd df30 063d
000002d0: c556 223d b14a 603e bc52 c93c 51ca 1dbe
000002e0: bad6 aabd 15c2 6dbd 9567 b9bd dea8 edbc
000002f0: fa1c 003e b4e2 833d 0eb8 c33d 7066 13bc
00000300: 9a56 3abd 08e8 fb3d f863 fd3c 879a 61bd
00000310: 98fd cbbc 01ec 9d3d b58b d43d d5d7 cc3d
00000320: d97d d03d cce0 24be 7c0a 923e f13e 9c3e
00000330: cba4 c93c fabf 9c3e 738c cf3d 8b11 b43c
00000340: 7343 cd3d 59fd ec3b 386a be3d 5005 cc3c
00000350: 765f 273b b42e ed3c 8ae2 63bd e7e6 05be
00000360: cc7f 163b d47b 1b3e ecc1 12bc e6db 41be
00000370: 5515 043f 3471 edbd 1e47 1d3e c743 be3e
00000380: 63c9 abbc 9915 3bbc 6c2f 8cbd c934 9cbd
00000390: 81d9 c63d e79b d1bc 4693 6ebc 5320 c03d
000003a0: 016e 933d 5d3f 513c 15af 5d3d 8aad 863d
000003b0: a1d1 a53c 55f4 f93d 99c4 423e 3ba3 edbd
000003c0: 6760 393d 831d d9bd cdf2 cf3c 904f 4cbd
000003d0: c951 d7bd 2ff7 483d 7f1d 48be 6cb7 aebc
000003e0: b2f8 6c3d 5339 13be 24ef 7dbd 5b5a 8a3d
000003f0: b2db 893d 0040 a4bd 3fde b7bd 42ef 0a3c
0.1642994 -0.0008783024 0.05527502 0.12244891 -0.2734204 0.04426546 0.093747035 0.08683137
0.20260765 0.03432716 0.09376391 0.08643096 0.012208472 0.24179374 -0.049775343 0.08267351
-0.013589396 0.011825695 -0.039452672 0.046931814 0.034010388 0.064758144 0.16192397 -0.016256317
0.13253866 0.07025567 0.080719 0.017546218 -0.065979764 -0.15659802 0.08350827 0.024757061
-0.0449181 -0.012798637 0.03370056 -0.024052639 0.0024682526 -0.0712226 0.16472295 0.0062898938
0.29719982 -0.10319611 -0.0031120647 -0.16397247 -0.17403845 0.08217394 -0.06773717 0.06839512
0.106993735 -0.010781796 -0.052536786 -0.03311705 -0.038469512 0.053613618 -0.2760298 -0.07930308
0.11536897 -0.3229628 -0.2029322 -0.015603728 0.048341524 0.044859752 -0.035183415 -0.023787886
0.112645425 0.076058574 -0.092022955 0.08961972 0.13110118 -0.07215048 0.04584388 0.016248563
-0.19756933 -0.1511479 0.1729312 -0.1631747 0.26312345 -0.07495739 0.022599755 -0.035155464
-0.06345535 0.017256698 0.034351535 -0.11063975 -0.1148863 -0.30623007 -0.11003137 -0.13330755
-0.071259856 0.072936274 -0.1377379 -0.0823753 0.061357327 -0.14511833 -0.0019178671 0.18087506
-0.19085431 -0.04518282 0.08919216 0.088402614 -0.15503496 -0.22930458 0.008317722 -0.7275178
-0.08136086 -0.061817527 0.08539553 0.050901707 -0.0035004222 0.09153684 -0.011747711 0.016602574
0.13225329 -0.17705403 0.013841711 0.016219847 -0.23622698 -0.0021301736 -0.17510387 0.060612414
-0.0056296196 0.30587032 -0.070631735 0.14373158 0.02118128 -0.19279528 -0.10631143 -0.025972987
-0.07313618 -0.2577755 -0.13227333 -0.21718867 -0.10840977 -0.01753896 -0.044401232 0.009034724
0.260563 -0.0016285834 -0.01599943 0.46789926 -0.019496234 0.060737256 0.08014 0.026617462
0.023185056 -0.098040946 -0.089572735 0.17776667 -0.10738769 0.14916094 -0.027519256 0.023843229
0.062814735 0.02145311 -0.039762396 0.026480995 0.12422349 -0.37144578 0.17335403 -0.12494714
-0.06737362 0.031207895 -0.019210119 0.020168077 0.032522656 -0.029764004 -0.0039255917 0.01380415
-0.012752703 -0.01151391 -0.04808724 -0.0889953 -0.049933564 -0.10159714 -0.054807678 -0.46446368
0.06087894 -0.1459514 -0.031634804 0.03276145 0.03963353 0.21903493 0.024575584 -0.15409209
-0.08341737 -0.05804642 -0.0905296 -0.029011186 0.12511054 0.064397246 0.0955659 -0.008996591
-0.045492746 0.12300116 0.030931458 -0.05507901 -0.024901196 0.0771103 0.103782095 0.10002104
0.101802535 -0.16101378 0.28523624 0.3051677 0.024614712 0.30615216 0.101342104 0.021981021
0.100226305 0.00723235 0.09297603 0.024904877 0.0025539077 0.028952934 -0.055635966 -0.13076364
0.0022964356 0.15183955 -0.008957367 -0.18931541 0.5159505 -0.115938574 0.1535916 0.37161085
-0.020970052 -0.0114187235 -0.068449825 -0.076272555 0.09709454 -0.025587035 -0.01456148 0.09381165
0.07198716 0.012771455 0.05412205 0.06576069 0.02024156 0.12204806 0.19020309 -0.11603399
0.045257952 -0.10601332 0.025384331 -0.049880564 -0.10513646 0.049063858 -0.19542502 -0.021327697
0.05785436 -0.14377336 -0.06199564 0.06755515 0.06731357 -0.080200195 -0.08977937 0.008479895

unet_model.encoder.1.0.main.bias f4 [32]
00000000: f1b0 9a3c 348b 4abc d88f 003d 6052 a4be
00000010: 38a4 b0bc 8f57 473d d5f7 9ebd 97fc 093d
00000020: d349 4a3d 2178 5ebc a108 933b 3338 05be
00000030: 808c a6bc a1c5 81bd 7644 6abc a781 9e3c
00000040: 5a38 233c 5e5a 8ebe 4e52 7a3e 9825 f33c
00000050: 1483 a83c 9f62 ac3d 894f 063c 6b0a bc3b
00000060: bc6f 8dbd dceb f83d 8765 c8bc b3d2 89bb
00000070: 9ee2 c6bc 6988 283d e9ab debc 4c40 40bc
0.0188832 -0.01236229 0.03138718 -0.32094097 -0.02156268 0.048667487 -0.07762114 0.033688154
0.04938681 -0.013578446 0.0044871126 -0.1300972 -0.020330667 -0.06336523 -0.014298549 0.019348932
0.009962166 -0.2780332 0.24445459 0.029681012 0.020570315 0.08417248 0.008197674 0.0057385466
-0.06906077 0.121543616 -0.024462475 -0.0042060255 -0.024277981 0.041145716 -0.027181583 -0.01173408

unet_model.encoder.2.0.main.weight f4 [32, 32, 3, 3]
00000000: 0e80 f23c 6296 843c 07c1 d43c 9a98 dabc
00000010: 2b4e f2ba af01 a83d f9da 09bd 7989 3abe
00000020: be97 303b 8172 033d 8334 9abd 6f90 8a3d
00000030: fa1b 52be 4ef0 96bd b350 1cbd de12 a2bd
00000040: dd5f b0bc 972c 893d 12c9 a93d 9f7d 3f3c
00000050: 6b27 793d 1f5e 80bd f09e a3be 9703 bebc
00000060: 56c3 293c 04b7 b4bc f2da 06bd d914 aebd
00000070: 5183 21bd b9ba 5ebd 27c8 26bc d950 663d
00000080: 0115 2e3d d424 003e 1c51 a63d 7874 d0bd
00000090: 534f 913b c657 83bd 57ae 87bd aef2 193c
000000a0: c0a4 0e3e 0acb 7f3d 51dc 6c3d fecd 003e
000000b0: 9a03 443d 4c95 05bd 8c2e f6bc ac05 96bd
000000c0: 72df 9bbc 67d1 f93d e915 2ebd 56ac 963d
000000d0: c18f 033e 2b46 7abc 0d0b f93d 03a1 ba3c
000000e0: e3f5 fbbd 1d50 ffbb 36f2 86bc f6d3 a13d
000000f0: f632 f33d 1921 b83d d18e 05bd 2274 72bd
00000100: 8e70 cbbd b97b 683d e25f 2dbe ba9b cbbd
00000110: 9c9d 083c b835 01bd c134 61be 5ac4 083d
00000120: 0e99 55bc 24f1 863d 4577 563c 2831 0b3d
00000130: 26b5 76bd 8d62 0dbd ec67 03bd e126 8dbd
00000140: 12e6 0e3d e0b5 b73d 41d7 d73c 5763 a63d
00000150: fe48 76bd e927 b4bd 8715 9cbd 22f7 513d
00000160: 0707 b33d b449 343d 2de3 023e 279e b23d
00000170: 13cc 22bd ef05 343e 7db3 393e f60a 803d
00000180: b48e a43b 9570 613e d684 b7bd 642d e6bd
00000190: 60d6 04bd acc4 1fbd 0c3f f33d 8c89 c13e
000001a0: 9d09 163d ef18 abbc a6da eb3b 104f 313d
000001b0: b026 10bd f320 743d a32b 78bb 3060 0a3d
000001c0: 51cd 133e 2e14 f8ba 5c6a 993d 9854 db3d
000001d0: cb72 13bd f59a 33bd 9995 b5bd aa26 95bc
000001e0: 3e41 533e f81a 0b3e de1e 3a3c def6 16bd
000001f0: 3296 fbbd d59d 103d 7d9c 043c ac1f 1cbe
00000200: c005 0ebc 2f88 d2bd fcb4 6dbe 59d4 71bc
00000210: 4710 a83b c7b9 9d3b 44c8 0cbc cfa7 95bd
00000220: 58ad 183d c870 0a3d 6e30 23be 4684 1fbd
00000230: ab35 693d a1f9 18bd 047f 3ebe 0a2c 09bc
00000240: 4ef8 75bd 298a 81bd 7139 993c 6ca9 813d
00000250: 8063 1a3c 224e 553d 890d 0fbd bf0d cdbd
00000260: 9911 9b3d 6740 bdbc 41d6 8c3d 6e60 7ebb
00000270: 080d a93b 4b38 853d 4b9f 333e 428f 103e
00000280: 2e43 2b3e 0b98 963d 9ad0 e43c 58c0 3e3c
00000290: 7a9e feb9 b210 633c b72d 8d3e 4451 243e
000002a0: bad0 933d fc71 893c 0a39 a13d 9971 63bc
000002b0: 50f0 12bd f30b a33d 2996 3f3c ce40 933c
000002c0: 6fcd ec3c 9a47 173d a790 683c b3f2 633c
000002d0: 0171 e53b 0a8b f2bc c29d 96bc 1e18 bfbd
000002e0: 9793 8bbe b842 aabc e2c7 3cbd 1d55 15be
000002f0: 56f5 d6bd e315 553d c7f7 05bd cfef 913c
00000300: 902a 80bc 0556 aa3c 621a 09bd 30a9 043e
00000310: 5aa2 6b3e 6abc 2fbc 1056 45bd 21ae 91bb
00000320: 3aa1 63bd 35d8 0cbd 2982 4fbd 9b57 c83b
00000330: 6ae4 ca3c 1dea 533c 7991 1cbc 35f3 d53d
00000340: ae2d b83c 634e 3a3d 9c7f c4bd 0e41 8ebe
00000350: 8f07 053e 07b7 263d 097c c8bd bfab 0cbc
00000360: e5a0 27bd eb20 f23d b2af ebbc b318 f9bd
00000370: 3428 85bd 7819 303d e8eb c1bd 2602 61be
00000380: 83fe a3bd cf5f 85bd c748 e4bc eed9 c93c
00000390: 242f 0abd dd59 d33d 651d b83c fa90 91bd
000003a0: d83a 543c 9691 74bd f9d5 6b3d 73a0 4abd
000003b0: 5b65 92bd 2643 c43d c44d 6d3d 7f4b 05be
000003c0: a8c2 383e b477 253d ab2d d5bd e558 17bd
000003d0: 5bcf 763d 903d 71bd e8e4 623d 11a2 723e
000003e0: 69a4 043d 4112 5abd f63f 073e 41cc 353d
000003f0: 2ff9 f83c c9b8 b93d 1f7c 10bd a56a 1f3e
0.029602077 0.01618499 0.025970949 -0.026684094 -0.0018486431 0.08203446 -0.033656094 -0.18216504
0.0026945914 0.03209162 -0.07529547 0.0676583 -0.20518485 -0.07370053 -0.0381629 -0.07913755
-0.021530086 0.06697958 0.08290304 0.011687665 0.060828608 -0.06267952 -0.31957197 -0.023195071
0.010361513 -0.022059925 -0.032923646 -0.0850007 -0.039431874 -0.05437729 -0.010179556 0.056229446
0.0425005 0.12514049 0.08120939 -0.10178465 0.004434505 -0.06413226 -0.066250496 0.009396238
0.13930035 0.062449493 0.057827298 0.1257858 0.047854997 -0.032613084 -0.030051492 -0.073253006
-0.019027445 0.121981435 -0.042501364 0.07357089 0.12847807 -0.015275518 0.12160311 0.022781854
-0.123027585 -0.0077915327 -0.016472917 0.079017565 0.118749544 0.08990688 -0.032606903 -0.059192784
-0.099335775 0.056758616 -0.16931108 -0.09941812 0.008338358 -0.03154537 -0.2199278 0.03339038
-0.013036979 0.06588963 0.0130899595 0.033982426 -0.06023135 -0.034517813 -0.03208153 -0.06892181
0.03488738 0.08970237 0.026347758 0.08124416 -0.060128205 -0.08796675 -0.076212935 0.051261075
0.08741575 0.0440156 0.12781973 0.087215714 -0.0397454 0.17580388 0.18134876 0.06252091
0.0050218944 0.22015603 -0.08960883 -0.11239126 -0.032431006 -0.03900592 0.118772596 0.37800252
0.03663026 -0.020885913 0.007197696 0.04328829 -0.035193145 0.059601735 -0.0037867806 0.033783138
0.1443379 -0.0018926912 0.074909896 0.10709494 -0.035998147 -0.04384895 -0.08866424 -0.018206913
0.20630357 0.13584507 0.011359898 -0.036856525 -0.12284507 0.03530677 0.00809395 -0.15246457
-0.008668363 -0.10279881 -0.23213571 -0.0147601 0.0051288935 0.004813406 -0.008592669 -0.073073976
0.03727469 0.033798963 -0.15936443 -0.038944505 0.056935947 -0.03734744 -0.1860314 -0.008372316
-0.060051255 -0.0632518 0.018704148 0.06331143 0.009423137 0.052076466 -0.034925018 -0.100123875
0.07571716 -0.023101998 0.06876803 -0.00388148 0.005159024 0.06504878 0.17541234 0.14117149
0.16724846 0.07353219 0.0279315 0.011642538 -0.0004856473 0.013858961 0.2757394 0.16046625
0.07217546 0.016777985 0.078722075 -0.013882064 -0.03587371 0.079612635 0.011693516 0.017975237
0.028906552 0.03693352 0.014194644 0.0139128445 0.0070019965 -0.029607315 -0.018385772 -0.09330772
-0.2726104 -0.020783767 -0.04608906 -0.1458325 -0.10496013 0.052022826 -0.032707002 0.017814545
-0.015645295 0.02079297 -0.033472426 0.12955165 0.23011151 -0.010726074 -0.04817778 -0.0044458066
-0.05557368 -0.03438588 -0.05066124 0.006113959 0.02476712 0.012934235 -0.009556168 0.10446779
0.02248272 0.04548491 -0.09594652 -0.27784008 0.12991165 0.040701892 -0.09789283 -0.008585869
-0.040924925 0.11822685 -0.028770301 -0.12162914 -0.06501809 0.04299304 -0.09468824 -0.21973476
-0.08007529 -0.06512415 -0.027866734 0.02464005 -0.033736363 0.103198744 0.022474954 -0.0710773
0.012953483 -0.059709154 0.057577107 -0.049469423 -0.07148238 0.0958312 0.05793549 -0.1301708
0.18043005 0.04039736 -0.10409101 -0.03695001 0.060256343 -0.0588966 0.055394083 0.23694636
0.032383356 -0.053240065 0.13207993 0.044384245 0.030392257 0.09068448 -0.03527462 0.15568025

unet_model.encoder.2.0.main.bias f4 [32]
00000000: fd3e e6be 12f8 8dbe 955a 473c 5717 093d
00000010: 2564 383d c303 fcbc 40a6 873d b3c7 bdbd
00000020: 112c 4dbc 7c19 703d 4486 1dbd f32b 83bc
00000030: 84a1 5e3e ee7f 5d3d d2d9 263c 5fba 843c
00000040: 1a23 d9bc 6689 c8bc 1dd8 f63c 085e 9d3d
00000050: fa02 3b3d 0460 33be c23d eabd dc29 9fbc
00000060: 7ad8 2fbe 9eb4 113e 70d7 8f3d ecbc f9bc
00000070: 8d81 b53c b0ae 3bbd 21f0 bfbd 1889 b9bc
-0.4496993 -0.27728325 0.0121675925 0.033469524 0.04501738 -0.030763512 0.066235065 -0.09266605
-0.012522713 0.058618054 -0.038458124 -0.016012168 0.21741301 0.05407708 0.010183768 0.01620215
-0.026505996 -0.02447958 0.030132348 0.07683951 0.045657136 -0.17517096 -0.114375606 -0.01942914
-0.17172423 0.14229056 0.07023513 -0.030485593 0.022156501 -0.04582089 -0.09371973 -0.02264838

unet_model.decoder.0.0.main.weight f4 [32, 32, 3, 3]
00000000: 7201 543c 3c7a 21bd 87b5 a4bd 18dd b6bd
00000010: be71 cebc 2209 b4bd 9a09 2ebe 8efb a3bc
00000020: 53cf 023c 03b7 0f3e 6b4b 8cbd e2d4 9dbd
00000030: 6b25 313e b29a 6dbb 8ea6 31be 5bd5 153e
00000040: 8359 98bb b5d2 13be e115 fbbd b1e4 2f3c
00000050: 68f4 b3bb d562 64be d428 2a3d 8f73 2a3e
00000060: 154e 8dbd 8811 c53b 2bf1 6f3c 86f6 9e3d
00000070: 1039 4c3d 2dcf c4bc 741e bd3d 3dfe 0e3c
00000080: 4884 21bc 247a 75bd 2ac6 0dbc 2f5f 8a3d
00000090: 7558 4fbd 8e62 0abd 94dc 3a3d 1154 ddbd
000000a0: 4e9f 3f3d f91f 443c acba 963d 3087 4b3d
000000b0: f29e b3bd 4634 dcbd 34a2 8abd 938f 953d
000000c0: 9f00 0dbd 48ce 743b 1c53 0c3e 6e45 4ebd
000000d0: 4941 cb3d a337 393e dda5 933d 9fa7 663d
000000e0: 9c1e 4bbb 7394 c73c b386 5b3d 7676 ba3d
000000f0: e4b4 88bd 2d24 a83d deab 023d 554c 7d3c
00000100: 525e 6d3d 1a4e 01be 88f7 673d 1497 d33c
00000110: 376c 493d 5d77 7b3d 8a86 283c 8f23 ac3c
00000120: 1929 fcbc 6543 c53c 3857 0abc a142 d2bb
00000130: 38a6 b33d f066 3f3d bde5 2b3d 31e6 a3bd
00000140: 2093 223c cab3 85bb 73bb fe3c 3cb5 9cbc
00000150: 4bd6 993d 7351 19bd c25f 0b3c 77cb f53d
00000160: 57fe 633d f52a e2bc dba6 af3c 9784 0fbd
00000170: 5649 1abe 1915 05bd 9382 023d 6e77 3ebe
00000180: 2078 34bd 3a61 26be 2a1d 7cbc a546 e4bd
00000190: a118 743c ba62 09be 4382 adbd 7d4b b43d
000001a0: ed35 14bd 579c 90bc 6f3a 5ebd c9c5 913d
000001b0: ab21 b83c 106c ccbd ee04 1dbd cdb4 19be
000001c0: fa00 2fbe cdeb 24be 67e3 eb3a be92 16be
000001d0: 3eb8 a8bd e936 5b3d 480f 0dbd 98cb 863b
000001e0: e24d 92bd 459d 913c c5f6 9d3d 3a92 8ebd
000001f0: 8a95 6c3d 1181 283d acef 0d3c 0a86 e43b
00000200: c0de 20be f01c 333e cdb8 923d ba1d c2bd
00000210: 7ffe 33bc 8a95 22bd 7d22 bdbd df35 dbbd
00000220: a0da babd 95ef 3abe db6d 103b 3761 a8bb
00000230: ec59 61bd c7f4 4abd c29c ecbd 4ec8 513d
00000240: 6429 953d 8b81 163c 66cd 033d fe52 c73d
00000250: dfbc 0ebd 6776 043d ab9e 743d b5b6 c53d
00000260: 91d8 523d 7f02 8abd 69e3 23bc cd56 443d
00000270: cf10 cebd b975 82bd ecf8 0cbe d1ee ae3b
00000280: 88bf 6e3d 379e 18be 7173 6bbd c0de 143b
00000290: 4284 86bd 4fa0 cc3c f5c0 c03d 9fac 963d
000002a0: f291 0dbd cc22 5a3c 1fb4 c93d db5e 9ebd
000002b0: 77e3 d9bd 5791 61bd 6ef5 303e 2ddc 1b3b
000002c0: 85c7 9abc 95d6 f4bc ca2d 073d d082 0abd
000002d0: 1711 57bd 41e8 553c d19c 6abd 41c4 e3bd
000002e0: 772c 46bd 9a7b 143b 3eab 79bd 7b2f 863b
000002f0: 1443 413d 06ad ca3d e997 673d d05b 3fbd
00000300: 939d a73b 1a79 09bd 4c98 b83d e36f 313d
00000310: cbfd 593d 34a5 093e ca33 4fbd 1493 c33d
00000320: 9d37 fd3b b06f 7abd ac21 483c eda0 86bd
00000330: 1335 2f3d ceb3 433d b60f 873d 8c28 19be
00000340: 8481 ac3d 30ac fc3d 58d7 e8bd 2f2d 37bb
00000350: a499 033e 42c1 22be 72c8 6bbb d252 503e
00000360: 8f37 29be b622 11bd b121 52bd b09a a1bd
00000370: 1ee1 1d3c f88b d2bc 2482 cc3d a016 a33c
00000380: 6313 a03d b2eb 70bc 97f1 643b ec68 7f3d
00000390: 404d cabd b41f df3d c12a 743d a7f4 5a3c
000003a0: b151 df3d 5fe6 a83d 8072 383d a1d8 5d3d
000003b0: a36b 1ebd 9f0a 1abe 9733 08bd 2974 d23d
000003c0: f189 00be 2b52 6ebc 4215 8d3d e6e6 aabc
000003d0: 4e59 393a 835d 5fbd d4e0 9b3d 4450 c1bd
000003e0: cc74 ddbd 4e67 8b3b 1fd1 663d 09a1 93bd
000003f0: 820a 143e 0e3a 783c dc1b e8bd 4afb 723d
0.012939798 -0.039423212 -0.08042436 -0.08928889 -0.02520072 -0.087908044 -0.1699585 -0.020017412
0.007984 0.14034657 -0.06850322 -0.0770662 0.1729943 -0.0036255536 -0.17348692 0.1463217
-0.0046493425 -0.14435847 -0.122600324 0.010735677 -0.005491782 -0.22303326 0.041542843 0.16645645
-0.068996586 0.006014053 0.014644901 0.07761864 0.049859107 -0.02402457 0.09234324 0.008727607
-0.009858198 -0.059930936 -0.008653203 0.06756436 -0.05062147 -0.033785395 0.045620516 -0.1080705
0.046782784 0.0119705135 0.073598236 0.04968947 -0.08770551 -0.10752158 -0.06769219 0.07302775
-0.03442442 0.0037354399 0.13703579 -0.050359182 0.099245615 0.1808763 0.0720937 0.0563122
-0.0030993586 0.024362778 0.053595256 0.09104626 -0.06675127 0.08210025 0.031902187 0.0154600935
0.05795128 -0.1262745 0.05663255 0.025828876 0.049175467 0.06139313 0.010285983 0.02101305
-0.030781316 0.024079988 -0.008443646 -0.006416634 0.08771938 0.04672903 0.041967142 -0.0800289
0.009922773 -0.0040802704 0.031095242 -0.019129388 0.07511576 -0.03743119 0.008506717 0.120016985
0.05566248 -0.027608374 0.021441868 -0.035038557 -0.15067038 -0.032490823 0.031862807 -0.18600246
-0.044059873 -0.16248026 -0.015387813 -0.11146287 0.01489845 -0.13416567 -0.08472111 0.08803461
-0.03618424 -0.017652674 -0.054254945 0.07117803 0.022476992 -0.09981549 -0.03833478 -0.15010376
-0.17090216 -0.16105576 0.0017996848 -0.14704415 -0.082382664 0.053519163 -0.0344384 0.0041136257
-0.07143761 0.017775187 0.07713083 -0.06961484 0.0577598 0.041138712 0.008663099 0.0069739865
-0.15709972 0.17491508 0.07164154 -0.09478326 -0.01098597 -0.039693393 -0.09235094 -0.107036345
-0.09123731 -0.18255456 0.0022038135 -0.005138542 -0.055017397 -0.049549844 -0.11553337 0.051216416
0.07283285 0.009186159 0.032178305 0.097326264 -0.03484809 0.03233948 0.05972163 0.09653989
0.051476065 -0.06738757 -0.010002949 0.047934342 -0.100618 -0.0637011 -0.13766831 0.0053385277
0.058288127 -0.14904104 -0.05748314 0.0022715777 -0.06568195 0.024978785 0.09411804 0.073571436
-0.034563012 0.01331396 0.098488085 -0.07732936 -0.106390886 -0.055070248 0.17281124 0.0023782358
-0.018893966 -0.029887477 0.033002652 -0.03381616 -0.052506533 0.013055862 -0.057278458 -0.11121417
-0.04838225 0.002265668 -0.060954325 0.0040950156 0.04718311 0.09896283 0.056541357 -0.04671842
0.00511522 -0.033562757 0.09013423 0.043319594 0.05322055 0.13441926 -0.0505865 0.09549537
0.007727577 -0.06114167 0.012215059 -0.06573663 0.042775225 0.047778897 0.065947935 -0.14956874
0.08423141 0.1233753 -0.113691986 -0.0027950516 0.12851578 -0.15894035 -0.003597763 0.20344093
-0.165251 -0.035433494 -0.051301662 -0.078908324 0.009636192 -0.025701508 0.0998576 0.01990825
0.07816198 -0.014704632 0.0034934038 0.06235592 -0.098780155 0.10894719 0.059611086 0.013363994
0.10904253 0.08247065 0.04503107 0.05416167 -0.03867687 -0.15043114 -0.033252325 0.10276062
-0.1255262 -0.014545958 0.0688882 -0.020862054 0.00070704974 -0.05453254 0.07611242 -0.094391376
-0.10813293 0.0042542582 0.056351777 -0.072084494 0.14457133 0.01515056 -0.11333439 0.05932168

unet_model.decoder.0.0.main.bias f4 [32]
00000000: 4f74 8a3d 5db0 43bd 6601 2c3d a2fd c7bc
00000010: fa4d 5fbe 0c3d e0be 2826 673d dad2 93bd
00000020: 1484 4abe 7a53 2b3e 29fa 413d 0935 68bd
00000030: 3750 cb3d b4d5 78bd d994 c23d c491 a3bd
00000040: 5d98 6ebe 220c 58bd 5057 c1be 5ea9 07be
00000050: 90a5 ffbc 4549 11be 9c7d 28bd 2de7 4b3e
00000060: b28f 023d 4666 69be fca5 6bbe 9256 3ebd
00000070: 30e7 573c 4b28 7cbb a5c5 453d adc2 70bd
0.06760465 -0.047775615 0.04199352 -0.024412934 -0.2180709 -0.43796575 0.056432873 -0.07217951
-0.19776946 0.16731063 0.047357712 -0.056691203 0.09927409 -0.06075068 0.09501047 -0.07986787
-0.2330031 -0.052745946 -0.37761927 -0.13248202 -0.031206876 -0.14188106 -0.041135415 0.19912405
0.03187532 -0.2279292 -0.23012537 -0.04646928 0.013177678 -0.0038476165 0.04828419 -0.058779407

unet_model.decoder.1.0.main.weight f4 [32, 64, 3, 3]
00000000: 6e13 b0bd 43f5 f6bd 4102 d7bc c49f a3bd
00000010: bb5d a6bd c013 b3ba 33e6 7d3c 23ed 983d
00000020: 4eb1 41bc ee0e df3d a8f9 703d dda2 04bd
00000030: b0dc 6f3d 699a 423b acf5 043d 0402 b93c
00000040: acc5 8cbd 3a7f 423d e0c1 17bd c11d 78bd
00000050: 116c 01bc a40a c3bd 77b5 e9bc ba86 d5bc
00000060: e62d 4bbc 2ae0 573d 8af7 5c3d b757 cf3c
00000070: 0123 a2bd 0be7 5d3d fbe6 943c 30b0 fb3c
00000080: ea80 593d 2b8e 2bbd 6cd9 d3b9 b918 983d
00000090: 52ef edbb 238a ae3c 691c c2bb 4cfd 6dbc
000000a0: eea7 ae3c 8bb1 fdbc 3e62 81bd b341 9e3c
000000b0: a948 b5bd 5a66 00bd b6be 073d 6af5 c73b
000000c0: 97c6 4ebd 8e2c 29bd 824c 5a3d 1139 353d
000000d0: b41f 4abd 9dc2 be3d 3c3e 493d 48d1 b5bb
000000e0: 81be e63c f322 503e 4ed2 8b3d ee49 4f3c
000000f0: a60c 9b3d 7562 283d 9912 75bd 3c1e 83bb
00000100: 9f0d 8bbc ad17 86bc 9956 f2bc ca00 20bd
00000110: c396 56bd 6b0d 47bd 49c4 223d 96ea 743d
00000120: 4451 45bd 3f54 e03b be70 2e3c 0e35 3e3c
00000130: 9253 243d a8a5 eebc 2d53 7e3c 99dd 013c
00000140: 2e3a d4bd c269 983d 03f4 9c3b 63d7 223d
00000150: 66c2 af3d e725 883c 01ca ca3d aa35 d63d
00000160: 6364 af3d 5562 853d 7b9c 45b9 fdf5 cabd
00000170: 2a9e 9ebd 7d30 f7bd 4754 31be 8179 33be
00000180: 74e4 dabd b3be e4bd 30ab e1bd 5aa2 b63c
00000190: 5aec de3c 1d37 b1bc 8eb3 913c 1b7d 0c3d
000001a0: 7b4f 723c 3405 e33b 6bb0 5a3d 3e76 283d
000001b0: 9c18 b43d 22e0 8e3d d1e8 033c 7b35 dc3d
000001c0: 5399 583d d4ed b73c 9958 d63c b380 213d
000001d0: a2f3 1ebd 6925 073b 8071 0d3d 7f99 01bd
000001e0: a503 a93c 1054 bebc d15f 10bd e607 85bd
000001f0: 74ab c9bd d849 a5bd a1da 81bc 126f cfbd
00000200: d1b8 c0bd 96f7 9fbd 4c5f 09bd a9cc 35bd
00000210: 132b 98bd 3598 c8bd bbb2 fabd 9b51 0a3d
00000220: 02f5 b23c 6750 2fbd 177e bfbc 5eba 9ebd
00000230: 85b6 b5bd 058a 2bbc 8a55 74bd 50e6 5fbd
00000240: 88ab 78bd 82b7 c23c 51aa 59bd 66f2 03bd
00000250: c822 9ebd 0b8b 59bc 2940 713d 528b e0bc
00000260: ffe5 29bd 0472 a73b 1b91 0bbb 7bec 403d
00000270: 6dd9 ca3c 6407 603d 18cd a33d c8ab f03c
00000280: 1abd 813d 5532 423d 4971 933d a3ba 783c
00000290: 01b9 c8bd e390 83bd 18b5 8fbc 5c61 ccbd
000002a0: 366f 7c3c d85f d73c 2d04 e6bc e736 bbbd
000002b0: 6520 c3bc 03e3 54bd 1e75 0f3d f68c 7cbd
000002c0: f106 42bd e1d1 ed3c 4e68 45bd e168 663c
000002d0: 917a 443c 8a12 543d fc1c 2fbd 54d6 34bd
000002e0: e588 3abc 64ef 433c 760c 00be 4836 3fbd
000002f0: 611a b1bd 5440 a63b 00dc 8b3d b058 32bc
00000300: 03b1 1fbd 48d8 41bc d9fe 15bd 21e3 773d
00000310: f3e9 ac3c fb38 eebc 7278 9abc 7528 37bd
00000320: ecf0 5b3c 8f60 2d3c bd9a 58bd f6d7 48bc
00000330: 99a2 f53c 2f2c 163d 8eb6 893d 1ea9 f8bd
00000340: 80fa a5bc e575 4b3c 539c 94bd a8b0 afbc
00000350: a155 033c 3aa1 02be d2eb bebc 707a d63c
00000360: d945 73bc 3299 65bd 45c8 4abd 6d8b b7bd
00000370: ec12 8dbd 876a b5bd d0dd 2abd 7497 413d
00000380: 43a7 07bd 1150 7b3d 00ff e73c 58a6 c63c
00000390: c90b 753d df24 cd3b cde4 163c 82db 8f3c
000003a0: 2a2e 7e39 fc5a b73c afee 013c 9e55 15bd
000003b0: 139b 06be 497d 0bbe ab07 a7bc 3afa e7bd
000003c0: 23d5 3bbe fe23 39bd 1d3a 8cbd 4990 1a3d
000003d0: fa4e 4bbd 6ce7 1a3b db56 37bc aaf9 79bc
000003e0: 234b 8e3c f5ac d3bb 8ac1 50bd 59ed ff3b
000003f0: f755 003d 42a4 9a3d da27 6c3d 8382 5cbd
-0.08597456 -0.12058499 -0.026246192 -0.07989457 -0.081233464 -0.0013662502 0.015496778 0.07467105
-0.011822058 0.108915195 0.05883184 -0.03238188 0.058560073 0.0029694086 0.032460853 0.022583969
-0.068736404 0.047484614 -0.037050128 -0.06057525 -0.0078993 -0.09523514 -0.028528912 -0.02606522
-0.01240108 0.052704014 0.05394701 0.02531038 -0.07916833 0.054175418 0.018176546 0.030723661
0.053101458 -0.04188363 -0.00040407048 0.074265905 -0.007261195 0.021306103 -0.005923797 -0.014525723
0.02132031 -0.030968448 -0.06317566 0.019318437 -0.088517494 -0.03134761 0.03314086 0.0061022537
-0.05048236 -0.041302256 0.05329562 0.044243876 -0.04934664 0.09314463 0.049131617 -0.00554863
0.028167011 0.20325832 0.06827222 0.012651904 0.07570772 0.04110952 -0.05983219 -0.004001407
-0.016974268 -0.016368711 -0.029582309 -0.039063253 -0.05238987 -0.04859678 0.039737973 0.05979403
-0.048173204 0.0068459804 0.010646997 0.011609329 0.04011876 -0.029131725 0.01552276 0.007926368
-0.103626594 0.07442047 0.0047898307 0.03975619 0.085820004 0.016619636 0.099018104 0.10459454
0.08564069 0.06512896 -0.00018845678 -0.099102 -0.07745011 -0.12069795 -0.17317306 -0.17526819
-0.10688105 -0.111691855 -0.110189795 0.022294212 0.02721231 -0.021632725 0.017785814 0.034298997
0.014789457 0.0069281105 0.0533909 0.04112839 0.08793756 0.06976344 0.008051113 0.10752388
0.052880596 0.022452272 0.026165294 0.039429378 -0.038806565 0.0020621663 0.03453207 -0.031640526
0.02063162 -0.023233443 -0.035247628 -0.06495647 -0.09847155 -0.08070725 -0.01585132 -0.10128607
-0.09410251 -0.07810895 -0.033538148 -0.044384632 -0.07430091 -0.09794656 -0.122411214 0.03376923
0.021845344 -0.042801287 -0.023375554 -0.077503905 -0.088727035 -0.010469918 -0.05965189 -0.054663002
-0.06071046 0.023769144 -0.053140942 -0.03221359 -0.07721478 -0.013277779 0.05889908 -0.027410183
-0.041479107 0.0051100273 -0.0021296206 0.047100525 0.02476188 0.05469455 0.07998103 0.029378787
0.063348964 0.04741128 0.07199342 0.015181216 -0.09800912 -0.06424119 -0.017542407 -0.09979507
0.015407374 0.026290819 -0.028078163 -0.09141331 -0.023819158 -0.051974308 0.0350238 -0.06165787
-0.0473699 0.029030742 -0.048195176 0.014063091 0.011992113 0.051775493 -0.04275225 -0.04414971
-0.011385177 0.011958931 -0.12504753 -0.046682626 -0.086476095 0.0050735865 0.06829071 -0.010885403
-0.03898717 -0.011831351 -0.036619995 0.06051934 0.02110765 -0.029079905 -0.01885626 -0.044716317
0.0134241395 0.010582103 -0.052881945 -0.01225852 0.02998476 0.03666323 0.06724273 -0.121416315
-0.02026105 0.012418245 -0.07256379 -0.021446541 0.008016021 -0.12756816 -0.023305807 0.02618143
-0.014848196 -0.0560543 -0.0495074 -0.0896214 -0.06888375 -0.08858209 -0.041715443 0.047263578
-0.033118498 0.061355654 0.028319836 0.02424924 0.059825692 0.006260499 0.009209824 0.017560724
0.00024240525 0.022382252 0.007930442 -0.036458604 -0.13145094 -0.13622011 -0.020389399 -0.11327024
-0.18343024 -0.04520034 -0.06847022 0.037735257 -0.049635865 0.0023636473 -0.011190142 -0.015257278
0.017369812 -0.006459827 -0.050965823 0.0078102765 0.031331982 0.07550861 0.057655193 -0.053835403

unet_model.decoder.1.0.main.bias f4 [32]
00000000: 7714 babd 5fa6 c23d 157a 45bc ac34 c4bb
00000010: 97d6 aabb 05e4 1ebb bca5 6abd 715a 40bd
00000020: 05b8 f53d 5f6c c63d 0d2a abbd ba1d 4f3b
00000030: b617 013d 3ad5 77bd 2b36 6b3c d3b5 f7be
00000040: c2b5 11bd e619 50bc 347b bcbd ae07 b73c
00000050: de6b 9b3b 062b 1d3d 332e 4f3d 7dc9 bcbd
00000060: af7a 373c de1d cfbc d9a7 8bbd 91ca babc
00000070: b870 89bc a208 4bbd 156d 96bd bffb 23be
-0.090859346 0.09504389 -0.012053032 -0.0059877243 -0.0052135694 -0.0024244797 -0.057286963 -0.04696125
0.119979896 0.09688639 -0.0835763 0.0031603412 0.031516753 -0.060506083 0.014356176 -0.48380908
-0.03557373 -0.012701487 -0.09203187 0.02234253 0.0047430834 0.03837111 0.05058117 -0.09218118
0.011198684 -0.025282796 -0.06819124 -0.02280167 -0.016777381 -0.04956878 -0.073450245 -0.16014002

unet_model.decoder.2.0.main.weight f4 [32, 64, 3, 3]
00000000: 2315 93bd 21ef ab3d eb1d b7bc eb48 6ebd
00000010: d65e 3bbc e638 a7bd 7960 063c f168 a9bc
00000020: b72b 38bc c4b8 c23c 0787 013d b09a 283d
00000030: 801f 533d ffbd 093d 728e 9f3d b718 ea3c
00000040: 05e0 993d 3e98 0c3e 6f8f 143d d5f7 adbb
00000050: 49d8 15bc 15ec f33c e3e6 c0bb 3467 24bc
00000060: 0fd6 db3d 39f8 b73d 89c0 863d 80c7 403d
00000070: 8d9b d53d b152 a83d 4e41 2b39 bb20 d53d
00000080: 84cf ae3d e62c b8bd d6d8 11bd eec8 1a3c
00000090: 2d37 3fbd 1616 03bd 9f32 26bd ebc1 5d3c
000000a0: 5840 ed3b 75e5 823c 0d5a b33c 990d e43c
000000b0: 0de1 a53c a365 b6bc 942d abbc 7af4 ff3b
000000c0: 8ee4 e9bc e4b3 9fbb ce1f 4f3d 3642 b3bd
000000d0: 7f74 8cbd 5c80 cfbb 731f fdbc a4e5 53bc
000000e0: c976 b6bc 4e02 fcbd 076f 4dbc b45b 01bd
000000f0: 0b9a 06bd 3432 203c 810d 233d afbe 17be
00000100: 4022 5cbd 5c1f 07bc 8d4b aebd bd11 b6bd
00000110: 73d4 0cbb 6e17 bcbc f647 a3bd bd7a 8bbc
00000120: 4238 a1bd 7283 8f3b 28af b43d e9c9 31be
00000130: 4ee8 f9bd 3c79 73bc b22c ddbd f4c0 3abe
00000140: acc4 e6bd 0e5d 023e a41b 2e3e 0a36 313d
00000150: 7e50 a23c 5767 543d fafc b23d a9da 08bd
00000160: 4f82 48bc 871b b33c 0444 99bb 6cb7 1bbd
00000170: a00f 6abd 9d51 113d 1f37 95bd 4fab 2cbd
00000180: 8465 413d 41cf 86bc e22d efbd 0abc e63c
00000190: e9b0 903d 0f11 8f3d 56a5 e1bd 9c40 a7bd
000001a0: f41c 7a3c 7aca c939 ed9e 05be 37a3 89bd
000001b0: c3a1 2d3d c7ca 0d3c b377 5d3d bdf8 503c
000001c0: 98d6 8c3d 5c01 b03d bbe1 d13d ed40 a33c
000001d0: 6497 aa3d e79f 28bd d078 70bd 43dc b9bd
000001e0: a754 823d 1671 5e3d 0533 5abd 0a5c 143d
000001f0: 9d2a a63b a609 8cbc 1822 07bd 5a57 f6bd
00000200: 7324 2fbd bb20 f03c 1f19 35be 08da babd
00000210: b425 be3d 4e3a 52bd 4e8b 87bd 3e92 b1bd
00000220: adfa a1bb 9b8c 1d3d b336 9fbd 82b1 dabd
00000230: 8400 a1bd 8bd9 673d 7119 06be ff60 c8bd
00000240: a4f0 b3bd 3986 143d c733 533d 7c77 a1bc
00000250: c467 3cbd 0508 1b3b f3b9 823d fcb8 1fbc
00000260: afd0 273d 5d89 133d 0e41 c23c 7e92 ff3d
00000270: b00e a13d 946a 2f3d c4ac d23c 7722 debc
00000280: e6ec 35bd 8e20 e1bc b126 f1bd 35d9 f23c
00000290: f0c7 833d c5b0 aebd b0b3 08be 0cd9 15bc
000002a0: a1ac 9dbc 1a48 f5bd 5f45 75bd 1dc5 08bd
000002b0: 00d2 a63d 04d5 4e3d 4838 adbd f9dc 0ebd
000002c0: e7f6 2ebb 1f88 ffba da1b 9fbd 6378 65bd
000002d0: d16a c63d 3028 823d a081 1b3d 95f9 14bc
000002e0: 06e5 423d 9312 233d f33b 223d 22d1 f83c
000002f0: c701 3d3d 3858 b23b 4999 c53d 2c16 9e3d
00000300: b639 953d 3d8e db3d bb30 be3d 806f 123c
00000310: 5c70 853d 3d4b 613c abba c7bd 2334 60bd
00000320: b1e5 1fbd 5a90 cebd cf84 e8bd 6ec2 6dbd
00000330: 7c49 c2bd af07 dabd f7cc 80bd 73a6 86bd
00000340: 29db 9fbd c963 03bb 6580 29bd e237 cbbd
00000350: 4af5 aabc 1e8b 543d a841 86bc 604e 40bd
00000360: fcff df3d d449 923d 17d7 a03c c06f 723d
00000370: b3f8 37bc 6c40 143d 231f 59bc b7cb 10be
00000380: f986 6cbd 34cd 71bd d96a f6bc 1fb8 bbbd
00000390: 1b9e e2bc fdf4 8c3d 260a 0cbc c536 fbbb
000003a0: a226 a93d 24d9 ca3c df7b 173e 4849 303d
000003b0: 4b89 8bbd 3cc4 e53d 290e 233e e4d3 c93d
000003c0: d900 20bb 9484 f43d 9343 b73d a95a 053e
000003d0: 1d6f 9b3d 943b 1d3d 43b0 4bbd 5195 683d
000003e0: 2d06 7fbb fa30 cdbc f549 673d 1d56 cf3a
000003f0: e410 e6bc efcc 73bc 3513 28bd c1da f8bc
-0.07181766 0.083952196 -0.022353133 -0.05817501 -0.011436185 -0.081651494 0.008201712 -0.020679923
-0.011240891 0.023769744 0.031622913 0.041163146 0.051543713 0.03362846 0.07790841 0.028576238
0.075134315 0.13729951 0.0362696 -0.005309085 -0.009145805 0.029775659 -0.005886899 -0.010034371
0.10734188 0.089828916 0.06579692 0.047065258 0.104300596 0.08218897 0.00016332159 0.104066335
0.08535674 -0.08992939 -0.03560718 0.009447319 -0.04668348 -0.032003485 -0.04057562 0.013535003
0.0072403364 0.015978554 0.021893525 0.027838515 0.020248914 -0.022265261 -0.020895757 0.0078111263
-0.028551366 -0.0048737396 0.05056744 -0.08752863 -0.06858157 -0.0063324403 -0.030898785 -0.012933169
-0.022273438 -0.12305127 -0.012538678 -0.031581596 -0.03286175 0.009777594 0.0398078 -0.14818834
-0.0537436 -0.008247223 -0.08510504 -0.08890102 -0.0021488934 -0.02296039 -0.0797271 -0.0170263
-0.078720585 0.004379683 0.08822471 -0.17362179 -0.12202512 -0.0148604475 -0.107995406 -0.18237668
-0.11267981 0.1273081 0.17002732 0.043264426 0.019813772 0.051856365 0.08739658 -0.033411656
-0.012238099 0.021863712 -0.0046772975 -0.03801672 -0.057143807 0.035478223 -0.07285904 -0.04215556
0.047215953 -0.016456248 -0.11678673 0.028165836 0.07064993 0.069856755 -0.110178635 -0.0816662
0.015265692 0.00038488564 -0.13048907 -0.06720584 0.042390596 0.008654303 0.054069232 0.012754616
0.06876868 0.08594009 0.10248133 0.01992842 0.08329657 -0.04116812 -0.058708966 -0.09075215
0.063638024 0.054307066 -0.053271312 0.036220588 0.005070998 -0.017094444 -0.0329915 -0.1202838
-0.04275937 0.029312482 -0.17685364 -0.091236174 0.09284535 -0.051325135 -0.06618367 -0.086704716
-0.004943213 0.03846417 -0.07774105 -0.10678388 -0.078614265 0.05660395 -0.13095643 -0.097841255
-0.08786133 0.036260817 0.05156305 -0.019710295 -0.045997396 0.0023655903 0.06383123 -0.009748694
0.0409705 0.03601967 0.023712661 0.12479113 0.078641295 0.04282625 0.025717147 -0.027116043
-0.044415377 -0.027481344 -0.11774958 0.029644588 0.064346194 -0.0852981 -0.13349795 -0.009145986
-0.019247355 -0.11976643 -0.05988061 -0.033391107 0.08145523 0.050496116 -0.084580004 -0.034878705
-0.0026697458 -0.0019495523 -0.07768984 -0.056023013 0.09688342 0.063553214 0.037965417 -0.009092708
0.047581695 0.039812636 0.039607953 0.03037316 0.046144273 0.0054426454 0.096483774 0.07719073
0.07286398 0.10720489 0.09286638 0.0089377165 0.065155715 0.013750848 -0.09752401 -0.05473722
-0.03903741 -0.100861266 -0.11353456 -0.05804675 -0.09486672 -0.10645997 -0.06289094 -0.065747164
-0.07805473 -0.002004849 -0.041382212 -0.09922768 -0.020868916 0.051890485 -0.01638873 -0.046949744
0.10937497 0.07142988 0.019633813 0.059188604 -0.011228728 0.03619425 -0.0132520525 -0.14140211
-0.057745907 -0.059033588 -0.030080246 -0.09165978 -0.027663281 0.06882665 -0.008547341 -0.007666441
0.08259322 0.024761744 0.14793347 0.043038636 -0.06813296 0.11219069 0.1592337 0.09854868
-0.0024414568 0.1193935 0.08948436 0.13022865 0.075895526 0.038386896 -0.049728643 0.056783024
-0.0038913593 -0.025047768 0.056467015 0.001581851 -0.028084226 -0.014880403 -0.041033942 -0.030377747

unet_model.decoder.2.0.main.bias f4 [32]
00000000: a1f1 07bc 0ba9 963d d8e2 89bd 6791 0dbd
00000010: 89c1 573e 0d79 9ebc 96e0 0f3d 83f4 a9bd
00000020: 1107 9abc f19a 8ebd fbba e33a 0eb6 71bd
00000030: eb30 903d 1f92 553d ae59 a6bd 5ca1 363d
00000040: 0f3c 9abd 9eb8 86bd 64ee d1bc bf7c 123d
00000050: 5092 1ebd 292c babc af26 753e 1d9b 9c3d
00000060: 9c0b 1dbd 7db8 a2bd e18e 8e3c 0533 473c
00000070: f7f5 703d 5ee3 f83d a553 1c3d 32fb a83d
-0.008297355 0.07356461 -0.0673272 -0.034562495 0.21069922 -0.01934483 0.03512629 -0.0829859
-0.018802198 -0.069631465 0.001737445 -0.05901151 0.0704058 0.052141305 -0.08122574 0.044587478
-0.075309865 -0.06578182 -0.025626369 0.0357635 -0.038713753 -0.022726135 0.23940538 0.07646773
-0.03834115 -0.079453446 0.017402114 0.01215816 0.05882832 0.12152742 0.038165707 0.08251037

unet_model.remaining.0.main.weight f4 [32, 64, 3, 3]
00000000: 84b9 783d 9eb1 46bd f353 0cbe 76a4 413c
00000010: b6ef a0bd b8a0 2dbd 0c9b e3bc 6eac 34bc
00000020: 8882 4b3d 5f03 d7bc cb54 c5bc 3c9e bebb
00000030: b1aa 033c 002c 80bc 3b46 0bbd 03c8 6b3a
00000040: 28ef c83c 314b 053b 5bb9 d03d efb9 713d
00000050: 00d5 2dbc 300d c63d e73a 913d 71b9 1d3d
00000060: 8ac4 e43c f540 163c 1cdf c5bc ff67 8f3d
00000070: 0a03 c53d 2390 d03c fcb9 843d 62aa 923d
00000080: d219 db3d 3d23 b63d 8b80 cf3d bb07 b93c
00000090: 8351 30bb 8324 023b 3843 b83d e9e1 ed3d
000000a0: fa3e 08be b6b8 8939 eeb7 4b3d 4610 07bd
000000b0: d15b 493d 3795 503e 9f64 043e 2071 ef3d
000000c0: bfa1 f53d aaa8 e23d ee44 cc3d 1c7d 123e
000000d0: 9b76 bd3d 00c1 af3d 5ff9 76bb e0c9 d4bc
000000e0: 4e32 313c f4c7 8ebb bbe1 adbc dc3f 253b
000000f0: 2a2e 843d e6a1 4ebc da08 5ebd a553 90bd
00000100: b4e1 a4bd 3d2a 843b 5b6b dfbd c18e 10be
00000110: 3de0 89ba a2e7 3abc 80b1 f4bd 32dc 04bd
00000120: f581 65bd f9a0 ecbd 06c5 aebd b3ee 5bbd
00000130: 8196 6dbc a784 a2bd d412 41bd eea5 6fbd
00000140: 3395 e7bd 6558 33be 154c b9bd 0a8c 88bc
00000150: 60ce 05be b5ab b8bd fe28 89bd 008b c9bd
00000160: f43c c5bd 954d 78bd da80 bbbd 12a3 643b
00000170: e93b 47bc 5f4c 853c 702a 7a3d 032d 35bd
00000180: adf3 cc3c 1232 bb3d 8c0a 67bc 1857 a33d
00000190: 9eaa b83d f59a 943d 69f5 513d 86bf 643d
000001a0: 32e3 043d 7474 683d 526c 433d ef86 ba3d
000001b0: b066 933c fb67 82bc 4948 febb 46e9 b03d
000001c0: 2835 3cbd ffaf 2abc 3d06 bc3d 8d00 793c
000001d0: 4669 e43c 0133 aa3c c0f7 b53c 9df4 ee3b
000001e0: 75a3 e5bc 2b74 853c 70f9 573b 8e2d d4bc
000001f0: 2225 41bd 258d 0ebc 30ab 5d3c 87fe f43c
00000200: f45f 083d b744 56bd 78c9 c6bd d33f 3cbd
00000210: 68ae 903c 034b 38bc 2a70 90bc 224c 0d3c
00000220: 6121 953b 827a 483d 9a11 263c 1242 a63c
00000230: f5a8 cd3d 7d11 8d3c 1e0a e03c 31f8 9f3d
00000240: bc53 873b 4717 0abc 9f81 92bc d4df b9bc
00000250: f103 0fbe 191a 57bd 5e2b 56bc d83e 95bd
00000260: e582 acbd f80b 053d 561b 8c3d e752 393e
00000270: bc13 373d 56ec 853d aaed a13d 7499 b63d
00000280: f27e 743d 8539 733d 3eb0 723d 7afc d13c
00000290: 63cb 18bc dc60 b23c 083e 16bd 74fa 3dbc
000002a0: cd8e b23d 231b ba3c dd35 773a 4ce3 54bd
000002b0: 16af fabc 96c3 b2be 9fb4 cfbd de5e 04be
000002c0: 52a7 adbe 98d8 0e3c 9ee2 4cbd 942e 52be
000002d0: cbf0 66bc d69d 61bd 9a8b 69bc 6fc8 8dbd
000002e0: 425c b5bd 8da5 1ebd 01cd 04be 6f0f 91bd
000002f0: 695f 57bd 4414 4dbd 9d3c bcbd c976 28be
00000300: b7e8 72bd 9e30 81bd f7f7 15be c109 20bd
00000310: bf1d a9bc 1cb2 f9bd 8988 abbd 913c ecbc
00000320: c3a4 c83c 99e7 18be 8dfe bf3c 3929 b0bc
00000330: 5092 a3bb 5f1d 0bbc 2311 d73c 161a a03c
00000340: 5b1d 3ebc a2ef d1bd 0fb6 3e3c ecd3 7dbc
00000350: 32d9 c2bd 2307 7abc ea52 9ebc 168d 95bd
00000360: b12d 0bbe 712b 93bd fe36 19bd 0c95 f5bd
00000370: 7a97 35bd 628c 84bc 1640 e6bd 2481 06bd
00000380: c154 ae3b ce5b 283e 39bb 263e c064 373d
00000390: b19d 7f3e cd32 ee3d 1d51 f73d ed63 8d3e
000003a0: 228a df3d 66d6 143e 2c66 433d d269 d23d
000003b0: 3a49 5f3d 99dd d83d 0ed4 fc3d 916e fb3d
000003c0: 3e91 9a3b 3162 5b3d adc8 e53c fa0b 953d
000003d0: 4c07 c83d af74 213e 5528 313e 0947 743d
000003e0: a2cc fd3d 6e80 043e c963 9e3d 411a 493d
000003f0: a864 3ebd 72d7 b1bd 2d24 98bd 058e b1bd
0.060723796 -0.048509233 -0.13703899 0.011818996 -0.07858221 -0.0423896 -0.027783893 -0.011027439
0.04968503 -0.026246725 -0.024088284 -0.005817203 0.0080363015 -0.01564598 -0.034002524 0.00089943426
0.024528101 0.0020339007 0.10191604 0.05901521 -0.010609865 0.09670484 0.07091313 0.03850693
0.027925748 0.00917076 -0.024154238 0.070022576 0.0961972 0.025459355 0.06480786 0.07161404
0.10698284 0.0889344 0.101319395 0.022586694 -0.0026904054 0.0019858188 0.08997196 0.116153546
-0.13305274 0.00026268297 0.049735956 -0.032974504 0.04915983 0.20369421 0.12929009 0.11691499
0.11993741 0.11067326 0.09974085 0.14305538 0.09251138 0.08581734 -0.0037685258 -0.025975168
0.010815216 -0.0043573324 -0.0212258 0.0025215065 0.064541176 -0.012611842 -0.05420766 -0.07047204
-0.08050862 0.0040333555 -0.10909148 -0.14116956 -0.0010519099 -0.011407765 -0.11947918 -0.032436557
-0.05603214 -0.115541406 -0.08533673 -0.05369444 -0.014501215 -0.07935458 -0.047137097 -0.058507852
-0.11307754 -0.17514189 -0.090477146 -0.016668338 -0.13067007 -0.090171255 -0.06697272 -0.09840965
-0.096307665 -0.060620863 -0.09155436 0.0034887237 -0.01216028 0.016271768 0.061075628 -0.04423238
0.025018537 0.091404095 -0.014101636 0.07975596 0.09016918 0.07256118 0.051259432 0.055846713
0.032443233 0.056751683 0.047710724 0.09107768 0.017993301 -0.015918722 -0.007760082 0.086382434
-0.04594913 -0.010417937 0.09180877 0.015197885 0.02788223 0.020776274 0.022212863 0.007292344
-0.028032044 0.016290745 0.0032955073 -0.025900628 -0.047154553 -0.008700644 0.013529584 0.029906524
0.033294633 -0.052311625 -0.09706396 -0.045959305 0.017661288 -0.011248353 -0.017631609 0.0086241085
0.004551098 0.048944958 0.0101360325 0.020295177 0.100419916 0.017220253 0.027348574 0.07811011
0.004129855 -0.008428401 -0.017884074 -0.022689737 -0.13966347 -0.052515123 -0.013071863 -0.07287377
-0.08423404 0.032482117 0.068411514 0.18098031 0.044696555 0.06539218 0.07906659 0.089159876
0.059691377 0.059381027 0.05925011 0.025633086 -0.009325835 0.021774702 -0.03668025 -0.011595357
0.08718643 0.022718018 0.00094303285 -0.05197458 -0.030601066 -0.34914845 -0.101418726 -0.12926814
-0.33916718 0.008718632 -0.050020806 -0.2052558 -0.014095495 -0.055082165 -0.014254475 -0.06922995
-0.088554874 -0.0387321 -0.12968828 -0.07083022 -0.052581225 -0.050068155 -0.091912486 -0.16451563
-0.059303965 -0.06308101 -0.14645372 -0.039071802 -0.020644067 -0.12192175 -0.083756514 -0.028837474
0.024492627 -0.14932097 0.023436809 -0.021504031 -0.004991807 -0.008490889 0.026253289 0.019543689
-0.011603679 -0.102507845 0.011640086 -0.015492421 -0.09514083 -0.015260491 -0.019326646 -0.07302301
-0.13591649 -0.0718602 -0.03740596 -0.11991319 -0.044333912 -0.016180221 -0.11242692 -0.032838
0.005320162 0.1644127 0.16282357 0.044773817 0.24962498 0.11630783 0.12076018 0.276153
0.109150186 0.14534912 0.04770486 0.1027409 0.054513194 0.105891414 0.12345134 0.12276948
0.0047170212 0.05356044 0.028049791 0.07277675 0.09767017 0.15767168 0.17300542 0.059638057
0.12392546 0.12939617 0.07733876 0.049097303 -0.046482712 -0.08683671 -0.07428775 -0.08669666

unet_model.remaining.0.main.bias f4 [32]
00000000: 095f 863d 4433 1ebd 7c84 153d c803 53bc
00000010: e45f fd3d 1824 153c f170 a43d 0f8d e7bc
00000020: db8e a6bd bf92 e4bc 3cac 923c 8a18 14bd
00000030: ad2d 10bc ccd9 2dbd b99b 0bbb 11ee 6e3d
00000040: e6a5 63bd f8af d1bc 7a87 9c3c 44f8 c83b
00000050: 90b7 d1bd 7f18 7dbd 9632 febb 61d1 173e
00000060: 6f87 1dbd aa82 3a3e 3652 493e 59b8 03bd
00000070: da71 ab3b 5f84 2a3e 7715 0bbd f8e0 aa3e
0.06561095 -0.03862311 0.0365033 -0.0128793195 0.12371805 0.009102844 0.08029354 -0.028265504
-0.08132716 -0.027902005 0.017904393 -0.036156215 -0.008799952 -0.042444035 -0.0021302535 0.058332507
-0.055578135 -0.025596604 0.019107569 0.006133111 -0.1024009 -0.06179094 -0.007757495 0.14825965
-0.038459238 0.18213907 0.19660267 -0.03215823 0.005232078 0.16652058 -0.033956017 0.33374763
