ModelParameters-ACDC/Voxelmorph_Loss_0_Smth_0.01_LR_0.0001_Mode_0/DICE_0.48758_SSIM_0.94031_MSE_0.000608_Epoch_0002.pth (torch, 898940 bytes, 18 tensors)

unet_model.encoder.0.0.main.weight f4 [32, 2, 3, 3]
0	0xbec76719	-0.38945845
1	0xbd3fa37d	-0.046786774
2	0x3d8f36ef	0.069928996
3	0x3b883d48	0.004157696
4	0x3ecff292	0.40614754
5	0x3e35bf23	0.17748694
6	0xbe8b634e	-0.272242
7	0x3d211f83	0.039336693
8	0x3ddfc158	0.10925549
9	0x3e9c4ed7	0.305289
10	0x3dcd45bf	0.10023069
11	0xbdd04b9e	-0.10170673
12	0x3b8f7adf	0.004378661
13	0xbe887eaa	-0.26659137
14	0xbeb02a6e	-0.3440737
15	0x3e6eb2f2	0.2331045
16	0x3d045ee7	0.03231707
17	0xbda5bee9	-0.08093054
18	0xbe8f6410	-0.2800603
19	0x3e26204b	0.16223256
20	0x3e3ea7bd	0.18618675
21	0xbdc86f03	-0.09786799
22	0xbdf912c8	-0.12161785
23	0x3dbf2e42	0.09334995
24	0x3d88fe28	0.066891015
25	0x3d9926bf	0.07478093
26	0xbc918df5	-0.017767886
27	0xbe385110	-0.17999673
28	0xbe4b3170	-0.19843078
29	0x3d3e766c	0.046499655
30	0x3e33141b	0.17488138
31	0xbe5f1475	-0.21785147
32	0x3d4c7b51	0.04992229
33	0x3d260b79	0.040538285
34	0x3dee9c39	0.11650891
35	0x3dcb917f	0.099398606
36	0x3d65d4a2	0.056110986
37	0xbdaac1b6	-0.08337729
38	0xbe8d3f19	-0.27587202
39	0xbeae0a32	-0.33992153
40	0xbe963189	-0.29334667
41	0x3d04f9f0	0.03246492
42	0xbdcd2699	-0.100171275
43	0x3dbb25f0	0.091380954
44	0xbbd12a3b	-0.006383208
45	0x3e83915f	0.25696847
46	0xbe53ea6b	-0.20694892
47	0xbdd7a58e	-0.10529624
48	0xbea68065	-0.32519832
49	0xbe89af5a	-0.26891595
50	0xbdcfeadf	-0.1015222
51	0xbd43d8be	-0.047814123
52	0xbdd8ce96	-0.10586278
53	0x3e771571	0.24129273
54	0xbe86f530	-0.26358938
55	0xbe150b75	-0.14555152
56	0xbe7901b7	-0.2431706
57	0xbea9b3fc	-0.3314513
58	0xbe9d09a7	-0.30671427
59	0xbe2abf6a	-0.16674581
60	0xbee4922b	-0.44642767
61	0xbe9d6e8f	-0.30748412
62	0xbeaf70cc	-0.34265745
63	0xbde15755	-0.110029854
64	0x3d904f5e	0.07046388
65	0xbe0c0b31	-0.13676144
66	0xbe786784	-0.24258238
67	0xbe17842e	-0.14796516
68	0xbe92a046	-0.28637904
69	0xbeaf96e9	-0.34294823
70	0xbcdaaf33	-0.02669487
71	0xbe2c75cb	-0.1684181
72	0xbe017271	-0.12641312
73	0x3de2007a	0.11035247
74	0x3e1510fc	0.1455726
75	0xbeae6d3e	-0.3406772
76	0xbd8f1c42	-0.069878116
77	0x3e35b953	0.17746477
78	0x3e2554fc	0.161457
79	0x3d05cefe	0.032668106
80	0x3eb75f2c	0.35814798
81	0xbeacd895	-0.3375899
82	0x3d9ab1c1	0.07553435
83	0xbe07959e	-0.13240668
84	0xbec092c0	-0.3761196
85	0xbeaad1e4	-0.3336326
86	0x3e47eab0	0.1952312
87	0x3ea5eb37	0.32406017
88	0x3e40c245	0.18824108
89	0xbd41674c	-0.047217652
90	0xbde17298	-0.11008185
91	0x3e99b8cc	0.300238
92	0x3e7398e1	0.23788787
93	0x3e2f2898	0.17105329
94	0x3e2f6132	0.17126921
95	0x3e9df151	0.30848172
96	0xbd94e8de	-0.072709784
97	0x3e50cef7	0.20391451
98	0x3e8b3c83	0.27194604
99	0xbe4779e3	-0.1948009
100	0xbe61e4e1	-0.22059967
101	0xbe744dc7	-0.23857795
102	0xbe97a6c1	-0.2961941
103	0xbe6cd59c	-0.2312836
104	0xbde98eb1	-0.11404169
105	0xbdb67be2	-0.089103475
106	0xbe11f1e4	-0.1425243
107	0x3c952d53	0.018210089
108	0xbda648f8	-0.081193864
109	0xbdd0d540	-0.10196924
110	0xbe5f1f0a	-0.21789184
111	0x3d6826c1	0.056677584
112	0xbda23f86	-0.079222724
113	0xbe8a38ff	-0.2699661
114	0x3bce4bd7	0.006295662
115	0xbdf2ae41	-0.118496425
116	0x3d78182b	0.060569923
117	0xbe19c78c	-0.15017527
118	0xbe101e74	-0.14074117
119	0xbe7350b0	-0.23761249
120	0x3e6c7e0e	0.23094961
121	0x3e80b302	0.25136572
122	0x3e583038	0.21112144
123	0xbe2a2e1e	-0.16619155
124	0x3ed12d35	0.40854803
125	0x3eb2f532	0.34952694
126	0x3e311064	0.17291409
127	0x3eadd550	0.33951807
128	0xbe42154a	-0.18953434
129	0x3e3943f4	0.18092328
130	0x3ea30c19	0.31845167
131	0xbc0f7831	-0.008756683
132	0x3e505f3d	0.2034883
133	0x3e09eeb3	0.13469963
134	0xbe8b5f6a	-0.27221233
135	0x3cfc48c2	0.030796412
136	0xbc538558	-0.01291021
137	0x3c95fcfc	0.018309109
138	0x3c94cb61	0.018163385
139	0x3e0b240f	0.13587974
140	0x3df69be9	0.12041456
141	0xbe440a56	-0.19144568
142	0x3e29ea9c	0.16593403
143	0xbe2d3190	-0.16913438
144	0xbe535246	-0.20636854
145	0x3e548503	0.20753865
146	0xbd783baf	-0.060603794
147	0x3db39302	0.08768274
148	0x3e6c81ba	0.23096362
149	0x3e3248af	0.17410539
150	0x3d2e5d38	0.04256937
151	0xbe687a3d	-0.2270288
152	0xbe8537ed	-0.2601923
153	0xbdc350c0	-0.09536886
154	0xbef8f6aa	-0.4862569
155	0xbe1055a8	-0.14095175
156	0x3c5c6410	0.013451591
157	0x3c328bdf	0.010897606
158	0x3e6d3aa9	0.23166908
159	0x3d6a56d8	0.057211727
160	0x3eb4b221	0.35292152
161	0x3dabf37b	0.083960496
162	0xbe404dd4	-0.18779689
163	0xba0b0b00	-0.00053040683
164	0xbdb813d7	-0.08988159
165	0xbed4e363	-0.41579732
166	0xbe35286d	-0.17691202
167	0xbdb489ca	-0.08815344
168	0xbe6edbe1	-0.23326065
169	0x3ce13f00	0.027495861
170	0x3dcf7556	0.10129802
171	0x3e26eddc	0.16301674
172	0x3e14c664	0.14528805
173	0x3cf0bb1f	0.029386101
174	0x3e9309e4	0.28718483
175	0x3d0d984b	0.034569066
176	0x3e02ff8a	0.12792793
177	0x3e19a807	0.15005504
178	0x3dbfbdec	0.093623966
179	0xbc33cb93	-0.010973829
180	0x3e419540	0.1890459
181	0xbcaf1588	-0.021372572
182	0xbd0ed1c5	-0.03486802
183	0x3eb64c54	0.3560511
184	0xbe17d48c	-0.14827174
185	0xbe9e8278	-0.30958915
186	0xbc6931dd	-0.01423308
187	0x3d121959	0.035668705
188	0xbea518e0	-0.3224554
189	0x3e3e0f83	0.18560605
190	0x3e8c0ee2	0.27355105
191	0xbdb9a8b6	-0.09065382
192	0x3e885882	0.26630026
193	0x3cc52b08	0.02406837
194	0x3dcd136b	0.10013469
195	0x3d474a6e	0.048654966
196	0x3cbde97a	0.02318262
197	0xbe6f6092	-0.23376682
198	0x3dac5156	0.08413951
199	0x3e4c4d07	0.19951259
200	0xbe58d466	-0.21174774
201	0x3ea0f947	0.31440184
202	0x3e4a1510	0.19734597
203	0x3db9fd3a	0.09081502
204	0x3e8521a3	0.26002225
205	0xbb687d12	-0.0035474938
206	0xbea97408	-0.33096337
207	0x3e747784	0.23873717
208	0xbd85b887	-0.065293364
209	0x3d823e6d	0.06359563
210	0x3e2587d4	0.16165096
211	0xbe5d3fa6	-0.21606311
212	0xbe87129f	-0.26381394
213	0xbc7e68af	-0.015527888
214	0xbeb15f81	-0.34643176
215	0xbe0d4c9e	-0.13798758
216	0x3ef6aa70	0.48176908
217	0x3d1797b4	0.03700991
218	0xbdcbc023	-0.099487565
219	0x3f06c7a6	0.5264839
220	0x3e599892	0.21249607
221	0x3e24339b	0.16035311
222	0xbe19e93a	-0.15030375
223	0xbd1ad587	-0.03780129
224	0xbe4286ef	-0.18996786
225	0xbedf0500	-0.43558502
226	0xbcd8f636	-0.02648459
227	0x3d65b0ba	0.056076743
228	0xbeec4061	-0.46142867
229	0xbedcdb29	-0.43135956
230	0xbe347e77	-0.17626368
231	0x3d6c266f	0.05765384
232	0x3dc369c8	0.095416605
233	0x3e4ce538	0.20009315
234	0x3da19ab6	0.07890837
235	0x3e9b3afb	0.30318436
236	0x3eb9cbd3	0.36288318
237	0xbee2ffc7	-0.44335768
238	0x3940e86b	0.0001839713
239	0x3e85643d	0.26053038
240	0xbe3dbb1f	-0.18528412
241	0xbee694b3	-0.45035324
242	0xbdb4e13b	-0.08832022
243	0xbe1f019b	-0.15527956
244	0xbeac66ad	-0.33672085
245	0xbd5ded51	-0.0541814
246	0xbe89d327	-0.2691891
247	0xbc252924	-0.0100806095
248	0x3e424c53	0.18974428
249	0x3de57821	0.112045534
250	0x3e9edda9	0.31028488
251	0x3e964fca	0.2935775
252	0x3cec0771	0.028812142
253	0x3c999c1d	0.018751198
254	0xbd133d66	-0.035947226
255	0xbe713838	-0.23556602

unet_model.encoder.0.0.main.bias f4 [32]
0	0x3ce3244d	0.02772727
1	0x3cac4224	0.021027632
2	0x3c05d2a8	0.0081679
3	0x3d9a8065	0.075440206
4	0x3bf78df5	0.0075547644
5	0xbdcecb71	-0.10097397
6	0x3d609a23	0.054834496
7	0xbdb163d1	-0.086616166
8	0xbab95441	-0.001413949
9	0x3d62dd62	0.05538691
10	0xbe494438	-0.1965493
11	0xbb2401f0	-0.002502557
12	0x3db665c9	0.08906133
13	0x3d9c6e61	0.076382406
14	0x3c518e00	0.012790203
15	0x3d351d07	0.044217136
16	0x3db16984	0.08662704
17	0xbc82ace7	-0.015951587
18	0xbd14fe55	-0.036375362
19	0x3bbf7606	0.005842927
20	0x3cde411f	0.027130662
21	0xbc61f198	-0.013790511
22	0x3b00ba3c	0.0019642254
23	0x3de063a5	0.10956506
24	0x3cc019c6	0.02344979
25	0x3c8c7015	0.017143289
26	0x3d352729	0.0442268
27	0xbd8cb55f	-0.06870531
28	0x3d81ee82	0.0634432
29	0xbd5874ea	-0.052845873
30	0x3c1b4af9	0.009478324
31	0xbd64b170	-0.05583328

unet_model.encoder.1.0.main.weight f4 [32, 32, 3, 3]
0	0x3dd8ab68	0.10579568
1	0xbcc6ef2e	-0.024283972
2	0x3d474b21	0.048655633
3	0x3d9e2bc0	0.077231884
4	0xbe42b7cc	-0.19015425
5	0x3ce2a647	0.027667178
6	0x3de5785f	0.112045996
7	0xbcdd1150	-0.026985794
8	0x3e135c7e	0.14390752
9	0x3bbc26a0	0.005741909
10	0x3da5fd05	0.081049
11	0x3d59c639	0.053167555
12	0x3cf74fad	0.03018936
13	0x3e646068	0.22302401
14	0xbd17b40b	-0.037036937
15	0x3d4b0f7f	0.049575325
16	0xbc90b461	-0.017664136
17	0xbd7c647a	-0.06161926
18	0xbc2dbd8c	-0.0106042735
19	0x3da13257	0.0787093
20	0x3ccf6428	0.025316313
21	0x3dc48730	0.095960975
22	0x3e10c6a9	0.14138283
23	0xbd1235da	-0.035695888
24	0x3e0791c6	0.13239202
25	0x3d53ad26	0.0516788
26	0x3d77bd0b	0.06048302
27	0x3d54b2f6	0.051928483
28	0xbcf10800	-0.02942276
29	0xbe13eacf	-0.14445041
30	0x3dd3a04e	0.1033331
31	0x3cb09db0	0.021559566
32	0xbd772483	-0.060337555
33	0xbbf9fc6c	-0.007628968
34	0x3cd16691	0.025561603
35	0xbcdd74ec	-0.027033292
36	0xbd20462d	-0.039129425
37	0xbd16706a	-0.0367283
38	0x3e01a851	0.12661864
39	0x3cc92438	0.024553403
40	0x3e963103	0.29334268
41	0xbdc1c6dd	-0.09461758
42	0x3c4e272c	0.0125825815
43	0xbe04ee1a	-0.12981454
44	0xbe42efd4	-0.190368
45	0x3cd11fd4	0.025527872
46	0xbde27cb1	-0.11058939
47	0x3c90e51b	0.017687371
48	0x3d56cdb8	0.052442282
49	0xbc7bc702	-0.015367271
50	0xbdb4a1f3	-0.08819952
51	0xb964aa2d	-0.0002180717
52	0xbd3124f3	-0.04324813
53	0xbd0e7ecc	-0.03478889
54	0xbe52e140	-0.20593739
55	0xbd58da4d	-0.052942563
56	0x3dfe3e99	0.12414283
57	0xbe527261	-0.20551445
58	0xbe062041	-0.13098241
59	0xba59ba9a	-0.0008305699
60	0x3d845821	0.06462122
61	0x3d921c33	0.07134285
62	0xbd058685	-0.03259899
63	0xbd55d029	-0.05220047
64	0x3d7d536e	0.061847143
65	0x3d8be8c9	0.068315096
66	0xbdc24ca6	-0.09487276
67	0x3d2964b0	0.04135579
68	0x3e0ade6a	0.13561407
69	0xbd4b8d5e	-0.049695365
70	0x3d611048	0.054947168
71	0x3cee09e0	0.029057443
72	0xbe6fedda	-0.23430577
73	0xbdf658ed	-0.1202868
74	0x3e20c249	0.15699114
75	0xbe0b7bdb	-0.13621466
76	0x3e6819e7	0.22666131
77	0xbd8c5756	-0.068525955
78	0x3c26f297	0.010189674
79	0x3c80a6f7	0.015704615
80	0xbdde916b	-0.1086758
81	0x3ca26c92	0.019827161
82	0x3d53983b	0.05165885
83	0xbdc066df	-0.09394621
84	0xbd864351	-0.06555808
85	0xbe71cc61	-0.2361312
86	0xbdb879d1	-0.0900761
87	0xbdd5233e	-0.104071125
88	0xbd825138	-0.063631475
89	0x3d903590	0.07041466
90	0xbd971ccb	-0.07378539
91	0xbcf326b2	-0.029681537
92	0x3db0b2ad	0.0862783
93	0xbde80d84	-0.11330703
94	0xbd3c7bee	-0.046016626
95	0x3e45929c	0.19294208
96	0xbe1752f1	-0.14777733
97	0x3c9f7382	0.019464258
98	0x3e02a56f	0.1275842
99	0x3e12e3f2	0.14344767
100	0xbe188143	-0.1489306
101	0xbe3dc640	-0.18532658
102	0x3c10f994	0.008848567
103	0xbf08cf0a	-0.53440917
104	0xbdc29be1	-0.09502388
105	0xbd917ea1	-0.07104231
106	0x3cf5a808	0.02998735
107	0x3c88e0a2	0.016708676
108	0x3cfc1d67	0.030775739
109	0x3d861885	0.065476455
110	0xbce84d01	-0.02835703
111	0x3d1950a8	0.037430435
112	0x3dd1f17f	0.1025114
113	0xbdd8bf44	-0.10583356
114	0x3d01d41b	0.03169642
115	0x3d025289	0.031816993
116	0xbe49e4ec	-0.19716233
117	0xbd00231f	-0.031283494
118	0xbe00115a	-0.12506619
119	0x3d5b6d55	0.053571064
120	0xbce32dd6	-0.027731817
121	0x3e864562	0.2622481
122	0xbd83b139	-0.06430287
123	0x3ddb7679	0.10715956
124	0x3d5a5456	0.053303085
125	0xbe2e753e	-0.17036912
126	0xbdbd35e0	-0.092387915
127	0xbbdee400	-0.006802082
128	0xbd393ab7	-0.04522201
129	0xbe4c036e	-0.19923183
130	0xbdd5e6cc	-0.10444412
131	0xbe36921c	-0.17829174
132	0xbddcbca2	-0.10778166
133	0x3d05199d	0.03249513
134	0xbca834e7	-0.020533038
135	0xbbc448d2	-0.005990126
136	0x3e7e7a9c	0.2485146
137	0x3c46101e	0.012088804
138	0x3b170cad	0.0023048327
139	0x3ebc25e8	0.3674767
140	0xbcef953e	-0.029245969
141	0x3dbafce7	0.091302685
142	0x3d8e11a2	0.06936957
143	0xbd0f4a53	-0.03498299
144	0x3b560378	0.0032655876
145	0xbd37d602	-0.044881828
146	0xbd4c7aae	-0.049921684
147	0x3e0cbfe1	0.13745071
148	0xbdaf8a55	-0.085713066
149	0x3dccc141	0.09997798
150	0xbd22fcd5	-0.0397919
151	0x3cb87736	0.022517782
152	0x3d6439dd	0.055719245
153	0x3dbde7d6	0.09272735
154	0xbddd18f1	-0.10795773
155	0xbd5c5627	-0.0537931
156	0x3e1eafec	0.15496796
157	0xbeb862cc	-0.36012876
158	0x3dd51ae0	0.104055166
159	0xbdd4afc0	-0.10385084
160	0xbde9a673	-0.11408701
161	0x3ab2655f	0.0013610533
162	0xbd2b7c47	-0.041866567
163	0xbc7fa985	-0.015604381
164	0x3c56f083	0.013118866
165	0xbd268884	-0.040657535
166	0xbcd017d6	-0.02540199
167	0x3bcc1ec2	0.0062292526
168	0x3c31101c	0.010807063
169	0xbc56ec63	-0.013117882
170	0xbd05cdb0	-0.032666862
171	0xbd5d3f30	-0.05401534
172	0xbc674071	-0.014114485
173	0xbddc085d	-0.10743783
174	0xbcb309b6	-0.021855216
175	0xbeb503a8	-0.35354352
176	0x3d51dfd5	0.051238853
177	0xbd9354f6	-0.071939394
178	0xbd83244e	-0.06403409
179	0x3cf64916	0.030064147
180	0xbb0c3d6d	-0.0021398917
181	0x3e548034	0.2075203
182	0xbd2563a1	-0.040378217
183	0xbdd6b32e	-0.104833946
184	0xbba69c6d	-0.0050845654
185	0xbddf8ed9	-0.10915918
186	0xbdba0baa	-0.09084256
187	0xbd0d0a78	-0.034433812
188	0x3dbdce33	0.09267845
189	0x3d09169d	0.03346883
190	0x3db13e97	0.08654516
191	0xbc928e3b	-0.017890086
192	0xbd1b55d7	-0.03792366
193	0x3de2e2d0	0.11078417
194	0x3d397bc7	0.04528406
195	0xbd1a0fd2	-0.037612744
196	0xbcb2fb5a	-0.02184837
197	0x3d45b5c7	0.04826906
198	0x3cfb3b8b	0.03066804
199	0x3df18bbe	0.11794232
200	0x3e0c4055	0.13696416
201	0xbe08ba2c	-0.13352269
202	0x3e63260c	0.22182482
203	0x3e9a21ba	0.30103856
204	0x3cbc99bd	0.023022527
205	0x3e81e140	0.25367165
206	0x3de7a5be	0.1131091
207	0x3d4b7bd0	0.049678624
208	0x3dd554ea	0.10416587
209	0xba86fa0a	-0.0010297906
210	0x3da02a81	0.07820607
211	0x3d6a8715	0.05725773
212	0x3b812706	0.0039414195
213	0x3cb8f33a	0.022576917
214	0xbd779cee	-0.060452394
215	0xbe009ee8	-0.12560618
216	0xbce2b0a3	-0.027672118
217	0x3e047e97	0.12938915
218	0x3d47968c	0.048727557
219	0xbe20ff31	-0.15722348
220	0x3ee2041d	0.44143763
221	0xbb038133	-0.0020066022
222	0x3dafdf34	0.085874945
223	0x3eb1ef1f	0.34752747
224	0xbd899a84	-0.06718925
225	0x3cdb7937	0.026791198
226	0xbd0b402f	-0.033996757
227	0xbd8c5aaa	-0.0685323
228	0x3df519ce	0.119678125
229	0xbc6d2fcc	-0.014476728
230	0xbc68b2e3	-0.014202806
231	0x3dcea184	0.100894004
232	0x3d70312e	0.05864065
233	0xbbdecb8f	-0.0067991684
234	0x3d0d7fbb	0.03454564
235	0x3d119f5b	0.035552364
236	0x3baeec86	0.0053382544
237	0x3db69374	0.08914843
238	0x3e24654f	0.16054271
239	0xbdd213eb	-0.10257705
240	0x3d52ed1d	0.05149566
241	0xbdaefe0b	-0.085445486
242	0xbcd49d47	-0.025953902
243	0xbd861c96	-0.06548421
244	0xbdd3cfec	-0.10342392
245	0x3d068160	0.032838225
246	0xbe3174e4	-0.17329746
247	0xbbb3639b	-0.0054745204
248	0x3d43e01e	0.047821157
249	0xbdc49e07	-0.09600454
250	0xbd30b4d3	-0.043141197
251	0x3d9ec34b	0.07752093
252	0x3d78b4ba	0.06071923
253	0xbd5822a8	-0.052767426
254	0xbd8fadd7	-0.07015579
255	0x3cba63a3	0.022752589

unet_model.encoder.1.0.main.bias f4 [32]
0	0x3b7e838a	0.0038835728
1	0xbc2586cf	-0.010102942
2	0x3d0b8e5b	0.034071308
3	0xbe92e40f	-0.2868962
4	0xbc5d9909	-0.013525256
5	0x3d49531c	0.049151525
6	0xbd6f64a7	-0.0584456
7	0x3c7db237	0.015484384
8	0x3b398587	0.0028308348
9	0xbc7e328c	-0.015514981
10	0x3abc0c60	0.001434695
11	0xbdc7fab8	-0.09764618
12	0xbccbe47c	-0.024889223
13	0xbd2e2705	-0.04251768
14	0xbc8d77fd	-0.017269129
15	0x3bf95fb6	0.0076102866
16	0x3cd7b18e	0.026329782
17	0xbe55e3e3	-0.20887713
18	0x3e34e093	0.17663793
19	0x3d36ef02	0.04466153
20	0x3c80893e	0.015690442
21	0x3dc97d93	0.098384045
22	0x3a5a4dbb	0.0008327623
23	0x3c25c673	0.010118115
24	0xbd724860	-0.059151053
25	0x3dc7e848	0.09761101
26	0xbca42ebd	-0.020041818
27	0xbb3cb03c	-0.0028791567
28	0xbc3b706a	-0.011440376
29	0x3d1c7856	0.0382007
30	0xbc409a83	-0.011755588
31	0xbb9c1bc6	-0.004764053

unet_model.encoder.2.0.main.weight f4 [32, 32, 3, 3]
0	0x3d28168c	0.041037127
1	0xbcf8d1f4	-0.030373551
2	0x3d3a2f5f	0.045455333
3	0xbbc12d49	-0.005895291
4	0xbd6043fb	-0.05475233
5	0x3d8ae457	0.067818336
6	0xbd55996b	-0.052148264
7	0xbe2b7fc3	-0.16747956
8	0xbcc0d177	-0.02353738
9	0xbc3f3607	-0.011670596
10	0xbc4d4293	-0.01252808
11	0x3da948c6	0.082658336
12	0xbe83ceb0	-0.25743628
13	0xbd8b69d9	-0.06807298
14	0x3c5390e8	0.012912966
15	0xbddb9508	-0.10721785
16	0xbd3934d0	-0.04521638
17	0x3ca3f6db	0.02001517
18	0x3d273841	0.040825132
19	0xbca9eb8f	-0.020742206
20	0x3cfc0237	0.030762775
21	0xbe01454e	-0.12624094
22	0xbe830c92	-0.25595528
23	0x3b68e306	0.0035535707
24	0x3b049128	0.0020228121
25	0x3c244a1c	0.010027435
26	0xbc17d948	-0.0092681125
27	0xbdabe45c	-0.083931655
28	0x3c0309a3	0.007997903
29	0x3c7eddbc	0.015555795
30	0xbd0a538d	-0.033771086
31	0xbce5b9f1	-0.028042765
32	0x3d807266	0.0627182
33	0x3dc387ea	0.09547408
34	0x3dae5f8e	0.08514319
35	0xbcfeb162	-0.031090442
36	0x3c398181	0.01132238
37	0xbd21b0d3	-0.039475273
38	0xbd63d4a7	-0.055622723
39	0x3d508c35	0.05091496
40	0x3decff95	0.11572186
41	0x3d3b49e4	0.045724764
42	0x3d1e7fd3	0.03869612
43	0x3ddae5a9	0.106883354
44	0x3d8dac97	0.069176845
45	0x3c54b474	0.0129824765
46	0xbc983009	-0.018577592
47	0xbd9d2ebf	-0.07674932
48	0xbc3bceb9	-0.011462861
49	0x3dda7c7f	0.10668277
50	0xbd2d68d9	-0.04233632
51	0xbc92201d	-0.017837578
52	0x3d9b2728	0.07575828
53	0xbcd2e667	-0.02574463
54	0x3dc0a044	0.09405568
55	0x3cb18b76	0.021672945
56	0xbdc967e7	-0.09834271
57	0xbbcce1f9	-0.006252524
58	0xbc0f0fdd	-0.008731809
59	0x3d959b65	0.0730503
60	0x3dc993ae	0.09842621
61	0x3da0c5d3	0.07850232
62	0xbcc0cd49	-0.023535388
63	0xbd092916	-0.03348645
64	0xbdab7adc	-0.08373043
65	0x3c9a319e	0.018822487
66	0xbe29986b	-0.16562049
67	0xbd22ab99	-0.03971443
68	0xbccf436e	-0.025300708
69	0xbd7041e6	-0.058656596
70	0xbe56af40	-0.2096529
71	0x3d069723	0.03285898
72	0xbcfc87d2	-0.030826483
73	0x3d43da4e	0.047815613
74	0x3d43fbf8	0.047847718
75	0x3c5d0ceb	0.013491849
76	0x3bb486af	0.0055092196
77	0xbc8ac3f1	-0.016939135
78	0xbcb9be18	-0.022673652
79	0xbdda1ec8	-0.10650402
80	0xbc56423a	-0.013077313
81	0x3dbdb265	0.09262542
82	0x3d051f99	0.032500837
83	0x3d4b3c8c	0.04961829
84	0x3bc6412f	0.006050251
85	0xbbf01c9c	-0.0073276293
86	0xbdb12644	-0.08649877
87	0x3d84aa37	0.064777784
88	0x3d766c3f	0.060161825
89	0x3cc64fe1	0.024208011
90	0x3dd75fa5	0.105162896
91	0x3dafb5fb	0.08579632
92	0xbba00395	-0.0048832395
93	0x3e00d02e	0.12579414
94	0x3e0d0892	0.137728
95	0x3c91466f	0.01773378
96	0x3d51f1d8	0.05125603
97	0x3e469dfd	0.19396205
98	0xbd9373f7	-0.07199853
99	0xbdb034d1	-0.08603824
100	0xbc3b44d5	-0.011429985
101	0xbd1badb4	-0.038007453
102	0x3e16f1f8	0.14740741
103	0x3e94493f	0.28962132
104	0x3c602946	0.013681715
105	0x3abe3242	0.0014510828
106	0x3d758b3a	0.05994723
107	0x3c19fad9	0.009398186
108	0xbbc20987	-0.005921546
109	0x3d7a5697	0.061117735
110	0x3cffc749	0.031222956
111	0x3dbd30b0	0.09237802
112	0x3df5da25	0.120044984
113	0x3d027ae6	0.031855486
114	0x3de6eb6b	0.11275371
115	0x3d8d340f	0.06894695
116	0xbb971eb2	-0.0046118135
117	0x3c88ba1a	0.016690303
118	0xbd15260a	-0.03641323
119	0xbd321dea	-0.04348556
120	0x3e614dac	0.22002286
121	0x3e0a46be	0.13503549
122	0xba97fd11	-0.0011595805
123	0xbd49c247	-0.049257543
124	0xbdbf9144	-0.09353879
125	0x3cc36bc2	0.023855094
126	0xbd43f85f	-0.047844287
127	0xbe1ffad5	-0.15623029
128	0xbd0adc68	-0.033901602
129	0xbdb9e3a9	-0.09076626
130	0xbe48fdbc	-0.19628042
131	0xbd0e380f	-0.03472143
132	0xbc924bbb	-0.017858377
133	0xbd36dd30	-0.044644535
134	0x3c0c99fb	0.008581634
135	0xbd19da99	-0.037561987
136	0x3d48dae2	0.049036868
137	0x3ddb1169	0.1069668
138	0xbe2d14c4	-0.16902453
139	0xbc8c33bf	-0.017114518
140	0x3ced0e00	0.02893734
141	0xbcb7c5df	-0.02243322
142	0xbe28e2a1	-0.16492702
143	0xbcc30028	-0.023803785
144	0xbce3f46f	-0.027826516
145	0xbd335d2f	-0.04379004
146	0x3c64fe5c	0.01397666
147	0x3daced6d	0.08443723
148	0x3c73fef4	0.0148923285
149	0x3d37c9f3	0.04487033
150	0xbdc02942	-0.09382869
151	0xbdc0e9a0	-0.094195604
152	0x3cb9fcd0	0.022703558
153	0xbcc51cff	-0.024061678
154	0x3dcd7f03	0.10033991
155	0xbb06dd53	-0.0020578697
156	0x3a911b98	0.0011070846
157	0x3d812906	0.06306653
158	0x3e2db69e	0.16964194
159	0x3e19e4af	0.15028642
160	0x3e1e2249	0.15442766
161	0x3dc9d7bc	0.09855601
162	0xbcd1ecbc	-0.025625579
163	0x3c7603af	0.015015527
164	0xbd83eadf	-0.064412825
165	0x3c5e1e67	0.013557053
166	0x3e39f3dd	0.18159433
167	0x3e29d07e	0.1658344
168	0xbbb651f4	-0.005563969
169	0x3aec8eec	0.0018047965
170	0x3d129615	0.03578766
171	0xbd984b92	-0.07436289
172	0xbd524ccd	-0.051342774
173	0x3d108641	0.035284285
174	0x3d21bf20	0.03948891
175	0x3c8b1f6e	0.01698276
176	0x3b2d515f	0.0026446206
177	0x3d017e31	0.031614486
178	0xbb710f1e	-0.0036782692
179	0xbd5b74ef	-0.053578313
180	0xbaa121a3	-0.001229335
181	0xbc1e6b59	-0.009669148
182	0xbd715404	-0.058918014
183	0xbd398fe5	-0.045303244
184	0xbe442a12	-0.19156674
185	0xbc6cfe1f	-0.014464884
186	0xbc95f595	-0.01830558
187	0xbdb9477b	-0.09046837
188	0xbd98c35d	-0.074591376
189	0x3d785cf7	0.060635533
190	0xbd0d0ebd	-0.034437884
191	0x3c4c6692	0.012475627
192	0xbd0f1694	-0.03493364
193	0x3b392a3a	0.0028253929
194	0xbd9691dd	-0.0735204
195	0x3de9f4ce	0.11423646
196	0x3e213302	0.15742114
197	0x3baeeaf2	0.0053380663
198	0xbd043a52	-0.03228218
199	0x3d473259	0.048632
200	0xbd1897a9	-0.03725401
201	0xbd4b2f9d	-0.049605954
202	0xbd297650	-0.041372597
203	0xbb225cf1	-0.0024774636
204	0x3c6337ca	0.013868282
205	0x3cb8b544	0.022547372
206	0x3cc19cab	0.023634275
207	0x3d8d5809	0.06901557
208	0xbc1ef3ad	-0.0097016515
209	0x3ceca48e	0.02888706
210	0xbdc24a00	-0.09486771
211	0xbe6ef0a1	-0.2333398
212	0x3de55ac7	0.11198955
213	0x3bcb7a1c	0.006209625
214	0xbdb96578	-0.09052557
215	0xbcae58b9	-0.02128254
216	0x3cc8a8dc	0.02449458
217	0x3d1d691c	0.03843032
218	0xbd304ddc	-0.043043002
219	0xbe02f8a6	-0.12790164
220	0xbdc2111f	-0.09475922
221	0xbc66d0fa	-0.01408791
222	0xbdd628f1	-0.10457028
223	0xbe28c3ec	-0.16480988
224	0xbd43b870	-0.047783315
225	0xbd6841f0	-0.056703508
226	0xbcf24ebd	-0.029578561
227	0xbc9650be	-0.018349048
228	0x3c49924f	0.012302949
229	0x3d9cfaf9	0.07665057
230	0x3c84c974	0.016209342
231	0xbcbb36f6	-0.022853356
232	0x3d4005bb	0.046880465
233	0xbd3a43ba	-0.045474745
234	0x3c0fbb97	0.008772752
235	0xbd7ab58e	-0.0612083
236	0xbd504dfc	-0.05085562
237	0x3d936c9a	0.071984485
238	0x3cf8769e	0.030329999
239	0xbd953227	-0.072849564
240	0x3e4aed9f	0.19817208
241	0x3dabe0a3	0.083924554
242	0xbd9147f9	-0.07093806
243	0x3b3e2919	0.0029016195
244	0x3dc8af51	0.09799064
245	0xbd4abc48	-0.049495965
246	0x3d807d29	0.062738724
247	0x3e5d3a30	0.21604228
248	0x3d9d85b9	0.07691521
249	0xbcd8e3a7	-0.02647574
250	0x3e0a66ee	0.13515827
251	0x3da7c347	0.08191543
252	0x3c9fe57a	0.019518603
253	0x3ddaeb03	0.10689356
254	0xbda21127	-0.07913428
255	0x3e10fdf9	0.14159383

unet_model.encoder.2.0.main.bias f4 [32]
0	0xbeb7faa6	-0.35933417
1	0xbe823981	-0.25434497
2	0x3cc13d0e	0.023588683
3	0x3cf9bb80	0.030484915
4	0x3d23adb2	0.03996057
5	0x3b02194d	0.0019851506
6	0x3d64c464	0.055851355
7	0xbda0c692	-0.07850374
8	0x3c97310f	0.01845601
9	0x3dcfdbbb	0.10149332
10	0xbd2ca434	-0.042148784
11	0xbc436fdc	-0.011928525
12	0x3e4db843	0.20089822
13	0x3ce04cce	0.027380373
14	0x3c06f0c1	0.008236111
15	0x3cc3238e	0.023820665
16	0x3ca3fda1	0.0200184
17	0x3c6093cf	0.013707115
18	0x3c3dfb23	0.01159552
19	0x3d8696d3	0.06571736
20	0x3d19e7b5	0.03757449
21	0xbdf7936c	-0.12088665
22	0xbd882720	-0.066480875
23	0x3c76b4dd	0.01505777
24	0xbe0f02b1	-0.1396587
25	0x3e036fa1	0.12835552
26	0x3d7ce0f5	0.061737973
27	0xbc9ed1ee	-0.019387212
28	0x3bd174c6	0.0063920943
29	0x3c8ccc3d	0.017187232
30	0xbd9b7f53	-0.075926445
31	0x3c4dc462	0.012559028

unet_model.decoder.0.0.main.weight f4 [32, 32, 3, 3]
0	0x3cbb81e6	0.022889089
1	0xbd865f9d	-0.065612055
2	0xbd924496	-0.07141988
3	0xbd3403c9	-0.043948922
4	0xbccabb38	-0.024747476
5	0xbca90824	-0.020633765
6	0xbe131e2e	-0.14366981
7	0xbd334cdc	-0.04377447
8	0xbd375867	-0.04476204
9	0x3e1075c7	0.14107428
10	0xbd456e19	-0.0482007
11	0xbde03599	-0.10947723
12	0x3e1ca91e	0.15298888
13	0xbc40410b	-0.011734257
14	0xbe02c050	-0.12768674
15	0x3db8715d	0.09005997
16	0x3d202ea0	0.039106965
17	0xbdabb116	-0.08383386
18	0xbd9c6a70	-0.07637489
19	0x3c3fb96b	0.011701922
20	0x3be6ccec	0.0070434716
21	0xbde9f140	-0.11422968
22	0x3d7eedb4	0.06223841
23	0x3e0182dd	0.12647577
24	0xbd452410	-0.048130095
25	0x3c478796	0.012178322
26	0x3d1e1d45	0.038602132
27	0x3db4bb12	0.08824743
28	0x3d87a558	0.06623334
29	0x3cc9ecb1	0.024648996
30	0x3dcd4661	0.10023189
31	0x3c767bf4	0.015044201
32	0xbccc95da	-0.024973799
33	0xbd3e9a57	-0.04653391
34	0xbcd741ea	-0.026276547
35	0x3db667bd	0.08906505
36	0xbd95d140	-0.07315302
37	0xbc6ce5e7	-0.01445911
38	0xbccafbc0	-0.024778247
39	0xbd93f7ce	-0.07224999
40	0x3d82f965	0.063952245
41	0xbc56eaaa	-0.013117472
42	0x3d0adf64	0.03390445
43	0x3d015ddc	0.031583652
44	0xbd77294f	-0.06034213
45	0xbddb0fa4	-0.106963426
46	0xbdaba87b	-0.083817445
47	0x3cf79464	0.030222125
48	0xbcdea9c4	-0.02718056
49	0xbc1238f1	-0.008924709
50	0x3ddf53a9	0.10904629
51	0xbd3b4316	-0.045718275
52	0x3d7e9b88	0.062160045
53	0x3e2d5d00	0.16930008
54	0x3dac3d8e	0.08410178
55	0x3d30d2c6	0.04316976
56	0xbd0d9a02	-0.0345707
57	0x3d29587c	0.04134415
58	0x3d843d77	0.06457036
59	0x3d78060a	0.060552634
60	0xbd46fe4c	-0.04858236
61	0x3d943c66	0.072380826
62	0x3cb9301f	0.022605954
63	0x3d04e87c	0.032448277
64	0xbc3e6afc	-0.011622187
65	0xbdb41aef	-0.087942
66	0x3d43d967	0.047814753
67	0xbc88a73c	-0.016681306
68	0x3c2654ec	0.010152083
69	0x3d5b38dd	0.053521026
70	0x3d4c18f4	0.049828485
71	0x3c4cba52	0.012495594
72	0xbc05f167	-0.008175231
73	0x3cd008c8	0.025394812
74	0x3bc712d8	0.0060752444
75	0xbd39ff55	-0.04540952
76	0x3dc52fa3	0.096282266
77	0xbb3f8f17	-0.0029229575
78	0x3d8c2f1a	0.068449214
79	0xbd51a87d	-0.051186074
80	0xba82dcbc	-0.0009983997
81	0x3caef163	0.021355337
82	0x3bed41f7	0.0072405296
83	0xbd102760	-0.0351938
84	0x3d33565c	0.04378353
85	0xbd3128d5	-0.04325183
86	0xbc3703fd	-0.0111703845
87	0x3da7344e	0.08164273
88	0x3d6d43d8	0.05792603
89	0xbd48e8c2	-0.0490501
90	0x3d26f827	0.040764
91	0xbd437f5d	-0.047728885
92	0xbe461488	-0.1934377
93	0xbcc41d06	-0.02393962
94	0x3da067af	0.07832276
95	0xbe0cf837	-0.13766561
96	0xbbc8c1d2	-0.006126621
97	0xbdff81be	-0.12475918
98	0xbcae43f6	-0.02127264
99	0xbe0a4987	-0.13504611
100	0xbdc29fd5	-0.09503142
101	0xbddb231c	-0.10700056
102	0xbd73bf64	-0.059508696
103	0x3d96aec9	0.073575564
104	0x3cbb3e5c	0.022856884
105	0xbd40e1a8	-0.047090203
106	0xbcb29bc3	-0.021802789
107	0x3d1a23ec	0.037631914
108	0x3d0c831a	0.034304716
109	0xbd4c914b	-0.04994325
110	0xbc2c1946	-0.0105040725
111	0xbdb09024	-0.08621243
112	0xbe211b44	-0.15733057
113	0xbde8e066	-0.113709256
114	0x3c0be880	0.008539319
115	0xbdfa00b6	-0.12207167
116	0xbdbce76e	-0.09223829
117	0x3cf5abc8	0.029989138
118	0xbd15f9d9	-0.036615226
119	0x3b07d03c	0.0020723483
120	0xbd700dc3	-0.058606874
121	0x3cb717ad	0.022350157
122	0xb9cc3fba	-0.00038957392
123	0xbca4d05d	-0.020118887
124	0x3cb90ed1	0.022590073
125	0x3d36e689	0.04465345
126	0xbcb8c2f6	-0.022553902
127	0x3c51fa35	0.012816002
128	0xbe056dc0	-0.13030148
129	0x3da88d4f	0.082300775
130	0x3d1e18ba	0.0385978
131	0xbda3de94	-0.08001438
132	0x3cdbca92	0.026829991
133	0xbd4fc08e	-0.050720744
134	0xbd974d07	-0.07387739
135	0xbe0d98d3	-0.13827829
136	0xbdb191ed	-0.08670411
137	0xbe02cbf7	-0.12773119
138	0x3baff287	0.0053694877
139	0xbcbb9196	-0.02289657
140	0xbd89a1ee	-0.06720339
141	0xbca53578	-0.020167097
142	0xbd7ba6c7	-0.06143835
143	0x3d5d5c1f	0.05404293
144	0x3d2c42f9	0.042056058
145	0x3a5f5a91	0.00085202703
146	0x3cd820a7	0.026382757
147	0x3d9f4fa3	0.077788614
148	0xbc864c3d	-0.016393775
149	0x3cc8c90e	0.024509933
150	0x3daed05e	0.08535837
151	0x3dcedd32	0.101007834
152	0x3d7517b4	0.05983706
153	0xbd602148	-0.05471924
154	0xbbfdcff8	-0.007745739
155	0x3d2e8443	0.042606603
156	0xbe064028	-0.13110411
157	0xbd75ffc8	-0.060058385
158	0xbe118c91	-0.14213778
159	0xbd11cee3	-0.035597693
160	0x3d0e4efa	0.034743287
161	0xbdba8c6d	-0.09108815
162	0xbd86049f	-0.0654385
163	0xbcf7ba00	-0.030240059
164	0xbdc1d093	-0.094636105
165	0x3c54445f	0.012955754
166	0x3de98548	0.114023745
167	0x3da9a2b3	0.082829855
168	0xbc820abf	-0.015874265
169	0x3c935843	0.017986422
170	0x3d914353	0.07092919
171	0xbbbcbb60	-0.0057596415
172	0xbdae94dc	-0.085244864
173	0xbd86b0ee	-0.065767154
174	0x3e1cd06b	0.1531388
175	0xbc627761	-0.013822407
176	0xbd7d6070	-0.061859548
177	0xbd3e6fb1	-0.046493236
178	0x3d4865d8	0.04892525
179	0xbd1e6474	-0.03867002
180	0xbd0367d9	-0.03208146
181	0x3da3eacd	0.08003769
182	0xbd100e05	-0.03516962
183	0xbdb915cc	-0.090373605
184	0x3c4858c5	0.012228196
185	0x3cb4ee2e	0.02208623
186	0x3bfff419	0.007811081
187	0x3c95e32b	0.018296799
188	0x3d855dad	0.06512008
189	0x3d6322a3	0.055452954
190	0x3c25fe9e	0.010131506
191	0xbd12b4d5	-0.035816986
192	0x3a28e219	0.00064423826
193	0xbd223a1f	-0.03960621
194	0x3cf805c5	0.030276189
195	0x3d45714b	0.048203748
196	0x3ccf2e4f	0.025290636
197	0x3db032bf	0.08603429
198	0xbd1a5cfc	-0.037686333
199	0x3d4598a6	0.04824128
200	0x3d19a027	0.03750625
201	0xbdafbdb1	-0.08581103
202	0xbcef8dc8	-0.029242411
203	0xbd827d66	-0.06371574
204	0xbbab06c4	-0.0052193124
205	0x3cb482ef	0.02203509
206	0x3ceccfc4	0.028907664
207	0xbdf9c630	-0.121960044
208	0x3da9ea86	0.08296685
209	0x3de62be8	0.11238843
210	0xbda04044	-0.07824758
211	0x3bf1067d	0.00735551
212	0x3dd98c9f	0.106225245
213	0xbe07c073	-0.13257007
214	0xbc76f04c	-0.01507194
215	0x3e1cb90e	0.15304968
216	0xbe081f0e	-0.13293096
217	0xbd3ad21c	-0.045610532
218	0xbcba7929	-0.022762852
219	0xbd60907f	-0.054825302
220	0x3be81b0b	0.007083302
221	0x3c696e14	0.014247436
222	0x3d79f19d	0.061021436
223	0x3b5999db	0.0033203277
224	0x3dd1a9ae	0.10237442
225	0xb8c372e7	-9.319727e-05
226	0x3d2251ee	0.039628915
227	0x3d1345cf	0.035955247
228	0xbd607e85	-0.05480816
229	0x3ddea12d	0.108705856
230	0x3d83ac73	0.064293765
231	0x3d82485d	0.063614585
232	0x3de879fd	0.113513924
233	0x3dd9b41b	0.106300555
234	0x3c8e3b47	0.01736225
235	0x3c98122a	0.018563349
236	0xbcace625	-0.021105835
237	0xbdde4be2	-0.10854317
238	0xbcad9a18	-0.021191642
239	0x3dbf9af4	0.09355727
240	0xbe0a008b	-0.1347677
241	0xbcabe003	-0.02098084
242	0x3d9b1831	0.075729735
243	0xbc915bdc	-0.017743997
244	0x3c3cb820	0.011518508
245	0xbd8160c1	-0.063172825
246	0x3d888ce9	0.066675015
247	0xbdb7b9a0	-0.08970952
248	0xbdc6058a	-0.09669025
249	0x3c05b337	0.008160404
250	0x3cc6a8bb	0.024250379
251	0xbd388ffa	-0.04505918
252	0x3ddd3ab6	0.10802214
253	0xbcf1ba0f	-0.029507665
254	0xbdf2ea46	-0.1186109
255	0x3c5fc218	0.013657115

unet_model.decoder.0.0.main.bias f4 [32]
0	0x3d58bd7c	0.05291508
1	0xbd434af2	-0.047678895
2	0x3d33384e	0.04375487
3	0xbb095d0e	-0.0020960006
4	0xbe3ed2a5	-0.18635042
5	0xbeb29a14	-0.34883177
6	0x3d4056c5	0.04695775
7	0xbd8b749e	-0.06809352
8	0xbe21494c	-0.15750617
9	0x3deb8585	0.11500076
10	0x3c826959	0.015919374
11	0xbd3fb550	-0.046803772
12	0x3dae37a6	0.08506708
13	0xbd09ae21	-0.033613328
14	0x3d85753a	0.065165
15	0xbd60e06b	-0.05490152
16	0xbe30fb50	-0.17283368
17	0xbd38366f	-0.044973787
18	0xbe9bf53a	-0.3046053
19	0xbdeeb051	-0.116547234
20	0xbd137e4a	-0.03600911
21	0xbdf118ad	-0.11772285
22	0xbd3fc2fa	-0.046816804
23	0x3e09246d	0.13392802
24	0x3c6776c2	0.014127435
25	0xbe2664d4	-0.162494
26	0xbe1d146f	-0.15339826
27	0xbd15fccc	-0.03661804
28	0x3d071127	0.032975342
29	0x3c49d044	0.012317721
30	0x3d55901e	0.052139394
31	0xbd151c28	-0.036403805

unet_model.decoder.1.0.main.weight f4 [32, 64, 3, 3]
0	0xbd8c7a20	-0.06859231
1	0xbdc45903	-0.0958729
2	0xbc1202ad	-0.008911771
3	0xbd1f132e	-0.03883665
4	0xbd9e80f0	-0.077394366
5	0x3cf15038	0.029457197
6	0x3cc5e6fb	0.024157992
7	0x3d21caa9	0.039499912
8	0x3cdc39d3	0.026883041
9	0x3de7ae1b	0.11312505
10	0x3da384ea	0.07984336
11	0x3c96c7ba	0.018405784
12	0x3d3979ff	0.04528236
13	0x3cfe7e2a	0.03106602
14	0x3d8cd649	0.06876809
15	0xbad67f05	-0.0016364759
16	0xbd3a811a	-0.045533277
17	0x3d30331d	0.043017495
18	0xbd1c2c1d	-0.038128007
19	0xbd40fce0	-0.04711616
20	0xbbed413c	-0.0072404426
21	0xbdd6ab9c	-0.10481951
22	0xbd348b93	-0.04407842
23	0xbd0d50c1	-0.03450084
24	0x3c365c8d	0.011130464
25	0x3d8b30f8	0.067964494
26	0x3d872e8e	0.066006765
27	0x3d30fb9c	0.043208703
28	0xbd82e4b9	-0.06391282
29	0x3cf70855	0.03015534
30	0x3cb034bb	0.021509519
31	0x3cc7f1af	0.024407236
32	0x3cb4515f	0.022011457
33	0xbb43637c	-0.0029813936
34	0x3d1da5e5	0.038488287
35	0x3da26aa1	0.07930494
36	0xbcf1035d	-0.029420549
37	0x3c3f9178	0.011692397
38	0x3c60aa40	0.013712466
39	0xbd775314	-0.060381964
40	0xbcabf9f6	-0.020993214
41	0xbcb3db00	-0.021955013
42	0xbdabfd00	-0.08397865
43	0xbc510843	-0.012758317
44	0xbd4e7b94	-0.050410822
45	0x3d0406a4	0.032232895
46	0x3d6d9f55	0.05801328
47	0x3d05d500	0.032673836
48	0x3babe55a	0.0052458467
49	0xbc828e4a	-0.01593699
50	0x3d5cb98e	0.053887896
51	0x3d6236fb	0.055228215
52	0xbd1ea317	-0.038729753
53	0x3d8a9b51	0.067679055
54	0x3d2521df	0.040315505
55	0x3ce698fd	0.028149122
56	0x3d055092	0.03254754
57	0x3e2d76b9	0.1693982
58	0x3d7635b2	0.0601098
59	0xbd429d4f	-0.047513302
60	0x3d82217b	0.06354042
61	0x3cde112d	0.0271078
62	0xbdbc66e9	-0.09199316
63	0xbc298924	-0.010347638
64	0xbcc1df90	-0.023666173
65	0xbcec4dcc	-0.02884569
66	0x3a0bb8f7	0.0005329991
67	0xbd04ee08	-0.032453567
68	0xbd6b1136	-0.05738946
69	0xbd1cf301	-0.038317684
70	0xbc43b427	-0.011944807
71	0x3bff6998	0.00779457
72	0xbc47c558	-0.0121930465
73	0xbbfbb137	-0.0076810378
74	0xbd1ac24a	-0.037782945
75	0x3cd50ad1	0.026006134
76	0x3d05d2aa	0.032671608
77	0xbcb06efd	-0.021537298
78	0x3ca3b8b5	0.019985536
79	0xbca864d9	-0.0205559
80	0xbdb358bc	-0.08757159
81	0x3d7dd6f3	0.06197257
82	0xbbc13ad0	-0.0058969036
83	0x3c2c0610	0.010499492
84	0x3d459df9	0.048246358
85	0xbcf41c4c	-0.02979865
86	0x3cd0ddba	0.025496352
87	0x3d54927b	0.051897507
88	0x3cf2783f	0.029598353
89	0x3b968799	0.004593801
90	0xbc9f2a84	-0.019429453
91	0xbd9bf24a	-0.07614572
92	0xbd046b69	-0.032328997
93	0xbe0c2300	-0.13685226
94	0xbe2e5a12	-0.17026547
95	0xbe3d7b29	-0.18504013
96	0xbe064eea	-0.13116041
97	0xbde696a3	-0.112592004
98	0xbdc1b5ca	-0.09458502
99	0x3c3d6fec	0.011562329
100	0x3d4fd28f	0.050737914
101	0xbcc19a25	-0.023633072
102	0x3bd864aa	0.006603797
103	0x3d137343	0.035998594
104	0x3c61f49f	0.013791232
105	0x3bc1ef27	0.0059184018
106	0x3d885c2e	0.06658207
107	0x3bdad659	0.0066783843
108	0x3d443eb1	0.04791135
109	0x3d4f60d9	0.05062947
110	0x3d0d67e2	0.0345229
111	0x3db8f4b2	0.09031047
112	0x3cdb2b28	0.026753977
113	0x3d0d4226	0.034486912
114	0x3d0fa660	0.035070777
115	0x3cdaa6d6	0.026690882
116	0xbd507018	-0.05088815
117	0xbc18ecf7	-0.009333841
118	0x3cf0d426	0.029398035
119	0xbc017cdc	-0.007903304
120	0x3cddbd75	0.02706788
121	0xbd1df1e3	-0.03856076
122	0xbd5a241b	-0.05325709
123	0xbd5203d8	-0.051273197
124	0xbdbdcdfe	-0.092678055
125	0xbdb1e739	-0.0868668
126	0xbcb32764	-0.021869369
127	0xbddb82cd	-0.10718308
128	0xbda1b4f7	-0.078958444
129	0xbdb84ada	-0.08998652
130	0xbd82ef10	-0.06393254
131	0xbd373a3e	-0.04473328
132	0xbcd13186	-0.02553631
133	0xbdca44b1	-0.09876383
134	0xbddf0bba	-0.108909085
135	0x3bf26bd1	0.0073981066
136	0x3b8acc95	0.004235814
137	0xbbe622d7	-0.007023196
138	0xbd7d0a81	-0.061777595
139	0xbdd186bc	-0.10230777
140	0xbd51e6d9	-0.051245544
141	0xbce1f551	-0.027582796
142	0xbda4d13f	-0.08047723
143	0xbd23a79e	-0.039954774
144	0xbd340f41	-0.04395986
145	0x3aa49772	0.0012557341
146	0xbd32368b	-0.043509047
147	0xbcf7d908	-0.030254856
148	0xbd6ac0da	-0.057312824
149	0xbc13195a	-0.008978212
150	0x3d5b8abb	0.0535991
151	0xbb5692be	-0.0032741274
152	0xbc8b388f	-0.016994743
153	0xbc27ceee	-0.010242207
154	0xba9f7293	-0.0012164883
155	0x3d4a530b	0.049395602
156	0x3ca5397d	0.020169014
157	0x3d4ccc74	0.04999967
158	0x3db16ed5	0.08663718
159	0x3cca77b4	0.024715282
160	0x3d9cebb2	0.07662143
161	0x3d8ded6e	0.06930052
162	0x3daa5611	0.08317197
163	0x3ced9a91	0.029004367
164	0xbd497c30	-0.0491907
165	0xbd5e7789	-0.054313216
166	0xbc97282f	-0.018451778
167	0xbda34cd1	-0.07973636
168	0xbce8f0c1	-0.028435113
169	0x3bf17e77	0.007369812
170	0x3c895f94	0.016769208
171	0xbd458eac	-0.048231766
172	0xbd10e1ca	-0.03537158
173	0xbdd5d643	-0.10441258
174	0x3ce3263c	0.027728193
175	0xbdc89ac2	-0.09795143
176	0xbdb401fd	-0.08789442
177	0x3d1bac3f	0.038006064
178	0xbd272871	-0.040810052
179	0x3accd341	0.0015626923
180	0x3cf909f9	0.030400263
181	0x3d9d3987	0.07676988
182	0xbcfe564f	-0.031047015
183	0xbd348e2f	-0.04408091
184	0x3c80a6da	0.015704561
185	0x3cbcfe5d	0.023070509
186	0xbe00bded	-0.12572451
187	0xbd047226	-0.032335423
188	0xbd93328c	-0.071873754
189	0x3be26267	0.006908703
190	0x3c7bcefb	0.015369172
191	0xbd273780	-0.040824413
192	0x3bb94569	0.0056540263
193	0xbc8c778e	-0.017146852
194	0xbd47361f	-0.0486356
195	0x3d1d97cf	0.038474854
196	0xbb8df450	-0.004332103
197	0xbd96272f	-0.073316924
198	0xbcc02e49	-0.02345957
199	0xbca837f2	-0.02053449
200	0x3a8033be	0.0009781045
201	0xbc8dbea2	-0.017302815
202	0xbd043d96	-0.032285295
203	0x3d0310a2	0.031998284
204	0x3ac488d3	0.001499439
205	0x3cd64e1d	0.026160294
206	0x3d5eb344	0.05437018
207	0xbdd7e9a1	-0.10542608
208	0x3a80dc6e	0.0009831318
209	0xbb2f51d2	-0.002675165
210	0xbd714dd5	-0.058912117
211	0xbc30f1d8	-0.010799848
212	0xbc35543c	-0.011067446
213	0xbdb16ec1	-0.08663703
214	0xbc0c29de	-0.008554904
215	0x3c9e3f61	0.01931733
216	0xbc91d768	-0.017802909
217	0xbd055d6e	-0.032559805
218	0xbd236d6b	-0.03989927
219	0xbd264ba0	-0.040599465
220	0xbd14e7c6	-0.03635385
221	0xbce67a1d	-0.0281344
222	0xbc76ccb7	-0.015063456
223	0x3d1d6e51	0.038435284
224	0x3b2586a1	0.0025257247
225	0x3d1ad75e	0.037803046
226	0x3c3381fe	0.0109562855
227	0xbb3b077e	-0.0028538401
228	0x3c6788e6	0.01413176
229	0x3a02cdb1	0.0004989757
230	0x3c360e31	0.011111782
231	0x3c2ec39b	0.010666753
232	0x3c898960	0.016789138
233	0x3a716dab	0.0009209762
234	0xba981e2e	-0.0011605674
235	0xbd827874	-0.06370631
236	0xbe17d895	-0.14828713
237	0xbdbad585	-0.09122757
238	0xbbee0a97	-0.007264446
239	0xbdaf3a96	-0.08556096
240	0xbe13c931	-0.14432217
241	0xbd8e7060	-0.069550276
242	0xbdae4ef0	-0.0851115
243	0x3d0792d5	0.033099014
244	0xbd2b5295	-0.041826803
245	0x3c18c55f	0.009324401
246	0x3c5cd9ee	0.013479693
247	0xbbc69128	-0.0060597844
248	0x3a5d0abd	0.0008432081
249	0x3d04ed8c	0.032453105
250	0xbd162974	-0.036660627
251	0xba5d2f04	-0.0008437487
252	0x3d855281	0.06509877
253	0x3d282d00	0.04105854
254	0x3c8352eb	0.01603075
255	0xbc9e417b	-0.019318333

unet_model.decoder.1.0.main.bias f4 [32]
0	0xbd999ce2	-0.07500626
1	0x3d9a2b26	0.07527761
2	0x3c5d91a3	0.013523492
3	0xbca7c46f	-0.020479409
4	0x3b92f8b0	0.0044852123
5	0x3c26315f	0.010143607
6	0xbd54b95d	-0.05193459
7	0xbc99799d	-0.018734748
8	0x3dbd7f89	0.09252841
9	0x3d451ad5	0.048121292
10	0xbda83883	-0.08213904
11	0xbc4e512b	-0.012592594
12	0x3d049cbf	0.032376047
13	0xbd4cd670	-0.05000919
14	0x3cd894ae	0.026438083
15	0xbeb07bb4	-0.34469378
16	0xbce8db7e	-0.028424975
17	0xbc9699d0	-0.01838389
18	0xbd35fb07	-0.04442885
19	0x3d19fc76	0.03759428
20	0x3cd3aa46	0.025838029
21	0x3d4d86d2	0.050177403
22	0x3d8139e9	0.063098736
23	0xbda58b76	-0.08083241
24	0xbc175e2d	-0.009238762
25	0xbc655223	-0.013996634
26	0xbd062fc0	-0.03276038
27	0xbc997b85	-0.018735657
28	0xbc357a74	-0.011076558
29	0xbce3d9c5	-0.027813802
30	0xbd773cdc	-0.060360774
31	0xbdc71bf9	-0.09722132

unet_model.decoder.2.0.main.weight f4 [32, 64, 3, 3]
0	0xbd666ddb	-0.05625711
1	0x3d7c9db1	0.061673824
2	0x3a63a190	0.00086834375
3	0xbd1afaf3	-0.03783698
4	0xbd15dc2d	-0.03658693
5	0xbd3fa17c	-0.046784863
6	0x3c964643	0.01834405
7	0xbd375231	-0.04475612
8	0xbc4d9743	-0.012548271
9	0x3d93e9c1	0.072223194
10	0x3d5b399c	0.053521737
11	0x3cbe34bd	0.023218507
12	0x3da38aa7	0.0798543
13	0x3d5da323	0.054110657
14	0x3d88cf92	0.06680216
15	0x3cfb0c9f	0.030645667
16	0x3d88cfa8	0.06680232
17	0x3dbedbe1	0.09319282
18	0x3d16cfdc	0.036819324
19	0xbbd4ee88	-0.0064981617
20	0x3c108bb1	0.0088223675
21	0x3caba6b3	0.020953512
22	0x3b0fa12d	0.0021916137
23	0xbb61de6f	-0.0034464856
24	0x3d8738dc	0.06602642
25	0x3d66f7a0	0.056388497
26	0x3d3315f1	0.043722097
27	0x3d7892de	0.06068694
28	0x3ddf2813	0.108963154
29	0x3d97b810	0.07408154
30	0xbcd40ad9	-0.025884079
31	0x3d8190f6	0.06326477
32	0x3d9db3d5	0.07700316
33	0xbd9a19a0	-0.07524419
34	0xbb8fdcfc	-0.004390357
35	0x3d0932f6	0.033495866
36	0xbcbca873	-0.023029542
37	0xbcd26a39	-0.025685417
38	0xbd2c8149	-0.042115483
39	0x3c8f4af1	0.01749179
40	0x3ced5adf	0.028973995
41	0x3d8f2e99	0.0699131
42	0x3c814d3d	0.0157839
43	0x3c983505	0.01857997
44	0x3d37b871	0.04485363
45	0xbc45876b	-0.012056212
46	0xbc9faf15	-0.019492665
47	0xbc5c3ce2	-0.01344225
48	0xbcdbf35b	-0.02684944
49	0xbc86de47	-0.016463412
50	0x3ca03d35	0.019560436
51	0xbda1c50c	-0.07898912
52	0xbda4ca7a	-0.08046432
53	0xbd1ae5af	-0.0378167
54	0xbd7a9723	-0.06117929
55	0xbd3d980e	-0.04628759
56	0x3c3d3a35	0.011549522
57	0xbde8364f	-0.113384835
58	0xbc53b52e	-0.012921615
59	0xbb8307e5	-0.003998744
60	0xbd2c3ca3	-0.042050015
61	0x3cd20874	0.025638796
62	0x3d136f77	0.035994973
63	0xbded553b	-0.11588522
64	0xbda10418	-0.07862109
65	0xbc87b468	-0.016565517
66	0xbdbdc5b3	-0.09266224
67	0xbda841d2	-0.08215679
68	0xbcbcd518	-0.02305083
69	0xbd05b7fd	-0.032646168
70	0xbd8e4ac6	-0.06947856
71	0xbd5a8592	-0.05335004
72	0xbd92ff52	-0.07177605
73	0xbd009ac6	-0.031397603
74	0x3db0da8b	0.08635434
75	0xbe222762	-0.15835336
76	0xbe11e0ad	-0.14245863
77	0xbc4de5dd	-0.012567011
78	0xbdb8025d	-0.08984826
79	0xbe36baa3	-0.17844634
80	0xbd9bd1ee	-0.076084
81	0x3db2d024	0.08731106
82	0x3e059b4e	0.13047525
83	0x3b8d7a21	0.0043175374
84	0x3caf0161	0.021362962
85	0x3d1c047e	0.03809022
86	0x3d67656c	0.056493208
87	0xbc951c43	-0.018201953
88	0xb9005116	-0.00012237238
89	0x3c896096	0.016769689
90	0xbcaf8d03	-0.021429544
91	0x3b81b5cb	0.003958439
92	0xbd12abda	-0.03580842
93	0x3cca537d	0.024698013
94	0xbc43d4e8	-0.011952616
95	0xbb2d483f	-0.0026440767
96	0xbbf9a15d	-0.007618113
97	0xbc9cb044	-0.019127019
98	0xbdd8ed40	-0.10592127
99	0x3bb8c981	0.0056392555
100	0x3d721c42	0.05910898
101	0x3da9d0d3	0.08291783
102	0xbdc65194	-0.096835285
103	0xbd988aee	-0.07448374
104	0x3cba5e94	0.022750176
105	0xbadfa92c	-0.0017063967
106	0xbda387ad	-0.079848625
107	0x3bb7af5f	0.0056056227
108	0x3d328574	0.043584302
109	0x3c620015	0.013793965
110	0x3d09ee82	0.033674724
111	0x3d0401e5	0.03222837
112	0x3d9c4b22	0.07631518
113	0x3d1d694f	0.03843051
114	0x3dd7ac1f	0.10530876
115	0x3ce9e4cd	0.028551484
116	0x3d4ed4ee	0.050496034
117	0xbd208889	-0.03919271
118	0xbda0ac0f	-0.078453176
119	0xbd8ce3e7	-0.068794064
120	0x3d1f8e9a	0.038954355
121	0x3d31c668	0.043402106
122	0xbb931966	-0.0044891117
123	0x3ca5973c	0.020213716
124	0xbb2a4b15	-0.0025984694
125	0x3c2d1d1d	0.010566023
126	0xbd928678	-0.07154554
127	0xbe174f0b	-0.14776246
128	0xbd8bf6e2	-0.068341985
129	0xbb8902dc	-0.004181249
130	0xbe447c22	-0.19187978
131	0xbdd75310	-0.1051389
132	0x3da8f371	0.08249558
133	0xbd95bc0e	-0.07311259
134	0xbd629a97	-0.05532321
135	0xbd8b5293	-0.06802859
136	0x3ba92c24	0.0051627327
137	0x3d5044b6	0.050846778
138	0xbd753737	-0.05986711
139	0xbd5d2a3c	-0.053995356
140	0xbd35d114	-0.044388846
141	0xbb2306ad	-0.0024875805
142	0xbdf05e80	-0.117367744
143	0xbde2189c	-0.1103985
144	0xbd5ddc87	-0.05416539
145	0x3d01476e	0.03156226
146	0x3d7793c1	0.060443643
147	0xbc86b58c	-0.01644399
148	0xbcc14eff	-0.023597239
149	0x3bfb95c6	0.0076777665
150	0x3d541694	0.051779345
151	0xbb1d81f3	-0.0024033755
152	0x3d4b6612	0.04965789
153	0x3c93e2cb	0.01805248
154	0x3d22c445	0.03973796
155	0x3da4245b	0.08014747
156	0x3da3b4ba	0.07993455
157	0x3d88c9c1	0.066791065
158	0x3d189a3e	0.03725647
159	0xbb9b708e	-0.004743642
160	0xbc9d1ab6	-0.019177776
161	0xbc66d0c7	-0.014087862
162	0xbe055610	-0.13021111
163	0xbc6c256a	-0.014413217
164	0x3d4e8ea4	0.050429
165	0xbda94e29	-0.08266861
166	0xbe0d6148	-0.13806641
167	0xbbd31ed8	-0.006442886
168	0xbce71515	-0.028208295
169	0xbdc08478	-0.094002664
170	0xbd99a968	-0.07503015
171	0xbc989a5a	-0.018628288
172	0x3d77047e	0.06030702
173	0x3d925dea	0.07146819
174	0xbd981b7d	-0.07427118
175	0xbd54122d	-0.051775146
176	0x3bfbd025	0.007684725
177	0x3c7f95a1	0.015599639
178	0xbd446dd1	-0.04795629
179	0xbc3ec225	-0.011642967
180	0x3d7cf7a0	0.06175959
181	0x3cef41b4	0.029206134
182	0x3c8d1441	0.017221572
183	0xbbd39702	-0.0064572105
184	0x3d4016a6	0.0468966
185	0x3d240a83	0.040049087
186	0x3d04366b	0.03227846
187	0x3c8e6742	0.017383222
188	0x3d785fc1	0.060638193
189	0xbbb2151c	-0.0054346453
190	0x3d9a1628	0.07523757
191	0x3d726e85	0.05918743
192	0x3d0bacfc	0.034100518
193	0x3d90c62d	0.07069049
194	0x3dae7731	0.08518828
195	0x3bbf0294	0.0058291648
196	0x3d40a3ef	0.04703134
197	0x3d1fc7be	0.03900885
198	0xbda1e2a8	-0.079045594
199	0xbd54d7e8	-0.051963717
200	0xbd147832	-0.03624744
201	0xbd936f95	-0.07199017
202	0xbdaa1281	-0.083043106
203	0xbd6a58e6	-0.057213686
204	0xbdabaed4	-0.08382955
205	0xbd8c489f	-0.06849789
206	0xbcae521b	-0.021279385
207	0xbde07bff	-0.109611504
208	0xbe01cc00	-0.12675476
209	0xbd47f5af	-0.048818287
210	0xbd84bbaa	-0.064811066
211	0xbde58475	-0.11206905
212	0xbcd8cb11	-0.026464017
213	0x3bbd6c0a	0.0057807015
214	0xbd737b55	-0.05944379
215	0xbd51643a	-0.051120974
216	0x3df17f7a	0.11791892
217	0x3d59067c	0.0529847
218	0xbb74970e	-0.003732148
219	0x3cfc761a	0.030818034
220	0xbcbceeae	-0.02306303
221	0x3c8ae75d	0.016956026
222	0xbd3946ee	-0.04523366
223	0xbe17c8cc	-0.14822692
224	0xbd7853ae	-0.06062668
225	0xbc0ca133	-0.008583355
226	0xbbc61da3	-0.0060460134
227	0xbd45b9b2	-0.048272796
228	0x392f915e	0.00016743454
229	0x3d34fe09	0.04418758
230	0x3bd93f81	0.0066298847
231	0x3b8084e7	0.003922093
232	0x3d7bd293	0.061480116
233	0x3c824703	0.015903002
234	0x3e2ea61b	0.17055552
235	0x3db31d64	0.0874584
236	0xbd0e35b4	-0.034719184
237	0x3da8f8b3	0.082505606
238	0x3e23bf7a	0.15991011
239	0x3e049e43	0.12950997
240	0x3cf4c875	0.029880742
241	0x3dd1c137	0.10241931
242	0x3d92a9f6	0.07161324
243	0x3e10ed71	0.14153077
244	0x3d4b2647	0.04959705
245	0x3bb00139	0.0053712395
246	0x3b68e37a	0.0035535977
247	0x3d4e817b	0.05041645
248	0xbcb1593d	-0.021648997
249	0x3cadab0a	0.021199722
250	0x3d806807	0.06269842
251	0xbc2978c5	-0.010343735
252	0xbd34839c	-0.044070825
253	0x3be9dc22	0.0071368376
254	0xbbd2f394	-0.006437728
255	0xbcb01aa7	-0.021497084

unet_model.decoder.2.0.main.bias f4 [32]
0	0x3ca917c1	0.02064121
1	0x3d8c7324	0.06857899
2	0xbc5b0a10	-0.013369098
3	0xbd0d6e9a	-0.034529306
4	0x3e360b97	0.17777859
5	0xbc303a4f	-0.010756089
6	0x3cc08d64	0.02350492
7	0xbd8b4419	-0.06800098
8	0xbcf297e0	-0.029613435
9	0xbd2dc6f0	-0.04242605
10	0xbc56d3d7	-0.01311203
11	0xbd0e8b06	-0.03480055
12	0x3d3c1b4f	0.04592448
13	0x3d124623	0.03571142
14	0xbd57dddd	-0.05270182
15	0x3d831c08	0.06401831
16	0xbd8b2d88	-0.06795794
17	0xbcd2eb1f	-0.02574688
18	0xbd027ae4	-0.03185548
19	0x3dac297b	0.08406349
20	0xbcac34dc	-0.021021299
21	0x3b98a2e2	0.004658089
22	0x3e2ba003	0.16760258
23	0x3d5af6bd	0.053457964
24	0xbcaa7c61	-0.020811262
25	0xbced607e	-0.028976675
26	0x3d0c5492	0.03426034
27	0x3c79fabe	0.0152575355
28	0x3d46a42c	0.04849641
29	0x3dea4252	0.11438431
30	0x3c699a3b	0.014257963
31	0x3d77185b	0.06032596
