ModelParameters-ACDC/Model_1_Diffeo_0_Loss_1_Chan_8_FT_12-12_Smth_0.01_LR_0.0001_Mode_0_Pth/DICE_0.32985_SSIM_0.88542_MSE_0.002103_Epoch_0001.pth (torch, 317654 bytes, 27 tensors)

model.eninput.0.weight f4 [8, 2, 3, 3]
0.025766077 -0.06991709 -0.06519001 0.17521442 0.053320117 0.046228725 0.22383277 0.24458267
-0.10860494 0.09103021 0.16718183 0.058442883 -0.06280402 -0.13182 -0.17979206 0.0025015788
0.17378268 -0.029622477 0.18354622 -0.20142141 -0.22725672 -0.17335035 0.0909373 0.10929791
0.0872049 -0.093979895 0.1597816 0.122429244 0.24349567 0.123433284 0.09490273 0.31540558
-0.056809794 -0.2013241 0.062138665 0.2163654 -0.06102873 0.12328205 0.11715933 0.09141417
0.20041186 0.1615203 0.090512134 -0.05928809 0.187306 -0.070115104 -0.08917549 -0.24410537
-0.13310643 0.121262886 -0.2321262 -0.18895403 0.0145365205 0.010029703 0.15735556 0.014177264
0.18370858 -0.19391333 -0.11655069 -0.29613677 -0.027003305 0.027965404 -0.25201476 0.087470956
0.10797659 0.090097226 -0.24248478 0.14867873 0.038470745 0.3142856 0.30748585 -0.05505782
0.18246567 0.25153756 -0.15390898 0.23752072 0.20102051 0.26843324 0.16967379 -0.1462678
0.055026095 -0.33230692 0.13768706 0.062357686 -0.13020433 -0.21600476 -0.22980167 0.08172559
-0.054296046 -0.23485483 0.12815282 -0.17942081 -0.26831466 -0.12648368 0.024138872 -0.119090356
-0.109636806 0.17817865 -0.16819829 0.20955926 0.22495367 -0.006958543 0.18252546 0.09015642
0.09141645 0.0412658 0.042198356 0.0185583 0.23545112 -0.06588231 0.026142774 0.2507708
0.2894929 0.21935812 -0.033164844 -0.016250653 0.27212104 -0.2498598 0.09229423 -0.26429588
0.033845723 0.18534191 0.015724657 -0.017659212 0.104560964 -0.08537927 0.28471428 0.24141496
0.025863357 -0.02105001 -0.11738035 -0.015331001 0.096561775 0.18808362 0.2069758 -0.20663744
-0.12154287 -0.031665426 -0.16818419 0.07860979 0.20844482 0.062426407 -0.19501758 0.13427015
00000000: 6113 d33c b130 8fbd 5782 85bd 696b 333e
00000010: 3266 5a3d 555a 3d3d 6b34 653e e173 7a3e
00000020: 446c debd 0c6e ba3d b731 2b3e ce61 6f3d
00000030: 659f 80bd d2fb 06be 691b 38be 87f1 233b
00000040: 16f4 313e d6aa f2bc 8af3 3b3e 6a41 4ebe
00000050: fcb5 68be c182 31be 563d ba3d 95d7 df3d
00000060: 7c98 b23d 8878 c0bd ca9d 233e 2fbc fa3d
00000070: ee56 793e 97ca fc3d 5d5c c23d d77c a13e
00000080: 63b1 68bd e827 4ebe 1d85 7e3d e48e 5d3e
00000090: 43f9 79bd 4d7b fc3d 3bf1 ef3d 5a37 bb3d
000000a0: c438 4d3e 9465 253e 6d5e b93d 11d8 72bd
000000b0: 25cd 3f3e 8298 8fbd a4a1 b6bd c2f6 79be
000000c0: 0d4d 08be ad58 f83d 7eb2 6dbe 2a7d 41be
000000d0: 962a 6e3c a053 243c d121 213e c147 683c
000000e0: 1a1e 3c3e 3791 46be 21b2 eebd 3d9f 97be
000000f0: 0936 ddbc b417 e53c 1408 81be f923 b33d
00000100: d522 dd3d e584 b83d ee4d 78be 3d3f 183e
00000110: 8093 1d3d 0bea a03e c96e 9d3e 4f84 61bd
00000120: 48d8 3a3e 88c9 803e 519a 1dbe a238 733e
00000130: 52d8 4d3e 1570 893e f7be 2d3e 3ac7 15be
00000140: 0b63 613d 2224 aabe d6fd 0c3e c66a 7f3d
00000150: 4954 05be 5a30 5dbe 2151 6bbe bf5f a73d
00000160: 8865 5ebd c97d 70be 7e3a 033e 17ba 37be
00000170: 8a60 89be f084 01be e2be c53c a5e5 f3bd
00000180: 4389 e0bd 7774 363e 2c3c 2cbe b496 563e
00000190: 415a 663e 7d04 e4bb f4e7 3a3e eea3 b83d
000001a0: 8c38 bb3d 5406 293d 2fd8 2c3d 9307 983c
000001b0: 191a 713e 4eed 86bd 5f29 d63c 0865 803e
000001c0: 6a38 943e 6a9f 603e dcd7 07bd 1720 85bc
000001d0: 7353 8b3e 3fdb 7fbe c204 bd3d ca51 87be
000001e0: d0a1 0a3d 45ca 3d3e ffd0 803c 0daa 90bc
000001f0: 0f24 d63d 54db aebd 12c6 913e 7c35 773e
00000200: 64df d33c 1271 acbc 1c65 f0bd e12e 7bbc
00000210: 2ec2 c53d fe98 403e 77f1 533e c498 53be
00000220: 78eb f8bd 9bb3 01bd 7a38 2cbe 2bfe a03d
00000230: 8f72 553e d5b2 7f3d b0b2 47be 1d7e 093e

model.eninput.0.bias f4 [8]
-0.19332467 0.1631864 0.12209294 0.06210407 0.06751666 -0.116633564 -0.09747965 -0.048888505
00000000: e7f6 45be 561a 273e dd0b fa3d d660 7e3d
00000010: 2d46 8a3d 94dd eebd 69a3 c7bd 503f 48bd

model.ec1.0.weight f4 [8, 8, 3, 3]
-0.15171045 -0.16424417 0.037260354 -0.038582962 -0.015715728 -0.0066588894 -0.14499941 -0.025371287
-0.20586683 0.07058753 0.03363083 0.074642815 -0.024868803 -0.11287892 -0.09233624 0.0489041
-0.01919058 -0.11903118 -0.06152052 0.009996641 0.10511611 -0.0026963984 0.1744479 0.19584267
-0.051243957 0.16933401 0.009869755 0.014807439 -0.053943552 -0.09399282 0.012394791 -0.18145208
-0.012028441 0.06857201 0.01833106 -0.03243129 0.13987501 0.092117324 0.27925798 -0.02268971
0.22158992 0.27629986 0.006653435 -0.047686893 0.1263442 0.119698174 -0.14946257 -0.030831104
-0.014894509 -0.19592622 -0.22084358 -0.024294073 -0.22398268 -0.19649719 0.050389387 0.07019721
-0.014648231 -0.067189455 -0.07420683 0.046601336 -0.027882297 0.020705696 -0.10466038 -0.033412084
-0.041879952 0.12659958 -0.12088397 -0.042008057 -0.022512764 0.005833735 -0.09483589 0.029870419
0.01344415 0.015426342 0.20862502 -0.0059625763 -0.0051821065 -0.02798762 0.010644917 -0.05376364
0.007583581 0.039382197 0.05030782 0.0419647 0.10785866 0.11405266 0.108900495 0.05767144
0.06287889 -0.055338252 0.263247 0.043504797 0.25104812 -0.009601709 0.114105195 0.041259244
0.019253662 -0.106395505 -0.09667306 -0.12865795 -0.01470349 0.020413285 -0.10095008 0.03760052
-0.08668086 0.1469454 -0.040941305 0.08760268 0.033382256 -0.007998818 0.13628685 -0.1800738
0.010962278 0.060389183 0.056302182 -0.0042736405 -0.09813072 -0.027404863 -0.1756932 -0.15441969
0.10277877 0.018077096 -0.052787222 0.12492782 0.1167442 0.1624115 0.13209113 0.16113089
0.22635841 0.1178811 0.1651902 0.11613028 0.11121415 0.03652245 0.107945636 0.007693366
0.21978123 0.14219101 0.15333708 0.042856645 -0.012656684 0.0582814 0.0649438 0.009447265
-0.15884647 -0.089881845 0.0050985706 -0.10981739 -0.13506864 0.094813086 -0.047877323 -0.16148975
-0.1279653 0.029544061 0.13651563 0.045464903 0.08610611 0.05435236 0.18913612 -0.040435735
0.16209738 0.035775486 0.031732693 -0.11394127 -0.039146975 0.026874565 -0.12285483 -0.121663764
-0.062249687 -0.15589549 -0.094466865 0.113005266 0.19225697 -0.03984146 0.008988929 0.132166
-0.07619661 0.114765085 0.061332855 -0.054663323 -0.0065757553 -0.05307932 -0.15803473 -0.002087735
-0.20463054 -0.18227467 0.035786353 -0.03945055 -0.12623599 -0.21689992 0.032396283 0.08206997
0.018542163 0.058264073 0.17218237 -0.061305087 0.17075655 -0.03748081 0.07496115 -0.043648243
-0.016263602 -0.07003669 -0.0359171 0.026537066 0.03222328 -0.13665192 -0.123800725 0.091346875
0.07658573 0.1127986 0.05010704 -0.087302625 0.049771544 -0.0062112873 -0.10816621 -0.13162813
-0.16379063 -0.1438079 -0.10834109 0.02850157 0.044687916 0.058852077 0.005302046 -0.03578575
0.020061687 -0.0038067973 0.055891838 0.0778093 0.1344535 0.11348027 0.07572041 0.0704725
-0.03182877 0.038385015 0.020283164 0.050965566 0.027673783 -0.24378416 -0.26960042 0.0071488624
-0.07290499 -0.08607022 0.043873586 0.07959954 0.13263845 0.04675492 -0.037899595 0.06401149
0.030700563 0.08822738 -0.0882322 -0.030456737 -0.13980839 -0.18788464 -0.26242375 -0.04243463
00000000: fc59 1bbe a02f 28be 509e 183d 2b09 1ebd
00000010: 45be 80bc d032 dabb ba7a 14be 72d7 cfbc
00000020: c1ce 52be 3290 903d 7bc0 093d 55de 983d
00000030: a9b9 cbbc 102d e7bd c81a bdbd aa4f 483d
00000040: 9035 9dbc 9fc6 f3bd f1fc 7bbd f4c8 233c
00000050: 1d47 d73d 0fb6 30bb 78a2 323e fb8a 483e
00000060: 2fe5 51bd e565 2d3e c1b4 213c e79a 723c
00000070: eaf3 5cbd 4f7f c0bd 8513 4b3c 93ce 39be
00000080: f012 45bc 7b6f 8c3d 052b 963c acd6 04bd
00000090: 653b 0f3e 02a8 bc3d e7fa 8e3e c5df b9bc
000000a0: 78e8 623e 2d77 8d3e 0f05 da3b 5553 43bd
000000b0: 6060 013e 5124 f53d b70c 19be 8391 fcbc
000000c0: 1908 74bc e2a0 48be d224 62be 5d04 c7bc
000000d0: b75b 65be 8f36 49be 1a65 4e3d 8ec3 8f3d
000000e0: 22ff 6fbc a09a 89bd c0f9 97bd 0be1 3e3d
000000f0: 6a69 e4bc fe9e a93c 2e58 d6bd 1cdb 08bd
00000100: 508a 2bbd 52a3 013e 0492 f7bd a410 2cbd
00000110: b06c b8bc eb28 bf3b 5239 c2bd cfb2 f43c
00000120: da44 5c3c c5be 7c3c cca1 553e b761 c3bb
00000130: a9ce a9bb 4b46 e5bc 0568 2e3c 4337 5cbd
00000140: b07f f83b 3a4f 213d 930f 4e3d 2de3 2b3d
00000150: 00e5 dc3d 7194 e93d 3907 df3d e338 6c3d
00000160: a6c6 803d 5daa 62bd 50c8 863e 1632 323d
00000170: 6189 803e 7d50 1dbc fcaf e93d 74ff 283d
00000180: dbb9 9d3c e3e5 d9bd 86fc c5bd e9be 03be
00000190: e8e6 70bc c339 a73c eabe cebd 0103 1a3d
000001a0: bc85 b1bd db78 163e 12b2 27bd 0969 b33d
000001b0: d5bb 083d 790d 03bc c88e 0b3e 4465 38be
000001c0: 209b 333c a65a 773d 1e9d 663d e509 8cbb
000001d0: c2f8 c8bd 2a80 e0bc ebe8 33be 3220 1ebe
000001e0: ad7d d23d 6b16 943c 6a37 58bd 28da ff3d
000001f0: 9517 ef3d 334f 263e e642 073e 7fff 243e
00000200: 80ca 673e a56b f13d 9f27 293e b6d5 ed3d
00000210: 3fc4 e33d 9198 153d 9a12 dd3d a218 fc3b
00000220: 550e 613e 859a 113e 6504 1d3e 738a 2f3d
00000230: fb5d 4fbc 7ab8 6e3d 4101 853d b4c8 1a3c
00000240: a6a8 22be f913 b8bd e911 a73b f1e7 e0bd
00000250: 6f4f 0abe 5d2d c23d 031b 44bd 925d 25be
00000260: 5609 03be 6306 f23c c1ca 0b3e 6839 3a3d
00000270: 6658 b03d 95a0 5e3d e6ac 413e f19f 25bd
00000280: dbfc 253e 5189 123d 24fa 013d 0a5a e9bd
00000290: 9458 20bd 0c28 dc3c 509b fbbd da2a f9bd
000002a0: 87f9 7ebd 11a3 1fbe d877 c1bd 4e6f e73d
000002b0: 03df 443e cc30 23bd 4d46 133c 8656 073e
000002c0: f80c 9cbd f509 eb3d 2938 7b3d a6e6 5fbd
000002d0: 6f79 d7bb b369 59bd dbd3 21be 62d2 08bb
000002e0: ab8a 51be 36a6 3abe b694 123d e696 21bd
000002f0: 0244 01be 031b 5ebe f7b1 043d 4d14 a83d
00000300: bce5 973c 4fa6 6e3d 9350 303e 0b1b 7bbd
00000310: ceda 2e3e 7a85 19bd 3b85 993d 80c8 32bd
00000320: 3f3b 85bc 656f 8fbd cf1d 13bd 4364 d93c
00000330: 8ffc 033d 7bee 0bbe 3c8b fdbd 1214 bb3d
00000340: fbd8 9c3d f402 e73d 0a3d 4d3d b8cb b2bd
00000350: 3fdd 4b3d 0e88 cbbb 3f86 ddbd 86c9 06be
00000360: bbb8 27be 6142 13be efe1 ddbd 207c e93c
00000370: ad0a 373d e00e 713d c9bc ad3b 1494 12bd
00000380: 6858 a43c 767b 79bb d7ee 643d 7b5a 9f3d
00000390: 2eae 093e 5868 e83d 4d13 9b3d e353 903d
000003a0: e25e 02bd 9b39 1d3d e128 a63c 45c1 503d
000003b0: 21b4 e23c 8ea2 79be 1109 8abe 0141 ea3b
000003c0: 364f 95bd 9545 b0bd cab4 333d 1505 a33d
000003d0: 60d2 073e 1682 3f3d 9b3c 1bbd 7518 833d
000003e0: bf7f fb3c 8eb0 b43d 15b3 b4bd 6880 f9bc
000003f0: ee29 0fbe d564 40be 685c 86be efcf 2dbd

model.ec1.0.bias f4 [8]
-0.09092475 -0.15501243 0.02925268 0.09515146 -0.097404845 -0.05691032 0.09225532 -0.054859854
00000000: c136 babd 94bb 1ebe 51a3 ef3c c5de c23d
00000010: 317c c7bd cc1a 69bd 5bf0 bc3d bab4 60bd

model.ec2.0.weight f4 [16, 8, 3, 3]
-0.06785657 -0.15946557 -0.17486426 -0.1473183 -0.19369222 -0.058572527 0.039302822 -0.16046353
0.09595273 -0.026618132 0.05321368 0.14824438 0.15364505 -0.027273495 0.16616058 -0.036405973
-0.0090744365 0.20945518 0.084095486 0.069245726 0.12092091 0.19193186 0.015388794 -0.022259073
0.04693451 0.03818737 0.06889634 0.011333991 0.18903327 0.13877936 0.075322635 0.27882144
0.11485431 0.13999885 0.06829114 0.19726516 -0.08091918 -0.06532642 0.05154331 -0.11294267
-0.061895136 -0.04459307 0.018218776 -0.15792552 -0.035169993 0.04243552 0.051094905 0.05512567
0.027471067 0.1262001 0.048989072 -0.16059466 0.14369076 -0.06944164 0.14000265 0.08234318
-0.029412773 0.048276223 -0.0038284475 -0.03647175 -0.099230066 0.03710382 -0.22172996 0.12955263
0.01076688 -0.03248773 0.10752674 -0.033245932 -0.007772416 0.03241176 -0.029724069 -0.010346967
-0.11016378 -0.038203917 -0.1365506 -0.05260409 -0.13590772 -0.04056012 0.071738444 -0.15838042
0.07817245 0.080795296 -0.018163143 -0.11124147 -0.12328856 -0.17210776 -0.20811316 0.049298488
-0.061615214 -0.16664715 0.1519858 -0.040489618 0.14073749 0.17434329 0.08241246 0.1493405
0.09968531 0.046369433 0.010377005 0.11509069 0.0034586748 0.11629156 0.1490331 -0.03756061
-0.0072220964 -0.098222464 0.015153848 -0.07628933 -0.0058406754 -0.03493599 0.11057452 0.12570474
-0.11306084 -0.06859165 0.020588262 -0.049324065 0.023220003 -0.0677997 -0.22125457 -0.2127711
0.03669661 -0.0025457246 -0.13639317 -0.10381721 -0.09105336 0.0510255 0.20062096 0.23633489
0.09256053 0.13887551 0.057221666 0.031613648 -0.0049702404 0.07737335 0.12977241 -0.12855439
-0.17366879 -0.21717535 0.0761023 -0.050720923 -0.15283735 -0.13098696 -0.091001734 -0.16462037
0.1368132 0.1936029 0.19224538 0.21357386 0.2749717 0.08993504 0.04409526 0.027369676
0.14721638 -0.06758934 0.0018128756 0.053864066 0.06731385 0.037051953 -0.07888968 -0.09639837
0.04923344 -0.019321878 0.13250877 0.12591286 0.14467712 0.07171106 -0.12039198 0.07771793
-0.023539478 -0.006702439 -0.08618743 0.17346951 0.21706574 0.07530609 -0.01662945 -0.06855159
-0.056759696 -0.03568258 -0.045883648 -0.007742371 0.067576304 -0.014067807 -0.076472536 0.08443916
0.16701408 0.21748322 0.12434865 0.07828333 0.014003797 0.07686019 -0.093465574 -0.081559815
0.0014026051 -0.1706279 0.012304324 -0.02253636 0.011620273 0.12240288 -0.07635985 -0.0015462693
0.014581152 -0.05915283 -0.118021116 -0.024023348 -0.05090318 0.0008217873 0.011884462 -0.025660735
0.10539614 0.09814846 -0.0049876454 0.06954033 0.0126319425 0.098819286 0.1514465 0.0065115816
-0.023250138 -0.12464166 -0.2962901 -0.075024754 -0.1606768 -0.20087671 -0.033251025 0.010257373
-0.10103781 0.06949986 0.16230989 0.14089498 0.14328466 -0.00565429 0.020069072 -0.07044716
0.013611483 -0.06467021 0.046802297 0.053124078 -0.031066457 0.16073391 0.25408742 0.20164783
0.08244266 0.08323028 0.083112285 0.066068605 -0.11463099 0.024665918 -0.0401477 0.12791389
0.16421613 -0.037687227 -0.044116072 0.083472654 -0.00067884475 0.09935675 0.08196658 -0.040387504
00000000: 63f8 8abd f14a 23be 9e0f 33be 9cda 16be
00000010: 4157 46be bfe9 6fbd fffb 203d 8d50 24be
00000020: dd82 c43d 450e dabc 96f6 593d 60cd 173e
00000030: 2155 1d3e aa6c dfbc 0026 2a3e 6e1e 15bd
00000040: f2ac 14bc 6b7b 563e 413a ac3d b4d0 8d3d
00000050: 62a5 f73d c989 443e 4821 7c3c a958 b6bc
00000060: 673e 403d 5c6a 1c3d 8619 8d3d 34b2 393c
00000070: f091 413e 2d1c 0e3e c142 9a3d afc1 8e3e
00000080: bd38 eb3d dc5b 0f3e 3adc 8b3d e1ff 493e
00000090: f4b8 a5bd dcc9 85bd 141f 533d 7d4e e7bd
000000a0: c185 7dbd 39a7 36bd 8b3f 953c 3ab7 21be
000000b0: 690e 10bd ded0 2d3d e448 513d 74cb 613d
000000c0: 010b e13c 993a 013e c4a8 483d ed72 24be
000000d0: ac23 133e 6b37 8ebd db5c 0f3e 8ba3 a83d
000000e0: 0ef3 f0bc 4abd 453d b1e6 7abb 6763 15bd
000000f0: 2239 cbbd 2dfa 173d 2e0d 63be 72a9 043e
00000100: 9167 303c db11 05bd fb36 dc3d e32c 08bd
00000110: c0af febb 32c2 043d e47f f3bc 5386 29bc
00000120: 8c9d e1bd b67b 1cbd ecd3 0bbe 6377 57bd
00000130: 652b 0bbe 5e22 26bd 9beb 923d 7a2e 22be
00000140: e118 a03d 0178 a53d dfca 94bc 91d2 e3bd
00000150: b67e fcbd 043d 30be 9e1b 55be 36ed 493d
00000160: 3c60 7cbd 8da5 2abe 2aa2 1b3e 71d8 25bd
00000170: 7d1d 103e 0c87 323e ddc7 a83d b7ec 183e
00000180: d027 cc3d e0ed 3d3d 5004 2a3c abb4 eb3d
00000190: efaa 623b 452a ee3d 229c 183e 27d9 19bd
000001a0: 56a7 ecbb dc28 c9bd d847 783c 953d 9cbd
000001b0: 2363 bfbb 0a19 0fbd e574 e23d beb8 003e
000001c0: 718c e7bd c779 8cbd b7a8 a83c 0808 4abd
000001d0: e037 be3c 92da 8abd 8f90 62be abe0 59be
000001e0: 2f4f 163d 2cd6 26bb a7aa 0bbe 1e9e d4bd
000001f0: 2f7a babd 1d00 513d 956f 4d3e c601 723e
00000200: 6090 bd3d 6235 0e3e 4461 6a3d 507d 013d
00000210: 66dd a2bb eb75 9e3d 0fe3 043e c3a3 03be
00000220: 3bd6 31be 3763 5ebe 86db 9b3d bec0 4fbd
00000230: 6581 1cbe 7221 06be 1e5f babd 3e92 28be
00000240: c218 0c3e d73f 463e f9db 443e 1bb3 5a3e
00000250: 17c9 8c3e dd2f b83d 3b9d 343d 5f36 e03c
00000260: e4bf 163e 486c 8abd 039e ed3a 91a0 5c3d
00000270: d8db 893d cac3 173d ea90 a1bd 826c c5bd
00000280: 01a9 493d ea48 9ebc 61b0 073e 4def 003e
00000290: 3d26 143e 40dd 923d 1290 f6bd 942a 9f3d
000002a0: ddd5 c0bc 22a0 dbbb 0983 b0bd fea1 313e
000002b0: 7b46 5e3e 143a 9a3d 7c3a 88bc c764 8cbd
000002c0: db7c 68bd e627 12bd 7ef0 3bbd b7b3 fdbb
000002d0: 7265 8a3d a97c 66bc a29d 9cbd 70ee ac3d
000002e0: bd05 2b3e ecb3 5e3e 81aa fe3d 0353 a03d
000002f0: 2f70 653c e068 9d3d e16a bfbd d508 a7bd
00000300: 9ed7 b73a 15b9 2ebe 1398 493c 2c9e b8bc
00000310: f562 3e3c 5cae fa3d 8e62 9cbd 30ac caba
00000320: c9e5 6e3c 3d4a 72bd 0eb5 f1bd 9dcc c4bc
00000330: da7f 50bd 366d 573a 0cb7 423c 7636 d2bc
00000340: eed9 d73d 0f02 c93d 676f a3bb 296b 8e3d
00000350: 35f6 4e3c c461 ca3d cb14 1b3e 1b5f d53b
00000360: 1377 bebc 2044 ffbd 56b3 97be 94a6 99bd
00000370: 7688 24be a0b2 4dbe 3a32 08bd 8a0e 283c
00000380: e9ec cebd f155 8e3d 9034 263e c646 103e
00000390: 37b9 123e 9f47 b9bb e567 a43c 9a46 90bd
000003a0: b302 5f3c d171 84bd c4b3 3f3d a298 593d
000003b0: 157f febc 6e97 243e bf17 823e c57c 4e3e
000003c0: b3d7 a83d a374 aa3d c636 aa3d fa4e 873d
000003d0: a7c3 eabd 2e10 ca3c ea71 24bd dcfb 023e
000003e0: 4628 283e ec5d 1abd 0eb3 34bd b6f3 aa3d
000003f0: 80f4 31ba 8d7b cb3d 18de a73d 5e6d 25bd

model.ec2.0.bias f4 [16]
-0.0010562908 0.1147624 0.007284296 -0.15381695 0.02283788 -0.057078052 0.043469053 0.04243562
0.027280297 -0.044180106 -0.05199859 0.053179562 0.039040033 0.014057052 -0.059207734 -0.07946389
00000000: 3d73 8aba 8d08 eb3d 1bb1 ee3b 3182 1dbe
00000010: 8116 bb3c adca 69bd 9b0c 323d f9d0 2d3d
00000020: ee7a df3c 33f6 34bd 79fc 54bd d0d2 593d
00000030: 71e8 1f3d 8d4f 663c cf83 72bd f7bd a2bd

model.ec3.0.weight f4 [16, 16, 3, 3]
0.09025347 0.049654398 -0.03722295 0.037227016 -0.030545207 -0.053815354 0.031649366 -0.09354654
-0.009225532 -0.1968386 -0.015884398 -0.060179707 -0.01943272 -0.10792933 -0.12899642 0.09038523
0.017097868 -0.16732453 0.06712805 0.076399975 -0.03411541 -0.058388073 0.15483268 0.05956441
-0.08971155 -0.079519466 -0.021279942 0.15105633 0.13909616 -0.02928534 -0.016187664 -0.00973939
-0.009784692 -0.036136437 0.030248528 -0.052641496 0.06911724 -0.030102896 -0.04475467 -0.03769683
0.06202469 0.10933122 -0.120142184 -0.08721929 -0.06284668 0.09097442 0.079834044 0.02032209
0.037115242 -0.12776075 -0.14336005 0.04154669 0.035047982 -0.0447639 -0.029810674 -0.021524731
0.04509634 0.010496578 -0.110563174 0.14121808 -0.09057634 -0.30615246 -0.14271037 0.08377519
-0.09623502 -0.17501052 -0.08652125 -0.051636457 -0.10077649 0.13579604 -0.007152862 -0.12343308
-0.06673588 -0.13043404 -0.017899204 -0.049544446 -0.1140294 -0.11614956 0.06567551 0.043766193
-0.03577725 0.19741324 0.016943661 -0.014212707 0.0684127 0.119156614 0.053308837 0.054065317
0.096387595 -0.059136212 0.06954225 -0.030709444 -0.047702253 0.050912082 0.098519996 0.08613001
0.06414697 0.0540526 -0.01576526 0.04342104 0.11566254 -0.055832952 -0.038638316 -0.18240684
-0.155358 0.04069953 -0.055549383 -0.16481058 0.057328403 -0.024978226 0.019973796 0.06116624
-0.06107725 -0.20385145 0.09046194 0.020715335 -0.1119001 0.11090345 0.043697737 0.055549633
0.14745823 0.118989564 0.04921303 0.018463422 -0.07864728 0.08760122 0.004179565 0.0032048156
-0.0017877774 -0.0079536615 0.009194853 0.12182801 -0.05972207 0.06981077 0.034158483 0.16303456
0.08892653 0.16293438 -0.15741535 -0.17156106 -0.034355607 0.1291149 0.013983473 -0.09367555
0.030341119 -0.062480107 -0.055318657 -0.08929663 -0.11090105 -0.08188532 -0.12174262 -0.19113524
-0.11120828 -0.013250613 0.03525787 -0.006123363 0.0062817964 -0.10124914 0.12897958 -0.027338507
0.0146318665 0.20331195 0.08940641 0.124384254 0.04103827 0.05025065 0.033192664 -0.038410828
0.11436371 0.08134759 -0.018975236 0.024035085 -0.023806952 0.009382858 0.0040242183 -0.17344917
0.031888347 -0.11367643 -0.04206713 0.05410169 0.10913344 0.10986855 0.04438387 0.19713181
0.19524969 -0.028534062 0.18545589 0.09891996 -0.102910705 0.041418977 -0.028638657 -0.0056156027
0.0070187296 -0.17197785 -0.12038693 0.0214745 -0.17728929 0.004895217 -0.201773 -0.005801648
0.1254426 -0.0033743773 0.24039814 0.14101766 0.06775724 0.27552563 0.113877036 0.089498006
0.10669998 0.13998184 0.026861029 -0.011623172 0.16454108 0.037550576 0.04990001 0.16543522
-0.05719706 0.047324356 -0.1321593 0.0008536079 -0.08219283 0.036364246 -0.086906806 -0.05965566
0.13869439 0.13072929 0.051860593 0.12402242 -0.059683 -0.047655154 -0.04677556 0.06182105
0.10846143 0.013638343 0.084312364 0.020949047 -0.010919887 -0.04185499 0.00051057234 -0.08917612
-0.11279668 0.055261455 -0.08621948 0.09901993 0.050223533 0.06258783 0.0810385 -0.056462437
0.08807142 -0.06443961 -0.17110239 0.10532769 0.003972824 0.078432806 0.07094148 0.060275905
00000000: d0d6 b83d 6962 4b3d 1877 18bd 5b7b 183d
00000010: f139 fabc 7d6d 5cbd c4a2 013d 5495 bfbd
00000020: b026 17bc 0f90 49be ff1f 82bc ff7e 76bd
00000030: 5e31 9fbc 0d0a ddbd a317 04be e41b b93d
00000040: d410 8c3c 1f57 2bbe 6e7a 893d 9777 9c3d
00000050: 9abc 0bbd 5528 6fbd 758c 1e3e d0f9 733d
00000060: b0ba b7bd 1adb a2bd 4653 aebc 83ae 1a3e
00000070: 396f 0e3e cfe7 efbc fe9b 84bc f691 1fbc
00000080: f94f 20bc cd03 14bd c3cb f73c 9c9e 57bd
00000090: 578d 8d3d 599a f6bc ac50 37bd fe67 1abd
000000a0: 9a0d 7e3d 0ce9 df3d 1b0d f6bd 07a0 b2bd
000000b0: c3b5 80bd cc50 ba3d 0880 a33d 837a a63c
000000c0: 2706 183d b7d3 02be facc 12be dd2c 2a3d
000000d0: 798e 0f3d 5a5a 37bd 8435 f4bc a254 b0bc
000000e0: f1b6 383d d7f9 2b3c f26e e2bd 799b 103e
000000f0: 1780 b9bd 04c0 9cbe ab22 12be 5492 ab3d
00000100: de16 c5bd f535 33be 0e32 b1bd c080 53bd
00000110: e863 cebd 1e0e 0b3e 8e62 eabb 7cca fcbd
00000120: d2ac 88bd 8090 05be 5aa1 92bc 1eef 4abd
00000130: 3f88 e9bd d2df edbd e280 863d 2e44 333d
00000140: 2a8b 12bd b226 4a3e 6fcd 8a3c 6adc 68bc
00000150: f51b 8c3d 6208 f43d 5e5a 5a3d 9873 5d3d
00000160: dc66 c53d d038 72bd 2b6c 8e3d 5f92 fbbc
00000170: 7063 43bd 3089 503d dac4 c93d ee64 b03d
00000180: 7d5f 833d 4266 5d3d 2626 81bc 43da 313d
00000190: 7be0 ec3d 18b1 64bd 3643 1ebd dcc8 3abe
000001a0: 2b16 1fbe 8db4 263d c087 63bd 1bc4 28be
000001b0: 30d1 6a3d 239f ccbc 16a0 a33c 7489 7a3d
000001c0: 232c 7abd 6fbe 50be 1c44 b93d 35b3 a93c
000001d0: e12b e5bd 5921 e33d 66fc 323d 0388 633d
000001e0: 4aff 163e cdb0 f33d 9a93 493d 9a40 973c
000001f0: d311 a1bd 4568 b33d bbf4 883b e207 523b
00000200: db53 eaba 1350 02bc 02a6 163c f780 f93d
00000210: 219f 74bd f3f8 8e3d c4e9 0b3d 88f2 263e
00000220: 1d1f b63d 45d8 263e 7d31 21be b4ad 2fbe
00000230: 77b8 0cbd b236 043e f01a 653c f7d8 bfbd
00000240: f08d f83c 24eb 7fbd d195 62bd 27e1 b6bd
00000250: 1720 e3bd 7eb3 a7bd 3254 f9bd f5b8 43be
00000260: 2bc1 e3bd 1919 59bc 8e6a 103d 7ea6 c8bb
00000270: 87d7 cd3b b65b cfbd 3913 043e 01f5 dfbc
00000280: 7fba 6f3c 0231 503e b51a b73d 2cbd fe3d
00000290: bf17 283d a0d3 4d3d 08f5 073d ac54 1dbd
000002a0: 8537 ea3d 9199 a63d f471 9bbc 3ae5 c43c
000002b0: cc06 c3bc 8fba 193c 97dd 833b a99c 31be
000002c0: 5b9d 023d 30cf e8bd 954e 2cbd bc99 5d3d
000002d0: 5a81 df3d c302 e13d dccb 353d ecdc 493e
000002e0: 89ef 473e 44c0 e9bc 26e8 3d3e 8c96 ca3d
000002f0: d9c2 d2bd f2a6 293d 9e9b eabc 1703 b8bb
00000300: 5ffd e53b f61a 30be 6c8d f6bd 4aeb af3c
00000310: 538b 35be 0e68 a03b 959d 4ebe c01b bebb
00000320: 0674 003e a824 5dbb ee2a 763e ef66 103e
00000330: 4fc4 8a3d b211 8d3e 5d38 e93d bb4a b73d
00000340: 8585 da3d 6657 0f3e a90b dc3c 1e6f 3ebc
00000350: 757d 283e a2ce 193d f463 4c3d da67 293e
00000360: 7747 6abd 2fd7 413d c454 07be a8c4 5f3a
00000370: b754 a8bd adf2 143d 32fc b1bd 7e59 74bd
00000380: e705 0e3e e6dd 053e c66b 543d 77ff fd3d
00000390: 2976 74bd 0d32 43bd bb97 3fbd 1238 7d3d
000003a0: 0721 de3d 5b73 5f3c f6ab ac3d 569d ab3c
000003b0: 53e9 32bc 2370 2bbd eed7 053a f8a1 b6bd
000003c0: f201 e7bd d659 623d d793 b0bd f6ca ca3d
000003d0: 31b7 4d3d 0c2e 803d 83f7 a53d 2845 67bd
000003e0: ca5e b43d eaf8 83bd 7735 2fbe 0bb6 d73d
000003f0: 772e 823b 61a1 a03d c449 913d dee3 763d

model.ec3.0.bias f4 [16]
-0.04406033 0.08942523 0.06633011 0.00539166 -0.005606438 0.11977205 0.09203967 -0.15213074
0.0118711395 -0.060669396 -0.01833253 -0.038777225 0.016408889 0.11841334 -0.10127209 0.11961598
00000000: 9b78 34bd 9324 b73d 15d8 873d 86ac b03b
00000010: 36b6 b7bb 0c4b f53d 4b7f bc3d 29c8 1bbe
00000020: 2b7f 423c 7980 78bd 1a2e 96bc ded4 1ebd
00000030: ef6b 863c b182 f23d be67 cfbd 39f9 f43d

model.ec4.0.weight f4 [32, 16, 3, 3]
-0.054168783 -0.19144182 -0.04344683 0.061635714 0.05856713 0.054397836 0.030002953 -0.06137251
0.031161288 -0.05224204 0.09312656 0.1877835 -0.15779677 0.058911897 0.017704034 -0.054447982
-0.075573966 -0.045079216 -0.04689661 -0.008891638 -0.019503206 -0.0010403369 0.15872215 -0.0039250823
0.018052744 0.090604044 -0.02601915 0.07419298 -0.016413748 -0.015694363 0.025370173 0.0080303
0.041286718 0.13971278 -0.03575336 0.09274607 -0.043399762 0.07531925 0.090333164 -0.12146671
0.105653785 0.09122709 -0.05706964 -0.11952876 0.057771005 -0.039755043 -0.038533743 0.1283848
0.04516401 -0.13108379 0.04459902 0.060898915 -0.10989739 0.0012150812 0.09830587 -0.07168069
-0.05065999 0.024347646 0.07792173 -0.079690054 -0.003991687 0.07700548 0.1607234 0.023373503
0.060092196 0.017514998 0.041433956 0.06420044 -0.091807805 -0.13116235 -0.139871 -0.0028715506
-0.03197897 -0.021867054 0.10158116 -0.10419127 -0.14215471 0.09739601 0.026281146 -0.0688343
0.08346857 -0.13815956 0.022807512 0.05534311 -0.07950641 0.046437975 0.04954435 -0.012761577
-0.0022734802 0.059785035 -0.057318993 -0.12016562 0.12521623 0.033093102 0.0668767 0.11519607
-0.05506087 0.046335973 0.11905071 0.052088514 -0.13864426 0.012642131 0.10756287 -0.08493508
0.04908971 0.018620621 -0.041966636 -0.0010389226 0.030050566 0.081196755 -0.094862156 0.026647747
-0.035753768 -0.05404995 -0.05101385 -0.06501454 0.004867529 -0.10400047 0.04376278 -0.013633404
0.0780781 0.07945523 0.07383649 -0.024779325 -0.05648059 0.037190348 -0.07910226 0.024340954
0.022375496 0.036850456 0.09093875 0.08485949 -0.04283355 -0.008272571 0.023031686 -0.08415538
-0.11645497 -0.021941096 0.019508133 -0.070911705 0.013218756 0.122194126 0.055958748 -0.018686997
-0.20608163 -0.12148418 -0.00885818 -0.014862297 -0.09780199 -0.16477339 -0.011676391 -0.049255263
0.04447512 0.1051352 -0.017212702 -0.113075666 0.02696313 -0.044722505 -0.060027257 0.11974626
0.003817691 0.040845282 -0.009653874 -0.025053311 -0.013892141 -0.002670526 -0.007421984 0.064914614
0.08250052 -0.021897865 -0.064801335 -0.10739095 -0.060291436 -0.026649604 -0.08922809 0.0391447
0.035127714 0.09907958 0.043581787 -0.0025431728 -0.07452718 -0.041415643 -0.046671294 0.12003096
0.15838195 0.023707006 0.04623644 0.13452375 -0.01753234 -0.005796122 0.0804015 -0.13558418
-0.012800136 0.12326142 -0.040391956 0.11994687 0.20402887 -0.016252391 -0.06593331 -0.028802432
0.1048732 -0.10706046 -0.12488766 0.00085185416 -0.013926807 0.12944756 0.07154065 0.2065653
0.117699124 0.036378004 0.011512315 0.17893875 0.022124523 -0.0029861354 0.022327755 0.0053010057
-0.022335885 -0.010271578 -0.082287006 -0.01535038 -0.005355024 0.04850012 -0.06423894 -0.021160614
-0.013144056 -0.05283155 -0.097853936 0.004808523 -0.0026819415 -0.052953385 -0.07484963 0.12809281
0.02320452 0.011322575 -0.030204883 -0.07116186 0.05875362 0.057969093 0.004079713 -0.05705909
0.14210665 0.14661859 0.0026978399 0.025591427 -0.10244366 -0.1128155 0.13107881 0.09464185
0.1897551 -0.043961078 0.090143286 0.08817463 0.106227234 -0.18235485 -0.08678475 0.117297776
00000000: 16e0 5dbd 5309 44be 4ef5 31bd bb75 7c3d
00000010: 16e4 6f3d 44d0 5e3d c1c8 f53c be61 7bbd
00000020: f545 ff3c c0fb 55bd 23b9 be3d 514a 403e
00000030: 7a95 21be 9a4d 713d 0d08 913c d904 5fbd
00000040: 86c6 9abd fca4 38bd a916 40bd 3cae 11bc
00000050: 30c5 9fbc ea5b 88ba 0f88 223e fa9d 80bb
00000060: 59e3 933c 9d8e b93d 1d26 d5bc 7df2 973d
00000070: 2076 86bc 7791 80bc 1cd5 cf3c 8591 033c
00000080: 431c 293d de10 0f3e 1d72 12bd a7f1 bd3d
00000090: f3c3 31bd fb40 9a3d 9800 b93d 8ac3 f8bd
000000a0: 0361 d83d 45d5 ba3d dbc1 69bd 7fcb f4bd
000000b0: 4aa1 6c3d 2fd6 22bd 8fd5 1dbd 4e77 033e
000000c0: e6fd 383d d43a 06be 76ad 363d 2471 793d
000000d0: e211 e1bd 5c43 9f3a 9754 c93d 53cd 92bd
000000e0: da80 4fbd b774 c73c 6e95 9f3d 8a34 a3bd
000000f0: b3cc 82bb 0db5 9d3d ad94 243e ca79 bf3c
00000100: 3c23 763d 9d7b 8f3c a7b6 293d 857b 833d
00000110: bb05 bcbd 6c4f 06be 583a 0fbe a030 3cbb
00000120: 61fc 02bd 8922 b3bc c909 d03d 3c62 d5bd
00000130: 0191 11be 8f77 c73d 8f4b d73c fff8 8cbd
00000140: 92f1 aa3d b379 0dbe d2d6 ba3c 75af 623d
00000150: 42d4 a2bd bf35 3e3d 04ef 4a3d ef15 51bc
00000160: abfe 14bb 27e1 743d 52c7 6abd 6519 f6bd
00000170: af38 003e a28c 073d a7f6 883d ebeb eb3d
00000180: 8287 61bd caca 3d3d dcd0 f33d c45a 553d
00000190: c3f8 0dbe f120 4f3c ec49 dc3d 71f2 adbd
000001a0: 4b12 493d 468a 983c 35e5 2bbd 752c 88ba
000001b0: 9b2c f63c 7c4a a63d 1747 c2bd 604c da3c
000001c0: 8b72 12bd 7b63 5dbd e6f3 50bd 5826 85bd
000001d0: cb7f 9f3b 33fe d4bd 9a40 333d a45e 5fbc
000001e0: 69e7 9f3d 6cb9 a23d 9637 973d 03fe cabc
000001f0: 3158 67bd e854 183d 5e00 a2bd ae66 c73c
00000200: d14c b73c 81f0 163d 183e ba3d d0ca ad3d
00000210: 3c72 2fbd ad89 07bc f2ac bc3c a859 acbd
00000220: f17f eebd d0bd b3bc 85cf 9f3c 283a 91bd
00000230: 7b93 583c ea40 fa3d 0035 653d 7915 99bc
00000240: 1007 53be b3cc f8bd e621 11bc fe80 73bc
00000250: 694c c8bd 5bba 28be 554e 3fbc e3bf 49bd
00000260: 8b2b 363d 2051 d73d a701 8dbc 3794 e7bd
00000270: c8e1 dc3c f22e 37bd 24df 75bd 873d f53d
00000280: 3a32 7a3b 624d 273d 482b 1ebc 9a3c cdbc
00000290: dd9b 63bc fe03 2fbb 1d34 f3bb f4f1 843d
000002a0: 08f6 a83d 2763 b3bc 90b6 84bd c9ef dbbd
000002b0: 27f4 76bd 4550 dabc 38bd b6bd 3156 203d
000002c0: 14e2 0f3d 3cea ca3d d182 323d 5cab 26bb
000002d0: b5a1 98bd 73a3 29bd 662a 3fbd cbd2 f53d
000002e0: e12e 223e 3235 c23c 6c62 3d3d 98c0 093e
000002f0: fb9f 8fbc 65ed bdbb 8ba9 a43d 94d6 0abe
00000300: a9b7 51bc 7c70 fc3d 0972 25bd b4a6 f53d
00000310: f2ec 503e bc23 85bc 0b08 87bd 14f3 ebbc
00000320: c3c7 d63d 8442 dbbd 1ac5 ffbd f74e 5f3a
00000330: 432d 64bc e78d 043e e883 923d db85 533e
00000340: 3d0c f13d 1a01 153d 269e 3c3c b83b 373e
00000350: 7d3e b53c 0ab3 43bb b2e8 b63c 0fb4 ad3b
00000360: bff9 b6bc 1f4a 28bc 1786 a8bd 2980 7bbc
00000370: 3279 afbb 10a8 463d b58f 83bd 0659 adbc
00000380: 2b5a 57bc e565 58bd a567 c8bd d190 9d3b
00000390: 83c3 2fbb a6e5 58bd c34a 99bd c32a 033e
000003a0: 6817 be3c 5282 393c 3b70 f7bc 4fbd 91bd
000003b0: a3a7 703d 0071 6d3d 1daf 853b cbb6 69bd
000003c0: 6884 113e 2f23 163e 3ece 303b 1da5 d13c
000003d0: fbcd d1bd d00b e7bd 8639 063e 96d3 c13d
000003e0: 294f 423e 8810 34bd 0b9d b83d e794 b43d
000003f0: aa8d d93d 3bbb 3abe 34bc b1bd d139 f03d

model.ec4.0.bias f4 [32]
0.08943409 0.193709 0.03709261 0.026881091 0.19247515 0.16941154 -0.109834015 0.12283773
-0.103847146 0.14511755 -0.07842868 -0.06811518 -0.021339487 0.08861656 -0.034478646 -0.07683897
-0.029410055 0.10322111 0.14472054 -0.12742278 0.04089215 -0.14805016 0.18948719 -0.11080993
0.11613842 -0.012618826 -0.14295624 0.02211849 0.13763957 0.072234154 0.06054232 0.14955659
00000000: 3829 b73d a75b 463e 6cee 173d bc35 dc3c
00000010: 3518 453e 387a 2d3e a8f0 e0bd 5992 fb3d
00000020: d0ad d4bd b299 143e 379f a0bd f97f 8bbd
00000030: 26d0 aebc 997c b53d 7b39 0dbd c05d 9dbd
00000040: 5bed f0bc 9765 d33d 9f31 143e 1e7b 02be
00000050: 877e 273d 769a 17be ee08 423e 51f0 e2bd
00000060: fbd9 ed3d 31bf 4ebc 1f63 12be d631 b53c
00000070: 63f1 0c3e 80ef 933d 39fb 773d 5d25 193e

model.ec5.0.weight f4 [32, 32, 3, 3]
-0.086720906 0.016493926 0.008616284 0.07822188 -0.048280116 0.11598465 0.012193089 -0.042519625
-0.007795851 0.007740432 0.045719434 0.05318837 -0.09901374 0.08936701 -0.0072738803 -0.03681356
0.14835607 -0.019865924 0.023586323 0.016979165 -0.006073513 0.05323339 0.01153375 0.07187205
-0.059343822 0.12651402 -0.048539028 -0.14379308 0.041798167 0.07427715 -0.060671262 -0.0044630985
0.013299028 -0.038548063 -0.06401072 0.19641264 -0.05413108 0.12069506 0.14036645 -0.120941184
0.09942494 -0.08020721 0.08902923 0.025376372 -0.014368255 -0.020121692 0.11537992 0.040644202
-0.13442013 -0.07189572 -0.003291976 -0.05902682 -0.016776633 -0.0044521336 -0.055254683 -0.061158568
0.06360863 0.13489696 0.17220953 -0.027599594 0.032339405 0.16772948 -0.13644092 0.1121696
0.039420478 0.07234663 0.0017232634 -0.16100638 0.012135632 -0.008957959 0.061611447 -0.006967221
-0.07454298 -0.12317958 -0.03348235 -0.029912468 -0.21784456 -0.008381275 -0.13016613 0.05868693
0.1703041 -0.07943462 0.04195837 0.10904907 -0.07439102 -0.11549051 0.076333985 0.08717147
-0.016763888 0.10186002 -0.06746965 -0.030276837 0.09551988 0.07604605 -0.11295935 0.046374317
0.10239867 0.0237193 0.081819944 -0.09960728 0.0014426158 -0.011463613 -0.06587836 0.06489965
-0.006945674 -0.00087187515 -0.15048778 0.06745335 -0.006536029 0.066791475 0.04791418 -0.0780219
-0.025237067 -0.032531913 -0.07533623 -0.07272524 0.053860925 -0.012811074 -0.06291948 -0.0037403058
0.00046073092 -0.10519389 0.07818067 0.0055806926 0.04366809 -0.009873588 0.021320311 0.034308605
-0.05764458 0.18843858 -0.006167948 0.21535105 -0.11257243 0.16179101 0.16143565 -0.043248393
-0.06676198 0.08155258 -0.01969402 -0.1327438 -0.01655913 -0.06837798 -0.08915755 0.12811655
0.06803765 0.2249758 -0.18711862 0.031824406 -0.12247012 -0.0865686 0.067155905 -0.025318805
0.1336438 0.17186761 0.23750277 0.13299379 -0.020453798 0.11267389 -0.06459513 0.03840618
-0.062791616 0.0460646 0.021191431 0.07999048 -0.036800858 0.016589317 0.08803342 -0.20139213
-0.094573505 0.08244557 -0.082166895 -0.038544316 -0.10429675 0.10957856 -0.06538164 -0.09955475
0.07255319 -0.06936347 -0.039852984 0.08198472 -0.025229322 0.06491176 0.07975208 -0.09448251
-0.027325762 0.13563049 0.03554911 -0.14802785 0.023208993 -0.07684657 -0.021733085 -0.00685219
0.04072341 0.14055802 0.0008602248 0.014357243 -0.07544593 -0.102659695 -0.06720197 -0.017935999
0.08115345 -0.18239076 -0.056572355 0.017800052 0.012923111 -0.11870628 0.10840562 -0.025772877
-0.055261843 -0.030776603 0.10551004 0.086182915 0.07226531 -0.08228521 0.09626905 0.16479708
0.12000211 -0.028718567 0.057188824 -0.0320294 0.07210834 0.05319401 -0.108870484 0.0680749
0.015044319 0.11349666 0.026105573 0.08105083 -0.034953885 -0.012544748 0.014836949 -0.015614861
-0.033880968 0.07580164 -0.026027407 -0.075260445 0.061124135 -0.04502364 0.07732511 0.07445145
-0.05482912 -0.07658735 0.09897917 0.04664563 0.1041201 0.0448096 0.18446147 -0.0328853
0.118232705 0.15812658 0.045012392 0.065211065 0.023511969 0.0952749 0.068470284 -0.10842847
00000000: bb9a b1bd 451e 873c 502b 0d3c cb32 a03d
00000010: 5fc1 45bd 5c89 ed3d 86c5 473c 0f29 2ebd
00000020: 5774 ffbb 73a3 fd3b 4d44 3b3d 0cdc 593d
00000030: b7c7 cabd 0d06 b73d bb59 eebb d1c9 16bd
00000040: a7ea 173e ddbd a2bc 1b38 c13c e417 8b3c
00000050: 5204 c7bb 410b 5a3d 0ef8 3c3c a731 933d
00000060: 8212 73bd e48c 013e dcd0 46bd 7e3e 13be
00000070: 8e34 2b3d 9e1e 983d 6e82 78bd 2f3f 92bb
00000080: 2be4 593c 93e4 1dbd 0d18 83bd 6520 493e
00000090: 8db8 5dbd f92e f73d 39bc 0f3e 03b0 f7bd
000000a0: 4e9f cb3d ad43 a4bd f554 b63d 1ce2 cf3c
000000b0: d468 6bbc 3fd6 a4bc 4f4c ec3d 897a 263d
000000c0: 6ea5 09be 103e 93bd 31be 57bb 1bc6 71bd
000000d0: 266f 89bc 34e3 91bb bc52 62bd 6881 7abd
000000e0: 3e45 823d 6e22 0a3e b257 303e 8b18 e2bc
000000f0: 5376 043d 47c1 2b3e 2bb7 0bbe 2db9 e53d
00000100: 5e77 213d 782a 943d 20df e13a dbde 24be
00000110: 88d4 463c 67c4 12bc 495c 7c3d 494d e4bb
00000120: fda9 98bd 9345 fcbd ca24 09bd fe0a f5bc
00000130: a512 5fbe 9e51 09bc 454a 05be b561 703d
00000140: 3364 2e3e 9eae a2bd 8adc 2b3d 1e55 df3d
00000150: 525a 98bd 4a86 ecbd fe54 9c3d f586 b23d
00000160: 6c54 89bc fc9b d03d 872d 8abd 2107 f8bc
00000170: ed9f c33d 08be 9b3d 3b57 e7bd fff2 3d3d
00000180: 65b6 d13d fa4e c23c 3791 a73d e7fe cbbd
00000190: 2716 bd3a e1d1 3bbc 3ceb 86bd 1cea 843d
000001a0: 8998 e3bb 8d8e 64ba 7819 1abe fb24 8a3d
000001b0: 2f2c d6bb f8c9 883d a941 443d f2c9 9fbd
000001c0: f7bd cebc 2f40 05bd e249 9abd f8f0 94bd
000001d0: 469d 5c3d 8ae5 51bc eedb 80bd eb1f 75bb
000001e0: 428e f139 e56f d7bd 301d a03d 3ede b63b
000001f0: 50dd 323d d4c4 21bc efa7 ae3c 2e87 0c3d
00000200: b91c 6cbd 0bf6 403e 7f1c cabb fc84 5c3e
00000210: 608c e6bd 8bac 253e 634f 253e 3a25 31bd
00000220: 81ba 88bd 0a05 a73d 5a55 a1bc feed 07be
00000230: 03a7 87bc c109 8cbd 3c98 b6bd fc30 033e
00000240: 5357 8b3d 0e60 663e 069c 3fbe 4f5a 023d
00000250: 9dd1 fabd e14a b1bd 0989 893d 6269 cfbc
00000260: ecd9 083e 10fe 2f3e ed33 733e 862f 083e
00000270: b98e a7bc 92c1 e63d 744a 84bd cc4f 1d3d
00000280: e498 80bd 3cae 3c3d a799 ad3c 0cd2 a33d
00000290: 7fbc 16bd 52e6 873c de4a b43d bd39 4ebe
000002a0: c1af c1bd 39d9 a83d 1e47 a8bd a5e0 1dbd
000002b0: 8999 d5bd b96a e03d cfe6 85bd 5ce3 cbbd
000002c0: c496 943d 6f0e 8ebd e23c 23bd 9be7 a73d
000002d0: b9ad cebc 75f0 843d 0f55 a33d 0c80 c1bd
000002e0: 47da dfbc b8e2 0a3e f29b 113d 9d94 17be
000002f0: c920 be3c bc61 9dbd 9509 b2bc 5688 e0bb
00000300: 97cd 263d 71ee 0f3e b680 613a a43a 6b3c
00000310: 6583 9abd 3f3f d2bd 30a1 89bd 84ee 92bc
00000320: c833 a63d a5c4 3abe 6ab8 67bd 6ad1 913c
00000330: 75bb 533c 471c f3bd c403 de3d a421 d3bc
00000340: 3e5a 62bd 371f fcbc a615 d83d ab80 b03d
00000350: d6ff 933d 2685 a8bd b528 c53d 91c0 283e
00000360: abc3 f53d 3343 ebbc d43e 6a3d 4331 03bd
00000370: 8aad 933d f6e1 593d 7df7 debd da6a 8b3d
00000380: 737c 763c f070 e83d 5bdb d53c fafd a53d
00000390: ce2b 0fbd 7d88 4dbc ad16 733c 79d5 7fbc
000003a0: c5c6 0abd e43d 9b3d 6e37 d5bc 2622 9abd
000003b0: 4d5d 7a3d b56a 38bd a15c 9e3d 007a 983d
000003c0: 8094 60bd d4d9 9cbd 97b5 ca3d 7d0f 3f3d
000003d0: eb3c d53d 458a 373d 78e3 3c3e bdb2 06bd
000003e0: fd23 f23d efeb 213e ea5e 383d 618d 853d
000003f0: 2c9c c03c 7d1f c33d 263a 8c3d bf0f debd

model.ec5.0.bias f4 [32]
-0.052115884 0.17426038 0.106376074 0.090530984 0.009728461 0.006937425 0.049442485 -0.13280126
0.068212025 0.16901883 -0.15652926 0.11313783 0.10325823 0.15561306 -0.041758403 0.14620522
0.16003148 0.05601944 0.18140818 0.01949886 0.091954604 0.09582845 -0.09064786 -0.050812278
0.06526172 -0.08787008 0.07144415 0.0361038 -0.016587352 -0.060534302 0.06528819 0.08701198
00000000: 7777 55bd 5071 323e b3db d93d 4f68 b93d
00000010: 1f64 1f3c 5753 e33b 3484 4a3d 0efd 07be
00000020: bfb2 8b3d 4613 2d3e 3549 20be ceb4 e73d
00000030: 0d79 d33d 0859 1f3e dc0a 2bbd d2b6 153e
00000040: 4bdf 233e a474 653d 11c3 393e 13bc 9f3c
00000050: b252 bc3d b541 c43d 96a5 b9bd 8920 50bd
00000060: f0a7 853d 3af5 b3bd 4f51 923d 94e1 133d
00000070: 33e2 87bc d1f2 77bd d1b5 853d 5633 b23d

model.ec6.0.weight f4 [64, 32, 3, 3]
-0.0007512901 -0.07900171 0.06830303 0.0009263083 0.06623861 -0.08806482 -0.14011884 0.17840621
-0.14105004 -0.07322032 -0.21068329 -0.06646606 0.14548859 0.06215801 0.079099245 0.039818447
0.053242136 -0.01464496 -0.026872529 0.11260452 -0.14198606 0.00038877796 0.03812574 0.16788843
0.11952796 -0.1324261 -0.0018191739 -0.11237397 0.13651563 -0.1214395 0.042903382 0.06753429
0.1103872 0.09886635 -0.17377521 -0.018422702 0.13327172 -0.18579537 0.050430242 -0.07430286
0.08585313 -0.09128718 -0.06253123 0.013787379 -0.03920248 -0.08034079 -0.25383836 0.14283507
0.10977283 0.03142681 -0.020044116 -0.033033438 0.05459275 -0.061198693 -0.026372416 -0.029912038
0.09506261 -0.06646736 -0.10081026 0.036865633 0.0340676 -0.025178758 0.036046337 -0.04074745
0.0024204745 -0.09322857 -0.050000973 0.097140275 -0.22179809 0.016939472 0.059495974 0.005411346
0.0026802106 -0.054779194 -0.013061131 0.17889719 0.023510227 0.08312364 0.0642852 -0.0001221832
-0.054045994 -0.12023335 0.0078079416 -0.111686 0.07482091 0.09116863 0.16484873 -0.057916645
0.12493553 -0.107702166 0.15809527 -0.054284997 0.08693831 0.105302826 0.12937725 -0.10273481
-0.020934278 0.06629857 -0.016083483 -0.10703582 0.02336839 0.03237345 -0.017542467 -0.071404114
0.05216634 -0.07996483 0.10227931 -0.0735585 0.025514975 -0.13724762 0.083409615 0.015085195
0.06855434 -0.14998826 -0.10553109 0.08218449 -0.092719994 -0.085193716 0.018377047 -0.057840772
-0.06512199 -0.07591434 -0.0050194184 0.041908726 0.013916277 0.05352192 0.05699798 -0.016644312
-0.07343826 -0.09707866 0.067766555 -0.08424406 -0.01770863 -0.06971316 -0.011907164 -0.038056258
-0.016138794 -0.16384977 0.047905736 0.036452956 0.07820553 0.082365274 -0.11434471 -0.012530834
0.041251983 0.1698398 -0.10316143 -0.110704266 -0.08474573 -0.020732163 0.037982482 -0.08201292
-0.041456174 0.008695791 0.1585594 -0.09849817 -0.15028337 -0.12857394 0.11029067 0.13186906
-0.06801642 0.10494609 -0.09695854 -0.109423496 0.020424625 -0.09003246 -0.047901925 0.082785465
0.00041211362 0.06219511 -0.04674432 -0.04771847 -0.0072169844 -0.026190577 0.13630025 0.06032128
-0.051043183 -0.040160414 0.013659239 -0.13631052 0.00025336567 -0.010781077 -0.024012893 -0.16060427
-0.13462286 0.12951207 0.052223038 0.01239494 0.042164266 -0.033576924 -0.07026592 -0.174523
0.0014295026 0.01668578 0.03669954 0.064799845 0.0044639674 -0.03922418 0.12423084 -0.033846166
0.09362932 -0.03945372 -0.07786822 -0.16185316 0.0552899 -0.08139526 0.104226984 0.03781643
0.06886377 -0.05744954 -0.075729236 -0.04247803 -0.029774837 0.07180198 -0.0306975 0.011715111
-0.14191465 0.08556288 -0.12305477 0.10807196 -0.031503975 0.036706172 -0.022933494 -0.05774962
-0.16478714 -0.047541156 0.11303449 -0.0063956673 0.2105694 0.05391171 0.01652717 0.07062744
-0.07248806 -0.043024905 -0.06722241 -0.071729995 -0.17667651 0.1500337 0.10144751 0.17960806
-0.054606345 -0.095316865 -0.0357625 -0.09069672 0.113954484 -0.042169183 0.022323193 -0.03691689
0.065033734 0.118265875 -0.03553782 0.0786726 0.05533576 -0.027335644 0.053110387 -0.069253184
00000000: 3af2 44ba a6cb a1bd 76e2 8b3d 7fd3 723a
00000010: 1ca8 873d 545b b4bd 507b 0fbe 1eb0 363e
00000020: 6c6f 10be 89f4 95bd 5cbd 57be 5c1f 88bd
00000030: f6fa 143e 6699 7e3d c9fe a13d ab18 233d
00000040: 6d14 5a3d 6af1 6fbc c723 dcbc 339d e63d
00000050: cb64 11be e5d4 cb39 bc29 1c3d f2ea 2b3e
00000060: 13cb f43d b59a 07be 5971 eeba 5324 e6bd
00000070: c1ca 0b3e 46b5 f8bd 75bb 2f3d 6b4f 8a3d
00000080: af12 e23d 717a ca3d 21f2 31be 35eb 96bc
00000090: 6278 083e 2441 3ebe f18f 4e3d 192c 98bd
000000a0: c4d3 af3d c6f4 babd 6010 80bd 75e4 613c
000000b0: c892 20bd b689 a4bd 1af7 81be 5b43 123e
000000c0: 94d0 e03d 66b9 003d 8f33 a4bc 124e 07bd
000000d0: a69c 5f3d 7bab 7abd f70a d8bc 170a f5bc
000000e0: 30b0 c23d 0a20 88bd 9c75 cebd 6b00 173d
000000f0: 788a 0b3d af43 cebc 53a5 133d cce6 26bd
00000100: d3a0 1e3b 9fee bebd d2cd 4cbd 7bf1 c63d
00000110: 0a1f 63be a6c4 8a3c 0db2 733d a951 b13b
00000120: 79a6 2f3b 2660 60bd 5bfe 55bc d330 373e
00000130: 8598 c03c ba3c aa3d f5a7 833d 4e1e 00b9
00000140: 555f 5dbd e73c f6bd c3d9 ff3b a1bb e4bd
00000150: b53b 993d 9eb6 ba3d 1bce 283e 013a 6dbd
00000160: 33de ff3d f492 dcbd bae3 213e f259 5ebd
00000170: b60c b23d 02a9 d73d 787b 043e a166 d2bd
00000180: 5d7e abbc 8bc7 873d 82c1 83bc 9935 dbbd
00000190: 116f bf3c 069a 043d 38b5 8fbc 523c 92bd
000001a0: 5fac 553d 9ac4 a3bd d177 d13d d7a5 96bd
000001b0: c804 d13c a48a 0cbe a9d2 aa3d e527 773c
000001c0: 3866 8c3d 8696 19be af20 d8bd 5850 a83d
000001d0: fbe3 bdbd 0b7a aebd 768b 963c 72ea 6cbd
000001e0: ae5e 85bd fa78 9bbd ef79 a4bb 7ca8 2b3d
000001f0: 1901 643c cd39 5b3d b776 693d a759 88bc
00000200: cc66 96bd 2dd1 c6bd 31c9 8a3d 2688 acbd
00000210: b011 91bc c6c5 8ebd 4416 43bc e1e0 1bbd
00000220: 8135 84bc 3cc8 27be ce38 443d b24f 153d
00000230: 392a a03d 20af a83d 8f2d eabd 214e 4dbc
00000240: d7f7 283d 7cea 2d3e 4d46 d3bd ebb8 e2bd
00000250: 2b8f adbd 7fd6 a9bc 8593 1b3d 64f6 a7bd
00000260: f3cd 29bd ca78 0e3c 655d 223e 69b9 c9bd
00000270: e2e3 19be e3a8 03be 13e0 e13d af08 073e
00000280: 314c 8bbd faed d63d 3392 c6bd 6d19 e0bd
00000290: 8b51 a73c f062 b8bd cf34 44bd 6d8b a93d
000002a0: f410 d839 4dc0 7e3d f976 3fbd 7174 43bd
000002b0: 747c ecbb 9f8d d6bc 4b92 0b3e 7213 773d
000002c0: a812 51bd 3f7f 24bd 00cb 5f3c fc94 0bbe
000002d0: 2ad6 8439 1da3 30bc b0b6 c4bc 7275 24be
000002e0: 93da 09be d09e 043e d3e7 553d 2514 4b3c
000002f0: 70b4 2c3d f587 09bd 94e7 8fbd 28b6 32be
00000300: 265e bb3a 9eb0 883c 4252 163d c8b5 843d
00000310: 7946 923b 89a9 20bd bd6c fe3d 47a2 0abd
00000320: bbc0 bf3d 399a 21bd 6079 9fbd d6bc 25be
00000330: aa77 623d 8fb2 a6bd f574 d53d 67e5 1a3d
00000340: 7308 8d3d 3550 6bbd ee17 9bbd 71fd 2dbd
00000350: 5cea f3bc eb0c 933d 5379 fbbc bdf0 3f3c
00000360: 1352 11be 973b af3d 2404 fcbd d554 dd3d
00000370: 500a 01bd 3659 163d 06df bbbc de8a 6cbd
00000380: f6bd 28be 84ba 42bd a07e e73d bf92 d1bb
00000390: 819f 573e 86d2 5c3d fd63 873c 1fa5 903d
000003a0: 9f74 94bd e23a 30bd e7ab 89bd 2de7 92bd
000003b0: b0ea 34be 6fa2 193e b6c3 cf3d 2deb 373e
000003c0: e7aa 5fbd 7d35 c3bd b37b 12bd 34bf b9bd
000003d0: f860 e93d 98b9 2cbd 21df b63c 2a36 17bd
000003e0: 6830 853d 6135 f23d 1b90 11bd 1a1f a13d
000003f0: c0a7 623d 00ef dfbc 478a 593d 9dd4 8dbd

model.ec6.0.bias f4 [64]
0.063829266 0.13529271 0.11841221 -0.06400153 0.10887011 0.007820628 0.1242376 -0.06883439
0.13064663 -0.09974765 0.13864161 -0.062804855 -0.1392076 0.054013815 -0.11665674 -0.041784488
-0.13413374 -0.0029155137 0.13877337 -0.022451915 -0.07461825 0.101217955 0.16019554 0.0914274
-0.055236753 0.124000095 -0.09321392 0.11166396 0.078473315 0.06376503 0.068603925 0.16632245
0.01920386 0.06610175 -0.0043328395 0.042799946 0.11632372 0.08006477 -0.049926545 0.005778672
0.13296197 0.18683293 -0.0072345803 0.13371247 0.12789835 0.08009783 -0.13098142 -0.073141664
-0.12294452 -0.0808386 -0.02167515 0.15348679 0.07482013 -0.07209795 0.104012325 -0.153978
0.14810939 0.07842724 0.026066909 0.14906102 -0.090308584 -0.08606573 0.077665314 0.03935787
00000000: ebb8 823d 2c8a 0a3e 1a82 f23d 3c13 83bd
00000010: 4bf7 de3d 1722 003c 4870 fe3d 0bf9 8cbd
00000020: 3bc8 053e 7f48 ccbd 11f8 0d3e d59f 80bd
00000030: 708c 0ebe 973d 5d3d bbe9 eebd 3626 2bbd
00000040: 5b5a 09be 3412 3fbb 9b1a 0e3e 14ed b7bc
00000050: 74d1 98bd 5c4b cf3d 4d0a 243e 4a3e bb3d
00000060: ef3f 62bd c3f3 fd3d f1e6 bebd 13b0 e43d
00000070: 9eb6 a03d 3d97 823d 3780 8c3d 6f50 2a3e
00000080: 6a51 9d3c 5b60 873d 7efa 8dbb ff4e 2f3d
00000090: 213b ee3d 00f9 a33d c77f 4cbd 045b bd3b
000000a0: 2f27 083e 2251 3f3e 0f10 edbb eceb 083e
000000b0: c9f7 023e 550a a43d fe1f 06be 4ccb 95bd
000000c0: 56ca fbbd b58e a5bd 1690 b1bc a42b 1d3e
000000d0: 4c3b 993d 17a8 93bd 6a04 d53d 69ac 1dbe
000000e0: fda9 173e 769e a03d 458a d53c 74a3 183e
000000f0: b5f3 b8bd 3b43 b0bd fe0e 9f3d b835 213d
