2D_CMR_Registration/ModelParameters-ACDC/Model_1_Diffeo_0_Loss_1_Chan_8_FT_20-42_Smth_0.01_LR_0.0001_Mode_0_Pth/DICE_0.32603_SSIM_0.89554_MSE_0.001816_Epoch_0001.pth (torch, 317654 bytes, 27 tensors)

model.eninput.0.weight f4 [8, 2, 3, 3]
0	0xbbaf6433	-0.005352521
1	0x3b1be26f	0.0023786088
2	0xbe0c5b25	-0.13706644
3	0xbe30b74e	-0.17257425
4	0xbdeddb17	-0.11614054
5	0xbe7f7051	-0.24945189
6	0xbc026d08	-0.007960565
7	0xbe159106	-0.14606103
8	0x3e1a521c	0.15070385
9	0x3cc22817	0.023700757
10	0x3dc96bb7	0.09834998
11	0xbd6cecac	-0.057842895
12	0x3e6a88be	0.22903726
13	0x3e5016ab	0.20321147
14	0xbd1d2e4a	-0.038374223
15	0x3c6477c7	0.013944573
16	0x3e0788e4	0.13235813
17	0xbe04e2c0	-0.12977123
18	0x3ddf4f10	0.10903752
19	0xbe9a9784	-0.30193722
20	0xbe8b3196	-0.2718627
21	0x3d541a7d	0.051783074
22	0xbe234d16	-0.15947375
23	0xbe64402a	-0.22290102
24	0x3e5571cd	0.20844193
25	0xbd490922	-0.049080975
26	0xbe304df3	-0.17217235
27	0xbe126b04	-0.14298636
28	0x3c898311	0.01678613
29	0xbda447dd	-0.08021519
30	0xbcff8fe4	-0.031196542
31	0x3e7051a7	0.23468648
32	0x3dac1acf	0.08403551
33	0x3ddba50e	0.10724841
34	0x3e21f2a3	0.15815215
35	0xbda79a31	-0.081837066
36	0x3e7431e2	0.23847154
37	0xbe28636b	-0.16444175
38	0x3e1725c3	0.14760499
39	0xbe3a84be	-0.182147
40	0xbe54f23d	-0.20795532
41	0xbe45359b	-0.1925873
42	0xbdd05e1a	-0.101741984
43	0xbe489e4a	-0.19591632
44	0x3e7d05bb	0.24709217
45	0xbd7693fc	-0.060199723
46	0x3d93f1de	0.07223867
47	0x3c5a54aa	0.01332585
48	0x3e6ab66b	0.2292115
49	0x3e897c5b	0.26852688
50	0xbe4be9be	-0.19913384
51	0x3ddf65be	0.10908078
52	0x3d10e433	0.035373878
53	0x3e107559	0.14107265
54	0x3e235ccd	0.1595337
55	0xbe4e7e5a	-0.20165387
56	0x3da2ca48	0.07948738
57	0x3e5bc191	0.21460558
58	0xbe709fe0	-0.23498487
59	0xbd84cf6f	-0.06484877
60	0xbc91d509	-0.017801778
61	0x3b901f2e	0.004398248
62	0xbe9f0977	-0.3106191
63	0x3e602aac	0.21891278
64	0x3e77a153	0.24182634
65	0xbe9404f8	-0.2891004
66	0x3ec0d68a	0.3766368
67	0x3e7bafdc	0.24578804
68	0x3ca38ab1	0.019963594
69	0x3d8a983c	0.06767318
70	0x3c012978	0.007883422
71	0xbe688268	-0.22705996
72	0x3de29372	0.11063279
73	0xbe4e5371	-0.20149018
74	0x3e600913	0.21878462
75	0xbe31867c	-0.17336458
76	0xbe39c8e1	-0.18143035
77	0x3e079fa2	0.13244489
78	0xbe8cce8b	-0.2750133
79	0xbe9ca397	-0.3059356
80	0xbe06c2bc	-0.13160223
81	0xbe1167c3	-0.14199738
82	0x3e1390a7	0.14410649
83	0xba0ea8a7	-0.0005442001
84	0xbc74279a	-0.01490202
85	0x3e443c36	0.19163594
86	0xbdde6037	-0.10858195
87	0x3cc3dabd	0.023908013
88	0x3e8526ab	0.26006064
89	0x3e50de35	0.20397265
90	0xbd345e03	-0.04403497
91	0xbb8fb06f	-0.004385046
92	0xbe0026f7	-0.12514864
93	0xbe2afe01	-0.16698457
94	0x3d7eabfc	0.062175736
95	0x3e373e02	0.17894748
96	0x3e7de359	0.24793757
97	0x3ec2d6b6	0.38054436
98	0x3e85a0f6	0.26099366
99	0x3e5fb92c	0.21847981
100	0xbe044e5f	-0.12920521
101	0xbd5af8a2	-0.05345977
102	0x3e578fc0	0.2105093
103	0x3cc992ae	0.024606075
104	0xbe99017e	-0.2988395
105	0x3dbf26d3	0.09333577
106	0xbe8d00c0	-0.27539635
107	0xbe923285	-0.28554168
108	0xbd1d0243	-0.038332235
109	0x3e140418	0.14454687
110	0xbdd14bce	-0.10219537
111	0x3e0f2215	0.13977845
112	0xbde52313	-0.111883305
113	0xbe24c423	-0.16090445
114	0xbdc4805d	-0.09594796
115	0x3bfd52f7	0.0077308374
116	0xbe34a646	-0.17641553
117	0xbb77f8c2	-0.003783748
118	0xbd8f2445	-0.0698934
119	0x3e56702c	0.20941228
120	0x3af51414	0.0018698
121	0xbc8865ef	-0.016650168
122	0x3d253dac	0.040342018
123	0xbe507bf7	-0.20359789
124	0x3d9d7835	0.07688943
125	0xbe9cbc63	-0.30612478
126	0xbe265b32	-0.16245726
127	0xbe40cdda	-0.18828526
128	0xbe82173d	-0.25408354
129	0xbd90fafa	-0.0707912
130	0x3da2ef43	0.07955792
131	0x3c3fc196	0.011703869
132	0xbd6aff17	-0.05737218
133	0xbd404a19	-0.046945665
134	0x3da84f3c	0.08218238
135	0x3dbba67c	0.09162614
136	0xbe48b66b	-0.19600837
137	0xbc20ce15	-0.009814759
138	0x3e0480d8	0.12939775
139	0x3e0d1a52	0.13779572
140	0x3e0ffa63	0.14060359
141	0x3e9a97b9	0.3019388
142	0x3e8a9cdf	0.27072808
143	0xbe53b88b	-0.20675866

model.eninput.0.bias f4 [8]
0	0xbda6a226	-0.08136396
1	0xbd83d870	-0.064377666
2	0x3d3a4430	0.045475185
3	0x3d394774	0.04523416
4	0x3dafef59	0.08590574
5	0x3c91f423	0.017816609
6	0x3dd0ac65	0.10189132
7	0xbca5f625	-0.020258972

model.ec1.0.weight f4 [8, 8, 3, 3]
0	0x3bc662f1	0.006054275
1	0xbd744d62	-0.05964411
2	0xbd9caf74	-0.076506525
3	0xbd852222	-0.06500651
4	0x3dd3a733	0.10334625
5	0xbd9cd5ab	-0.076579414
6	0x3c95f7c3	0.018306619
7	0x3dc89b62	0.09795262
8	0x3abb0e33	0.00142712
9	0x3d9753a7	0.07389002
10	0x3e349368	0.17634356
11	0x3d7fd6dc	0.062460765
12	0x3dd672e5	0.10471133
13	0xbda2724c	-0.07931957
14	0xbd89e024	-0.067322046
15	0xbd8a7deb	-0.06762298
16	0xbdb0304b	-0.08602961
17	0xbc1a06b1	-0.009401009
18	0x3d382c49	0.04496411
19	0x3d480e3f	0.04884171
20	0xbd8993db	-0.06717654
21	0x3d8e44ae	0.06946693
22	0xbdd3667f	-0.10322284
23	0x3db149e1	0.086566694
24	0x3d03f023	0.032211434
25	0x3b741df5	0.00372493
26	0xbc9eae8f	-0.019370345
27	0xbe3e6251	-0.18592192
28	0xbd85931a	-0.06522198
29	0xbd1b4d2d	-0.037915397
30	0xbe125fa1	-0.14294292
31	0x3da36421	0.079780824
32	0x3e1ddb29	0.15415634
33	0x3d52abc8	0.051433355
34	0x3e3b0b00	0.18265915
35	0xbc53ed1c	-0.012934949
36	0x3e23812b	0.15967242
37	0xbd1a63da	-0.037692882
38	0xbe136d41	-0.14397146
39	0xbc5bbf51	-0.013412313
40	0xbdbb583f	-0.09147691
41	0xbd746931	-0.05967063
42	0xbdcb89d5	-0.09938399
43	0xbe2f6ed7	-0.17132126
44	0x3bdc5079	0.0067234603
45	0xbe2d3d60	-0.16917944
46	0x3bb91e3f	0.0056493576
47	0x3d46945e	0.048481338
48	0x3daec201	0.08533097
49	0x3c66f207	0.01409579
50	0x3dc6c994	0.09706417
51	0x3dfa69a3	0.1222718
52	0xbd771f57	-0.060332622
53	0xbd8c0f77	-0.06838887
54	0xbe1f6ff7	-0.15570055
55	0xbab99400	-0.0014158487
56	0xbe01fac3	-0.12693314
57	0xbe07118c	-0.13190287
58	0x3bd20cb6	0.0064102067
59	0xbe19c974	-0.15018255
60	0xbe804bad	-0.25057736
61	0xbdb13f92	-0.08654703
62	0xbe24b176	-0.16083321
63	0x3e3fd52d	0.18733664
64	0x3d9afe23	0.07568004
65	0x3d091912	0.033471175
66	0x3dd4197d	0.10356424
67	0x3c9a0119	0.018799352
68	0xbdfbda5b	-0.122975074
69	0xbe02b813	-0.12765531
70	0xbe22bdad	-0.15892668
71	0xbe2c30d4	-0.16815501
72	0x3cac9db2	0.021071289
73	0xbd9a4768	-0.07533151
74	0x3d327188	0.043565303
75	0xbd7eb480	-0.062183857
76	0xbe5150aa	-0.20440927
77	0x3db9fd4b	0.09081515
78	0xbd9fe846	-0.078079745
79	0x3cddb533	0.027063942
80	0xbd7b30f5	-0.061325986
81	0xbe2e5b24	-0.17026955
82	0x3d205096	0.039139353
83	0x3dd8f3f0	0.105934024
84	0xbe345b4b	-0.1761295
85	0x3db89106	0.09012036
86	0xbd62c443	-0.05536295
87	0xbcc22dec	-0.023703538
88	0xbbc17624	-0.005903976
89	0x3d174d1c	0.03693877
90	0xbe4e6728	-0.20156538
91	0xbe0edaba	-0.13950625
92	0x3d325cbb	0.043545466
93	0xbec57f0e	-0.38573498
94	0xbe845248	-0.25844026
95	0x3e85b83c	0.26117122
96	0xbe060db8	-0.13091171
97	0xbce3364c	-0.027735852
98	0x3e7e9f95	0.24865563
99	0xbdea87ad	-0.11451659
100	0x3de8b98f	0.113635175
101	0x3d9c1353	0.07620873
102	0xbe9767e8	-0.29571462
103	0xbdf114eb	-0.11771568
104	0x3e0db110	0.13837075
105	0xbe8764fa	-0.26444227
106	0xbdc97fcc	-0.098388284
107	0x3e609bfb	0.21934502
108	0xbe347daf	-0.1762607
109	0xbd7aad57	-0.061200466
110	0xbdbd06a5	-0.09229783
111	0xbdbc5673	-0.091961764
112	0xbde1baf5	-0.11021987
113	0xbdab338e	-0.08359443
114	0x3d921626	0.07133131
115	0xbbc9bdb5	-0.006156648
116	0x3dc7f12c	0.09762797
117	0x3d7e4804	0.0620804
118	0x3db2b584	0.087260276
119	0xbcdb3e4f	-0.02676311
120	0x3d06a94f	0.03287631
121	0xbe0b6fe4	-0.13616902
122	0x3b60fe92	0.0034331423
123	0xbd1b3788	-0.037894756
124	0x3d0d3018	0.034469694
125	0xbdeeac25	-0.11653928
126	0xbd80de7d	-0.06292436
127	0x3dae62d7	0.08514946
128	0x3d2cd203	0.04219247
129	0xbca0668c	-0.019580148
130	0xbd437366	-0.047717474
131	0xbde1947d	-0.1101465
132	0x3dd3071c	0.103040904
133	0x3db0d67e	0.08634661
134	0xbd106c55	-0.035259563
135	0xbe699af3	-0.22813015
136	0xbd42096b	-0.047372263
137	0x3c6fe3ff	0.014641761
138	0x3cb7fe6c	0.022460185
139	0xbd332056	-0.04373201
140	0x3d258821	0.040413026
141	0x3e3f6269	0.18689884
142	0xbd91590a	-0.07097061
143	0xbd1e1199	-0.038591
144	0xbd060b65	-0.03272571
145	0x3d31169f	0.043234464
146	0x3d3277c1	0.043571237
147	0x3c27dfa0	0.010246187
148	0x3dcc6764	0.09980658
149	0x3c50958d	0.012730968
150	0x3dbf780c	0.09349069
151	0x3de7e87f	0.11323642
152	0xbcd79aec	-0.02631899
153	0xbd83ad08	-0.064294875
154	0xbd174d42	-0.036938913
155	0x3e22644f	0.15858577
156	0x38df2d65	0.00010641924
157	0xbdebab48	-0.11507279
158	0xbbdd3eee	-0.0067518866
159	0x3db7484b	0.08949336
160	0xbce01c7e	-0.027357336
161	0xbd07a394	-0.033114985
162	0x3dc4e34c	0.09613666
163	0x3e258dc9	0.16167368
164	0xbd3ea7cf	-0.046546753
165	0x3e1a364f	0.1505978
166	0x3e2ce989	0.16885962
167	0x3d83bb84	0.0643225
168	0xbe05f83d	-0.13082977
169	0xbd86a4ea	-0.065744236
170	0x3d7cfefb	0.061766606
171	0xbd48376a	-0.048880972
172	0xbe21552a	-0.15755144
173	0xbd528170	-0.051392972
174	0xbda62ac7	-0.08113628
175	0x3d4751ab	0.04866187
176	0x3e02094d	0.1269886
177	0xbda323ec	-0.07965836
178	0xbd47b8bd	-0.048760165
179	0x3e1130ee	0.14178821
180	0x3e99fb8d	0.3007473
181	0x3d2f1890	0.042748034
182	0xbd8a0645	-0.06739477
183	0x3e7eb47b	0.24873535
184	0x3ead7402	0.3387757
185	0xbdd0a13f	-0.10187005
186	0xbe123711	-0.14278819
187	0x3c59cfc9	0.013294169
188	0x3db84226	0.08996992
189	0xbe5b7a4e	-0.21433374
190	0x3dcb0af8	0.099142015
191	0x3e1a8954	0.15091449
192	0xbe46cb25	-0.19413431
193	0x3db27b51	0.08714927
194	0x3d57a9d7	0.052652206
195	0x3dec4f04	0.115385085
196	0x3dabdfb3	0.083922766
197	0xbad12750	-0.0015957151
198	0xbdd6b736	-0.104841635
199	0xbd803917	-0.06260889
200	0x3cb38d49	0.021917956
201	0xb983fb7e	-0.00025173643
202	0xbdffee3a	-0.1249661
203	0xbd0a6fc0	-0.03379798
204	0x3dcfcc02	0.10146333
205	0x3d81623b	0.06317564
206	0xbd3f66c3	-0.04672886
207	0xbcfdb040	-0.030967832
208	0x3d7f9217	0.06239518
209	0x3dfba258	0.12286824
210	0xbe1a56b3	-0.15072136
211	0x3dc25707	0.094892554
212	0x3cd21b97	0.025647921
213	0xbdbefce4	-0.09325579
214	0xbdf4f278	-0.1196031
215	0xbe842ce5	-0.25815502
216	0x3db5fca7	0.0888608
217	0x3de6538e	0.112464055
218	0x3d73989d	0.059471715
219	0x3c98f0e6	0.018669557
220	0x3d8381ae	0.06421219
221	0xbc3dff42	-0.011596503
222	0x3db57e4d	0.088619806
223	0x3d97064a	0.073742464
224	0x3bbdd5cb	0.0057933084
225	0xbda4ac47	-0.08040672
226	0x3d8a83c5	0.06763414
227	0xbd4303f7	-0.047611203
228	0x3e2c499b	0.16824953
229	0x3e257d61	0.1616111
230	0x3c35b5b7	0.0110906875
231	0x3d16a72a	0.036780514
232	0x3dc9f568	0.09861261
233	0xbbe58353	-0.0070041805
234	0x3e8312b7	0.25600216
235	0x3db63db1	0.088984855
236	0xbd90c8f1	-0.070695765
237	0x3e155f0f	0.14587043
238	0x3dd18bfc	0.10231778
239	0xbc50ccbc	-0.012744125
240	0x3e47db82	0.1951733
241	0x3db8c1eb	0.09021362
242	0xbcfca58a	-0.030840654
243	0x3cf4302f	0.029808132
244	0xbd2761f4	-0.0408649
245	0xbdc04146	-0.0938745
246	0xbd784196	-0.060609423
247	0x3dcee037	0.10101359
248	0x3dc43c99	0.095818706
249	0x3e010fb4	0.12603647
250	0x3e0907e2	0.13381913
251	0x3d5693fc	0.052387223
252	0x3d83c78c	0.06434545
253	0x3e47d165	0.19513471
254	0x3e002f4e	0.12518045
255	0x3e6a513c	0.22882551

model.ec1.0.bias f4 [8]
0	0x3d87b93e	0.06627129
1	0x3daea720	0.0852797
2	0xbd6ba990	-0.057534754
3	0xbc91f881	-0.017818691
4	0x3d330e1a	0.04371462
5	0xbd5c5632	-0.05379314
6	0xbd7e2e2b	-0.062055748
7	0xbda8d0c1	-0.08242942

model.ec2.0.weight f4 [16, 8, 3, 3]
0	0xbd8e7363	-0.06955602
1	0x3d6bfd63	0.057614695
2	0xbdb20166	-0.08691673
3	0xbdba3ced	-0.09093652
4	0x3d47f38a	0.04881624
5	0x3db8ffa1	0.09033132
6	0x3c42382d	0.011854214
7	0x3c2b45e7	0.010453678
8	0xbdc10b72	-0.09426011
9	0x3dfba51b	0.12287351
10	0x3eb3f108	0.3514483
11	0x3d99be76	0.07507031
12	0x3e4cfaa4	0.20017487
13	0x3eaf2af0	0.34212446
14	0x3e684abd	0.2268476
15	0x3e8e543e	0.27798647
16	0x3e81da00	0.25361633
17	0x3d2c8672	0.042120405
18	0xbe936eba	-0.28795415
19	0xbe7f3fe8	-0.24926722
20	0xbe5424af	-0.20717119
21	0xbe0a1769	-0.13485493
22	0xbe98aef2	-0.29820973
23	0xbe25a97a	-0.16177931
24	0xbde014ea	-0.10941489
25	0xbb6696d6	-0.003518512
26	0x3dd24c78	0.102684915
27	0xbd1f6da3	-0.038922917
28	0xbd121232	-0.035661884
29	0x3d8c46dc	0.06849453
30	0x3c5b8418	0.013398193
31	0x3a9d4aea	0.0012000476
32	0x3db8bc65	0.090203084
33	0xbe0fde51	-0.1404965
34	0xbd638c35	-0.055553634
35	0xbd814ed5	-0.06313864
36	0x3cc613e3	0.024179405
37	0xb99b6e57	-0.00029646113
38	0xbd561fce	-0.052276425
39	0xbda6e3ee	-0.08148943
40	0xbd538dbc	-0.05164884
41	0xbd99b675	-0.07505504
42	0x3de8c22a	0.11365159
43	0x3d8fb0b2	0.07016124
44	0x3dbd6f13	0.09249701
45	0xbba4bf6a	-0.005027701
46	0xbdc36ada	-0.09541865
47	0xbd033370	-0.032031476
48	0xbe3b6244	-0.18299204
49	0xbdf87032	-0.121307746
50	0x3d78bcb9	0.060726855
51	0xbe09e1d1	-0.13465048
52	0xbd93a5ce	-0.07209359
53	0xbe08e015	-0.1336673
54	0xbd8e76f7	-0.069562845
55	0xbdb49aa0	-0.08818555
56	0x3bb15227	0.0054114047
57	0xbcc3cb15	-0.023900548
58	0xbdacf70a	-0.084455565
59	0x3ba3ccdc	0.0049987864
60	0x3bd0c930	0.0063716397
61	0x3d455289	0.048174415
62	0xbdc67750	-0.09690726
63	0xbc825276	-0.015908461
64	0x3ceda69e	0.029010113
65	0xbb2bb76c	-0.0026201857
66	0xbcca1d12	-0.024672065
67	0x3db0ccdb	0.08632823
68	0xbd1dd589	-0.03853372
69	0xbdc215db	-0.09476825
70	0xbd92ea62	-0.07173611
71	0x3d2dfe2e	0.042478733
72	0x3c8a49af	0.016880838
73	0xbde05b8b	-0.109549604
74	0xbd8cf78b	-0.068831526
75	0x3cf92388	0.03041245
76	0x3e034433	0.12818985
77	0x3d88c1f8	0.066776216
78	0xbd0eb414	-0.034839705
79	0x3cf43a77	0.029813034
80	0xbccb2fbd	-0.024803037
81	0xbe0d8d3d	-0.1382341
82	0xbdb5b44b	-0.08872279
83	0xbd3b90a9	-0.045792256
84	0xbdcbf09d	-0.09958003
85	0xbdd30ca7	-0.103051476
86	0x3d261f6b	0.040557306
87	0x3d2ccaba	0.042185523
88	0x3cca7655	0.024714628
89	0x3de1b41b	0.110206805
90	0x3e0b91fb	0.13629906
91	0x3eadfdaa	0.33982593
92	0x3e2c9047	0.16851912
93	0x3c446e94	0.0119892545
94	0x3ed20762	0.41021258
95	0x3e60b15b	0.21942656
96	0x3d46f221	0.048570756
97	0x3e9927b1	0.29913095
98	0x3e262b19	0.16227378
99	0xbe47abab	-0.1949908
100	0xbdb9c0d3	-0.090699814
101	0xbd76c10e	-0.060242705
102	0x3bea38d2	0.007147887
103	0x3d3db4a5	0.046314854
104	0x3d5e6943	0.054299604
105	0xbe4c79f3	-0.19968395
106	0xbd21f463	-0.039539706
107	0x3bd2f382	0.00643772
108	0x3d9bdaaa	0.07610066
109	0x3e0f01f3	0.13965587
110	0x3d968869	0.07350237
111	0xbe10694c	-0.14102668
112	0xbda0cc51	-0.0785147
113	0xbd0e0011	-0.034668032
114	0xbd6632c9	-0.056200776
115	0x3d58b039	0.052902434
116	0x3db1e686	0.08686547
117	0xbd961bc9	-0.07329518
118	0x3d242850	0.040077507
119	0x3df24147	0.11828857
120	0x3a87ab30	0.00103507
121	0x3dabb6bb	0.083844624
122	0x3de4296e	0.111407146
123	0xbc1282bb	-0.008942301
124	0x3d966390	0.07343209
125	0x3e5831a8	0.21112692
126	0x3d10baf3	0.03533454
127	0x3e116e90	0.14202332
128	0x3dd6b2fd	0.10483358
129	0x3de88da6	0.11355142
130	0x3e3a71e6	0.18207511
131	0x3e2d8643	0.16945748
132	0x3d12cd15	0.035840113
133	0x3c311eca	0.010810563
134	0x3dc71084	0.09719947
135	0xbe5b69d6	-0.21427092
136	0xbdded186	-0.10879807
137	0xbd79b75d	-0.060965884
138	0xbe5282fc	-0.20557779
139	0xbe7d3153	-0.24725847
140	0xbe6d875f	-0.23196171
141	0xbc70bb3e	-0.0146930795
142	0xbe33f7c3	-0.17574982
143	0xbbdfc636	-0.0068290485
144	0x3dcc7742	0.09983684
145	0x3cb92322	0.02259976
146	0xbdc1d0f7	-0.09463685
147	0x3dc99277	0.09842389
148	0x3bee7b54	0.0072778855
149	0xbda9f222	-0.08298136
150	0x3d487266	0.048937224
151	0x3da26d22	0.07930972
152	0xbcded3e0	-0.02720064
153	0x3e0d14ac	0.13777417
154	0x3d905146	0.07046752
155	0xbaa27322	-0.0012393931
156	0x3dce5f49	0.10076768
157	0x3d01c524	0.03168215
158	0xbd1cf135	-0.03831597
159	0x3d6a3360	0.0571779
160	0x3e04515b	0.1292166
161	0x3c76a4b8	0.01505392
162	0x3de09fd8	0.10967988
163	0x3ce68abe	0.02814233
164	0x3da9e2c5	0.08295206
165	0xbdb3fbe0	-0.08788276
166	0xbd685d09	-0.05672935
167	0xbcd959c2	-0.026532058
168	0x3e0b6f09	0.13616575
169	0x3db4d157	0.08828991
170	0xbc1ce31c	-0.0095756315
171	0x3bfd437b	0.0077289916
172	0xbe1f2291	-0.1554053
173	0xbdb2f457	-0.087380104
174	0xbdc26c57	-0.094933204
175	0xbdc6d8ea	-0.09709342
176	0xbd91bf37	-0.071165495
177	0x3ddbbc81	0.10729314
178	0x3de47437	0.11154979
179	0x3e10e969	0.14151539
180	0x3d581614	0.05275543
181	0xbd9fec9b	-0.07808801
182	0xbd68d18b	-0.05684046
183	0xbd93244e	-0.07184659
184	0xbc30d60f	-0.010793223
185	0xbc5a4d2f	-0.013324066
186	0xbda8d102	-0.0824299
187	0x3deabbad	0.114615776
188	0x3a74f745	0.00093447074
189	0xbd5d304e	-0.054001145
190	0xbe0bce3f	-0.13652895
191	0xbdaf3885	-0.08555702
192	0xbdcee23a	-0.10101743
193	0xbc05b4ae	-0.008160753
194	0x3d5985c4	0.053106084
195	0xbdc6ba21	-0.0970347
196	0x3da7238a	0.081610754
197	0x3e569afd	0.20957561
198	0x3dce9784	0.10087493
199	0x3e001cef	0.12511037
200	0x3e12551a	0.14290276
201	0x3c474d69	0.012164452
202	0x3dd45c53	0.10369172
203	0x3e11c5ec	0.14235657
204	0x3dc2c909	0.09511001
205	0x3e0adf19	0.13561668
206	0x3e12174e	0.14266703
207	0xbc24afce	-0.010051681
208	0xbe7934fd	-0.2433662
209	0xbe1fb808	-0.15597546
210	0xbcbc2c63	-0.022970384
211	0xbe7061ee	-0.23474857
212	0xbd94cd57	-0.07265728
213	0x3d15d1bf	0.036576983
214	0xbb05582c	-0.0020346744
215	0xbe50b71d	-0.20382352
216	0x3c5eb54c	0.013593029
217	0x3c1cb8f1	0.009565578
218	0x3e2e4884	0.1701985
219	0x3c4939ab	0.0122818155
220	0x3c8d79a0	0.01726991
221	0x3dae6a07	0.08516317
222	0x3cc21e9c	0.023696236
223	0x3e069e6f	0.13146375
224	0x3e1e22b9	0.15442933
225	0xbd285631	-0.041097824
226	0x3d2a4fb0	0.041579902
227	0xbdd3123c	-0.10306212
228	0xbcde55d9	-0.027140545
229	0x3bdffe49	0.006835733
230	0x3cfdfb89	0.03100373
231	0x3d99eb61	0.07515598
232	0xbc1b2c3d	-0.009470996
233	0xbd5223f9	-0.051303837
234	0x3e5d0f33	0.2158783
235	0x3e96a341	0.29421428
236	0x3e5916ba	0.21200076
237	0x3e6e7464	0.23286587
238	0x3e7f472a	0.2492949
239	0x3e4e34e7	0.20137368
240	0x3d2f74c8	0.04283598
241	0x3e16e188	0.14734471
242	0x3ea93ce0	0.33054256
243	0x3d08a747	0.033362653
244	0x3da19db0	0.07891405
245	0x3e0c6cf4	0.13713437
246	0xbda0f2db	-0.07858821
247	0xbcf609cd	-0.03003397
248	0xbd7118e9	-0.058861647
249	0xbdc3e1df	-0.09564566
250	0x3dda9d74	0.10674563
251	0xbd2a0a91	-0.041513983
252	0xbda908da	-0.082536414
253	0xbcb9a0f1	-0.02265975
254	0x3d9f19e6	0.077686116
255	0x3d71b20d	0.059007693

model.ec2.0.bias f4 [16]
0	0x3d311105	0.04322912
1	0x3c765d1f	0.01503685
2	0xbcfd75b8	-0.030939922
3	0xbb48fbf7	-0.003066776
4	0xbcbf46af	-0.023349134
5	0x3d9377d2	0.07200588
6	0xbd8c38b5	-0.068467535
7	0xbdc9d35c	-0.09854767
8	0x3cf5d5cf	0.030009178
9	0x3dce7630	0.10081136
10	0xbd56fadd	-0.052485336
11	0xbce81906	-0.028332245
12	0xbd4ad255	-0.049516995
13	0x3be0d26e	0.0068610227
14	0x3cca52ab	0.024697622
15	0x3d5d6633	0.054052543

model.ec3.0.weight f4 [16, 16, 3, 3]
0	0xbe1ecc05	-0.15507515
1	0xbbb15b18	-0.0054124705
2	0xbdc4cc31	-0.09609259
3	0xbe6292f6	-0.22126374
4	0xbe1aff70	-0.15136504
5	0xbde100d1	-0.10986484
6	0xbda28a1d	-0.07936499
7	0xbe13e315	-0.14442094
8	0xbda12275	-0.078679
9	0x3bbd4854	0.0057764445
10	0x3aaec85b	0.0013334857
11	0xbc067d07	-0.00820852
12	0x3d0761c5	0.033052225
13	0x3dafe2b0	0.08588159
14	0xbca0eb94	-0.019643582
15	0x3d68afc0	0.056808233
16	0x3db0ce6d	0.086331226
17	0x3d307971	0.043084566
18	0x3da3ba9a	0.07994576
19	0xbca1b288	-0.01973845
20	0x3c8201e3	0.01587004
21	0x3d9e948e	0.07743178
22	0x3dda68b1	0.106644996
23	0x3daddf37	0.084898405
24	0x3dc0ebb0	0.09419954
25	0x3ca842ac	0.020539604
26	0xbb5328ce	-0.0032220366
27	0x3dafa7f5	0.08576957
28	0x3d847401	0.064674385
29	0xbdd4604f	-0.10369932
30	0xbd268831	-0.040657226
31	0xbd888519	-0.06666011
32	0xbce1aead	-0.027549112
33	0x3ca5d430	0.02024278
34	0xbd99515a	-0.0748622
35	0xbdb4c617	-0.08826845
36	0x3c60328c	0.013683926
37	0x3d90a1ae	0.07062088
38	0x3d472ea6	0.04862847
39	0xbd1a4953	-0.037667584
40	0x3d200fff	0.039077755
41	0x3dd9a8e1	0.10627914
42	0xbda82d6f	-0.08211791
43	0x3cb67ad7	0.022275371
44	0xbc880e43	-0.016608363
45	0x3cfa9aed	0.030591452
46	0x3d94e528	0.072702706
47	0x3dc83d6c	0.0977734
48	0x3de45639	0.11149258
49	0xbccc49d9	-0.024937557
50	0x3c4c0689	0.01245273
51	0xbcc2e4b5	-0.023790697
52	0x3c186ce4	0.009303305
53	0x3c470540	0.012147248
54	0x3e70b1de	0.23505351
55	0x3e6056fc	0.21908182
56	0x3d8202a5	0.06348161
57	0x3e0c22c2	0.13685134
58	0x3e15e873	0.14639454
59	0x3e7f5b95	0.2493728
60	0xbca937d2	-0.0206565
61	0xbd8110b3	-0.06302013
62	0x3d03b7b6	0.032157622
63	0xbea01ba3	-0.31271085
64	0xbdd79ef8	-0.10528368
65	0xbd246414	-0.040134504
66	0xbe77d2be	-0.24201486
67	0xbe1e2e0b	-0.15447251
68	0xbc33f742	-0.010984244
69	0xbe2203f2	-0.15821818
70	0xbe4febd8	-0.20304811
71	0xbdc231f3	-0.09482183
72	0x3db9d25d	0.09073327
73	0x3dd7b18b	0.105319105
74	0xbd0992f2	-0.033587404
75	0xbc9aa9bc	-0.018879764
76	0xbc0fb3a3	-0.008770856
77	0x3da587a1	0.0808251
78	0xbc2f5374	-0.010701049
79	0x3dd42692	0.10358919
80	0x3ddd383b	0.10801741
81	0xbe33e991	-0.17569567
82	0xbcbeb76c	-0.023280822
83	0x3c87fdb9	0.016600477
84	0xbddf2b49	-0.10896928
85	0xbd14499e	-0.03620302
86	0xbd5fa1d6	-0.0545977
87	0xbd939af1	-0.07207287
88	0x3cfb53d2	0.030679617
89	0x3dd1be6f	0.102414005
90	0xbd9afd9a	-0.07567902
91	0xbc74878b	-0.014924894
92	0xbc980499	-0.01855688
93	0x3d138c7f	0.03602266
94	0xbd47a348	-0.0487397
95	0x3dcd8736	0.10035555
96	0xbd804323	-0.06262805
97	0x3ddaca84	0.10683158
98	0xbd168e80	-0.036756992
99	0x3d84c0a2	0.06482054
100	0x3d1b21b7	0.03787395
101	0x3d1e1ed4	0.03860362
102	0xbbb7232c	-0.0055889096
103	0x3babb0da	0.005239588
104	0x3cecd897	0.028911872
105	0x3d315cc8	0.043301374
106	0xbc509029	-0.012729683
107	0xbd64676e	-0.0557627
108	0xbe27f6ef	-0.16402791
109	0xbd9bddf3	-0.07610693
110	0xbdf3f50e	-0.11911975
111	0xbe0903f7	-0.13380419
112	0xbde1cd41	-0.11025477
113	0xbdc7a3e8	-0.097480595
114	0xbd5f67f9	-0.054542515
115	0xbe817d9e	-0.2529115
116	0xbe1625c1	-0.1466284
117	0xbcc1cc6e	-0.02365705
118	0xbd34c347	-0.044131543
119	0xbdc488b9	-0.0959639
120	0xbdb6beec	-0.08923134
121	0xbc4e64c9	-0.012597271
122	0xbde5eb3f	-0.1122651
123	0x3df31a1a	0.11870213
124	0x3d39ac34	0.04533024
125	0xbd1bb33c	-0.038012728
126	0x3da48429	0.0803302
127	0x3db53e03	0.088497184
128	0x3da45d51	0.08025611
129	0xba766d4e	-0.0009400443
130	0xbcfc4d9b	-0.030798724
131	0x3d943286	0.07236199
132	0x3d870d54	0.06594339
133	0xbba85cfe	-0.0051380387
134	0xbd931397	-0.07181471
135	0x3eb10ece	0.34581608
136	0x3e28b0cd	0.16473694
137	0x3c805226	0.015664171
138	0x3e6dc1da	0.2321848
139	0x3de49fd4	0.11163297
140	0xbd922cc7	-0.07137447
141	0x3e49f357	0.19721733
142	0x3e333676	0.17501244
143	0x3da0e592	0.07856287
144	0xbd08a671	-0.033361856
145	0xbddb3ea6	-0.107053086
146	0xbdb54b4b	-0.088522516
147	0x3b1fe6bc	0.0024399003
148	0x3d30c5db	0.04315744
149	0x3d2df30c	0.042468116
150	0x3c143528	0.009045877
151	0x3d81bc2d	0.0633472
152	0x3b364299	0.0027810691
153	0xbdc202ed	-0.09473214
154	0xbd901b9d	-0.07036517
155	0xbd5634e6	-0.05229654
156	0xbc940f4b	-0.018073699
157	0xbadfc4bd	-0.0017072182
158	0xbe09cf91	-0.13458087
159	0xbdff160e	-0.124553785
160	0xbe092479	-0.1339282
161	0xbdb94de8	-0.090480626
162	0x3e0b54ad	0.1360652
163	0x3dca8ff2	0.09890737
164	0x3d0a1434	0.033710673
165	0xbdaf5cda	-0.08562632
166	0xbbcb8219	-0.006210577
167	0x3d6ea3c7	0.05826166
168	0x3d037455	0.032093365
169	0xbd7c5a1d	-0.061609376
170	0xbd4ed86d	-0.05049937
171	0xbdaad6c0	-0.083417416
172	0xbe616f4f	-0.22015117
173	0xbe41b9e3	-0.18918566
174	0xbc2a5d63	-0.010398242
175	0xbde3d025	-0.11123685
176	0xbe13af73	-0.14422397
177	0x3d3897db	0.045066696
178	0x3d1b9238	0.037981242
179	0xbdae2b63	-0.08504369
180	0xbb2bdbc8	-0.002622353
181	0x3ddea29d	0.1087086
182	0x3cea4b2e	0.028600302
183	0x3ceda870	0.029010981
184	0x3e151528	0.14558852
185	0x3d54303a	0.051803805
186	0xbdeb4d21	-0.114893205
187	0xbc8384c5	-0.01605452
188	0x3c6048e6	0.013689255
189	0x3df2934a	0.118444994
190	0x3dde5f20	0.108579874
191	0xbc445208	-0.011982448
192	0xbd31d2ad	-0.043413807
193	0xbe00358a	-0.12520424
194	0xbd72d078	-0.059280843
195	0xbd14b96f	-0.036309656
196	0xbde8b2ec	-0.11362252
197	0xbe3790d6	-0.17926344
198	0x3e686d9f	0.22698067
199	0x3e88278b	0.2659267
200	0x3e3cb2f0	0.18427634
201	0x3dff1ff6	0.12457268
202	0x3e45d967	0.19321214
203	0x3e0a90ec	0.13531846
204	0xbb5bbb1d	-0.0033528276
205	0x3dc62302	0.09674646
206	0x3e2bac78	0.1676501
207	0x3da0a9dd	0.07844899
208	0xbc117727	-0.008878506
209	0x3b2454c6	0.0025074943
210	0x3d393e53	0.045225453
211	0x3da10e63	0.07864072
212	0xbcf1001b	-0.029418996
213	0xbcd67635	-0.026179412
214	0x3c98d41c	0.01865583
215	0x3d580fb0	0.052749336
216	0x3c19c2ea	0.00938485
217	0x3d0c1f78	0.0342097
218	0x3cd43481	0.025903942
219	0xbce4abe7	-0.027914
220	0x3e21e8ea	0.15811506
221	0x3e00a9b9	0.12564744
222	0xbd8dfaeb	-0.069326244
223	0xbd3f3fac	-0.04669158
224	0x3c80c624	0.01571948
225	0xbd84b9c2	-0.06480743
226	0xbccff9cd	-0.025387669
227	0x3d0f2b0c	0.034953162
228	0xbae5b83a	-0.0017526217
229	0xbd304944	-0.04303862
230	0x3d834470	0.06409538
231	0xbd79a8b1	-0.060951892
232	0xbd894e94	-0.06704441
233	0xbcabb4ee	-0.020960297
234	0xbcd7ae58	-0.02632825
235	0xbd9fb1e8	-0.07797605
236	0xbc840351	-0.016114863
237	0xbe3b426b	-0.18287055
238	0xbe380dd8	-0.17974031
239	0xbe221aee	-0.15830585
240	0xbe0296a1	-0.12752773
241	0xbdd1c8bf	-0.102433674
242	0xbe05933e	-0.1304445
243	0x3e12ad06	0.14323816
244	0xbd113ee0	-0.035460353
245	0xbd9671ed	-0.07345948
246	0x3d6da390	0.058017313
247	0x3e0178e5	0.12643774
248	0x3da0f0ef	0.078584544
249	0x3da4181a	0.080124095
250	0xbce947ce	-0.028476622
251	0x3db7e79e	0.08979724
252	0xbdf9f0f8	-0.12204164
253	0xbd6dc9f0	-0.05805391
254	0x3d2f6a1f	0.042825814
255	0xbcddd135	-0.027077297

model.ec3.0.bias f4 [16]
0	0x3cddc823	0.027072972
1	0x3d9cad23	0.07650211
2	0x3da0a43f	0.078438275
3	0x3db03606	0.08604054
4	0x3c4bdd07	0.012442834
5	0x3ca91fb7	0.020645006
6	0x3d861b6e	0.065482005
7	0xbb8bd115	-0.004266868
8	0x3d941765	0.07231025
9	0x3c579fc1	0.013160647
10	0x3d30ff5b	0.043212276
11	0xbd5ac2ff	-0.05340862
12	0x3df1bec9	0.118039675
13	0x3d1af6e6	0.037833117
14	0x39e54550	0.00043729926
15	0x3ca1b30d	0.019738698

model.ec4.0.weight f4 [32, 16, 3, 3]
0	0xbd3f9c9b	-0.04678021
1	0xbd51bade	-0.0512036
2	0xbccdb59c	-0.025111012
3	0xbdbd2cfd	-0.092370965
4	0x3b72c8a2	0.0037045856
5	0xbd328008	-0.04357913
6	0x3ccfbc3c	0.025358312
7	0xbd647213	-0.055772852
8	0x3d83e6e1	0.06440521
9	0xbe167bfb	-0.14695732
10	0xbdb595ec	-0.08866486
11	0xbce75fe9	-0.028243976
12	0xbe4f090f	-0.202183
13	0xbe896470	-0.2683444
14	0xbe622f8c	-0.2208845
15	0xbe0ccb3e	-0.13749406
16	0xbe8c6f24	-0.27428544
17	0xbe48e48a	-0.1961843
18	0x3d3a6cba	0.045513846
19	0xbdea5ece	-0.11443864
20	0xbe3e5ae5	-0.18589361
21	0xbddce283	-0.10785391
22	0x3d07051c	0.032963857
23	0xbc160ce1	-0.009158344
24	0x3cf84e68	0.030310825
25	0x3cb9c25e	0.02267569
26	0x3d65aca6	0.056072854
27	0x3db24590	0.08704674
28	0x3e1891cc	0.14899367
29	0x3df05fa5	0.11736993
30	0x3d1bf8ba	0.038079
31	0x3d890a16	0.06691377
32	0x3de51af4	0.111867815
33	0x3df115ff	0.117717735
34	0x3e11e25a	0.14246503
35	0x3dc91bbf	0.09819745
36	0x3e79016e	0.24316952
37	0x3e5a9ec0	0.21349621
38	0x3e41b917	0.18918262
39	0x3dadc206	0.08484273
40	0x3b2ec7a8	0.0026669297
41	0xbc906436	-0.01762591
42	0x3cf30923	0.029667443
43	0x3cd6df32	0.026229475
44	0xbde2a5ca	-0.11066778
45	0xbc810550	-0.015749604
46	0x3bcd4af6	0.0062650396
47	0x3e07b892	0.13254002
48	0xbe09821a	-0.13428536
49	0xbc56381d	-0.013074902
50	0x3cd1bf41	0.025603892
51	0xbc2169ad	-0.009851855
52	0xbcf63bd9	-0.030057834
53	0xbd5a4ee2	-0.053297885
54	0xbdc6c8c2	-0.0970626
55	0xbe4aea23	-0.19815879
56	0xbe4e13ba	-0.20124713
57	0xbe9f945a	-0.3116787
58	0xbe9d8f39	-0.30773333
59	0xbdce2800	-0.10066223
60	0xbda51239	-0.08060116
61	0xbd085b19	-0.033290002
62	0x3dd9de79	0.106381364
63	0x3e3ce5d4	0.18447047
64	0x3e4d5a70	0.2005403
65	0x3da32b3f	0.07967233
66	0x3e02da58	0.12778604
67	0x3e3a6bd0	0.1820519
68	0x3e4c3a87	0.19944201
69	0xbd048a14	-0.032358244
70	0x3e111c2b	0.14170901
71	0x3d95d41b	0.073158465
72	0x3dbe5073	0.09292688
73	0xbc8d3d8b	-0.01724126
74	0x3bfc5a9e	0.007701232
75	0xbd142996	-0.036172472
76	0xbea71d4d	-0.32639542
77	0xbe91da38	-0.284868
78	0xbd880887	-0.066422515
79	0xbdddbf05	-0.1082745
80	0xbe006e65	-0.12542112
81	0x3bb68863	0.005570458
82	0xbd1dd869	-0.038536463
83	0x3cc6b28a	0.024255056
84	0x3e14788e	0.14499113
85	0x3dc65ed8	0.09686059
86	0xbd2ae77c	-0.041724667
87	0x3e4244d1	0.18971564
88	0x3e318cbf	0.17338847
89	0x3dc2cdff	0.09511947
90	0xbb8aedee	-0.004239789
91	0xbe2e7369	-0.17036213
92	0xbdb3b745	-0.0877519
93	0xbd85d791	-0.06535257
94	0xbe1a1ce8	-0.1505009
95	0xbe05fa03	-0.13083653
96	0x3ce863af	0.028367845
97	0xbdee78dc	-0.11644146
98	0xbda71afa	-0.08159442
99	0x3de925f7	0.11384194
100	0x3e127e4d	0.14305992
101	0x3e03b277	0.12861048
102	0x3d97805f	0.07397532
103	0xbda8376f	-0.08213698
104	0xbd1af70f	-0.03783327
105	0x3d647dc0	0.055783987
106	0x3da53303	0.0806637
107	0xbacc6a07	-0.0015595563
108	0x3d506d71	0.05088562
109	0xbd9f480e	-0.07777415
110	0xbd5a7639	-0.053335402
111	0x3dbfb0cd	0.09359894
112	0xbd487994	-0.04894407
113	0xbd82df6b	-0.0639027
114	0x3e20738e	0.1566908
115	0xbc964a2c	-0.018345915
116	0x39a7eebe	0.000320306
117	0x3ce67dc3	0.02813614
118	0x3d3e57ad	0.046470333
119	0x3d9b9c22	0.07598139
120	0x3d464b9d	0.048411954
121	0x3d696761	0.056983355
122	0x3bddf5d4	0.0067736898
123	0x3dcf2218	0.10113925
124	0xbd4deffa	-0.050277688
125	0x3d823b46	0.06358962
126	0xbd06f44d	-0.032947827
127	0xbc1b3fea	-0.0094756875
128	0xbdd0c819	-0.101944156
129	0x3cfaef4b	0.030631682
130	0x3d2d870e	0.042365126
131	0x3cf03642	0.029322747
132	0x3e7fd17e	0.24982259
133	0x3e0d079b	0.13772433
134	0x3ddd18c9	0.10795743
135	0xbde278f6	-0.11058228
136	0xbe4a4bd8	-0.19755495
137	0xbde6b4e3	-0.1126497
138	0xbdedf612	-0.116192
139	0xbdac5a8d	-0.08415709
140	0xbe45bd97	-0.19310604
141	0xbd67d396	-0.05659827
142	0xbd0a78f5	-0.03380676
143	0xbd220b96	-0.03956183
144	0xbd45210c	-0.04812722
145	0xbdb5e91e	-0.08882354
146	0xbcbe83be	-0.023256179
147	0xbcfd84dd	-0.030947143
148	0xbdbfad50	-0.093592286
149	0x3d059dff	0.03262138
150	0x3d01a2c9	0.031649385
151	0xbd74eef2	-0.05979819
152	0x3d4d6dd8	0.050153583
153	0xbd5e065c	-0.054205284
154	0xbcbffcff	-0.023436068
155	0xbb91f6a1	-0.0044544493
156	0xbd90abde	-0.07064031
157	0xbe31445e	-0.17311236
158	0x3cf8cb5d	0.030370409
159	0xbb5efc0f	-0.003402475
160	0xbc6dca12	-0.014513509
161	0x3e105fc4	0.14099032
162	0xbe81c01d	-0.25341883
163	0xbe9879cd	-0.29780427
164	0xbccd385b	-0.025051286
165	0x3d8105db	0.06299945
166	0x3e31c9d4	0.17362148
167	0x3d3286ab	0.04358546
168	0xbc64154b	-0.013921092
169	0x3ddace3e	0.10683869
170	0xbc3d2470	-0.011544332
171	0x3c03e613	0.008050459
172	0x3c8edf89	0.017440574
173	0x3d0686be	0.032843344
174	0xbcbdac8f	-0.023153571
175	0x3db08ae2	0.0862024
176	0xbd0cedcd	-0.034406472
177	0xbdaa21ff	-0.083072655
178	0xbb824ed2	-0.0039766813
179	0x3d40179c	0.046897516
180	0xbd1ca42d	-0.038242508
181	0xbc9efe15	-0.019408265
182	0xbc34cf96	-0.0110358205
183	0xbe298e8e	-0.16558287
184	0xbcf99d22	-0.030470435
185	0xbdba17ae	-0.09086548
186	0x3c96b904	0.01839877
187	0x3dd3024f	0.10303175
188	0x3d986bf4	0.074424654
189	0x3dae43f5	0.085090555
190	0x3e41c7f9	0.1892394
191	0x3deac17e	0.11462687
192	0x3e165a64	0.14682919
193	0x3de0488d	0.10951338
194	0x3e08106c	0.13287514
195	0xbc8243c2	-0.01590145
196	0x3bce009d	0.006286694
197	0x3a4762b5	0.0007605956
198	0xbe41bc5e	-0.18919513
199	0xbe0b2ca4	-0.13591248
200	0x3cb2c1f1	0.021820994
201	0xbbfe0d37	-0.00775304
202	0x3e3ec50c	0.18629855
203	0x3e616c03	0.2201386
204	0x3e30eded	0.17278261
205	0x3e204195	0.15650018
206	0x3dbabd90	0.091181874
207	0x3e05d54f	0.13069652
208	0x3d4a34a8	0.049366623
209	0x3b33f5bb	0.00274597
210	0x3e0b91b3	0.13629799
211	0x3e54b1b3	0.20770912
212	0x3e41b86d	0.18918009
213	0x3d7cce95	0.06172045
214	0x3e0e7321	0.13911106
215	0x3e14d362	0.14533761
216	0xbd2e9078	-0.042618245
217	0x3d789de3	0.060697448
218	0x3d9251d2	0.07144512
219	0xbdc02904	-0.09382823
220	0xbe70a272	-0.23499468
221	0xbe32ca64	-0.17460018
222	0xbcf43ee2	-0.029815141
223	0x3d5d6a9b	0.054056745
224	0x3cc14ef6	0.023597222
225	0xbd4811fd	-0.04884528
226	0xbdc30c27	-0.09523802
227	0xbd5860f8	-0.05282685
228	0xbded63ca	-0.11591299
229	0xbcedec4b	-0.029043337
230	0x3d831ba3	0.06401756
231	0x3e46b1c7	0.19403754
232	0x3cd27a7a	0.025693167
233	0x3d353921	0.044243935
234	0x3d881b83	0.066458724
235	0x3cebf345	0.028802523
236	0x3d529e3e	0.051420443
237	0xbdd2d97e	-0.102953896
238	0xbe5e8e05	-0.21733864
239	0xbe0bc8d4	-0.13650829
240	0x3e26ef94	0.1630233
241	0xbc0fb1b4	-0.008770395
242	0xbdbd6384	-0.09247497
243	0x3e40bfdb	0.18823187
244	0x3e820ab2	0.25398785
245	0x3d8e4cb6	0.06948225
246	0xbddbab41	-0.107260235
247	0xbe204fb9	-0.15655412
248	0x3d7af01d	0.061264146
249	0x3dd1f59b	0.10251924
250	0xbd23616c	-0.03988783
251	0xbbbb752c	-0.005720755
252	0xbcd08da0	-0.025458157
253	0xbe2c28cf	-0.16812442
254	0xbccc5ba3	-0.02494604
255	0x3d3abb3b	0.045588713

model.ec4.0.bias f4 [32]
0	0x3d94ec82	0.07271673
1	0xbda4068e	-0.08009063
2	0xbdd72a24	-0.105060846
3	0x3d9ff3bc	0.078101605
4	0xbc79d6a7	-0.015248931
5	0x3d974513	0.07386222
6	0xbdcbe8d3	-0.09956517
7	0xbcaaf23c	-0.02086746
8	0x3d126275	0.035738427
9	0xbd1957bd	-0.03743719
10	0x3d1cd73f	0.038291212
11	0xbc22b340	-0.009930432
12	0x3d85bf1c	0.06530592
13	0x3cb110c1	0.021614434
14	0x3c8dd545	0.017313609
15	0x3d9bb53c	0.07602927
16	0xbe26c549	-0.16286196
17	0x3b8bf364	0.004270958
18	0x3d3e53aa	0.046466507
19	0x3d8cfece	0.06884538
20	0x3d0a3b48	0.03374794
21	0x3c31cf4a	0.010852644
22	0x3d1dc85f	0.038521167
23	0x3ca47096	0.020073216
24	0xbd8f875d	-0.0700824
25	0x3da5982c	0.08085665
26	0x3da6ca9b	0.08144113
27	0x3c9e70dd	0.019340927
28	0x3d7c4582	0.061589725
29	0x3e2f2a74	0.17106038
30	0x3e05b2b1	0.13056447
31	0x3ccf43f2	0.025300954

model.ec5.0.weight f4 [32, 32, 3, 3]
0	0x3c7b9940	0.015356362
1	0x3cbd8d2c	0.023138605
2	0x3bedb2ca	0.0072539793
3	0x3d2bf7e4	0.041984454
4	0xbcd88d14	-0.026434459
5	0xbda5a5c4	-0.08088258
6	0xbda81096	-0.082062885
7	0x3c1827f1	0.0092868665
8	0xbd2ab764	-0.0416788
9	0xbbdfdaab	-0.006831487
10	0xbdbfe0b2	-0.09369029
11	0xbd0f3b35	-0.034968574
12	0xbe0023b5	-0.12513621
13	0xbd5aa8de	-0.0533837
14	0xbde83546	-0.11338286
15	0xbda1ecd7	-0.07906502
16	0x3db4c3d0	0.08826411
17	0x3d7a1808	0.061058074
18	0x3c7c3800	0.015394211
19	0xbe04f186	-0.12982759
20	0xbe7a1187	-0.24420749
21	0xbe561ed8	-0.20910203
22	0xbe8abd57	-0.2709758
23	0xbd617156	-0.055039726
24	0x3d916982	0.07100202
25	0x3e3bc241	0.1833582
26	0x3e003d5e	0.1252341
27	0xbd3c2555	-0.04593404
28	0xbd3d89a6	-0.04627385
29	0xbd587d86	-0.052854083
30	0x3cb56756	0.022144001
31	0x3ca8c504	0.020601757
32	0xbc759768	-0.014989711
33	0x3cf5b278	0.029992327
34	0x3dc31bf2	0.095268145
35	0x3dd23f51	0.10265983
36	0xbd95c509	-0.07312972
37	0xbe8617bf	-0.26189992
38	0xbd0b777f	-0.034049507
39	0xbb6f33f8	-0.0036499482
40	0x3d8cccf2	0.06875028
41	0xbd522296	-0.051302515
42	0x3daeb9d4	0.08531538
43	0x3e4fe3dc	0.20301765
44	0x3dfca2ca	0.12335737
45	0xbcd2680d	-0.02568438
46	0xbd5177c4	-0.051139608
47	0xbde0c96f	-0.109759204
48	0xbdbffaa7	-0.0937398
49	0x3dad8015	0.08471695
50	0x3d27d355	0.040973026
51	0x3e148d3d	0.14507003
52	0x3e071309	0.13190855
53	0x3dc8990d	0.09794817
54	0x3d263ff3	0.04058833
55	0x3d78aeae	0.060713463
56	0xbd8a3528	-0.0674842
57	0xbe00bda7	-0.12572347
58	0xbe194e0f	-0.14971183
59	0x3c1def5d	0.009639588
60	0x3d45fff4	0.0483398
61	0x3dd55fbb	0.1041865
62	0x3dc05627	0.09391432
63	0x3da25f45	0.079283275
64	0x3d816310	0.06317723
65	0x3daed891	0.085374005
66	0x3d3f843a	0.04675696
67	0xbd6274de	-0.055287234
68	0xbe0409ec	-0.1289441
69	0xbdcd5b1d	-0.10027144
70	0xbe4cf687	-0.20015918
71	0xbd89167b	-0.06693741
72	0x3e299a5d	0.16562791
73	0xbc366666	-0.011132812
74	0x3e384e94	0.17998725
75	0xbde62c03	-0.11238863
76	0x3c7c2fe5	0.015392278
77	0xbdbeea71	-0.0932206
78	0xbe23249f	-0.15931939
79	0xbd18ab0f	-0.03727251
80	0xbd11f930	-0.035638034
81	0x3d437956	0.047723137
82	0x3df0a4e7	0.117502026
83	0xbd64b75b	-0.055838924
84	0x3d81e64e	0.06342755
85	0xbd2146d5	-0.03937419
86	0xbd3d17eb	-0.046165388
87	0x3d8fd960	0.07023883
88	0x3cf52c62	0.02992839
89	0x3db76f71	0.08956803
90	0x3d460778	0.048346967
91	0x3c6054cc	0.013692092
92	0xbd120015	-0.03564461
93	0xbcd6ae9f	-0.026206313
94	0xbc50b887	-0.012739307
95	0x3c005e51	0.007834987
96	0xbd9d0885	-0.076676406
97	0xbc59f675	-0.013303389
98	0x3be244f1	0.006905191
99	0xbda39e97	-0.07989233
100	0xbe031172	-0.12799624
101	0xbd30e1f4	-0.043184236
102	0x3d9b6792	0.07588114
103	0xbd73f8fe	-0.05956363
104	0xbd95ce09	-0.07314689
105	0xbe3b5807	-0.18295299
106	0xbe8bc64c	-0.27299726
107	0xbe2c874b	-0.16848485
108	0x3e1f378f	0.15548538
109	0x3e0fb401	0.1403351
110	0x3db030f7	0.08603089
111	0xbdf493a3	-0.11942222
112	0xbe3422f1	-0.17591454
113	0x3d8a8398	0.06763381
114	0x3b828eb1	0.0039842953
115	0xbcd9b44a	-0.026575226
116	0x3cdaed8c	0.0267246
117	0x3d6e1c9a	0.058132745
118	0xbd361289	-0.04445127
119	0x3cc75dda	0.024336744
120	0xbc7feea3	-0.01562086
121	0x3c0fd8f0	0.008779749
122	0x3ada500d	0.0016655937
123	0xbcec9479	-0.028879391
124	0x3d02bc01	0.031917576
125	0xbcb1b44e	-0.021692421
126	0xbe20a975	-0.15689643
127	0xbdcb7e34	-0.09936181
128	0xbd5e7228	-0.054308087
129	0x3d25be2f	0.040464576
130	0x3d9faefb	0.07797047
131	0x3cf60117	0.030029817
132	0x3e4f7142	0.20258048
133	0x3e176f4c	0.1478855
134	0x3e0c9d85	0.13731964
135	0x3d4f74bf	0.050648447
136	0x3cfd8eca	0.030951876
137	0x3d23d8c4	0.040001646
138	0xbcd87a16	-0.026425403
139	0xbc524396	-0.012833497
140	0x3d809844	0.06279042
141	0x3d57add0	0.052655995
142	0xbb8c3c7c	-0.0042796712
143	0x3d9f9bc8	0.07793385
144	0xbcbfb8b3	-0.023403501
145	0xbdbe7fa6	-0.09301691
146	0x3d5d11df	0.05397212
147	0xbd7b2980	-0.061318874
148	0x3d0d3f42	0.034484155
149	0xbcb366ef	-0.021899668
150	0x3aa07c7d	0.0012244132
151	0xbcc83959	-0.024441408
152	0x3ca629f2	0.020283673
153	0xbe3026ed	-0.17202349
154	0xbdaf0d16	-0.08547418
155	0x3c3c0207	0.011475093
156	0x3d3edda7	0.046598103
157	0x3e2cf49e	0.16890189
158	0xbd659063	-0.0560459
159	0xbc2713f4	-0.010197628
160	0x3cfb4110	0.030670673
161	0x3d26f129	0.040757332
162	0xbd3a39ba	-0.04546521
163	0x3da5285d	0.08064339
164	0xbd57b6d3	-0.05266459
165	0x3d8610c4	0.065461665
166	0xbd4cef82	-0.0500331
167	0x3d834dd1	0.06411327
168	0x3d1f27c8	0.038856298
169	0x3cfcc646	0.030856263
170	0x3e1b2feb	0.15154998
171	0xbd417ebf	-0.047240015
172	0x3c4c3444	0.012463633
173	0xbcea5bf2	-0.028608296
174	0xbbdbc340	-0.006706625
175	0xbcaf259a	-0.021380235
176	0x3dd3a6fe	0.103345856
177	0x3d081d90	0.033231318
178	0x3e19b3be	0.15009972
179	0x3e0c4083	0.13696484
180	0xbcd4b008	-0.025962844
181	0xbd643fa7	-0.055724766
182	0x3e09d4c9	0.13460077
183	0x3cd6011c	0.026123576
184	0x3dba6939	0.09102101
185	0xbd26fd62	-0.04076899
186	0xbb002e44	-0.0019558826
187	0x3ca08857	0.019596262
188	0x3ccb7ec5	0.024840722
189	0x3c3aa601	0.0113921175
190	0xbcc5ec3a	-0.024160493
191	0x3db4eaab	0.08833822
192	0xbe08ba3b	-0.13352291
193	0xbde58740	-0.112074375
194	0x3a43c64c	0.0007468208
195	0x3b29dadc	0.0025917804
196	0xbd09649d	-0.033543218
197	0x3dd7ebda	0.10543032
198	0x3cdb9a8b	0.02680709
199	0x3df35fdb	0.11883517
200	0x3d96c818	0.073623836
201	0xba527af4	-0.00080291857
202	0xbc90c168	-0.017670348
203	0x3c54c845	0.012987201
204	0xbd711974	-0.058862165
205	0xbdaf6ee5	-0.08566073
206	0x3b416469	0.0029509312
207	0x3dcfe6dc	0.10151455
208	0xbd1b387d	-0.03789567
209	0x3da32f01	0.0796795
210	0xbdeed379	-0.11661429
211	0xbda89fe9	-0.082336254
212	0xbaf5c8c9	-0.0018751855
213	0xbe1679f5	-0.1469496
214	0xbe330c29	-0.17485107
215	0xbd67c2ce	-0.056582265
216	0xbd036da7	-0.032086994
217	0xbe38df05	-0.18053825
218	0xbe0491bc	-0.12946218
219	0xbd8d7331	-0.06906737
220	0xbdba138a	-0.09085758
221	0xbddd0483	-0.10791876
222	0x3e4797b9	0.19491471
223	0x3df290cd	0.11844025
224	0x3dcb61bd	0.099307515
225	0xbd82fd27	-0.06395941
226	0xbd8f71c4	-0.07004121
227	0x3de4e2fb	0.111761056
228	0x3da1a998	0.078936756
229	0x3c9d6dc0	0.019217372
230	0x3cb62020	0.022232115
231	0xbddf157d	-0.108927704
232	0xbe62041c	-0.2207188
233	0xbe27d6e9	-0.16390575
234	0x3d880b06	0.066427276
235	0x3d3b557a	0.045735814
236	0x3db68539	0.08912129
237	0x3dd039eb	0.10167297
238	0xbda95393	-0.08267894
239	0xbd1c6739	-0.03818438
240	0x3cda8dd4	0.026678957
241	0xbdebe071	-0.11517418
242	0x3d0cb072	0.03434796
243	0xbc8351e5	-0.016030261
244	0x3c1f49c6	0.009722179
245	0xbc829951	-0.015942248
246	0xbba8f7c0	-0.005156487
247	0xbbc3304d	-0.0059566856
248	0xbc86a039	-0.016433822
249	0x3df0caf2	0.11757459
250	0x3d87bddd	0.066280104
251	0x3e1dfebb	0.15429203
252	0x3dd594b1	0.10428751
253	0x3db47e40	0.08813143
254	0x3b8622ea	0.0040935175
255	0xbd66c50b	-0.05634026

model.ec5.0.bias f4 [32]
0	0x3d51cf6f	0.051223215
1	0xbce2f706	-0.02770568
2	0xbcdc5bec	-0.0268993
3	0x3d7685e9	0.0601863
4	0x3da47870	0.08030784
5	0xbd97c4f1	-0.074106105
6	0x3d983503	0.07431986
7	0xbdb0e9e5	-0.08638362
8	0xbd68aafd	-0.056803692
9	0xbcdb7d60	-0.026793182
10	0xbd955cb2	-0.07293071
11	0xbdb89901	-0.09013558
12	0x3ce64694	0.028109826
13	0x3e10eb5c	0.14152282
14	0xbd4c505d	-0.049881328
15	0x39df1f00	0.0004255697
16	0x3d572f6d	0.052535463
17	0xbe1208a9	-0.14261116
18	0x3db8e478	0.09027952
19	0x3d00a9fb	0.031412106
20	0xbdcf1a6f	-0.10112464
21	0x3d2db03a	0.04240439
22	0xbdb3af69	-0.08773691
23	0x3d5962dd	0.0530728
24	0x3d744a27	0.05964103
25	0xbe05862f	-0.13039468
26	0xbdffe277	-0.124943666
27	0x3c99afa7	0.018760515
28	0xbce2f63b	-0.027705302
29	0x3db3a0bf	0.08770894
30	0x3e061a23	0.13095908
31	0x3d1cc1cd	0.03827076

model.ec6.0.weight f4 [64, 32, 3, 3]
0	0xbd8d4678	-0.068982065
1	0xbd8a81ec	-0.06763062
2	0xbbec9f6d	-0.0072211535
3	0x3c295d69	0.010337212
4	0xbdc6b2c3	-0.09702065
5	0xbcd5a1b3	-0.02607808
6	0x3c8c9ac5	0.017163644
7	0x3db5ab8f	0.08870613
8	0x3db95980	0.09050274
9	0xb9f0c1b5	-0.0004592069
10	0xbcecbe17	-0.028899236
11	0xbd1b09d1	-0.03785116
12	0x3df9b649	0.12192971
13	0xbd61f274	-0.055162862
14	0xbe0d874b	-0.13821141
15	0x3ba1d0a9	0.0049382043
16	0xbc2e233a	-0.010628516
17	0xbc7bc44e	-0.015366627
18	0xbcfca21d	-0.03083902
19	0x3cae157f	0.021250485
20	0x3d27ffa6	0.04101529
21	0xbca7a330	-0.020463556
22	0xbced9c02	-0.029005054
23	0x3d96f2ec	0.073705524
24	0xbbda0de4	-0.006654488
25	0x3c35c0c3	0.011093321
26	0x3da9ed88	0.082972586
27	0x3d841552	0.06449379
28	0xbdef3840	-0.11680651
29	0xbc307bc6	-0.010771697
30	0xbd8c10da	-0.06839152
31	0xbd0ba34a	-0.03409127
32	0x3d80e451	0.06293548
33	0xbcb224ec	-0.021746121
34	0xbd94b99b	-0.07261964
35	0xbca372be	-0.019952174
36	0xbdd2bd89	-0.10290057
37	0xbd96666e	-0.07343756
38	0xbe48fc0f	-0.19627403
39	0x3d21148f	0.039326247
40	0xbdd0c03d	-0.101929165
41	0xbd583a96	-0.052790247
42	0xbd41baba	-0.047297217
43	0x3b7bdd8c	0.0038431613
44	0x3d7f2b74	0.0622973
45	0xbcadaca5	-0.021200487
46	0x3d406548	0.04697159
47	0x3dc35829	0.095382996
48	0xbd1cfe7a	-0.038328625
49	0x3d87c5b3	0.06629505
50	0x3de2cc92	0.11074175
51	0xbd9821b5	-0.07428304
52	0xbd2ff2ce	-0.042956166
53	0x3dc8c12c	0.098024696
54	0xbd33a73a	-0.04386065
55	0x3d81a709	0.063306876
56	0x3c8269f1	0.015919657
57	0x3d800a05	0.06251911
58	0x3d58975e	0.05287873
59	0x3d8a5ca5	0.06755952
60	0x3d894a8d	0.067036726
61	0x3c25e59b	0.010125543
62	0xbd8f105a	-0.06985541
63	0x3d9909dc	0.07472584
64	0xbd6a8850	-0.057258904
65	0xbd8b0a28	-0.067890465
66	0x3dea33fe	0.11435698
67	0xbd026327	-0.03183284
68	0x3d003657	0.031301823
69	0x3e087843	0.13327126
70	0x3c537cb9	0.012908154
71	0xbcc09b25	-0.023511479
72	0x3b94c191	0.0045396765
73	0xbde1f4a2	-0.11032988
74	0xba084170	-0.0005197739
75	0xbd826d6b	-0.06368526
76	0x3d1b6608	0.0379391
77	0x3d428086	0.04748585
78	0x3dd335ed	0.1031302
79	0xbe08ac94	-0.13347083
80	0xbe059abe	-0.1304731
81	0xbe00c201	-0.12574007
82	0xbd559bc5	-0.052150507
83	0x3d52665c	0.05136715
84	0xbdd060c0	-0.101747036
85	0x3aff06c9	0.0019456978
86	0x3d91d028	0.07119781
87	0x3d672b83	0.05643798
88	0x3c15740b	0.009121905
89	0x3d2bb87d	0.04192399
90	0xbdde80b7	-0.10864394
91	0x3deb747f	0.11496829
92	0x3dba49fc	0.09096143
93	0x3d4a325f	0.049364444
94	0x3830592d	4.204472e-05
95	0x3cb29b74	0.021802641
96	0xbd030953	-0.031991314
97	0x3d030d7c	0.03199528
98	0x3c74ffa5	0.0149535285
99	0x3d0348fe	0.032052033
100	0x3dac2e84	0.0840731
101	0x3cba460d	0.022738481
102	0xbd63082f	-0.055427726
103	0xbc88f18a	-0.016716737
104	0x3d9afdd8	0.07567948
105	0xbb20c959	-0.0024534075
106	0xbd94a360	-0.07257724
107	0xbb361227	-0.0027781816
108	0xbd333950	-0.04375583
109	0x3d553868	0.052055746
110	0xbdedd925	-0.11613683
111	0xbbd6a72c	-0.00655069
112	0x3c8073b4	0.015680172
113	0x3d46f4d1	0.04857332
114	0xbd0eda9f	-0.034876462
115	0xbe01787b	-0.12643616
116	0xbdbca04b	-0.09210261
117	0xbd4f3f6c	-0.050597593
118	0xbbef500b	-0.007303243
119	0xbe055ceb	-0.13023727
120	0xbd5dfe59	-0.054197643
121	0x3d298f63	0.04139651
122	0x3af93629	0.0019013333
123	0xbdd329bd	-0.10310695
124	0x3ca0d5ab	0.019633135
125	0x3ce8929a	0.028390218
126	0x3ceda3a5	0.029008696
127	0xbb74a4f6	-0.003732977
128	0xbc54ad38	-0.012980752
129	0xbd6c9a6d	-0.05776446
130	0xbd1d0269	-0.038332377
131	0x3d5ee2db	0.054415565
132	0x3dad88ff	0.084733956
133	0xbccfeb03	-0.025380617
134	0xbd8c22b4	-0.068425566
135	0xbd1a43bd	-0.037662257
136	0x3d846004	0.06463626
137	0x3d2feedb	0.0429524
138	0xbcd35251	-0.025796087
139	0x3cb6259e	0.022234734
140	0x3ca0f4a3	0.019647902
141	0x3c37df52	0.011222677
142	0x3d91d031	0.071197875
143	0x3c1ff138	0.009762101
144	0xbd25bbf4	-0.04046245
145	0xbbcad587	-0.006190005
146	0xbcc72f5e	-0.024314579
147	0xbdd7da75	-0.10539714
148	0x3d8b8c21	0.06813837
149	0xbc958c3d	-0.018255347
150	0xbd0a4514	-0.033757284
151	0x3de261ca	0.11053808
152	0x3d96488d	0.07338057
153	0x3c4fe45c	0.012688722
154	0xbdc6f464	-0.097145826
155	0x3c1ca4d4	0.009560782
156	0xbccb780b	-0.024837514
157	0x3de4df13	0.111753605
158	0x3db7f3d5	0.08982054
159	0x3d03b305	0.03215315
160	0x3d495053	0.04914887
161	0xbcc41a27	-0.023938252
162	0xbd950912	-0.07277121
163	0xbd82294c	-0.06355533
164	0xbca9e000	-0.020736694
165	0xbccd25bf	-0.025042413
166	0xbcffa5c5	-0.031206975
167	0xbd1cbeea	-0.038268007
168	0xbd9f2498	-0.077706516
169	0x3cf8e479	0.030382382
170	0x3e21e930	0.1581161
171	0xbdadc1a9	-0.08484203
172	0xbd9d8a70	-0.076924205
173	0x3cf4b115	0.029869596
174	0xbc0ba748	-0.00852377
175	0xbd0a272b	-0.03372876
176	0x3d28d8bf	0.04122233
177	0xbd97b597	-0.074076824
178	0xbd070d3c	-0.032971606
179	0x3dc26c46	0.09493308
180	0x3c946717	0.018115563
181	0xbdbdb1df	-0.09262442
182	0x3cb51e12	0.022109065
183	0x3cdda9ec	0.027058564
184	0x3c23ab74	0.009989608
185	0x3bd4d95d	0.0064956383
186	0x3dbea4bb	0.093087636
187	0x3c0636be	0.0081917625
188	0xbd32feea	-0.043700136
189	0xbe22394b	-0.15842168
190	0xbde84b7e	-0.11342524
191	0xbdaa4c78	-0.083153665
192	0xbe0a26c9	-0.13491358
193	0xbc9a8a41	-0.018864753
194	0xbc950d0a	-0.018194694
195	0xbd2f9e17	-0.042875376
196	0x3cac8db1	0.021063657
197	0x3c9de333	0.019273376
198	0xbe14c545	-0.14528377
199	0x3cc866d0	0.024463087
200	0x3b9404b2	0.0045171613
201	0x3c919a47	0.01777376
202	0x3ce206bc	0.027591102
203	0x3dba64e7	0.09101277
204	0x3b93360e	0.004492528
205	0xbc0eba48	-0.008711405
206	0xbd593477	-0.05302855
207	0xbe200669	-0.15627445
208	0xbd95c194	-0.07312313
209	0x3d104819	0.035225008
210	0xbd317e41	-0.043333296
211	0x3dd6d166	0.10489158
212	0x3e014452	0.12623718
213	0xbcbf2787	-0.023334278
214	0x3d677fce	0.05651837
215	0x3c910e13	0.017706906
216	0x3b856ae4	0.0040715802
217	0xbb76b2dd	-0.0037643232
218	0xbdad5e18	-0.084652126
219	0xbcec7109	-0.028862493
220	0xbde4fa08	-0.11180502
221	0xbd8e246a	-0.06940539
222	0xbd26c620	-0.04071629
223	0xbbefe678	-0.007321175
224	0xbdfdc27e	-0.12390612
225	0xbd4574a7	-0.04820695
226	0x3dbf2c62	0.09334637
227	0x3b592c57	0.0033138
228	0xbb89a6ac	-0.004200777
229	0x3d763f77	0.06011912
230	0xbc721160	-0.01477465
231	0x3be14021	0.0068741
232	0x3cd5cac8	0.02609767
233	0x3d208294	0.03918703
234	0x3d8a39a7	0.067492776
235	0x39773db0	0.00023578736
236	0xbd8274aa	-0.06369908
237	0x3c004cfb	0.007830854
238	0xbd1dbf9a	-0.038512804
239	0x3d8dd25b	0.06924888
240	0x3dae6323	0.085150026
241	0x3cffbd51	0.031218203
242	0x3c5e5e21	0.013572247
243	0xbd402762	-0.04691256
244	0x3da7e864	0.08198622
245	0xbab53f48	-0.0013828063
246	0x3d7e5be3	0.06209935
247	0x3d1da3d2	0.03848631
248	0x3ceba79c	0.028766446
249	0x3d525c85	0.051357765
250	0x3dd1a1f7	0.102359705
251	0x3d718e55	0.05897363
252	0xbd31f00b	-0.043441813
253	0x3d05e6ea	0.03269092
254	0xbd8cb659	-0.068707176
255	0xbc769bc9	-0.0150517905

model.ec6.0.bias f4 [64]
0	0x3d6de411	0.05807883
1	0x3cf48357	0.029847784
2	0x3cd0d907	0.025494112
3	0xbc5ebece	-0.013595296
4	0xbcc763fb	-0.024339667
5	0xbc40cb79	-0.011767262
6	0x3d2298f5	0.039696652
7	0x3dcf3c17	0.10118883
8	0x3bf4dff0	0.0074729845
9	0x3d3b438d	0.04571872
10	0xbcf06315	-0.029344121
11	0x3cb2af10	0.021811992
12	0xbd0cb2e2	-0.034350283
13	0x3e033e2c	0.12816685
14	0xbc0a209e	-0.008430628
15	0x3dd6b944	0.10484555
16	0x3d336520	0.043797612
17	0x3cdf4ce7	0.02725835
18	0xbd3fe02f	-0.046844658
19	0xbcd5a489	-0.026079433
20	0xbdcd3ea1	-0.10021711
21	0x3dc0a7ab	0.0940698
22	0xbcf0e2fe	-0.029405113
23	0x3c5f07d3	0.013612705
24	0x3d013399	0.031543348
25	0x3dd1406f	0.10217368
26	0x3b419170	0.002953615
27	0x3d93cc7c	0.07216737
28	0x3dd53bf2	0.10411824
29	0x3d8ac8ae	0.06776558
30	0x3e206c8b	0.15666406
31	0xbcb3316a	-0.021874148
32	0x3d17ffc3	0.037109148
33	0xbb1d66c8	-0.0024017561
34	0x3d227a4b	0.03966741
35	0x3d537a09	0.051630054
36	0xbe045ef6	-0.1292685
37	0x3cbcfc54	0.023069538
38	0xbc8ef128	-0.017448977
39	0xbd80edd0	-0.06295359
40	0xbc4b7f19	-0.012420439
41	0x3c0eb518	0.008710168
42	0x3d96e268	0.07367402
43	0xbd8fb4f0	-0.07016933
44	0xbc2aa203	-0.010414603
45	0x3d78afd5	0.06071456
46	0x3b62285d	0.0034508922
47	0x3dc32662	0.09528805
48	0x3d10e984	0.035378948
49	0x3d54d0cf	0.051956948
50	0xbceb877e	-0.028751131
51	0xbcdfbdf9	-0.027312266
52	0x3ceb6651	0.028735312
53	0x3dcaf164	0.09909323
54	0x3ddbff38	0.107420385
55	0x3ce8b786	0.028407823
56	0x3d3a1429	0.045429382
57	0xbd3b7925	-0.04576983
58	0x3da255ca	0.07926519
59	0xbd26cebd	-0.040724505
60	0xbc928674	-0.017886378
61	0xbd8f942c	-0.070106834
62	0xbd4f43a6	-0.050601624
63	0xbd230364	-0.039798155
