2D_CMR_Registration/ModelParameters-ACDC/Model_1_Diffeo_0_Loss_1_Chan_8_FT_20-42_Smth_0.01_LR_0.0001_Mode_0_Pth/DICE_0.29342_SSIM_0.90063_MSE_0.001649_Epoch_0004.pth (torch, 317654 bytes, 27 tensors)

model.eninput.0.weight f4 [8, 2, 3, 3]
0.030656734 0.09003496 -0.08886918 -0.12182524 -0.18085934 -0.22023454 0.006668542 -0.13660374
0.15685752 0.010110014 0.06895943 -0.07505535 0.25587627 0.27138153 -0.040876884 0.014579524
0.13165715 -0.17532438 0.15526259 -0.26906237 -0.008632209 0.204855 -0.23453596 -0.35876128
0.25740486 0.118409164 -0.22878274 -0.11592508 0.0615053 -0.011667705 -0.07855642 0.25114176
0.10732495 0.020168027 0.13781983 -0.14053683 0.221869 -0.12148521 0.15993075 -0.17483921
-0.3567292 -0.19182108 -0.13180193 -0.21908692 0.25315607 -0.028072787 0.029996173 -0.037942998
0.24469164 0.3371029 -0.17009406 0.04154947 0.07814091 0.09183105 0.17634155 -0.22522299
0.08147395 0.38919678 -0.23285358 -0.0850181 -0.007992118 0.060397763 -0.25166026 0.21589768
0.18158911 -0.3598269 0.4914597 0.3802977 0.03356579 -0.25456247 -0.17553835 -0.12648341
0.13771197 -0.0588548 0.11890101 -0.27784023 -0.157894 0.3438341 -0.16922593 -0.3803495
-0.17573896 -0.08169167 0.11878111 -0.1016716 -0.013677473 0.20588174 -0.19599275 -0.016837291
0.32529196 0.16486803 0.054719437 -0.05904804 -0.043041974 -0.25702044 0.07936075 0.19098672
0.15183935 0.5989873 0.2425059 0.035236113 -0.12387121 0.07903471 0.33023977 0.06880626
-0.3850098 0.04295065 -0.41679785 -0.4171535 -0.060315464 0.18426527 0.045877066 0.28097904
-0.14456706 -0.15340333 0.048849512 0.08140181 -0.21109195 -0.09715234 -0.13133314 0.28810942
0.08974647 -0.029264651 0.01040887 -0.20214644 0.097248666 -0.2972521 -0.20444638 -0.17360768
-0.121534795 -0.13595355 0.085407525 0.027057454 -0.0021115676 -0.0121447835 0.026369862 0.084269725
-0.24762651 0.0036550083 0.14406924 0.19832923 0.12383235 0.30725697 0.28822595 -0.26255146
00000000: d523 fb3c 4064 b83d 0b01 b6bd 837f f9bd
00000010: 3133 39be 2a85 61be c983 da3b dae1 0bbe
00000020: 429f 203e 79a4 253c 9a3a 8d3d 9fb6 99bd
00000030: 3702 833e 85f2 8a3e 856e 27bd f5de 6e3c
00000040: 22d1 063e 3c88 33be 28fd 1e3e 8bc2 89be
00000050: 1c6e 0dbc 82c5 513e 322a 70be 8faf b7be
00000060: 92ca 833e 8180 f23d 0646 6abe 216a edbd
00000070: fbec 7b3d e729 3fbc 30e2 a0bd a795 803e
00000080: 2fcd db3d 6b37 a53c a420 0d3e e3e8 0fbe
00000090: a131 633e 3dcd f8bd e3c4 233e 0d09 33be
000000a0: 36a5 b6be bf6c 44be 16f7 06be 5258 60be
000000b0: ac9d 813e e7f8 e5bc 89ba f53c 1e6a 1bbd
000000c0: 7290 7a3e c098 ac3e 232d 2ebe c72f 2a3d
000000d0: 5708 a03d eb11 bc3d e192 343e dba0 66be
000000e0: d0db a63d cd44 c73e 2b71 6ebe f81d aebd
000000f0: 5ff1 02bc a563 773d 9dd9 80be 4814 5d3e
00000100: 7ff2 393e 3b3b b8be 9ba0 fb3e 61b6 c23e
00000110: 487c 093d 0356 82be 53c0 33be de84 01be
00000120: 5e04 0d3e bb11 71bd 5f82 f33d 1341 8ebe
00000130: f7ae 21be 060b b03e 9049 2dbe 2bbd c2be
00000140: eaf4 33be f64d a7bd 8343 f33d 3339 d0bd
00000150: 7b17 60bc aad2 523e 53b2 48be 5cee 89bc
00000160: ab8c a63e 2ad3 283e 7d21 603d 5cdc 71bd
00000170: c84c 30bd 2f98 83be e487 a23d 0692 433e
00000180: c67b 1b3e 3b57 193f 7753 783e be53 103d
00000190: 30b0 fdbd f3dc a13d 3015 a93e 4cea 8c3d
000001a0: 0120 c5be 05ed 2f3d 8766 d5be 2595 d5be
000001b0: 590d 77bd 09b0 3c3e 97e9 3b3d 7cdc 8f3e
000001c0: 6309 14be c315 1dbe 6d16 483d feb5 a63d
000001d0: 7d28 58be cef7 c6bd 327c 06be 1483 933e
000001e0: ffcc b73d 6cbc efbc f789 2a3c 7aff 4ebe
000001f0: 4f2a c73d 6d31 98be 645a 51be 36c6 31be
00000200: 3ce7 f8bd 6837 0bbe 24ea ae3d 98a7 dd3c
00000210: 3a62 0abb eafa 46bc 9c05 d83c 9b95 ac3d
00000220: ce91 7dbe dd88 6f3b e386 133e d116 4b3e
00000230: d19b fd3d c950 9d3e 5a92 933e 256d 86be

model.eninput.0.bias f4 [8]
-0.028630929 0.023749731 0.05219829 0.024113078 0.097501725 -0.00082011597 0.05244299 -0.04855859
00000000: 698b eabc cc8e c23c e0cd 553d ca88 c53c
00000010: fcae c73d 0dfd 56ba 76ce 563d 5fe5 46bd

model.ec1.0.weight f4 [8, 8, 3, 3]
0.05053153 0.020318832 0.03722499 -0.115500785 0.0677824 0.07280446 -0.04930165 0.12432864
0.09600287 0.03687359 0.105735905 0.024369486 0.12912288 -0.10191856 -0.17030416 -0.11113773
-0.2214982 -0.003672401 0.13326088 0.1661994 -0.08697869 0.020875875 -0.13339642 0.07096117
-0.056569215 -0.022327827 -0.07081478 -0.13226755 -0.09836876 -0.07192139 -0.17860186 0.21118249
0.23671883 -0.019824972 0.15519746 -0.0012770441 0.069615036 -0.052264296 -0.25001496 -0.055360917
-0.2092307 -0.10445334 -0.00053857075 -0.13956766 0.13391334 -0.3036441 0.04497653 0.14475434
0.23812881 0.214643 0.10257054 0.19023627 -0.17352408 -0.09532933 -0.10447877 -0.10268007
-0.055222314 -0.17220153 -0.046453085 -0.016953101 -0.22552666 -0.15727066 -0.096992284 0.09049503
0.06328167 -0.03707661 0.13526417 -0.013758284 -0.14874269 -0.015398395 -0.1870103 -0.012217705
0.055833682 -0.025538836 0.07952692 -0.09754451 -0.18442462 0.09528095 -0.028916853 0.076773554
-0.15683015 -0.16261235 0.12514415 0.0532492 -0.33929467 0.07668486 0.022412855 -0.010859796
-0.09597538 0.0416862 0.03325238 -0.045317095 0.07107791 -0.34317774 -0.33675364 0.38377258
-0.03214423 -0.021418683 0.20564622 -0.05700884 0.15150088 0.007916587 -0.3524554 -0.12933414
0.2999188 -0.2433603 -0.31441647 0.28488415 -0.2987729 0.033837147 0.016337693 0.108544655
-0.10270873 -0.22415216 0.10160862 0.11692166 0.1321626 0.111907095 0.107553415 -0.06380101
0.07549666 -0.32791224 0.044412542 0.030909665 -0.0022276018 -0.018410426 -0.28021136 0.11880245
0.090732455 -0.06551562 -0.17065933 0.03458715 0.159537 0.1109308 -0.16207285 -0.09534803
-0.03695066 0.0704172 -0.03397294 -0.054836594 0.03993375 0.23690757 -0.13639621 -0.1698234
-0.088691026 0.118953444 -0.08014164 -0.13533553 0.11595479 0.015204622 -0.105830945 0.06469748
0.038391165 -0.20673981 -0.063724004 0.1511405 -0.024650095 -0.19536254 0.0044118213 0.13463712
-0.058144704 -0.045175448 0.09036935 0.16652837 -0.13734417 0.10386037 0.15840386 0.13067229
-0.12761901 -0.11290134 0.11261786 -0.011182979 -0.14437498 0.047108646 -0.08821232 0.039574463
0.25651458 -0.15951064 -0.116720274 0.14375909 0.31720075 0.018443165 -0.23923706 0.20277058
0.42232966 -0.2767184 -0.18443324 0.037963044 -0.021307455 -0.33192763 0.09114586 0.08566893
-0.36726668 0.23978007 0.041509807 0.18063326 -0.007890689 -0.10004981 -0.19165565 0.048436143
0.15095536 -0.051919304 -0.29130873 -0.012209685 0.23118213 -0.05112389 -0.07367339 -0.0644912
0.11185951 0.054995816 -0.24130277 0.20742948 0.0677332 0.05209437 -0.19454142 -0.112903245
0.051196102 0.044273023 -0.023174947 0.07161815 0.135558 0.022444708 0.008915148 0.04523779
0.06203251 -0.118679605 0.012321707 -0.14143245 0.124057926 0.23520122 -0.011948828 -0.043509204
0.07685719 -0.035495758 0.17932837 0.08765669 -0.09080758 0.29130334 0.28003988 0.04620686
0.022016542 -6.392936e-05 0.008899425 0.023707042 -0.036272362 -0.10336148 -0.037621822 0.15025397
0.024329774 0.07685229 0.2683144 0.08794032 0.12906586 0.29249334 0.10583583 0.18022513
00000000: 26fa 4e3d ae73 a63c 3b79 183d ad8b ecbd
00000010: 80d1 8a3d 811a 953d 87f0 49bd 04a0 fe3d
00000020: 279d c43d c308 173d 118c d83d 84a2 c73c
00000030: ca38 043e aeba d0bd 3764 2ebe 2e9c e3bd
00000040: 6dd0 62be aaac 70bb 8a75 083e 2d30 2a3e
00000050: e221 b2bd e203 ab3c 1299 08be 1754 913d
00000060: 1fb5 67bd d9e8 b6bc 5707 91bd 2571 07be
00000070: 8f75 c9bd 864b 93bd 68e3 36be 3940 583e
00000080: 6c66 723e fb67 a2bc 15ec 1e3e 7d62 a7ba
00000090: 5492 8e3d 1613 56bd f601 80be 21c2 62bd
000000a0: 9340 56be a2eb d5bd df2e 0dba d3ea 0ebe
000000b0: 9420 093e 3d77 9bbe 4f39 383d 7b3a 143e
000000c0: 0ad8 733e 60cb 5b3e 8110 d23d 4ccd 423e
000000d0: 4cb0 31be 063c c3bd f7f8 d5bd ee49 d2bd
000000e0: cb30 62bd 9955 30be 9745 3ebd 3be1 8abc
000000f0: 76f0 66be 8f0b 21be e4a3 c6bd 7555 b93d
00000100: d299 813d a5dd 17bd b182 0a3e 6d6a 61bc
00000110: 0150 18be 8d49 7cbc a17f 3fbe c52c 48bc
00000120: dcb1 643d d236 d1bc 03df a23d 6bc5 c7bd
00000130: cfd9 3cbe a922 c33d 09e3 ecbc 743b 9d3d
00000140: 1598 20be da83 26be ca25 003e d51b 5a3d
00000150: 08b8 adbe f40c 9d3d 2a9b b73c 49ed 31bc
00000160: bd8e c4bd 26bf 2a3d a633 083d 6b9e 39bd
00000170: 4c91 913d feb4 afbe f96a acbe d77d c43e
00000180: aba9 03bd 3c76 afbc ec94 523e 1a82 69bd
00000190: 0c23 1b3e 93b4 013c 0975 b4be 2b70 04be
000001a0: f58e 993e 7133 79be 32fb a0be 56dc 913e
000001b0: c3f8 98be d298 0a3d a0d6 853c a94c de3d
000001c0: f458 d2bd 2588 65be 2e18 d03d a074 ef3d
000001d0: a255 073e 8c2f e53d f744 dc3d 1baa 82bd
000001e0: fe9d 9a3d 1de4 a7be ede9 353d 4436 fd3c
000001f0: f5fc 11bb 76d1 96bc dd77 8fbe b34e f33d
00000200: f0d1 b93d 0e2d 86bd 52c1 2ebe 41ab 0d3d
00000210: ab5d 233e b02f e33d 6df6 25be d445 c3bd
00000220: 9359 17bd e536 903d 3627 0bbd 569c 60bd
00000230: 9291 233d e697 723e 73ab 0bbe 2fe6 2dbe
00000240: a4a3 b5bd dd9d f33d 4d21 a4bd 6695 0abe
00000250: b479 ed3d cf1c 793c e5bd d8bd 1d80 843d
00000260: 0e40 1d3d 9ab3 53be bb81 82bd 93c4 1a3e
00000270: ffee c9bc 1e0d 48be 0a91 903b 50de 093e
00000280: 2429 6ebd e409 39bd 9113 b93d 6a86 2a3e
00000290: f3a3 0cbe bfb4 d43d 9f34 223e f5ce 053e
000002a0: 8fae 02be d138 e7bd 31a4 e63d d038 37bc
000002b0: 09d7 13be fff4 403d a9a8 b4bd d518 223d
000002c0: e155 833e c256 23be 0a0b efbd 9535 133e
000002d0: 2368 a23e 1f16 973c 8ffa 74be 17a3 4f3e
000002e0: 983b d83e 09ae 8dbe 11dc 3cbe 237f 1b3d
000002f0: f98c aebc 6bf2 a9be aeaa ba3d 3173 af3d
00000300: 610a bcbe e888 753e 3006 2a3d edf7 383e
00000310: f347 01bc eae6 ccbd 6141 44be fa64 463d
00000320: 0b94 1a3e 56a9 54bd 6b26 95be 210b 48bc
00000330: 02bb 6c3e 4967 51bd 13e2 96bd f613 84bd
00000340: 9916 e53d 4b43 613d 1318 77be 6568 543e
00000350: b4b7 8a3d e860 553d de35 47be d139 e7bd
00000360: 01b3 513d a157 353d 63d9 bdbc 89ac 923d
00000370: b7cf 0a3e f7dd b73c d710 123c 434b 393d
00000380: cd15 7e3d 4b0e f3bd fce0 493c abd3 10be
00000390: 1512 fe3d 97d8 703e 04c5 43bc b536 32bd
000003a0: 4d67 9d3d 0064 11bd dba1 373e 5a85 b33d
000003b0: 53f9 b9bd b625 953e 6361 8f3e 6843 3d3d
000003c0: 095c b43c d011 86b8 e5ce 113c 4535 c23c
000003d0: 5492 14bd 2faf d3bd 5719 1abd 2ddc 193e
000003e0: 3c4f c73c bc64 9d3d 8160 893e 0e1a b43d
000003f0: d729 043e b0c1 953e 75c0 d83d f08c 383e

model.ec1.0.bias f4 [8]
0.07774273 0.034642287 -0.02993022 -0.00024791615 0.059821784 -0.039908864 -0.022278754 -0.0745921
00000000: 9537 9f3d 12e5 0d3d 3930 f5bc befa 81b9
00000010: b007 753d 7a77 23bd ef81 b6bc bec3 98bd

model.ec2.0.weight f4 [16, 8, 3, 3]
0.0060533704 0.076890275 -0.0030231627 -0.044552375 0.043771397 0.17711325 -0.066457026 -0.04372778
-0.14125815 0.22190002 0.46014163 0.083661914 0.27023935 0.43991065 0.17689966 0.20630169
0.32260808 0.2714422 -0.24996425 -0.46758747 -0.09934961 -0.18358195 -0.39836657 -0.17834453
-0.052344233 -0.22753316 -0.15842557 -0.0459866 -0.080645904 0.13363522 0.05224847 -0.049050126
0.18102527 -0.020199785 -0.09400808 -0.21645622 -0.10436132 -0.10656613 0.019040942 -0.16941665
-0.12807961 -0.06277041 0.129071 -0.0076102703 0.0033625735 -0.06975923 -0.027058303 0.08300932
-0.099942885 0.19934978 0.23305185 -0.021814004 -0.119236134 -0.291908 -0.065823026 0.033521395
0.07120751 0.02341912 0.071064994 0.16825147 0.14893194 0.0783728 -0.07907882 -0.012405327
0.0031053512 -0.06552093 -0.05172675 0.10567556 -0.01656701 -0.090531066 0.003322611 0.05437594
-0.09529165 -0.12056902 -0.07294116 0.042077135 0.08131122 -0.0068535297 0.0039327084 -0.044168375
-0.14385502 -0.13789022 -0.042633675 0.02694101 -0.10090879 -0.1624806 0.0374098 0.17405121
-0.062424786 0.028626751 0.17535537 0.3442928 0.20359477 -0.02963502 0.45896125 0.2050199
-0.04180552 0.1840187 0.08542886 -0.1450009 -0.025631785 0.017038869 -0.02541811 0.05434157
0.05730371 -0.26403677 -0.07098105 0.045055166 0.022971397 0.15496503 0.10956973 -0.18751325
-0.07615217 0.033080798 -0.10179923 0.08639295 0.17698771 -0.024599288 0.08094732 0.076281674
0.0062724925 0.051776405 0.06466258 -0.0024081238 0.024053443 0.17784855 0.07302505 0.1384607
0.13410313 0.10690842 0.14071085 0.20914213 0.17350249 0.042742074 0.19688626 -0.3201412
-0.21710087 -0.066837445 -0.22290194 -0.43120503 -0.25812057 -0.03695654 -0.3947666 -0.21800297
0.1852078 0.14360926 -0.07877789 -0.0060067605 -0.21951634 -0.17048287 0.010676881 0.19085945
0.20790309 0.085996196 0.20587552 0.24203199 0.19333844 0.067917295 -0.056065258 -0.07375603
-0.19735137 -0.22339563 0.08520292 -0.07699103 -0.23857173 -0.046472594 -0.077788375 -0.038957004
0.10450758 0.10817 0.08743813 0.08628897 -0.15454902 -0.12426939 -0.12037369 -0.109054424
-0.06907978 0.15515557 0.1973688 0.18889429 -0.0034232086 -0.16347636 -0.14965211 -0.09196546
0.007828882 0.004723372 -0.021688838 0.1942825 0.06337309 -0.059723567 -0.20864011 -0.015434519
-0.15029319 0.026814729 0.114318855 0.07782332 0.16211542 0.14126188 -0.00082005013 -0.0048632063
-0.022748383 -0.031325836 0.14570256 0.11407781 0.062053964 0.12150921 0.029689312 -0.05696557
-0.1814171 -0.18030278 -0.23292536 -0.4888948 -0.31698635 -0.12261945 -0.10311131 -0.1652947
0.050261036 -0.0018406989 0.09799273 0.06471539 0.094150044 0.08718514 -0.057109818 0.10804908
0.13613348 0.021701057 -0.048607245 -0.12770446 -0.019464815 -0.1725364 -0.06758028 0.014389451
-0.14916207 -0.015814861 0.2076759 0.37897426 0.13837264 0.22475721 0.4191805 0.2238363
0.106402874 0.25687018 0.37594038 -0.028162332 0.015634615 0.11266404 -0.14581215 -0.09804224
-0.07666079 -0.07717829 0.047927756 -0.06940359 -0.087489024 -0.043693442 0.08678388 0.047481373
00000000: 5a5b c63b a678 9d3d 4120 46bb 8d7c 36bd
00000010: a349 333d 2d5d 353e 9f1a 88bd e71b 33bd
00000020: faa5 10be c239 633e af97 eb3e f056 ab3d
00000030: d05c 8a3e f83b e13e 2f25 353e c040 533e
00000040: e32c a53e 79fa 8a3e a1f6 7fbe a067 efbe
00000050: cf77 cbbd e8fc 3bbe b4f6 cbbe f39f 36be
00000060: e866 56bd 74fe 68be 503a 22be 725c 3cbd
00000070: ae29 a5bd acd7 083e 7e02 563d c9e8 48bd
00000080: b05e 393e 057a a5bc 4f87 c0bd b3a6 5dbe
00000090: 63bb d5bd 583f dabd c0fb 9b3c 8f7b 2dbe
000000a0: 4d27 03be c68d 80bd 302b 043e 935f f9bb
000000b0: 9f5e 5c3b eddd 8ebd 60a9 ddbc ca00 aa3d
000000c0: dbae ccbd 5922 4c3e 25a5 6e3e 48b3 b2bc
000000d0: 1332 f4bd f774 95be 39ce 86bd bb4d 093d
000000e0: 3ed5 913d 74d9 bf3c 868a 913d 1d4a 2c3e
000000f0: 9d81 183e eb81 a03d 14f4 a1bd b63f 4bbc
00000100: 2683 4b3b d62f 86bd 6edf 53bd 6e6c d83d
00000110: 8ab7 87bc 5a68 b9bd 2ac0 593b 4eb9 5e3d
00000120: 4528 c3bd e4ec f6bd 2d62 95bd 1359 2c3d
00000130: 7f86 a63d 9393 e0bb f3dd 803b e6e9 34bd
00000140: bb4e 13be 1833 0dbe a6a0 2ebd 65b3 dc3c
00000150: 45a9 cebd 5061 26be 053b 193d 7b3a 323e
00000160: 22b1 7fbd a682 ea3c 5c90 333e 2547 b03e
00000170: 267b 503e 24c5 f2bc f8fc ea3e bdf0 513e
00000180: 443c 2bbd 666f 3c3e 53f5 ae3d 1e7b 14be
00000190: c0f9 d1bc 1995 8b3c a439 d0bc 4495 5e3d
000001a0: 4cb7 6a3d d42f 87be 835e 91bd c48b 383d
000001b0: 832e bc3c 27af 1e3e 1866 e03d 7903 40be
000001c0: abf5 9bbd bb7f 073d 1d7c d0bd c9ee b03d
000001d0: 443c 353e 7284 c9bc b5c7 a53d 9139 9c3d
000001e0: 7b89 cd3b 7f13 543d d16d 843d 9dd1 1dbb
000001f0: ba0b c53c ee1d 363e 288e 953d a4c8 0d3e
00000200: 5552 093e cdf2 da3d 8116 103e 5b29 563e
00000210: a3aa 313e 5012 2f3d 8d9c 493e 8ce9 a3be
00000220: b14f 5ebe 12e2 88bd 6840 64be e8c6 dcbe
00000230: 6128 84be be5f 17bd d91e cabe 2c3c 5fbe
00000240: 1da7 3d3e 4e0e 133e 4d56 a1bd 5cd4 c4bb
00000250: e4c8 60be 1093 2ebe 16ee 2e3c a970 433e
00000260: 8ce4 543e c61e b03d 08d1 523e 3cd7 773e
00000270: 83fa 453e 3918 8b3d afa4 65bd 670d 97bd
00000280: 7a16 4abe d3c1 64be de7e ae3d 79ad 9dbd
00000290: 264c 74be 0c5a 3ebd 834f 9fbd 6191 1fbd
000002a0: 1208 d63d 3c88 dd3d c312 b33d 46b8 b03d
000002b0: 1942 1ebe f380 febd 7b86 f6bd ed57 dfbd
000002c0: b379 8dbd 1ae1 1e3e 0c1b 4a3e 816d 413e
000002d0: e957 60bb 5966 27be 673e 19be 6358 bcbd
000002e0: b644 003c 84c6 9a3b caac b1bc fef1 463e
000002f0: c0c9 813d b3a0 74bd c1a5 55be 11e1 7cbc
00000300: 75e6 19be 90aa db3c 0120 ea3d d561 9f3d
00000310: 9601 263e f4a6 103e a2f8 56ba 885b 9fbb
00000320: d15a babc 854f 00bd 0d33 153e a0a1 e93d
00000330: 4c2c 7e3d d2d9 f83d 0037 f33c bb54 69bd
00000340: 67c5 39be 4ba1 38be fc83 6ebe 6b50 fabe
00000350: 094c a2be e81f fbbd 062c d3bd 0443 29be
00000360: 84de 4d3d 9b43 f1ba 6ab0 c83d 8189 843d
00000370: bdd1 c03d 1f8e b23d fceb 69bd d648 dd3d
00000380: 9366 0b3e 6ac6 b13c 6418 47bd f5c4 02be
00000390: ad74 9fbc 62ad 30be 8867 8abd bbc1 6b3c
000003a0: f1bd 18be 2b8e 81bc fea8 543e ea08 c23e
000003b0: 8fb1 0d3e c126 663e d49e d63e 5835 653e
000003c0: c0e9 d93d 7d84 833e 427b c03e b1b4 e6bc
000003d0: 2a14 803c 67bc e63d c84f 15be 5fca c8bd
000003e0: 5500 9dbd a70f 9ebd e54f 443d 7823 8ebd
000003f0: 722d b3bd e5f7 32bd bfbb b13d d47b 423d

model.ec2.0.bias f4 [16]
0.051727507 0.0074324156 -0.016834324 0.008322753 -0.07966432 0.041216686 -0.04200914 -0.09485534
-0.03984682 0.081948355 -0.045599647 -0.068844266 0.006214011 0.06305612 -0.010240719 0.08021062
00000000: 39e0 533d 9f8b f33b 23e8 89bc 285c 083c
00000010: 0c27 a3bd d4d2 283d c711 2cbd 8443 c2bd
00000020: 6b36 23bd 8ad4 a73d b2c6 3abd 39fe 8cbd
00000030: e79e cb3b 9123 813d b0c8 27bc 7745 a43d

model.ec3.0.weight f4 [16, 16, 3, 3]
-0.037449315 -0.059164315 -0.18456817 -0.07216637 0.007089735 -0.020314483 0.06862634 0.0076165386
0.088531196 0.09368053 0.059327565 0.023661459 0.10777003 0.065055355 -0.06952269 0.06185444
-0.027671013 -0.12706001 0.27030656 0.08706986 0.122805744 0.291044 0.32427034 0.0589016
0.15516612 0.09615237 0.025703581 -0.09020972 0.0736156 -0.033771332 -0.028759837 -0.04684925
0.022021206 0.06938327 -0.045344546 -0.05796889 0.048112374 0.021688417 -0.023663042 -0.032272324
0.09153913 0.21338338 0.0043533165 0.09537107 0.07785242 0.096767046 0.028943148 0.07663348
0.26008308 0.22485009 0.0780977 0.11997361 0.24886812 -0.045821626 0.15179017 0.26494166
-0.0050144023 -0.0070798323 0.14882775 0.37137112 0.043155674 -0.18815619 -0.039950006 -0.27554834
-0.15290675 -0.028118525 -0.24388252 -0.14427258 0.053696834 -0.20817629 -0.1432506 -0.050675046
0.011167191 -0.06153119 -0.07804536 0.05250711 -0.011798284 0.14140059 0.095896915 0.18941665
0.11918851 -0.031787273 -0.015792957 -0.11282948 -0.15989758 -0.16721083 -0.19926806 -0.16509745
-0.09888295 0.053170484 -0.011219976 0.097211994 -0.028067332 0.17562327 0.02859734 0.21249057
0.018420702 0.10645673 -0.17175321 -0.018493995 0.0027660318 0.05792921 -0.017668908 0.079732835
0.065015905 0.07684144 0.06392536 0.013344496 -0.18399024 -0.07936718 -0.16573966 -0.2047678
-0.143935 -0.2135018 -0.08447415 -0.3002485 -0.10391759 -0.015880566 -0.07066231 -0.20677543
-0.0643397 -0.03786352 -0.1984229 0.10756559 0.05495977 -0.059263352 0.0458332 0.1597954
0.12982798 0.09992592 0.066409975 0.12511282 0.003167018 -0.02496394 -0.111731365 0.14204161
0.1788256 -0.030848572 0.17724106 0.3540617 -0.06446374 0.0819268 -0.07038578 0.11112177
-0.03478767 -0.08737553 -0.106346436 0.037537653 0.02066689 -0.03938597 0.04535861 -0.03618158
-0.0675963 -0.008446846 -0.0800111 0.11838676 -0.034891594 -0.032826908 -0.17498414 -0.101877555
-0.08440399 -0.11295546 0.1152802 0.24971685 0.12772007 -0.09481331 0.012780835 0.113633566
0.022102196 -0.15280801 -0.090993516 -0.019969158 -0.20098408 -0.12653539 -0.0041699363 -0.07308041
-0.08549335 0.11240776 0.1443497 0.019791989 0.08790353 0.23101187 0.01774518 0.05085605
0.2415134 0.17151313 -0.1842349 -0.0045918114 -0.017398955 0.03263555 0.15369263 0.00094527693
0.16376533 0.0076716132 -0.0131633375 0.023547934 -0.028667856 -0.12334055 0.16847071 0.16400886
0.046982378 0.21205463 0.24645332 0.08136114 0.020655634 0.10834693 0.051465653 0.06075499
0.010463985 0.008947151 0.13767095 0.18357591 -0.059305403 -0.04395063 -0.004806742 -0.038458917
0.20206915 0.032713197 -0.08361726 0.06912774 0.19632772 0.27744016 -0.0074865315 0.025423208
0.116677366 -0.088516876 -0.09367127 -0.051184602 0.019968133 -0.017153729 -0.009215701 0.006297219
-0.16206276 -0.14501016 0.018398473 -0.087168165 -0.08729983 -0.037954997 -0.17030023 -0.13380326
-0.07886785 -0.08322427 -0.14180313 0.14366877 -0.075789325 -0.1425451 0.049432173 0.3427338
0.14315933 0.06371779 0.058379445 0.14547876 -0.14403433 -0.057832286 0.048292737 -0.011198571
00000000: 7464 19bd 4856 72bd 70ff 3cbe f6cb 93bd
00000010: 0251 e83b 8f6a a6bc f78b 8c3d 2894 f93b
00000020: d84f b53d 94db bf3d 7601 733d add5 c13c
00000030: 89b6 dc3d be3b 853d e961 8ebd 155b 7d3d
00000040: 52ae e2bc 051c 02be 9f65 8a3e af51 b23d
00000050: 9481 fb3d b803 953e c306 a63e ce42 713d
00000060: dee3 1e3e 89eb c43d 5190 d23c e0bf b8bd
00000070: c7c3 963d cf53 0abd c099 ebbc 00e5 3fbd
00000080: d165 b43c d118 8e3d 34bb 39bd c970 6dbd
00000090: 7b11 453d e8ab b13c ffd8 c1bc fc2f 04bd
000000a0: de78 bb3d 2c81 5a3e 44a6 8e3b e851 c33d
000000b0: 1771 9f3d cd2d c63d 2e1a ed3c 04f2 9c3d
000000c0: 9c29 853e 1a3f 663e b0f1 9f3d b9b4 f53d
000000d0: 49d7 7e3e 75af 3bbd e26e 1b3e 6fa6 873e
000000e0: db4f a4bb f0fd e7bb 4d66 183e 5b24 be3e
000000f0: 01c4 303d 04ac 40be 9ea2 23bd ac14 8dbe
00000100: 9693 1cbe d258 e6bc 57bc 79be 31bc 13be
00000110: 36f1 5b3d 2a2c 55be 49b0 12be a390 4fbd
00000120: 98f6 363c 2108 7cbd 3fd6 9fbd b211 573d
00000130: 974d 41bc 51cb 103e 9a65 c43d 70f6 413e
00000140: 1b19 f43d 5f33 02bd 3b60 81bc 2413 e7bd
00000150: 31bc 23be 5139 2bbe ed0c 4cbe 4e0f 29be
00000160: 2583 cabd 4bc9 593d fdd3 37bc 1517 c73d
00000170: 76ed e5bc 96d6 333e f844 ea3c 2197 593e
00000180: 03e7 963c fc05 da3d 13e0 2fbe b880 97bc
00000190: 5046 353b 2e47 6d3d 63be 90bc f84a a33d
000001a0: 0f27 853d 0b5f 9d3d 4deb 823d dfa2 5a3c
000001b0: f067 3cbe 438b a2bd a8b7 29be a6ae 51be
000001c0: b263 13be 37a0 5abe c800 adbd 2cba 99be
000001d0: bfd2 d4bd f617 82bc 67b7 90bd f0bc 53be
000001e0: 88c4 83bd c716 1bbd 5f2f 4bbe 594b dc3d
000001f0: 7f1d 613d 21be 72bd 98bb 3b3d 68a1 233e
00000200: a0f1 043e f6a5 cc3d f401 883d 931d 003e
00000210: bf8d 4f3b 2d81 ccbc 6ad3 e4bd 5b73 113e
00000220: 0f1e 373e 25b6 fcbc ae7e 353e 9347 b53e
00000230: 9105 84bd 3dc9 a73d 6b26 90bd d093 e33d
00000240: 847d 0ebd f1f1 b2bd 29cc d9bd 15c1 193d
00000250: 9c4d a93c 2f53 21bd f3c9 393d 2333 14bd
00000260: ee6f 8abd a464 0abc dcdc a3bd c274 f23d
00000270: 7dea 0ebd 8275 06bd 0b2f 33be 2ea5 d0bd
00000280: 00dc acbd 3155 e7bd 0718 ec3d c6b5 7f3e
00000290: 0dc9 023e 7b2d c2bd b566 513c b7b8 e83d
000002a0: aa0f b53c b479 1cbe cf5a babd 5c96 a3bc
000002b0: c5ce 4dbe 7e92 01be f6a3 88bb 2fab 95bd
000002c0: 2317 afbd 0a36 e63d 68d0 133e cf22 a23c
000002d0: c406 b43d 608e 6c3e 575e 913c 6f4e 503d
000002e0: 4a4f 773e 23a1 2f3e 13a8 3cbe e876 96bb
000002f0: 4188 8ebc dbac 053d 9a61 1d3e 76cc 773a
00000300: 19b2 273e 2862 fb3b 0aab 57bc 99e7 c03c
00000310: dad8 eabc f899 fcbd 9683 2c3e f0f1 273e
00000320: 9870 403d d924 593e 425e 7c3e aba0 a63d
00000330: 0136 a93c ffe4 dd3d a6cd 523d 39da 783d
00000340: 2271 2b3c 1297 123c 9df9 0c3e 53fb 3b3e
00000350: 39ea 72bd 9305 34bd e081 9dbb 1987 1dbd
00000360: 37eb 4e3e 46fe 053d 873f abbd d892 8d3d
00000370: 220a 493e a30c 8e3e 9451 f5bb 5544 d03c
00000380: 8bf4 ee3d 5648 b5bd b9d6 bfbd f2a6 51bd
00000390: 3694 a33c fa85 8cbc 74fd 16bc e758 ce3b
000003a0: c8f3 25be 8b7d 14be 65b8 963c 3985 b2bd
000003b0: 41ca b2bd b376 1bbd 2f63 2ebe b903 09be
000003c0: 7885 a1bd 7c71 aabd d734 11be e81d 133e
000003d0: 6f37 9bbd 58f7 11be 6479 4a3d ce7a af3e
000003e0: 5c98 123e 797e 823d 491f 6f3d 62f8 143e
000003f0: bc7d 13be 8ce1 6cbd 9bce 453d 367a 37bc

model.ec3.0.bias f4 [16]
0.08920845 0.08686085 0.08304778 0.102665834 0.033247 0.073262155 0.14054981 0.021555841
0.10997663 0.10560785 0.13931254 -0.013829076 0.2078724 0.03796746 0.03974508 -0.04124161
00000000: ebb2 b63d 1ae4 b13d f414 aa3d 7742 d23d
00000010: 022e 083d 780a 963d 4aec 0f3e e095 b03c
00000020: 6d3b e13d ee48 d83d f2a7 0e3e 5993 62bc
00000030: 81dc 543e c483 1b3d bdcb 223d f6ec 28bd

model.ec4.0.weight f4 [32, 16, 3, 3]
-0.026571808 -0.1648156 0.01185494 -0.038015906 -0.015302398 -0.044833742 -0.08813836 0.15733741
0.21625964 -0.09410717 -0.08090658 0.04588639 -0.09677023 -0.31837305 -0.30298832 0.066855766
-0.19099328 0.004366619 -0.0016636115 -0.35044193 -0.30338746 -0.14477828 -0.0029262293 -0.112409346
0.11237998 0.023971409 0.025189126 0.11982137 0.29085052 0.33920136 0.013164424 -0.09031579
0.121982016 0.07401006 0.16310908 0.09491382 0.279466 0.31910676 0.20909797 0.2896915
-0.03494509 -0.13469617 0.06828113 -0.20358744 -0.16755721 -0.16894819 -0.096994996 0.0126129715
-0.1811913 0.02705054 0.0458435 -0.02006199 -0.057048786 0.04280458 0.057779856 -0.18711273
-0.08062785 -0.15816171 -0.32995275 -0.1555952 -0.0078801 -0.09138012 0.03236781 0.115742214
0.36541644 0.15517947 0.21116269 0.33938062 0.2593857 -0.21752729 -0.070656806 -0.1872742
0.13904788 -0.08426522 0.012539276 -0.027407585 -0.5758279 -0.49758786 -0.0770822 -0.21362543
-0.103321284 -0.03967818 -0.03601451 0.09562407 0.16597308 0.04229131 0.045193348 0.032542285
0.07297651 0.041417815 0.015891174 -0.25379097 -0.101029314 -0.10968153 -0.2134529 -0.13289955
0.06864367 -0.056867547 -0.0023017772 0.05590794 0.1277075 0.1254955 0.107322454 -0.038327303
-0.16006553 0.17409895 0.074776486 0.005833497 0.014764275 -0.29400688 -0.23236199 -0.15381889
-0.22504896 -0.24564943 0.17866822 0.054680057 0.15006937 -0.08107825 0.08607563 -0.0013828713
0.17175643 0.24782528 0.10653219 -0.07379334 -0.10384088 0.012274478 0.15696232 0.11219771
-0.11096874 0.0936398 0.103895105 0.0592857 0.19856848 0.21507797 0.18187448 -0.05057633
-0.11396182 -0.10206414 -0.07566211 -0.11268854 -0.16016574 -0.119036086 -0.007148476 -0.0826448
0.16689317 0.050458234 0.124785155 0.05954569 -0.12885627 0.03608131 -0.01107509 -0.046376646
-0.11543826 -0.11918874 0.0010671249 0.027235406 -0.2527592 -0.17336945 0.07349346 -0.23056114
-0.13222387 0.16936481 -0.2971984 -0.33543327 0.05254894 -0.052048434 0.26839384 0.15383653
-0.1330748 0.11694393 0.00871796 0.047954068 0.0065922164 -0.076348186 -0.00289314 0.09763223
0.03054411 -0.16727348 -0.12050254 -0.015958006 -0.00221879 0.041020773 -0.050701935 -0.15128632
-0.033876494 -0.0447719 0.12252623 0.026457999 0.30106005 0.09660071 0.26119852 -0.017857075
0.16795924 0.2099381 0.052062277 -0.16350907 -0.08912192 -0.097284995 -0.12436937 -0.10024953
-0.05055223 -0.047090843 0.25262246 0.31603393 0.10307636 0.17016537 0.055588584 0.2029306
0.13996743 -0.14413147 0.09361957 0.25295267 -0.020755887 -0.017614653 0.06299313 0.08789812
-0.06588323 0.030450303 0.027519152 -0.084338546 -0.30372643 -0.1907021 0.030079402 0.027424825
-0.073901765 -0.0072945626 -0.19296558 -0.10408363 -0.22598127 -0.17881852 -0.053694893 0.26471764
-0.077796906 0.07525441 0.09033652 0.07822561 0.22488743 -0.10463849 -0.32993436 -0.15457763
0.20153147 -0.20796934 -0.2584044 0.26363054 0.13253644 0.04214527 -0.2680432 -0.08919243
0.0779826 -0.0012103248 -0.008987472 0.09403033 -0.1714608 -0.3035034 0.013748325 0.08112668
00000000: 1fad d9bc 6cc5 28be 393b 423c 91b6 1bbd
00000010: e9b6 7abc 96a3 37bd e281 b4bd 0f1d 213e
00000020: 2b73 5d3e 43bb c0bd 59b2 a5bd 5ef3 3b3d
00000030: 782f c6bd cb01 a3be 4921 9bbe adeb 883d
00000040: be93 43be db15 8f3b 8a0d daba 206d b3be
00000050: 9a55 9bbe c240 14be fbc5 3fbb df36 e6bd
00000060: 7a27 e63d b05f c43c 6d59 ce3c e864 f53d
00000070: 5cea 943e cdab ad3e 99af 573c 7cf7 b8bd
00000080: b5d1 f93d 9692 973d 1106 273e 2d62 c23d
00000090: 2b16 8f3e f661 a33e c71d 563e 7252 943e
000000a0: 9522 0fbd cbed 09be fad6 8b3d 3a79 50be
000000b0: 1e94 2bbe c100 2dbe 50a5 c6bd a3a6 4e3c
000000c0: 368a 39be 1899 dd3c 65c6 3b3d 0b59 a4bc
000000d0: fdab 69bd db53 2f3d 92aa 6c3d 7b9a 3fbe
000000e0: 3720 a5bd 25f5 21be 91ef a8be 5954 1fbe
000000f0: 891b 01bc 8025 bbbd 1c94 043d 410a ed3d
00000100: dd17 bb3e 5ee7 1e3e 083b 583e 4cc3 ad3e
00000110: 34ce 843e 79bf 5ebe 84b4 90bd cfc4 3fbe
00000120: 9162 0e3e 3e93 acbd 8971 4d3c df85 e0bc
00000130: 7569 13bf d6c3 febe 46dd 9dbd a0c0 5abe
00000140: 1c9a d3bd 9685 22bd f383 13bd 8dd6 c33d
00000150: d9f4 293e a739 2d3d a91c 393d 0f4b 053d
00000160: b574 953d baa5 293d 352e 823c e4f0 81be
00000170: 75e8 cebd b6a0 e0bd 6693 5abe d216 08be
00000180: 0d95 8c3d f2ed 68bd 6ad9 16bb b9ff 643d
00000190: c1c5 023e e481 003e e0cb db3d 17fd 1cbd
000001a0: 38e8 23be ff46 323e 6a24 993d eb26 bf3b
000001b0: dce5 713c 1288 96be 4df0 6dbe b382 1dbe
000001c0: 3c73 66be 868b 7bbe cdf4 363e 32f8 5f3d
000001d0: c9ab 193e 5b0c a6bd 6b48 b03d 7641 b5ba
000001e0: ebe0 2f3e e9c5 7d3e 8d2d da3d f620 97bd
000001f0: 87aa d4bd e41a 493c bbba 203e eac7 e53d
00000200: 9443 e3bd 39c6 bf3d f5c6 d43d 90d5 723d
00000210: 8955 4b3e 663d 5c3e 4e3d 3a3e 2029 4fbd
00000220: d164 e9bd 0107 d1bd bcf4 9abd 40c9 e6bd
00000230: 7d02 24be 31c9 f3bd c33d eabb ad41 a9bd
00000240: 0be6 2a3e 4bad 4e3d 5c8f ff3d 2ee6 733d
00000250: e6f2 03be ffc9 133d 4b74 35bc 70f5 3dbd
00000260: e56a ecbd 3a19 f4bd c5de 8b3a c91c df3c
00000270: a769 81be c387 31be bd83 963d 3818 6cbe
00000280: b265 07be f86d 2d3e 642a 98be e9bd abbe
00000290: 8f3d 573d bd30 55bd eb6a 893e 5387 1d3e
000002a0: c344 08be 4d80 ef3d c6d5 0e3c 7c6b 443d
000002b0: 8503 d83b 705c 9cbd d69a 3dbb 68f3 c73d
000002c0: a437 fa3c bd49 2bbe 09ca f6bd 5dba 82bc
000002d0: 1e69 11bb 6605 283d d5ac 4fbd cdea 1abe
000002e0: 14c2 0abd bd62 37bd 08ef fa3d 72be d83c
000002f0: 8b24 9a3e 98d6 c53d d0bb 853e 0049 92bc
00000300: 82fd 2b3e 03fa 563e 413f 553d ec6e 27be
00000310: 8e85 b6bd 5b3d c7bd 5eb5 febd a04f cdbd
00000320: db0f 4fbd 54e2 40bd bb57 813e 33cf a13e
00000330: b319 d33d d53f 2e3e dbb0 633d 0acd 4f3e
00000340: 9f53 0f3e 3397 13be 9ebb bf3d 0383 813e
00000350: 4008 aabc 9b4c 90bc 8b02 813d ee03 b43d
00000360: c9ed 86bd ea72 f93c d86f e13c b0b9 acbd
00000370: 0882 9bbe 6947 43be 1469 f63c 07aa e03c
00000380: cf59 97bd 3a07 efbb c598 45be cc29 d5bd
00000390: a267 67be 341c 37be 2def 5bbd 1289 873e
000003a0: fc53 9fbd fc1e 9a3d 5a02 b93d c034 a03d
000003b0: e448 663e b44c d6bd 28ed a8be 9949 1ebe
000003c0: 445e 4e3e eaf5 54be 954d 84be 95fa 863e
000003d0: a2b7 073e 85a0 2c3d f53c 89be 85aa b6bd
000003e0: 57b5 9f3d c3a3 9eba 3140 13bc f992 c03d
000003f0: 6c93 2fbe cc64 9bbe a840 613c bf25 a63d

model.ec4.0.bias f4 [32]
0.09328333 0.011736984 0.011450491 0.035844423 0.053796545 0.10488128 -0.11210197 0.054022532
0.15986624 -0.14361608 -0.01535281 0.05051128 0.0818125 0.071738265 0.032861657 0.09163459
-0.09104549 0.07785848 0.013983586 0.0020653107 0.14784704 0.111119874 -0.04282865 0.07625668
-0.03313786 0.16241692 0.11338154 0.035034426 0.16419888 0.09992288 0.08581045 -0.02649077
00000000: 550b bf3d 7b4c 403c d79a 3b3c 9ad1 123d
00000010: c459 5c3d ffcb d63d b895 e5bd bb46 5d3d
00000020: fab3 233e 1810 13be 5a8a 7bbc eae4 4e3d
00000030: 508d a73d 83eb 923d f299 063d eaaa bb3d
00000040: 0f76 babd 4474 9f3d 691b 653c 2a5a 073b
00000050: 3765 173e d192 e33d 186d 2fbd 762c 9c3d
00000060: 91bb 07bd 9f50 263e 9534 e83d 4280 0f3d
00000070: c023 283e 5ea4 cc3d 64bd af3d 2c03 d9bc

model.ec5.0.weight f4 [32, 32, 3, 3]
0.18141802 0.104826964 0.053384263 0.08030537 0.083784804 -0.013869252 -0.27225775 -0.046542265
-0.1276219 -0.06453399 -0.01030712 0.012782526 -0.09084876 -0.074374795 -0.16737273 -0.16038328
0.07992363 -0.058652513 0.008164406 -0.14369512 -0.10753359 -0.06693153 -0.36090142 0.12169305
-0.04813183 0.17650029 -0.05045625 -0.12545435 -0.06585146 -0.03299614 -0.10173361 0.017599631
0.04435107 -0.1016218 -0.014378258 0.101601794 0.05089772 -0.31457573 0.15892978 0.06594908
0.09901674 -0.11250192 0.045109842 0.36704624 0.0897451 0.1196522 -0.06689646 0.029233642
-0.24589753 -0.06159635 -0.054398045 0.19181979 0.1386324 0.04212875 0.17961946 0.2633905
0.12234933 0.0215302 -0.39014745 0.038963612 -0.11773305 0.089969434 0.13897246 0.15279256
0.10690573 0.13547643 0.13977785 -0.09570348 -0.085098654 -0.03409511 -0.24424398 -0.20836627
0.13050118 -0.105027534 0.19719401 -0.18941906 -0.02361863 -0.23115794 -0.12846312 -0.1358917
0.12787928 0.061656203 0.091645 -0.1260052 0.04154288 0.018761566 -0.09034757 0.01935192
0.060230806 0.090351254 0.03254784 -0.012638475 -0.15400897 -0.035606436 0.057501648 0.039694123
-0.05388883 0.030194635 0.13880342 0.020196447 -0.082119234 -0.08904748 0.1526963 -0.0692492
0.07124715 -0.14382385 -0.27774757 -0.11026856 0.065831736 0.3012666 0.008600329 -0.037764464
-0.10840224 0.080172054 -0.0076450035 -0.09361498 0.013866331 0.12389574 0.032092266 0.047806773
-0.11256845 0.070978366 0.052315816 -0.06324727 -0.10800627 -0.088506155 -0.12754883 -0.26038462
-0.052065637 0.056157716 0.12838173 -0.12113214 0.1418135 0.21923625 0.19442369 0.110649325
0.019856947 -0.065480694 -0.010325995 -0.09784274 0.042640563 0.08213439 0.06373036 0.1397999
-0.18236372 -0.11617917 0.07225557 -0.10335572 -0.095695876 -0.022866921 -0.05099167 -0.082543254
0.09231693 -0.12868291 0.0012740833 0.17965917 0.024655942 0.2276316 -0.02615488 -0.07617916
-0.036030464 -0.07399201 -0.043305296 0.12554152 -0.013148715 0.006964057 -0.08758143 0.13955756
0.032861017 0.18010744 0.106208526 -0.08474184 -0.029350145 -0.010398179 -0.055906102 -0.053125355
0.14249182 -0.038338292 0.020335041 0.03677824 -0.09612614 0.015661318 0.11066521 0.08528809
0.14709422 -0.0731645 -0.08978062 -0.16326395 0.04450626 -0.07794583 0.02677549 0.063796826
-0.1692986 -0.18448488 -0.009095433 -0.010387873 0.037383597 0.1629614 -0.035927232 0.0196548
-0.043327775 0.0030254486 -0.003491783 0.023697343 -0.0035187257 -0.03974807 0.035062704 0.1416457
-0.009254196 0.15520777 -0.18971027 -0.20948978 -0.050166484 -0.06627887 -0.15179573 -0.0073688314
0.006616308 -0.31190553 -0.08390331 -0.027751599 -0.076452784 -0.051606596 0.19272226 0.15737817
0.055407397 -0.09007353 -0.029703284 0.18960494 0.082476 -0.11565007 0.08714166 0.02720933
-0.029135102 0.11697436 -0.057448134 -0.030362843 0.045010205 0.2703437 -0.06638947 0.053467494
-0.049814973 -0.1593115 0.05142494 -0.05887577 -0.085679084 0.036428038 -0.045710664 -0.07422593
-0.08413709 0.0556015 0.08351672 0.21692592 0.1112232 0.041962706 0.0073644095 -0.15189421
00000000: a5c5 393e 85af d63d 75a9 5a3d 2477 a43d
00000010: 5e97 ab3d dc3b 63bc 5e65 8bbe 1aa3 3ebd
00000020: 51af 02be 662a 84bd 32df 28bc cd6d 513c
00000030: ea0e babd d051 98bd c263 2bbe 843b 24be
00000040: 00af a33d 9e3d 70bd 00c4 053c d024 13be
00000050: 923a dcbd 6613 89bd 12c8 b8be 353a f93d
00000060: e225 45bd 7ebc 343e 36ab 4ebd 1b77 00be
00000070: 21dd 86bd f626 07bd b659 d0bd 1a2d 903c
00000080: 78a9 353d 171f d0bd c992 6bbc 9a14 d03d
00000090: 217a 503d 1210 a1be 7dbe 223e 5010 873d
000000a0: 4ac9 ca3d 6867 e6bd 19c5 383d 7ced bb3e
000000b0: 47cc b73d 360c f53d 0301 89bd 647b ef3c
000000c0: 90cc 7bbe 744c 7cbd 7cd0 5ebd 686c 443e
000000d0: a7f5 0d3e 328f 2c3d 2aee 373e 1fdb 863e
000000e0: 4992 fa3d 1a60 b03c 68c1 c7be 4f98 1f3d
000000f0: 061e f1bd e541 b83d cc4e 0e3e a775 1c3e
00000100: 64f1 da3d 55ba 0a3e ed21 0f3e 3000 c4bd
00000110: 3448 aebd 50a7 0bbd 181b 7abe f85d 55be
00000120: 1aa2 053e ad18 d7bd 3aed 493e 12f7 41be
00000130: db7b c1bc abb4 6cbe d68b 03be 3227 0bbe
00000140: c9f2 023e 378b 7c3d 60b0 bb3d 8207 01be
00000150: de28 2a3d dbb1 993c 2608 b9bd eb87 9e3c
00000160: 94b4 763d 140a b93d e250 053d 9b11 4fbc
00000170: 87b4 1dbe 0ed8 11bd d986 6b3d 4e96 223d
00000180: 89ba 5cbd bd5a f73c 7c22 0e3e 0573 a53c
00000190: 212e a8bd 865e b6bd 6b5c 1c3e 86d2 8dbd
000001a0: 07ea 913d 8f46 13be ee34 8ebe 7cd4 e1bd
000001b0: cad2 863d 9e3f 9a3e 65e8 0c3c e9ae 1abd
000001c0: fe01 debd 3f31 a43d f082 fabb 36b9 bfbd
000001d0: 9c2f 633c 0dbd fd3d 2e73 033d 09d1 433d
000001e0: 4a8a e6bd 1b5d 913d 1c49 563d c987 81bd
000001f0: 6432 ddbd b742 b5bd 299c 02be 2251 85be
00000200: c742 55bd a205 663d 8076 033e 2114 f8bd
00000210: 8f37 113e 787f 603e 0117 473e 1d9c e23d
00000220: 09ab a23c be1a 86bd 5d2e 29bc c661 c8bd
00000230: dfa7 2e3d 1336 a83d 1085 823d b427 0f3e
00000240: 8ebd 3abe 58ef edbd bafa 933d 2aac d3bd
00000250: 33fc c3bd 6953 bbbc a4dc 50bd 700c a9bd
00000260: a910 bd3d 74c5 03be 24ff a63a 93f8 373e
00000270: 42fb c93c 4218 693e c242 d6bc d203 9cbd
00000280: ae94 13bd 1f89 97bd e560 31bd f58d 003e
00000290: b56d 57bc bf32 e43b e55d b3bd 2de8 0e3e
000002a0: 4699 063d 166e 383e db83 d93d 218d adbd
000002b0: b76f f0bc 205d 2abc ccfd 64bd f999 59bd
000002c0: 60e9 113e 9d08 1dbd ac95 a63c c8a4 163d
000002d0: c8dd c4bd 2a4c 803c 71a4 e23d 86ab ae3d
000002e0: de9f 163e 45d7 95bd e7de b7bd aa2e 27be
000002f0: 324c 363d 10a2 9fbd 4658 db3c e9a7 823d
00000300: 9d5c 2dbe 9be9 3cbe 0305 15bc e631 2abc
00000310: 8b1f 193d 5adf 263e 6f28 13bd 1a03 a13c
00000320: 7778 31bd 9b46 463b 66d6 64bb ee20 c23c
00000330: 6c9a 66bb dfce 22bd e99d 0f3d 920b 113e
00000340: e99e 17bc c9ee 1e3e 6943 42be 7d84 56be
00000350: 5f7b 4dbd 37bd 87bd 5770 1bbe 3d76 f1bb
00000360: 9dcd d83b 15b2 9fbe 80d5 abbd 5257 e3bc
00000370: 4793 9cbd 7061 53bd fc58 453e be27 213e
00000380: def2 623d 7978 b8bd 4d54 f3bc cc27 423e
00000390: 2de9 a83d f2d9 ecbd 5477 b23d 1ae6 de3c
000003a0: bdac eebc 4190 ef3d bc4e 6bbd 7fbb f8bc
000003b0: 9f5c 383d 7d6a 8a3e 34f7 87bd bb00 5b3d
000003c0: c90a 4cbd 8e22 23be f5a2 523d b827 71bd
000003d0: 8478 afbd 9135 153d 1b3b 3bbd c403 98bd
000003e0: 1150 acbd 66be 633d d00a ab3d d421 5e3e
000003f0: fdc8 e33d 16e1 2b3d 2551 f13b 288a 1bbe

model.ec5.0.bias f4 [32]
0.053692535 0.062174384 -0.03673913 0.1359899 0.16097923 -0.06436909 0.14550841 0.037356745
-0.08723704 -0.043543395 0.020902833 -0.12720126 0.11380902 0.19620474 -0.09498388 0.04987793
0.13564797 -0.09395975 0.09038869 0.12329662 -0.14430663 0.048519336 -0.036967166 0.09275256
0.069509424 -0.114785075 -0.09886847 0.038068883 0.06578813 0.028994275 0.20781957 0.20117544
00000000: b4ec 5b3d 91aa 7e3d c57b 16bd f040 0b3e
00000010: bdd7 243e f1d3 83bd 2800 153e 6303 193d
00000020: 55a9 b2bd 8f5a 32bd 6b3c ab3c 0c41 02be
00000030: b414 e93d e5e9 483e e986 c2bd cd4c 4c3d
00000040: 4de7 0a3e f86d c0bd b51d b93d f082 fc3d
00000050: 1ec5 13be 36bc 463d e26a 17bd 0ef5 bd3d
00000060: f55a 8e3d 7014 ebbd 8d7b cabd 1eee 1b3d
00000070: edbb 863d 6785 ed3c a7ce 543e ef00 4e3e

model.ec6.0.weight f4 [64, 32, 3, 3]
-0.254087 -0.033091288 -0.07429403 -0.090492114 -0.15572181 -0.046412386 0.04234693 0.09173182
0.045584865 0.041815713 -0.03763979 -0.111450225 0.08228504 -0.029981641 -0.2378051 0.08291621
0.008214344 0.14634359 -0.08598037 -0.010395473 0.078435495 -0.10629902 0.0058587505 0.011486787
-0.032945693 0.033912625 0.16415367 0.051092256 -0.122247994 -0.061080392 -0.07739187 0.020428836
0.18770288 0.06650748 -0.108203605 0.030307064 -0.1634875 -0.03290481 -0.2498532 0.06851417
0.011239344 -0.0096106725 -0.21048583 -0.069503054 0.082009755 0.058436036 0.16017996 0.11332344
0.07086358 0.22964194 0.1942966 0.061341193 -0.03216054 0.07880761 -0.094504215 -0.02094257
-0.021487618 -0.038290936 -0.029624691 0.06927113 0.013082088 0.027825259 -0.16684653 0.11980615
-0.013232764 -0.03423458 0.19511609 0.036446024 -0.010596939 0.080040246 -0.026446275 -0.06883948
0.06499036 -0.051742688 -0.07947021 -0.13187855 0.028317297 0.18722746 0.21946354 -0.12514769
-0.21524785 -0.37839603 -0.051969744 0.14261712 -0.029738558 0.002854703 0.048994735 -0.048027538
0.015255599 0.14753138 -0.1467818 0.013593968 0.097941056 0.09302354 -0.15084672 -0.04285813
0.10882364 0.034770824 0.098448366 0.03435267 0.011946752 -0.016416486 -0.02005206 -0.08598896
0.09111902 0.073002994 -0.007389134 0.069645874 -0.12099993 0.032904044 -0.15337141 -0.074328125
-0.022142373 -0.024516813 -0.011673926 0.04512776 0.005197627 -0.13400131 0.09772566 -0.1915408
0.012549172 0.037128698 0.013041531 -0.13785167 -0.099440895 0.23144116 -0.0751448 0.043253448
-0.07488939 -0.22474222 -0.15918894 -0.06351466 0.20921741 0.014162138 -0.19952552 -0.069611326
0.03603536 -0.061411466 -0.0041601546 0.042615984 0.05025737 -0.034714833 0.012327204 0.13609305
-0.02626903 -0.0795682 -0.12177348 -0.11548314 0.007846497 -0.012063914 0.079692595 0.21068844
-0.05373413 0.08817796 -0.08502845 0.017821198 0.01176736 0.11116126 0.26642632 -0.016095195
-0.10299842 -0.013143601 -0.1350683 -0.07962509 -0.014673131 -0.13912964 -0.03828984 0.0018356396
-0.20951821 0.02698999 0.1527772 -0.09019254 -0.13615733 0.11902354 -0.13677639 -0.062455792
-0.07539022 -0.10704058 -0.10654735 0.08390075 0.05230861 -0.053748794 0.102899924 0.099298
0.112360634 0.098143004 0.0046372237 0.033575095 -0.124911584 -0.14199625 -0.29084527 -0.21794151
-0.08951832 0.037328325 0.06788466 -0.041443344 -0.014285329 -0.029057851 -0.16721863 0.1910469
0.044584528 -0.086900964 0.11626497 0.17460404 0.04594716 -0.022723243 0.0037964866 0.07258443
0.008378221 0.07991101 -0.021243153 0.12608856 0.24476089 0.035675887 0.16312885 0.14289387
-0.055205453 0.045567237 -0.06394628 0.03361705 0.02616611 0.0308038 -0.18538679 -0.09310336
-0.20570509 -0.017300492 0.043995 -0.039009877 -0.113590546 -0.055371866 -0.12872116 -0.05539695
0.10521178 0.025353462 0.02431243 -0.053036746 0.012875002 -0.09266325 -0.027633997 0.09924133
0.048845258 0.0022416615 -0.15044384 0.050982848 0.22125737 0.12972839 0.15500177 -0.056460552
0.025774434 0.042055987 0.08534683 0.12822188 0.0008937642 -0.0008473218 -0.005883248 -0.014105
00000000: b117 82be bb8a 07bd 7827 98bd ee53 b9bd
00000010: 8a75 1fbe ea1a 3ebd f973 2d3d e4dd bb3d
00000020: 32b7 3a3d f446 2b3d 2e2c 1abd 0440 e4bd
00000030: 0f85 a83d 0f9c f5bc 2e83 73be f9cf a93d
00000040: 7595 063c 18db 153e 7a16 b0bd c651 2abc
00000050: caa2 a03d 4db3 d9bd c3fa bf3b 1433 3c3c
00000060: 10f2 06bd f7e7 0a3d e617 283e 1d46 513d
00000070: 285d fabd 6f2f 7abd a17f 9ebd 605a a73c
00000080: 2f35 403e 1335 883d da99 ddbd 8546 f83c
00000090: 4469 27be 32c7 06bd 84d9 7fbe 2851 8c3d
000000a0: 3a25 383c 1576 1dbc 9989 57be 9e57 8ebd
000000b0: bbf4 a73d a05a 6f3d 3706 243e 1f16 e83d
000000c0: ed20 913d 4227 6b3e b0f5 463e e740 7b3d
000000d0: c5ba 03bd e265 a13d 6d8b c1bd c18f abbc
000000e0: cd06 b0bc f5d6 1cbd 7baf f2bc 06de 8d3d
000000f0: 4156 563c ccf1 e33c d1d9 2abe ed5c f53d
00000100: 3cce 58bc 8f39 0cbd 83cc 473e 6d48 153d
00000110: c99e 2dbc 24ec a33d dca5 d8bc b7fb 8cbd
00000120: aa19 853d 24f0 53bd 47c1 a2bd 2c0b 07be
00000130: adf9 e73c 8eb8 3f3e 0dbb 603e b726 00be
00000140: ef69 5cbe 20bd c1be 3ade 54bd 390a 123e
00000150: 479e f3bc f815 3b3b b4ae 483d 86b8 44bd
00000160: 9ff2 793c 7712 173e f84d 16be 3cb9 5e3c
00000170: 5295 c83d 2083 be3d 9077 1abe 028c 2fbd
00000180: eede de3d da6b 0e3d 4c9f c93d 63b5 0c3d
00000190: 4fbc 433c de7b 86bc 3844 a4bc fb1a b0bd
000001a0: 9c9c ba3d 9882 953d 8c20 f2bb 7fa2 8e3d
000001b0: d0ce f7bd 64c6 063d 650d 1dbe 5839 98bd
000001c0: ec63 b5bc 7cd7 c8bc ff43 3fbc e3d7 383d
000001d0: db50 aa3b a437 09be 6424 c83d 4523 44be
000001e0: 0b9b 4d3c 4314 183d 25ac 553c fd28 0dbe
000001f0: aba7 cbbd e9fe 6c3e 84e5 99bd 872a 313d
00000200: 9c5f 99bd d322 66be 6d02 23be f913 82bd
00000210: 173d 563e 5008 683c 6b50 4cbe 6290 8ebd
00000220: d099 133d 978a 7bbd e851 88bb 198e 2e3d
00000230: acda 4d3d 2431 0ebd 0bf8 493c fa5b 0b3e
00000240: 2632 d7bc a7f4 a2bd 6064 f9bd 6d82 ecbd
00000250: 988e 003c b9a7 45bc df35 a33d b6be 573e
00000260: 5218 5cbd a596 b43d 6523 aebd c3fd 913c
00000270: e3cb 403c 84a8 e33d 0869 883e 12da 83bc
00000280: d6f0 d2bd 4258 57bc 584f 0abe 7b12 a3bd
00000290: 9267 70bc 0078 0ebe cfd5 1cbd d899 f03a
000002a0: f18b 56be 1d1a dd3c a071 1c3e deb6 b8bd
000002b0: d46c 0bbe 9dc2 f33d 1c0f 0cbe a5d1 7fbd
000002c0: 3066 9abd 1738 dbbd 7f35 dabd 28d4 ab3d
000002d0: 8e41 563d b227 5cbd 32bd d23d c05c cb3d
000002e0: 551d e63d 33ff c83d daf3 973b 0a86 093d
000002f0: a5d1 ffbd 7767 11be ace9 94be 0f2c 5fbe
00000300: 6255 b7bd 96e5 183d 1d07 8b3d 7fc0 29bd
00000310: 030d 6abc bb0a eebc 5c3b 2bbe cca1 433e
00000320: 449e 363d 22f9 b1bd 541c ee3d 67cb 323e
00000330: 1733 3c3d 1826 babc 7ace 783b 25a7 943d
00000340: ce44 093c 62a8 a33d 1f06 aebc 5c1d 013e
00000350: 99a2 7a3e e120 123d 400b 273e c552 123e
00000360: 1d1f 62bd b6a4 3a3d 44f6 82bd 08b2 093d
00000370: 4f5a d63c 4058 fc3c 09d6 3dbe f9ac bebd
00000380: 5ba4 52be c3b9 8dbc 1a34 343d d2c8 1fbd
00000390: 29a2 e8bd 9ccd 62bd 7bcf 03be eae7 62bd
000003a0: 4679 d73d 10b2 cf3c dc2a c73c 0f3d 59bd
000003b0: acf1 523c 3bc6 bdbd b160 e2bc 0a3f cb3d
000003c0: f711 483d d7e8 123b f30d 1abe 64d3 503d
000003d0: 4b91 623e 85d7 043e c9b8 1e3e 2e43 67bd
000003e0: e824 d33c e642 2c3d 52ca ae3d 994c 033e
000003f0: 804b 6a3a ce1e 5eba 43c8 c0bb a818 67bc

model.ec6.0.bias f4 [64]
0.1796694 0.052212622 0.077162094 0.09677166 0.0066915355 -0.002671046 0.11821255 0.1133661
0.0010859577 0.08018933 0.01301731 0.0503753 -0.11181467 0.17835386 0.086247176 0.12936667
0.002276402 -0.05566227 -0.046498638 0.01614938 0.013444309 0.06068098 0.09913443 0.014920266
0.11939047 0.045238685 0.032502074 -0.027824417 0.25671792 0.06272166 0.20172842 -0.01464038
0.07353894 0.05706897 0.07824439 0.15350027 0.021156041 0.111363135 0.0025008065 0.015472546
0.005994059 0.060176764 0.120211564 -0.08976496 0.059382256 0.15285641 0.062113356 0.22231182
0.014308942 0.11083782 0.06937206 -0.07733979 0.1173728 0.12636645 0.111791074 0.13376884
0.13450265 0.062953964 0.15305386 0.054276578 0.035207845 -0.07615755 0.017494148 -0.018173449
00000000: 41fb 373e e7dc 553d 2907 9e3d 3830 c63d
00000010: ab44 db3b b70c 2fbb 6c19 f23d 7c2c e83d
00000020: b256 8e3a 4e3a a43d 8e46 553c 5556 4e3d
00000030: 17ff e4bd 65a2 363e 5ca2 b03d b278 043e
00000040: b02f 153b 1ffe 63bd 5b75 3ebd b44b 843c
00000050: 8545 5c3c 9f8c 783d fe06 cb3d 2274 743c
00000060: fe82 f43d 334c 393d e520 053d 08f0 e3bc
00000070: 8870 833e 3774 803d e591 4e3e 34de 6fbc
00000080: 959b 963d 27c1 693d 983e a03d 2d2f 1d3e
00000090: 6f4f ad3c 5b12 e43d 92e4 233b 9080 7d3c
000000a0: d069 c43b e97b 763d 7b31 f63d b1d6 b7bd
000000b0: cf3a 733d 6486 1c3e 936a 7e3d b6a5 633e
000000c0: 0d70 6a3c f0fe e23d f012 8e3d 5364 9ebd
000000d0: 2761 f03d 3566 013e b8f2 e43d b3fa 083e
000000e0: 10bb 093e 02ee 803d 27ba 1c3e 1e51 5e3d
000000f0: 1a36 103d 7df8 9bbd e34f 8f3c 7ce0 94bc
