ModelParameters-ACDC/Voxelmorph_Loss_0_Smth_0.01_LR_0.0001_Mode_2/DICE_0.49220_SSIM_0.94111_MSE_0.000356_Epoch_0006.pth (torch, 898940 bytes, 18 tensors)

unet_model.encoder.0.0.main.weight f4 [32, 2, 3, 3]
00000000: 87a3 c53c e21a c2be d9ac 85bd b0fe f4bd
00000010: f046 a4be abe1 72be f795 49bc e430 25be
00000020: 0b6d 32bd d5eb a83d fb30 9fbe 898d 03bb
00000030: abe9 0bbe c77a 4cbe 2507 873e bc5b c0bd
00000040: a867 123e 684c ee3d 3201 903e 7cd1 c83e
00000050: 197d 8d3c e31d a03c dfd3 913e 5033 2cbd
00000060: 0ed9 4dbe 4517 ffbd d5c3 8abe cef3 f93d
00000070: 65b9 193e ccf6 01be c7dd 783e 6d33 dabd
00000080: d5a3 84be 45eb 233e 1a1b 9a3d d563 abbe
00000090: a824 5d3e 5d2e c1ba 1a0e 693d 0e0c 993e
000000a0: 9ea6 c83e 5920 c03d 53d7 603d d50f 933e
000000b0: d127 583e a5b3 63be d8bd 3cbe 86f7 073e
000000c0: b0e9 98be 3ea1 e63b 30c4 8ebe a207 b0bd
000000d0: 11d9 d5be 87e6 70be cdd5 e63d 954c 85be
000000e0: fa73 88be 3087 d5bd 0eab debd 4ad9 d63c
000000f0: e7c0 543e 0073 9abd d727 05be 2f84 483c
00000100: decd 873e cad6 ca3d 5dad 973d 9830 833e
00000110: 65e8 9c3d e148 6fbe 9c02 483e 68bd fcbd
00000120: d27c 5bbe 4fe0 aabd 32ca 83be 54fa 723d
00000130: 3ac0 79bd c9b7 013d d3be dabd abdc 5dbd
00000140: 4edc 9abd ccc7 993d 2fe6 e13d e181 5bbb
00000150: 89f6 053c 2d7e 323d 5142 d73d ca64 053e
00000160: 5a98 743e 10e9 503d c2e5 99bd 9392 133e
00000170: d6c6 303e 0f29 13be 175e 153e 3aac 3e3e
00000180: 6fed 7d3d 85e4 0a3e a421 a53e afc8 933e
00000190: f260 85be 01a6 413e fceb 3cbe 89c1 c9be
000001a0: a1a8 2ebe 4bf8 6b3d 75bd adbe a0d0 0bbe
000001b0: c385 1ebd 776f 85be 60c1 623d ac85 95be
000001c0: 2b7f 2cbe fe5c 64bd 2678 243e 426f 223e
000001d0: c6e7 8c3e b0b5 013e 3d1c b4bd 6d6a ff3d
000001e0: b05c 293e 8998 ec3c f935 783d 8857 70bd
000001f0: e59a 283e 6c7a 1e3e 854d 863e 32d7 72be
00000200: 1905 a8be 7e0e 9c3e a27e f03d f796 7dbe
00000210: d158 cf3e a3e5 1abd 8721 53be d56a 733d
00000220: 8409 c7bd 31b9 6abe 972e 963d 8369 af3d
00000230: 8996 c2bd 93ca a53e b030 adbd 1831 50bd
00000240: af5c 0fbe aee5 0ebe e60b e3be 2485 3a3d
00000250: 9cd0 a03b 5306 f43d 0421 64bd cbdd 683e
00000260: cb0a b03e ec10 08be 77e0 46be 640a b5be
00000270: 1c4b f63c 2629 743e 6540 493e 14cb 0a3e
00000280: 0d38 4fbd d43d 373e d064 8dbd 77f6 653d
00000290: 3c15 eabb 395f 4a3d 3366 56be 7ec9 5cbb
000002a0: 49a8 6cbe 8666 e4be e0f7 023e dba1 a3bd
000002b0: b4e7 0dbd bd52 df3e 85b7 59be 3d3b a7be
000002c0: 685a d23e f62b 0c3a a403 d2bd 740b 853d
000002d0: 46db 853e f85b 433d 9ab1 7fbe 2d98 0dbd
000002e0: e018 2cbe e37f 07bf 9d2f be3e f0a1 b43d
000002f0: 38f9 48be 0d22 81bc 0d96 883e 4efa a3be
00000300: 2241 c43e dfe2 153e 4aee 2bbe 9dcf 6f3a
00000310: 6ab0 c93d edb3 6cbc b4c7 efbc 3baa 053e
00000320: e5af 90bd 468f 423e 6bac 493e 5344 743e
00000330: 2b50 1bbd 2cf8 1bbd cea3 d7bd 26a1 093e
00000340: c905 993e 5369 9cbd ccd9 dc3d 34dc 38bc
00000350: bf6d 283e f1eb 60bd 6483 21bb cf28 333c
00000360: b7ae ba3d fc13 453e 30da 363d 35ee 94bd
00000370: bd8a 7f3c 6b46 e1bd 2527 493d 2e4d 603e
00000380: 87c7 66be b003 63bd 46b0 cbbd d723 653c
00000390: a35d b8bd cd68 793e 1205 3b3e 906f fcbb
000003a0: fdae c2bd 0ca4 523d 38ad 90bd cec9 b33e
000003b0: 490d d13e 1451 acbd 9d23 1bbe cb4a 253e
000003c0: 4ba0 eabe 3dac 35be ac0e fdbd 9c56 1f3e
000003d0: 4d1c 3c3e 6649 903d 63f3 32bd 435f 423e
000003e0: e72e 823c 8a75 b1be d72c b4bd 8d8b f9bc
000003f0: 0331 953d a4a2 95be f989 2bbd cf7c 80bb
0.024125827 -0.37911135 -0.06527109 -0.1196264 -0.3208537 -0.23718898 -0.012303821 -0.16131932
-0.043561023 0.082481064 -0.31092057 -0.0020073375 -0.13663356 -0.19968711 0.26372638 -0.09392497
0.14297354 0.11635667 0.28125912 0.39222324 0.017271565 0.019545501 0.28481957 -0.042041123
-0.20102331 -0.1245561 -0.27102533 0.12204705 0.15012129 -0.12691802 0.24303351 -0.1065434
-0.25906244 0.16007717 0.075247005 -0.33474603 0.21596014 -0.0014738549 0.056898214 0.2989201
0.3918962 0.0938117 0.05489285 0.28723016 0.21108939 -0.22236498 -0.18431795 0.13278016
-0.2986579 0.0070382645 -0.27884054 -0.08595206 -0.4176717 -0.23525439 0.11271248 -0.2603499
-0.26650983 -0.104261756 -0.1087247 0.026226658 0.20776711 -0.07541466 -0.13003479 0.012238546
0.26524252 0.09904249 0.07406113 0.25623012 0.07661513 -0.23367645 0.19532245 -0.12340814
-0.21434334 -0.08343565 -0.257402 0.059320763 -0.060974337 0.03166941 -0.10680928 -0.054165523
-0.07561551 0.07508811 0.11030232 -0.0033494162 0.008176454 0.04357736 0.10510696 0.13026729
0.23886243 0.051003516 -0.07514526 0.14411382 0.1726335 -0.14371131 0.14586674 0.18620387
0.061994012 0.13563736 0.32252228 0.28864047 -0.26050526 0.18910982 -0.18449396 -0.39405468
-0.17056514 0.057609838 -0.33933607 -0.13653803 -0.038701784 -0.26061603 0.055360198 -0.29203546
-0.16845386 -0.055752747 0.16061458 0.15862754 0.2752058 0.12666965 -0.087944485 0.12471471
0.16539264 0.028881328 0.060598347 -0.058677226 0.16465338 0.15476388 0.26231018 -0.23714903
-0.3281639 0.30479807 0.11742903 -0.2476462 0.4049745 -0.037816655 -0.20618258 0.059428055
-0.09718612 -0.22922207 0.07333105 0.08565047 -0.095013686 0.32381114 -0.08456552 -0.05082807
-0.140002 -0.13954803 -0.44345015 0.04553713 0.0049076807 0.11915269 -0.05569555 0.22740857
0.34383234 -0.13287705 -0.19421564 -0.3535949 0.030065112 0.23843822 0.19653471 0.1355403
-0.050590564 0.1789468 -0.06903994 0.05614325 -0.0071436446 0.049407218 -0.20937423 -0.0033689435
-0.2311107 -0.4460947 0.1278987 -0.07989856 -0.034644797 0.43617812 -0.21261413 -0.32662383
0.410846 0.0005347127 -0.10254601 0.06496325 0.26143855 0.04769513 -0.24970093 -0.034568954
-0.16806364 -0.52929515 0.371457 0.088199496 -0.1962632 -0.015763307 0.2667698 -0.32026905
0.38330942 0.14637326 -0.16790119 0.0009148063 0.098481014 -0.0144471945 -0.02927003 0.13053219
-0.07064799 0.18999967 0.19694678 0.23854189 -0.03791825 -0.038078472 -0.1052929 0.1344038
0.29887226 -0.076372765 0.10783729 -0.011282969 0.16448115 -0.05491251 -0.0024644965 0.0109350225
0.091153555 0.19245905 0.044641674 -0.07271997 0.015597043 -0.10999759 0.049109597 0.21904442
-0.22537051 -0.05542344 -0.09945731 0.013985596 -0.09002235 0.24356385 0.18263653 -0.007703729
-0.095060326 0.05142598 -0.07064289 0.35114902 0.40830448 -0.08413902 -0.15150304 0.16141813
-0.4582542 -0.17741485 -0.12356314 0.15560383 0.18370171 0.0704525 -0.043689143 0.18981652
0.015891505 -0.34659988 -0.08797615 -0.03046205 0.07284739 -0.29225647 -0.041879628 -0.0039211283

unet_model.encoder.0.0.main.bias f4 [32]
00000000: 0468 e03c b1a9 ddbb da3e c73c e5d5 1c3c
00000010: 4117 ba3c 3153 313d 509b 7cbe 96ba 2f3c
00000020: 9dc3 9b3b a152 a9bb 30bb 8d3c 40dd 8dbe
00000030: 979f 94bd cd75 5e3d 2ad5 433d 2587 9b3b
00000040: 01b1 acbd a500 9d3b 759d 993c 9a0c 053e
00000050: 8e17 293c 5383 3dbd 45f7 8d3c 102a 91bd
00000060: 7088 8bbd f735 2a3d 21e9 f2bc 36ce 813c
00000070: 323d 16be 3552 013c e7c2 23bc d1cc 3ebb
0.027393349 -0.0067646136 0.024321962 0.009572481 0.022716166 0.043292228 -0.24668622 0.010725638
0.0047535435 -0.005167321 0.017301172 -0.27707863 -0.07257002 0.054311562 0.04781071 0.004746335
-0.08432198 0.0047913366 0.01875184 0.12993088 0.010320557 -0.04626782 0.017329821 -0.07088101
-0.06813133 0.04155537 -0.02965218 0.0158454 -0.14671782 0.007893135 -0.009995199 -0.002911378

unet_model.encoder.1.0.main.weight f4 [32, 32, 3, 3]
00000000: 353d 65be 6c02 27be e2e5 11bd f4ab 2abe
00000010: ff2e c13a b614 043e c626 72bd dee1 0b3e
00000020: bd1c 583e 6430 ed3d cfae 773e ffb5 2a3e
00000030: 587b d33d 3efb 693e 4d13 cb3c b43e 9bbc
00000040: 0c36 6dbd 84cb 6abe 23e9 20bd fc60 91bc
00000050: bae6 773d 9f0a 973d 187f 8c3c 6c32 7a3d
00000060: 0168 e43d c326 443d c261 983d 22f0 51bd
00000070: 8206 973b f621 77bd f334 903d bf86 c53c
00000080: 0ea7 21bd 5ece bf3d 9ca9 a53d d794 0fbc
00000090: a367 323c 733e d73b 24cc a5bc 8223 92bc
000000a0: cc49 b23c 648a 323c 94a6 963d dcef df3d
000000b0: 2283 653d e5c5 53bd e217 913a 38a0 db3d
000000c0: d74b 56bd 521a 82bd a332 653d 70e1 483d
000000d0: 69b9 3bba ffce c13d 942e 8f3e 5cc2 003e
000000e0: 7a69 7bbd 52e3 b03d da66 5bbd 380c a2bd
000000f0: bf38 6abd 3369 24be d14f 65be dade eb3d
00000100: ff95 1e3e 9515 d73d 9a66 94bb 7e57 8f3d
00000110: c506 693d 1eff 50bc cefb bfbd 844d ecbd
00000120: 210a 0c3d 8656 d5bd f9fc 24be ff8e 86bd
00000130: 443e a0be de82 53be 7793 72be bd04 3bbe
00000140: e9b8 03be ec1a 983c 7d3f 51be fd03 abbd
00000150: 3b94 a83d 8be1 9abd 1137 6e3d f351 4b3e
00000160: 142e 3c3d 5381 f43d d547 2cbe 06e6 31bd
00000170: 5b0b 493d 58ba e9bd efe9 8e3d 69aa d53d
00000180: 6675 0a3e 073a 483e 1983 343e cae8 943e
00000190: 1a43 5b3e b8c9 3a3e 993e 9d3d f6e5 c93d
000001a0: 1628 05be 60ce 97bd 379e 74be ce3f 9abe
000001b0: e991 7a3e 925d 803e 545c 7d3d 10a3 423d
000001c0: be32 fe3c 26c0 19be 3612 7ebd d785 42be
000001d0: 84e9 81be 1468 45bc bafd 413d 2857 153e
000001e0: a1f0 1c3d 4e51 123e fbd3 093e 4a52 443d
000001f0: 935a 053e 7eeb 0d3e 5ee6 12bd 0277 08be
00000200: f6e1 35bb dfba 943c c9c1 4b3d 0dc6 383d
00000210: 47cc 083e 361f 673d 1176 b63d 06fa 3d3e
00000220: 6e1e f93d a907 f9bc a6f4 b83c 41c6 5cbd
00000230: f3c2 25be 3afd e1bd 1cb9 9abe 4730 29be
00000240: 24b0 0dbe 878f 23be b030 6f3b e481 6ebd
00000250: 883b a2bd c6d5 d43d d8f7 3f3d 99a0 b53d
00000260: f549 193e 30d2 993d 1ad2 a0bc 9e2c 81bd
00000270: be76 063d 5666 46be a6d0 70be 6f8e a6bd
00000280: 0b72 16be 058a 40be 01ec d83a 365b 713d
00000290: 2cdf dc3d 34e1 3b3d 0580 4b3d 993d af3b
000002a0: 097c 853d 022b 613d 7008 573d d0b9 f1bd
000002b0: c386 d7bd 4622 ecbc e84c 13be 0001 16be
000002c0: f166 d4ba 07ff 4ebc 55cb 223d 5e1b 0f3e
000002d0: b68b 8a3d b00d ae3d 9099 05be ce50 7bbd
000002e0: 618d a8bd 68b8 febd f8fc 4bbd 40e0 94bc
000002f0: 2478 183c 0fbf d0bd 8ce6 3abd 1186 64be
00000300: 01f3 94bd bc81 0ebe d243 0abe 61fa 8fbd
00000310: a8dd 933c d3ef 3a3d a7c0 a43d fb13 893d
00000320: f826 193c a404 1abc bcb7 4f3d 285f 083c
00000330: 90cb 843d 2f46 043e b710 933d b076 34be
00000340: 6edd e0bd 2275 8ebd e467 92bd 8679 13be
00000350: 58e4 e5bd 392d a3bb 6134 37be 9dfb 77ba
00000360: 8384 833e a879 593e 79f3 253c 5d1b 073e
00000370: aee9 a4bc 1395 0dbe dee6 ecbd fc77 76be
00000380: db85 68be 743d 07bd ce37 83be 9a5f a0be
00000390: c3c0 4ebe 5492 f8be 68d0 1cbe c0c8 e6bd
000003a0: d589 19be 0688 d53d 87c6 3e3e 0bcb 2c3e
000003b0: d16d b43d 0b53 aa3d f3ef 4dbe bc18 50be
000003c0: 42bf c3bc a251 80be 8524 2cbe 3205 933d
000003d0: 47f9 303d c94f cc3d f71d 063e cbbe f43d
000003e0: c6bc 6bbd 8546 733d 8d1b e2bc 6b4e 553c
000003f0: d396 12be e67d 17be 9277 1cbe dd6d 94bb
-0.2238663 -0.16309518 -0.035619624 -0.16667157 0.0014738737 0.12898526 -0.05911901 0.1366038
0.21104713 0.115814954 0.24187778 0.16670989 0.1032626 0.22849748 0.024789477 -0.018950798
-0.05791287 -0.22929198 -0.039284837 -0.017746441 0.060522772 0.07375073 0.017150447 0.061083242
0.1115265 0.04788853 0.07440521 -0.0512544 0.00460893 -0.060335122 0.07041349 0.024112104
-0.039465956 0.09365533 0.08088991 -0.0087635135 0.010888967 0.006568724 -0.020238943 -0.017839197
0.021763705 0.010897253 0.07355991 0.109344214 0.05603326 -0.0517024 0.001106974 0.10723919
-0.05231842 -0.063526765 0.055956494 0.04904312 -0.0007161112 0.094633095 0.27965224 0.12574142
-0.061379887 0.08637108 -0.053564884 -0.07912487 -0.057183024 -0.16055755 -0.22393729 0.11517115
0.15486906 0.10502163 -0.0045288326 0.0699911 0.05689122 -0.012756137 -0.093742 -0.115382224
0.034189347 -0.10416894 -0.16112126 -0.06570243 -0.31297505 -0.2065539 -0.23689066 -0.18263526
-0.12863506 0.018567525 -0.20434375 -0.0835037 0.08231398 -0.0756255 0.058157984 0.1985548
0.04594238 0.11938729 -0.16824277 -0.043432258 0.049083095 -0.114124954 0.06978213 0.10432894
0.13521346 0.19553386 0.17628135 0.29083854 0.21412316 0.18241012 0.07677955 0.09858315
-0.13003573 -0.0741241 -0.23888479 -0.30126804 0.24469723 0.25071388 0.06185563 0.04751879
0.031030055 -0.15014705 -0.062029086 -0.18996368 -0.2537347 -0.01204874 0.047361113 0.14584029
0.03831542 0.14288828 0.1345977 0.04793004 0.13022833 0.13859364 -0.035864227 -0.13326648
-0.0027753091 0.018155513 0.049745355 0.04511075 0.13359176 0.05642625 0.08909238 0.18552408
0.12164007 -0.03039916 0.022577595 -0.053900007 -0.16187648 -0.11034627 -0.30219352 -0.16522323
-0.13836724 -0.1597272 0.0036497526 -0.058229342 -0.07921511 0.103923365 0.04686722 0.08868522
0.14969619 0.07510793 -0.019631434 -0.06307338 0.032828085 -0.19374976 -0.23517093 -0.08132636
-0.14691941 -0.1880265 0.0016549827 0.058924876 0.10784754 0.045869067 0.049682636 0.005347919
0.065177985 0.054972656 0.05249828 -0.11803019 -0.10523751 -0.028824937 -0.14384806 -0.14648819
-0.0016204995 -0.012634045 0.039744694 0.13975284 0.06764929 0.084987044 -0.1304686 -0.06135636
-0.08230091 -0.124375165 -0.049801797 -0.018173337 0.0093059875 -0.101926915 -0.045630023 -0.22316767
-0.07272912 -0.13916677 -0.13502434 -0.07030178 0.01805003 0.04563887 0.08044558 0.06693264
0.00934767 -0.0094005205 0.050712332 0.008323468 0.06484139 0.12917398 0.071809225 -0.176234
-0.10979734 -0.06955935 -0.07148722 -0.14401826 -0.11225194 -0.004979756 -0.17891075 -0.00094597955
0.25687036 0.21237814 0.010128849 0.13194032 -0.020130958 -0.13826399 -0.11567472 -0.24069208
-0.22707312 -0.03301759 -0.25628513 -0.31322938 -0.2019072 -0.4854914 -0.15313876 -0.11268759
-0.14993985 0.10426335 0.1863042 0.1687433 0.08810008 0.083166204 -0.20111065 -0.20321935
-0.02389491 -0.2506228 -0.16810806 0.07178725 0.04320648 0.09976155 0.13097368 0.11950453
-0.057553075 0.059393425 -0.027601028 0.013019185 -0.14315347 -0.1479412 -0.15279987 -0.0045296983

unet_model.encoder.1.0.main.bias f4 [32]
00000000: 9414 bc3c bb43 303d 8171 523d a2d4 6abd
00000010: 6974 01bb f43e 123e 4e3f ebbb 5bed 81bd
00000020: f380 d63d 5470 1a3e 956b 9f3d b276 2e3d
00000030: a8b6 863b 8f3c d33b 9f1d e7bc 488f 913d
00000040: eb13 853d c958 7bbc 52f7 a73d 8bbf 08bd
00000050: 31d5 943d 34d7 8c3d b423 323c 637c 003d
00000060: 42bc e73b ae0c 413c cd11 493d a047 01be
00000070: 2dcd 8e3d 9ddf 92ba 5201 663d 936c 4c3d
0.022959031 0.043033343 0.051377777 -0.05733169 -0.0019753224 0.14281827 -0.0071791774 -0.063441
0.10473814 0.15081912 0.077841915 0.042593665 0.00411113 0.006446428 -0.028212367 0.07107407
0.0649794 -0.015340992 0.082014695 -0.033385795 0.072672255 0.06876984 0.01087277 0.031368624
0.0070720026 0.011782808 0.04908924 -0.12624979 0.06972728 -0.0011205558 0.056153603 0.049908232

unet_model.encoder.2.0.main.weight f4 [32, 32, 3, 3]
00000000: 8cd7 853a c508 fdbd b46e f6bd fc42 e9bd
00000010: 9bf0 393d 726e d13a 8b64 8d3c 9165 693b
00000020: 3c9f 17bd 4319 08bd b11e c3bd 5fe9 e6bd
00000030: d490 a3bd 27ae 953c b4e9 3ebc bf68 d3bb
00000040: dc0c bb3c d4bc 453c caef 6bbd 05de fe3d
00000050: 2ef5 773d 6f4f b3bd 3f28 0bbd 0f44 08bd
00000060: d401 d53d 0197 f83d 76d6 a73d 47e4 753d
00000070: 8659 18be 161b 0fbe 3a15 3e3c 4976 c8bd
00000080: 218c e5bd de3d efbd 6e99 4a3c 88a9 4d3d
00000090: af21 c1bd efed acbd 756c 573d ac50 c0bd
000000a0: 0640 e73b ce27 4e3d 3575 813d c4ea 823d
000000b0: fc62 1b3e b81e 903d 02dc d43d 7b19 253d
000000c0: de23 8cbd 4927 77bc 1f41 403a 5a59 5fbc
000000d0: 1a2b 3b3d 41fd a83d 32e4 65bd 06d3 b2bc
000000e0: 7c04 83bd 20c0 82bc b545 203d 6745 aabc
000000f0: 6316 093c 0ff6 cc3c 948d ce3d d024 533d
00000100: b33e bebd b411 eabd 19d0 de3d c54f 073e
00000110: 9c15 5cbc 1a18 ecbc d625 41bd 6a92 09bd
00000120: b572 513e 4412 413e 7d8b 383e fbd0 d53d
00000130: 6488 523e 6767 553e 10b3 b13d e7ec 0c3e
00000140: 2645 913d a64a a2bd 9ed8 a13d 8ab9 31bd
00000150: 3279 e3bd 639e 043d ef9d 0abe a65b a9bd
00000160: 108c cebb ca08 83bd e061 1cbe 5f00 febd
00000170: f922 b4bd 891c c3bd cef7 36bd e29e 1ebd
00000180: 8d68 213e 96a2 e83d 0864 9f3d 071a 963d
00000190: 2ef6 f7bd 61c8 033e 95d2 5e3d a53d f1bd
000001a0: fba5 6a3c 8189 383e 20ed 653d ed39 d7bc
000001b0: 9cf5 acbd c373 1ebc b743 d8bd 1615 d93d
000001c0: 5b4c 333c a7d3 da3b 7cce 843d 95d8 933d
000001d0: 3e05 503e b771 69bd 6150 e73c c17f 1a3c
000001e0: 6513 ddbc 14d5 a03a 77d3 b8bc 39f0 9b3d
000001f0: c519 fe3d fa53 db3d 035e ef3a 52c2 bebd
00000200: 5345 ab3d 68b1 20bd 647b afbd 1d86 91bd
00000210: 65b4 3d3c fc7c 91bd 0ccd 333d 83bc 833c
00000220: 8fec dcbc 7e81 b6bb a32d 53bd 9de6 a2bb
00000230: 9de8 683d 2687 6ebb 57c0 363e 032c 763d
00000240: a77d 87bd 5682 6ebd 86c0 c7bc 1d24 4c3d
00000250: 277f c73d ec2d 833c 0e82 023e ff06 583e
00000260: 8523 983c f199 b63d 7910 7bbd f8e5 b8bc
00000270: 0d4e 063e a8f7 d7bc de31 993c 4b0d 4e3d
00000280: b0ae 983c fee8 5b3d 7c49 273e d253 e83d
00000290: 1c91 a53d 1614 1fbd 52e9 a6bd f9b7 e9bc
000002a0: a5f1 05bd 98e3 d2b8 111a 0c3d 27d3 573d
000002b0: d906 10bd ee0c 8bbd a7d2 1abe 5f75 4c3d
000002c0: e96b 90bd f3e1 b0bc dd99 77bd 60a1 acbd
000002d0: 83a4 31bd 0b41 103c d164 91bc 891a e7bc
000002e0: 5e6a ba3d fe0e 5bbd 0860 123e 551c ca3d
000002f0: f110 833c 381b 0f3e 08b3 063e 2673 7a3d
00000300: f130 eb3d 91cb 4a3e 7435 bb3d 6d0a dc3d
00000310: c3c0 5e3e 4285 5c3e 7e6b cebc 344b d1bd
00000320: 3720 04be b41e 60bd 3181 6abc 2e84 e93d
00000330: 78f3 e2bc 163c ca3c de53 d63d b28b 293e
00000340: 6574 e03d b363 9e3d db69 a7ba 24ed a23d
00000350: 775e c33c 897c 0cbe 3f3e e7bd b9d1 b2bd
00000360: d37b 09be 9806 87bd 6c06 e0bd acc1 e33c
00000370: 9187 4dbd 9cf7 c33a 3fdd 69bd c328 20bd
00000380: 6a81 973d 9b2b 023c 4c77 ec3d 4557 363c
00000390: 0258 adbd 246b bd3c faf0 dc3d 34ca 6ebd
000003a0: 68a6 0dbe b25a 9fbd d291 a03d 87fe 13be
000003b0: 9bf8 2bbb 9c67 47bd b518 e3be c4c0 4bbe
000003c0: bb53 ae3c 26cd 97be 1ecb 19be b15a 4eb8
000003d0: e90e a43d 8f0e 1b3e 4bd9 683d 512b cd3d
000003e0: 0421 ce3d 7137 1bbd 911e d5bd 8b55 a7bd
000003f0: 2604 0e3d 556e 1bbe ddac 743b 3687 43bd
0.0010211333 -0.12355188 -0.12032834 -0.113897294 0.045395475 0.001597835 0.017259857 0.0035613517
-0.037017092 -0.033227216 -0.09527338 -0.11274981 -0.07986608 0.018271519 -0.011652399 -0.0064516957
0.02283328 0.012068946 -0.057601728 0.124446906 0.060536556 -0.08755385 -0.03397393 -0.03326803
0.10400739 0.12138177 0.08195202 0.060032155 -0.148779 -0.13975176 0.0116017405 -0.09788186
-0.11208368 -0.11681722 0.012365682 0.050210506 -0.09430253 -0.0844382 0.052593667 -0.09390387
0.0070571927 0.05033093 0.063211836 0.06392434 0.15174478 0.07037109 0.10393526 0.040307503
-0.068427786 -0.01508505 0.00073339225 -0.013632143 0.0456954 0.08251429 -0.056125827 -0.02182914
-0.0639734 -0.015960753 0.039128978 -0.020785047 0.008367154 0.025019674 0.10085598 0.05154878
-0.09289303 -0.11429158 0.10879535 0.13214023 -0.013432886 -0.028820086 -0.047155224 -0.033586897
0.20453914 0.18854624 0.1802196 0.104402505 0.20559841 0.20840226 0.086767316 0.13762246
0.07093267 -0.07924394 0.079026446 -0.043389834 -0.111071005 0.03237761 -0.1353681 -0.08269434
-0.006303318 -0.06398161 -0.15271711 -0.124024145 -0.08795733 -0.09526927 -0.04466992 -0.03872574
0.15762539 0.11359136 0.07782751 0.07329183 -0.12107502 0.12869407 0.054400045 -0.11779336
0.014321799 0.18021204 0.056134343 -0.026272738 -0.08445284 -0.009671154 -0.105597906 0.10599725
0.0109434975 0.006678063 0.06484696 0.07219044 0.203145 -0.056993213 0.02823657 0.009429873
-0.026986787 0.0012270533 -0.022561772 0.07614178 0.12407259 0.10709377 0.0018262271 -0.093144074
0.08362832 -0.039231688 -0.08568457 -0.07105658 0.011578654 -0.07103917 0.04389672 0.0160811
-0.026968269 -0.005569636 -0.051557194 -0.004971339 0.056862462 -0.0036396473 0.1784681 0.060100567
-0.06615763 -0.058229767 -0.024383795 0.049839128 0.09741049 0.016013108 0.12744924 0.21096419
0.018571625 0.08916081 -0.061295006 -0.022570595 0.13115712 -0.026363209 0.018700536 0.050305646
0.018637985 0.053688996 0.16336626 0.113441125 0.08084318 -0.038837515 -0.08149971 -0.028530108
-0.032701153 -0.00010055973 0.034204546 0.052691605 -0.03516278 -0.067895755 -0.1511942 0.04991662
-0.07051832 -0.021592116 -0.06044947 -0.08429217 -0.04336978 0.00880457 -0.017748268 -0.028210895
0.09102319 -0.053481095 0.14294446 0.09868685 0.01599929 0.13975227 0.13154233 0.06114497
0.11483944 0.19804217 0.09141055 0.10744176 0.2175322 0.21535209 -0.02519774 -0.10219422
-0.12902914 -0.05471678 -0.014313028 0.114021644 -0.027703986 0.024686854 0.10465215 0.16557196
0.109597005 0.0773386 -0.0012772636 0.07955387 0.023848755 -0.13719381 -0.112911694 -0.08731408
-0.13426141 -0.065930545 -0.10938725 0.02780231 -0.050178114 0.0014951113 -0.057095762 -0.039101373
0.07397731 0.007944967 0.115461916 0.011129205 -0.08464052 0.023122378 0.1078815 -0.058298305
-0.1383301 -0.07780971 0.07840313 -0.14452563 -0.002624071 -0.048682794 -0.44354787 -0.19897753
0.02128016 -0.29648703 -0.1501889 -4.919869e-05 0.080106564 0.15142272 0.05684785 0.100180276
0.10064891 -0.03789467 -0.10406221 -0.08170613 0.034671925 -0.15178807 0.003733448 -0.04773637

unet_model.encoder.2.0.main.bias f4 [32]
00000000: b33a 84bd 1bc3 0bbd 0cd7 b2bb fbba e7bc
00000010: e063 2abd a08a 68be 256c ca3c 01a1 0bbd
00000020: bee9 1fbc cc60 85bd 0855 f9bc 2cf8 73bd
00000030: 57a3 86bb 3566 eabc 66cb 4c3c 1321 283d
00000040: b1be 02bd 8820 8ebd 2808 20bc fbf0 143d
00000050: aca3 333d 5596 0dbe fd6f 14be 80c8 563d
00000060: 6060 17be b379 28bc 3523 44bb b238 e5bb
00000070: 8fb6 16be 1b3b 2e3d 19c9 3bbc ee8f ad3d
-0.064565085 -0.034121614 -0.0054577645 -0.028287401 -0.041599154 -0.22709131 0.02470977 -0.034089092
-0.009760318 -0.06512603 -0.030436054 -0.059562847 -0.004108827 -0.02861319 0.012499666 0.041047167
-0.03192014 -0.069397986 -0.00976757 0.03636263 0.04385726 -0.13826878 -0.14495845 0.052437305
-0.14782858 -0.010282922 -0.0029928212 -0.006995284 -0.14718078 0.042536836 -0.01146152 0.08474718

unet_model.decoder.0.0.main.weight f4 [32, 32, 3, 3]
00000000: 5d60 1ebd ca8f 64bd d553 8c3d 0957 27bd
00000010: 5161 85bb 8a3f dabc 0bc6 0e3d d0fc 2abd
00000020: ed81 51bc 44af 483d 522b 93bd 37f5 d83d
00000030: a3a2 11be 0604 cebd 999e a33d 0b0b 533d
00000040: 816f e8bd 35c2 41bd d430 913b 812f 353d
00000050: 37d7 8b3d 9e40 a23c 30df 033d 2def ef3c
00000060: 4cdc 8b3c 40f4 963d 33c2 123d d5ed 29be
00000070: fb5c bf3c 2d6f 22be 0af8 883d 24bd 4cbe
00000080: a3eb 52bd 0ad4 49bd f61d 17be 24ea c9bd
00000090: 7c52 e2bc e52b 263b bd2f 323c c4e0 15bd
000000a0: e5f5 0ebe 0d31 263c 14cc 123d 02f0 d63c
000000b0: dc3e aa3a c0ea 6bba 8a27 173e f053 543d
000000c0: 6056 13bd a0c3 fbbd bd2b 9e3d 7733 93bd
000000d0: 0174 9d3c 61e2 82bd 1f8f 7a3d e1e4 7dbc
000000e0: 66cb 433d 2897 95bd 0a1a 953d 6beb 31bd
000000f0: c215 c4bc 2ad6 bd3c d74d 40bc f844 383d
00000100: 68e2 313e f45e 0b3e 026b 073d eef3 4c3d
00000110: dff1 473d cef1 0b3d d9c1 cbbc 7832 d7bd
00000120: 808e 14bd 4234 033e 4d2b 253d dff5 8abd
00000130: 2309 57be 552d 20bc 96c4 223c fa15 8a3c
00000140: 6a52 a33b ab6e 85bd 9dd5 88bc da8d 30bc
00000150: a864 053d e028 323e 0a6f 983d c446 b53c
00000160: 97c1 d03b 428c 72bd 69ae cd3b a91f 953d
00000170: 2642 05bd 7285 a8bc 95dc 113d 8e95 f839
00000180: 6765 cbbc 67d8 a9bc ee8c 713d daa5 13be
00000190: 16a7 d2bd 0819 ad3d 6d33 413c 45a8 31be
000001a0: b055 e43d 4d71 d23d 3d86 413d d82e 433c
000001b0: fa5e 8cbc 36ec 0ebc b525 cdbd b47b b73c
000001c0: 8315 e6bd f36d 54ba d383 1e3e 6722 78bc
000001d0: 3b28 81bd b76b 8a3d 22e5 653d ce98 d4bc
000001e0: 7a96 86bd 0ba0 43be a655 18be c2c2 ef3d
000001f0: 9737 2dbe abe9 27bd 8f41 f93b 411c 1bbd
00000200: 6bc3 2d3e da80 04be f152 2fbe 959e 03bb
00000210: 35ca 82bd 775d 2f3d 7106 dd3c 42e1 4cbd
00000220: c424 1a3e bed1 db3d 7b31 3cbe 1393 093d
00000230: 4eca a9bd d1d3 05bc 8b9f bdbd 2a8f 03be
00000240: e74f f63d ad61 c63d 5caf d7bd 3854 a5bc
00000250: 0537 1a3d 6d5d 023c 5121 ebb9 939b 4cbd
00000260: 5e52 093d 22da 44bd 4ae9 ef3c c1f9 ff3d
00000270: c9bf fe3c 71ff 3bbd fd6a 9ebd 6677 07be
00000280: 3313 33bc 33b3 213d 55d4 ae3b 20c7 783e
00000290: 0ec2 bdbb bbe4 15bd e4cd 0bbb a0ad f1bd
000002a0: 9b42 17be 0446 1f3d 7ae3 aebd a881 9e3d
000002b0: a824 b83d bdaa 4abe 858d 32be 32ce 91bd
000002c0: f6d8 36be 4eb8 17bd fbe1 90bb 92a3 b5bd
000002d0: b532 f9bd 81d0 4bbd 9683 4abd 7988 1fbd
000002e0: 258e 8f3d 0a0d d03d 7874 823d 3f0b 95bc
000002f0: 87f2 85bd 2298 59bd f568 fcbd dc42 50bd
00000300: c70b 3c3e f2cd eb3d b47c ef3d 3b09 953d
00000310: 24ac 033e 547b 3ebd 8a65 ad3b b0f1 a63c
00000320: 604e 8c3d d4f9 b33d fe64 773d bf97 27be
00000330: dbd7 4e3d 7639 883d bec9 37be 7c4f 693d
00000340: 3ea1 85bd cb39 30bb 6808 f6bc 58df 78be
00000350: 1ff4 1a3c 1fb3 043d fd5e 50bd 0cad 91bd
00000360: 6d79 d5bc 552d 2cbd 3b33 3f3b b7e3 9fbd
00000370: 57a6 873b 56c8 e6bc 267d 483d 4be0 323c
00000380: e674 653d b05e 8f3d 6041 4b3d dea2 05be
00000390: 990e 1c3e 1f86 403e d19a fdbd 2966 b23d
000003a0: 0ea5 22bd 576a cc3c 7ecd ca3c f1bb c5bc
000003b0: b966 bc3c f773 dbbd bb78 283e 6c5e 10bd
000003c0: fb73 cebd 96dd 783a d1da 8fbd e696 9abc
000003d0: 48fa 67bd 5539 93bd e29b 793d 9d8f abbb
000003e0: 393b d5bd 3b76 9a3d 945f 1ebd ecde a6bc
000003f0: dbc8 9fbc ba80 afbd df23 15be 17eb 0b3d
-0.038666118 -0.05580119 0.06851927 -0.040854488 -0.004070439 -0.026641626 0.034856837 -0.041745007
-0.012787324 0.04899527 -0.07185997 0.10593646 -0.14222197 -0.10059361 0.079892345 0.051524203
-0.11349393 -0.04730435 0.0044308696 0.044234756 0.06828158 0.019806203 0.03219527 0.029288853
0.01707282 0.07370806 0.035829734 -0.16594632 0.023359766 -0.15862723 0.06687935 -0.19994026
-0.051494252 -0.04927448 -0.14757523 -0.09859112 -0.027627222 0.0025355753 0.0108756395 -0.036591306
-0.13960989 0.010143531 0.035839155 0.026237492 0.0012988704 -0.0008999519 0.14761177 0.05183786
-0.035971045 -0.12293172 0.07723186 -0.071875505 0.019220354 -0.063908346 0.061171647 -0.0154964635
0.047801398 -0.073042214 0.07280357 -0.043437403 -0.023936156 0.02317341 -0.011737308 0.04498765
0.17371523 0.1361044 0.033061035 0.050037317 0.04881465 0.03416615 -0.024872707 -0.10507673
-0.03626871 0.12812904 0.040324498 -0.067851774 -0.20999579 -0.009776433 0.009934565 0.016856182
0.0049841898 -0.06515249 -0.016703421 -0.010776008 0.032566696 0.17398405 0.07443054 0.02212847
0.006370734 -0.05921579 0.006276895 0.07281429 -0.032533787 -0.020571444 0.035610754 0.00047413673
-0.024828626 -0.020733071 0.05897229 -0.14418736 -0.10285775 0.0845204 0.011792046 -0.17349346
0.11149156 0.10275517 0.04724716 0.011913024 -0.017135132 -0.008723309 -0.10016958 0.022397853
-0.11234572 -0.0008103542 0.15479974 -0.015144921 -0.063065015 0.06758826 0.05612672 -0.02595177
-0.0657167 -0.1910402 -0.14876422 0.11707069 -0.16915737 -0.040994328 0.007606692 -0.037868742
0.16969077 -0.12939778 -0.17121483 -0.0020083536 -0.06386224 0.042813744 0.02698061 -0.05001951
0.15053087 0.107333645 -0.1837825 0.033587527 -0.0829054 -0.008168177 -0.09258946 -0.12847582
0.12026959 0.09686599 -0.10531494 -0.02018176 0.037650127 0.007956845 -0.00044847516 -0.049953055
0.033525817 -0.04805959 0.029286046 0.12498809 0.03109731 -0.045897905 -0.0773525 -0.1322914
-0.01092987 0.03947754 0.0053353705 0.2429471 -0.0057909554 -0.036595087 -0.0021332437 -0.118006945
-0.14771502 0.03888513 -0.085394815 0.07739574 0.089913666 -0.19791694 -0.17436798 -0.07119407
-0.17856202 -0.037041 -0.00442147 -0.08869089 -0.12167875 -0.04975939 -0.049441896 -0.03894851
0.07009534 0.10158737 0.06369871 -0.01819384 -0.06540399 -0.0531236 -0.123247065 -0.050845012
0.18363868 0.1151389 0.11693707 0.07277151 0.12858635 -0.046504334 0.0052916454 0.020378917
0.06850886 0.08787885 0.060399048 -0.1636648 0.050498825 0.06651585 -0.17948052 0.056960568
-0.06524895 -0.0026889916 -0.030033305 -0.24303949 0.009457617 0.032397386 -0.050871838 -0.07113084
-0.026058877 -0.04203542 0.0029174823 -0.07807105 0.0041397023 -0.0281717 0.048947476 0.010917733
0.056019686 0.07000482 0.049622893 -0.1305041 0.15239944 0.18801163 -0.123830445 0.08710892
-0.03970819 0.02495305 0.02475619 -0.024137469 0.0229982 -0.10715478 0.16452305 -0.035246298
-0.10080715 0.0009493468 -0.07024158 -0.018870782 -0.05663517 -0.071886696 0.060939677 -0.005235626
-0.104116865 0.07542082 -0.03866537 -0.02036997 -0.019504955 -0.085694745 -0.14564465 0.034159746

unet_model.decoder.0.0.main.bias f4 [32]
00000000: 7eb5 303d 12fc 8bbd 9655 33be 696b 483d
00000010: d240 c83c 00f3 993c cfa6 883d 1321 4ebe
00000020: 499d 5f3c 8299 3e3c 03a8 c93c 6aef 5cbe
00000030: 2e3f ad3d 4bb8 fdbd 65d1 76be eea1 903c
00000040: 087a a43c 8def abbc f0a5 bfbd f9ce adbc
00000050: 11a0 953d b7be 0fbe 7477 3ebe cc1f 2f3e
00000060: 016e 6f3d e257 4ebe 57de 4bbd 7787 db3c
00000070: e741 02bc 7155 a7bc 2352 8ebe 1954 c4bd
0.043141834 -0.06835188 -0.17513117 0.04893056 0.024444971 0.01879263 0.06672441 -0.20129804
0.01364834 0.011633279 0.024616247 -0.21575704 0.08459316 -0.12388667 -0.24103315 0.01765534
0.02007772 -0.02098825 -0.09357822 -0.021216856 0.07305921 -0.14037596 -0.18600255 0.17101973
0.058454517 -0.20150712 -0.049772587 0.026797993 -0.007950283 -0.020426484 -0.2779704 -0.09586353

unet_model.decoder.1.0.main.weight f4 [32, 64, 3, 3]
00000000: 8272 b33d 119a 8c3d 44ad 313a ca56 b23d
00000010: d21e 853d badc 3fb9 bb81 423e c0dd 273e
00000020: dcca ed3d 7fc3 e83d 62fa edbc c0e2 a7bc
00000030: 2cda 9d3d ff8a 54bc 29b2 64bd d310 f13d
00000040: 7d71 233d 6f68 8ebd 73c3 0bbd d041 0ebd
00000050: f8d0 ca3d c27a 9cbd be81 e0bd 876a 033d
00000060: eb23 c2bd cda7 81bc 55d6 d43d 8ccd d5bd
00000070: 86a9 06be cbab 0ebd 7c35 b8bd 1f9b 96bd
00000080: f192 e4bd e768 ddbc c2d9 793d be3c bfbb
00000090: efd0 063d 9a20 653d 9a20 aa3d f5a0 4ebd
000000a0: 708f ac3d 9a20 393d be73 6b3b d520 c43d
000000b0: 1c89 623d c4d4 0dbe e20b cdbd a3ee 5abd
000000c0: 59b4 08be fd1b e5bd aba1 f5bd 1e68 c0bd
000000d0: 3896 b2bd 214e 17bd 289b 663d 5425 1a3d
000000e0: cd53 6dbd e261 263d 783e f93c 2dfe 2bbd
000000f0: bc69 d43d f12c 523d d50c 8c3c b26e f1bc
00000100: 5575 7c3d a60f 643d 15b8 2dbd 7b7b 2fbd
00000110: 68b1 83bd f921 7d3a 6cb0 a4bd ae04 0dbd
00000120: e89b b0bd 3fec f6bc 835e 91bd 8645 a7bd
00000130: 7935 96bd 9e38 1ebe 5e56 a0bd 4455 b2bd
00000140: 1955 48be dd4f cdbc 0716 88bd 673b b5bc
00000150: ab19 27bd 3d0d 42bd 7f2a 8c3d c163 af3d
00000160: 3e1c d83d a9ac 2e3e e5f2 003e 3760 b03d
00000170: 7408 473d a5d0 fd3d 77d6 fc3c 911f 21bd
00000180: 2ad6 313d 68b9 103d 756b ab3c f190 a23c
00000190: ca50 a23d 47b8 873d eda8 4c3d 5b4c 32bd
000001a0: b5f4 44bd e51d a33d 7b44 2d3d 4d0a 08bd
000001b0: 2e4c a3bd 8ecd a13d 4e1d 643e 9970 b3bd
000001c0: 01cf 17bb a9b3 a53b 497d 84bd 0f01 ff3b
000001d0: b0c1 fabc 3852 e7bc 1e66 f83c 0157 f8bc
000001e0: 53fc 223d cebe 073c 3fb8 86bd 7332 183d
000001f0: 8cf8 763d 3bcb 3cbd 0387 4b3d ff14 393d
00000200: 96c6 353d a27c 67bd 3bb4 09be 2fca adbd
00000210: ce6f 2dbd 5cb0 84bd c320 debd bbdb dabc
00000220: 0439 16bd da8d 663c 7ad3 273b 1c24 cbbd
00000230: 447a 34be af3d f23c 01cc 87bd 1e1e b0bd
00000240: 936f b2bc 2bd1 65bd 56f1 f73c ba48 e5bb
00000250: f64b a2bd 7d9c 573d b3fd 8bbc baaa 8bbd
00000260: ba64 86bd 1e93 afbd dc49 99ba f4c2 c03c
00000270: 98d0 3f3c 8cb1 9ebd 73a3 1a3d acbd d43d
00000280: e95f 9a3b ebbf bebc e326 ea3c e684 a33d
00000290: 5e8d 8c3c 95fa 193d e988 93bd b832 c2bd
000002a0: 9017 b93d 5a9a 92bd 18e6 ffbd 3888 7abd
000002b0: 0298 583d 341c 8b3d 7daf a2bd a0c6 c7bd
000002c0: a4e2 7cbd bfb9 08bc c40c 90bd 90c8 41bc
000002d0: c9ec e3bd b0ab e7bd 8da7 6ebc 67f8 eabd
000002e0: a222 3bbe 0fb4 08be 2375 20bb 11bc afbd
000002f0: 88c1 5dbd 777f 73bd f05c 8a3c 1d19 38bd
00000300: 74a5 81bd 15dc f4bd ef03 f3bd 8059 a3bd
00000310: 1b8f d0bd ce01 6bbd 50f8 483d b4a9 febb
00000320: 49f2 533c ef90 da3c 149f 15bd 45a1 24bd
00000330: 6c39 00bd 19ad 1f3d 708f 393c 4f20 a23d
00000340: 15a7 b63d 0b5a 0e3c e167 173d 9d48 273d
00000350: 8765 1a3c a8ef db3d 4e00 cd3d 6640 0a3e
00000360: 73c6 cfbb f0af 47bb ef18 54bd 0e69 c8bc
00000370: ef35 533c ebd9 f53b a558 6c3d 050d 663d
00000380: 723d ee3d 03ab 3bbd 7614 2bbd dfa5 23bd
00000390: 2f41 25bd 1182 f0bd f3ab 953c b34d 853c
000003a0: 1dfd debc 61bc c8bd 8668 f0bd 00f6 8dbc
000003b0: 1563 883c 6be1 9c3d e2b8 263d b508 2c3c
000003c0: 9785 cf3d f907 203c 68fb b5bd e23d 9f3c
000003d0: 4438 3cbc bda6 89bd a460 053e 8dd4 213e
000003e0: 112e 65ba e90b 103d bf97 093e 83ee 6f3d
000003f0: 3589 e1bb e7f5 5d3c 943f 05b8 90a5 37bd
0.08762075 0.06865323 0.0006777833 0.0870796 0.06500019 -0.00018297406 0.18994801 0.16393185
0.11610958 0.11365413 -0.029050056 -0.020493865 0.077076286 -0.012972592 -0.05583397 0.11770787
0.039903153 -0.06953513 -0.03412194 -0.034730732 0.09903139 -0.07640602 -0.10962246 0.032084014
-0.09479507 -0.015827084 0.10392443 -0.104395956 -0.13150606 -0.034831803 -0.08994576 -0.07353806
-0.11160839 -0.02702756 0.060998686 -0.0058360985 0.0329141 0.055939294 0.083069995 -0.05044647
0.08425796 0.045197107 0.0035927142 0.09576575 0.05530654 -0.13850695 -0.10012032 -0.053450238
-0.13350047 -0.11186979 -0.11993726 -0.09394859 -0.08720058 -0.036939744 0.056300312 0.037633255
-0.057941247 0.040620692 0.030425295 -0.041990448 0.1037173 0.05131239 0.017095963 -0.029471729
0.061635334 0.055678986 -0.042411882 -0.04284237 -0.06430322 0.00096562464 -0.08041462 -0.03442829
-0.08623487 -0.030141948 -0.07098105 -0.081675574 -0.07334418 -0.15451285 -0.07828973 -0.087076694
-0.19563712 -0.025062496 -0.066448264 -0.022123052 -0.040795963 -0.047375906 0.06844043 0.085639484
0.10552262 0.17058052 0.12592657 0.086121015 0.048592046 0.123933114 0.030863984 -0.039336745
0.043417133 0.035333067 0.020925263 0.019844504 0.079255655 0.06626945 0.049965788 -0.04352985
-0.048084933 0.07964686 0.042301636 -0.03321295 -0.079735145 0.079005346 0.22276804 -0.08761711
-0.0023164155 0.0050568176 -0.06469209 0.0077821086 -0.030609936 -0.028237447 0.03032213 -0.030314924
0.039791416 0.0082852375 -0.06578111 0.037157487 0.060295627 -0.046092253 0.049689304 0.04518604
0.04437884 -0.056515343 -0.13447659 -0.08485829 -0.042342953 -0.064789504 -0.108460926 -0.026716104
-0.036675468 0.014071906 0.0025608228 -0.09918997 -0.17624766 0.029570429 -0.066307075 -0.085994944
-0.021781718 -0.05610768 0.030266445 -0.006997195 -0.07924645 0.052639473 -0.017088747 -0.06819673
-0.06562181 -0.08572982 -0.0011694985 0.02353046 0.0117074475 -0.07748708 0.037753534 0.103877395
0.0047111404 -0.023284873 0.028582996 0.07984333 0.017157253 0.03759249 -0.07203848 -0.0948233
0.09037697 -0.071583465 -0.12495059 -0.061165065 0.05287934 0.06792489 -0.07943628 -0.097546816
-0.06173958 -0.008345067 -0.07033685 -0.011827603 -0.111291476 -0.11312044 -0.014566314 -0.1147316
-0.1827493 -0.13349937 -0.0024483881 -0.08580793 -0.054139644 -0.05944773 0.01689002 -0.044945825
-0.06330386 -0.1195604 -0.11865985 -0.07976055 -0.10183545 -0.057374768 0.049064934 -0.007771695
0.012936183 0.026680438 -0.03652866 -0.04019286 -0.03130476 0.03898344 0.011325702 0.079163186
0.08918587 0.00868846 0.0369643 0.040840734 0.00942362 0.1073907 0.10009824 0.13501129
-0.0063407957 -0.0030469857 -0.05178159 -0.024464156 0.012891277 0.0075027845 0.057701726 0.05616476
0.116328135 -0.045817386 -0.04176756 -0.03995311 -0.040345367 -0.11743558 0.018270468 0.016272401
-0.027220303 -0.098015554 -0.11738686 -0.017329216 0.016648808 0.076601826 0.04070366 0.010500123
0.10132902 0.009767526 -0.088858426 0.019438688 -0.011488024 -0.06721256 0.13025147 0.15803738
-0.0008742521 0.03516761 0.13436793 0.058577072 -0.0068828114 0.013547397 -3.1768883e-05 -0.044835627

unet_model.decoder.1.0.main.bias f4 [32]
00000000: 08a5 1abd a54e 1dbe e540 e83d 09aa 05bd
00000010: 4af7 b2bb 915e d9bd 2587 9fbc d1a9 263d
00000020: aaab 453e 3b91 013e 96e4 9b3d 6412 fcbd
00000030: 169d 023d 496e 793c 82af 0d3d dc8c 793d
00000040: bf58 a23d f865 663c fd36 fe3d 2963 87bc
00000050: 75f8 de3d 9464 4b3d c1ae 04be 3c28 8b3c
00000060: 893e 293e 6db2 27bd 1ec8 f0bb 999d 0bbd
00000070: 0a0f d13d ebb7 53bd 2464 d7bc c27b 473e
-0.037755042 -0.15362032 0.11340503 -0.03263286 -0.005461608 -0.1061374 -0.019473622 0.040689293
0.19303766 0.12653057 0.07611959 -0.12308195 0.03188809 0.015224048 0.034591205 0.06092535
0.07927083 0.014062397 0.12412832 -0.016526775 0.10887233 0.049656466 -0.12957288 0.016986959
0.16527762 -0.040941644 -0.0073480746 -0.034085844 0.102079466 -0.05168907 -0.026292868 0.19480804

unet_model.decoder.2.0.main.weight f4 [32, 64, 3, 3]
00000000: 2d54 72bc 7eaf 33bd 7400 58bd 4631 873c
00000010: 8dc0 12bc 05b0 4cbb 1e7f 88bc ddce 4c3d
00000020: aaa1 ba3d e8da aebd a4ff 87bd 67bf aabb
00000030: d8ba 9ebd 3a25 e5bd f73c 46bd b959 32bd
00000040: 0f75 84bd 927a afbc fa90 763d fad4 3d3d
00000050: 17f2 423d eb78 0f3d 8e24 a43c 586e 273d
00000060: e0b0 4abd caa4 80bd e867 7ebd 321b 7bbb
00000070: 2956 143d fda9 833c 30df 5b3d 743d a0bb
00000080: bc89 ef3c 017f 5ebd 8fdd b1bd a81a f3bc
00000090: 7207 b13d 8050 5f3d 5972 8dbb 00ea 363d
000000a0: 2436 063d 9bc9 6f3c 540b dabc 784b a9bd
000000b0: 859f 50bc 797c 9fbc 2f14 90bc bd40 513c
000000c0: 675b 853b c772 943c 2dad c73c a998 0b3d
000000d0: 02cd 17bd b594 d3bc 6e1c ec3d 7d2c 053e
000000e0: 77c6 be3d e525 963d f25c 2b3d 6f47 353d
000000f0: e037 7f3c 4cb4 603d ea66 0cbd ed51 8fbd
00000100: 9ac5 433c 20e4 a93d 24d9 b1bd 841c cbbd
00000110: 0ed7 ec3c e863 12bd 3a34 58bd 67da 223c
00000120: 471d 9f3d 7c59 903c cea9 813c f018 073d
00000130: 4b76 763c a6c9 19bd 503c 4c3d b6c8 a53b
00000140: b59a 813c 7333 e9bb e48d b9bc 613c 103d
00000150: 4077 aabd 69c9 3bbc 462e c739 5ac6 a9bc
00000160: 7ab7 0dba f69b 83bc b6c5 003d e651 9b3d
00000170: 33f2 af3c 9153 da3c 0e02 74bb 7b59 edbc
00000180: 973a 89bd d2b7 c9bc 58a2 0ebc ec65 68bc
00000190: 069e 9bbc 1178 e93c 2574 98bd 5da0 f8bd
000001a0: 4fb1 03be b456 f4bd 239d 18be efb8 28be
000001b0: addb f2bc 66cd 7bbc 1bba 79bd c807 c4ba
000001c0: 0c8d b83b ff79 25bd 9000 b4bc 8e84 fa3c
000001d0: a35c 2bbc 5709 123d 98e9 443d cd8d 163d
000001e0: a6b5 493c b32e 2e3c 2bbc f73c 2cfd 98bc
000001f0: db97 31bd c816 d5bb 97a5 e93c d75b 1c3d
00000200: 1661 283d 668f 12bd d276 04bb 6c5b babc
00000210: faa8 b5bd 182b 40bd 95ab c2bd 3570 c53c
00000220: f591 cd3d a375 2f3d bfa6 cb3d 02eb dd3d
00000230: 7600 a93d 041c f63c c8e7 913d 24c5 4b3d
00000240: bccb c2bc 4126 dfbb 1943 a43d 7a41 9fbd
00000250: 4d77 0abe 04f4 cfbd 4c35 10bd 3f5b 7bbd
00000260: dc55 86bd a06c 293d e53e a53d bf0e 833d
00000270: 21f6 0fbd ccaa 09bd bf48 04bd 92ee 4fbd
00000280: b3f1 f7bd 9217 48bd 6af2 4bbd 44d6 853b
00000290: 46d5 6a3c afda c3bd bf5c e4bc 8a44 2a3d
000002a0: 332c abbd 71fc 2cbd c57b 2dbd 7f07 813d
000002b0: 17f3 be3d 3bb3 433d aad4 0b3e b1ee 103e
000002c0: b394 dd3d dda8 543c 13ba d73c 3735 8e3c
000002d0: 0d22 933d fa0f 093d 9edf 64bd 5e73 a43d
000002e0: 89ac 98bd fcd3 d2bd 2818 63bd 58ce 23be
000002f0: 11e4 bdbd 5ee0 983d bc5b b93d a4d8 66bc
00000300: cf03 323d 2133 96ba a5bf a0bd 0f38 87bc
00000310: b86a 84bc f847 8dbd 43db 55bd 655a d3bd
00000320: 5f9c dfbc 13b8 63bd 0785 abbd e560 aebd
00000330: 3815 ebbc 3041 23bd 16bb 643b 8409 8ebb
00000340: 71d2 0dbd 03cc 69bc 3112 06bd 49ce 55bc
00000350: c7db f8bb 665c b7bd f2d1 f2bc 8a7c 88bc
00000360: bd58 bb3d 581c fa3b 1044 40bd de3a bdbd
00000370: 87f4 00be 4199 07be eae7 92bd faab febd
00000380: e686 b6bd 4e5d 463d b0da 923d 9726 0e3d
00000390: 1730 2c3b afb7 973b 5549 e5bb 08c2 d03c
000003a0: 1165 60bd fac4 b0bd 8318 b2bd 0a44 063c
000003b0: f1fa 923d 460c 2cbd f0b7 76bb f945 efbc
000003c0: 856a a73d 688b bf3d 7564 973d c576 9e3d
000003d0: ba63 fb3d 21bc 7e3d 5821 8f3d 5a4d 4a3d
000003e0: b01b e6bc faa6 b33a 2f4d b4bc dc5d c9bc
000003f0: d894 023c 5a9e 963c 5a05 6b3c 6d4d ff3c
-0.014790577 -0.043868534 -0.052734807 0.016502988 -0.0089570405 -0.0031232846 -0.016662177 0.050001968
0.09112866 -0.08537847 -0.066405565 -0.005210805 -0.07750481 -0.11188741 -0.048397984 -0.043542597
-0.0646764 -0.02142075 0.060196854 0.04634569 0.047594156 0.035027426 0.020036962 0.040876716
-0.049485087 -0.06281431 -0.06211081 -0.003831577 0.03621498 0.016072268 0.053679645 -0.0048901383
0.029240482 -0.05432034 -0.08684837 -0.029675797 0.08643998 0.05452013 -0.00431661 0.044656754
0.032766476 0.014635469 -0.02661673 -0.08266348 -0.012733345 -0.019468533 -0.01758775 0.012771782
0.004069734 0.018121136 0.024374569 0.034081135 -0.037060745 -0.025827745 0.1152886 0.13005252
0.09315198 0.073314466 0.041836686 0.044257578 0.0155772865 0.054859444 -0.034277834 -0.06998048
0.011948967 0.082954645 -0.086839944 -0.09917548 0.02891114 -0.03573981 -0.052784182 0.0099397665
0.07769256 0.017620794 0.01582804 0.032982767 0.015042852 -0.037545823 0.049862206 0.005059327
0.01582084 -0.007116729 -0.022650667 0.03521383 -0.083235264 -0.011461594 0.00037990714 -0.020724464
-0.0005406063 -0.016065579 0.03143855 0.0758398 0.021477794 0.026651176 -0.003723267 -0.028973332
-0.06700628 -0.024623785 -0.008705698 -0.014184456 -0.01899625 0.028499635 -0.07444028 -0.12139962
-0.12860607 -0.119306 -0.14903693 -0.16476797 -0.029645765 -0.015368795 -0.0609685 -0.0014955932
0.0056320485 -0.040399548 -0.021972924 0.030580785 -0.010459098 0.03565344 0.048074335 0.036756326
0.012311375 0.010631251 0.030241093 -0.01867541 -0.04335771 -0.00650296 0.028521342 0.038173523
0.041108213 -0.035781287 -0.0020212424 -0.022748671 -0.0887012 -0.046916097 -0.09505383 0.024101356
0.10037605 0.042836796 0.09943914 0.1083584 0.08252041 0.030042656 0.07124287 0.049748555
-0.023778789 -0.00680998 0.0802061 -0.077761605 -0.13522072 -0.10153964 -0.035207078 -0.061366316
-0.06559345 0.04136336 0.08068637 0.06399297 -0.035146836 -0.03361015 -0.03229594 -0.050764628
-0.12106647 -0.048850603 -0.04979173 0.0040843803 0.014333075 -0.09563195 -0.027876256 0.04156927
-0.0835804 -0.042232934 -0.042354364 0.06300258 0.093237095 0.04777835 0.13655344 0.14153554
0.10819378 0.012979713 0.026333844 0.01735936 0.07184229 0.033462502 -0.05587732 0.08029817
-0.074547835 -0.10294339 -0.05544296 -0.15996683 -0.09272016 0.0746467 0.090507 -0.014089737
0.043460663 -0.0011459329 -0.07849053 -0.016506223 -0.016164169 -0.068984926 -0.052211057 -0.10319976
-0.027296243 -0.05559547 -0.08374982 -0.08514575 -0.028696641 -0.03985709 0.003490155 -0.0043346304
-0.03462452 -0.014269832 -0.032732192 -0.0130496705 -0.007594559 -0.089531705 -0.029641125 -0.016660947
0.09147785 0.0076327734 -0.04693991 -0.09239744 -0.1259328 -0.13242055 -0.0717314 -0.12435146
-0.089124486 0.048428826 0.071706176 0.03470477 0.002627378 0.004630051 -0.0069972672 0.025483146
-0.054783884 -0.0863132 -0.086960815 0.008194933 0.071767695 -0.042003892 -0.0037646256 -0.02920817
0.08174614 0.093527615 0.073922075 0.07737497 0.12274881 0.062191132 0.06988782 0.049390174
-0.028089374 0.0013706379 -0.02200946 -0.024580888 0.007970057 0.018386055 0.014344538 0.03116485

unet_model.decoder.2.0.main.bias f4 [32]
00000000: 0d18 0a3d 2276 dbbc 298a 573e e9ae a9bc
00000010: 1c1b d73c 6552 ccbd 2936 143e bffc a0bd
00000020: 0f28 273d c7f8 8abd 587b 653d 40a0 babc
00000030: 7922 abbc 57b2 373d 4958 edbd 0df9 85bd
00000040: ebfc b93d 8657 efbd 9192 45bd 7c41 a6bd
00000050: 63e8 8abd 3aa4 b8bd 3efe 40bd 2494 d9bc
00000060: d219 1cbe 3afb 093e 7345 7dbd 8e9b 8b3e
00000070: c13b 92bd 35a2 913e eac6 c63d b030 ddbd
0.033714343 -0.026789729 0.21048798 -0.020713286 0.026258044 -0.09976653 0.14473785 -0.078607075
0.040809687 -0.06785732 0.056025833 -0.022781491 -0.020890461 0.044847813 -0.11589105 -0.06541643
0.090814434 -0.11686616 -0.04823548 -0.08117959 -0.067826055 -0.09015699 -0.047117464 -0.026559897
-0.15244225 0.13474742 -0.06183381 0.27267116 -0.071403034 0.28444067 0.097059086 -0.10800302

unet_model.remaining.0.main.weight f4 [32, 64, 3, 3]
00000000: 3bd8 18bc b5e7 b43d c76a cfbb 1310 8c3d
00000010: 0121 3a3e 8db2 233d fe77 933d 1a1b 873d
00000020: 367e a33d ccf4 04be fcff c9bc fa80 93bc
00000030: 23dc 96bd 204d 243d ce32 26bc 38b1 9abb
00000040: 5f67 b13c 7da5 223d ba55 2f3e 71ac 333e
00000050: 99eb 943d e67e 043e e1c8 113e 9031 a43d
00000060: 407f f83d 7be7 0f3e 72f3 193d 957a 993d
00000070: b278 55bd 69d2 0a3d e4f4 39bd 8e47 28be
00000080: 1e71 c73c fc11 c4bd 0f95 8ebe 4b2a adbc
00000090: 58fb 46bd 0240 ad3d 49b5 d6bd f25b fa3d
000000a0: 492d 6d3e 94eb 483d 2107 a83d eaee 253e
000000b0: 000b 943c 0ee3 a13d 037b 763d 084c 143d
000000c0: e7d3 df3b d1af 42bd f965 c2bb d616 213e
000000d0: 8c81 01bd 2adb 6e3d 05de 4d3e 2986 8d3e
000000e0: fa3e a33b 10ee b03e 2254 123f 40bc 143e
000000f0: 7d29 0e3e 64be 963e b21d d6bc e157 a73d
00000100: bfa9 943c 7a18 37bc 6474 293e c79d 623e
00000110: 1f62 c63d 11ca cf3d ccd2 113e 3673 ed3a
00000120: 9120 e4bd 1bdc bc3c 8220 c2bd 7de7 ae3d
00000130: 61fa 393e fda8 c93d 3641 de3d 8526 103e
00000140: 956f 713c ba65 4a3d 6380 50bd 3019 203d
00000150: cb9d 3b3d 3424 9dbd b504 d1bc 222b dabc
00000160: 6a86 4ebd ec0f c9bb 561b 8a3d 545d c93c
00000170: 448e 81bd 66d8 d23c 7a02 a9bd 82fd e2bc
00000180: 4dbb 3dbd cc1f c0bd e3af 083d c861 a43b
00000190: 61a2 9d3d d1a3 233e 5d65 b9bd dc19 3b3b
000001a0: c1ec 103e 3dcf 10be fb0d 89bd cd19 fc3d
000001b0: 60a1 073e 8e52 683e d16a 1d3d 1cd1 443e
000001c0: 3baa a93e 0c64 0c3e 96d6 453e 77eb d83e
000001d0: 6620 f53d fee7 a4bd 60f4 85bd 0a7b a63d
000001e0: bb65 29be a9da 82bd 2521 c83d 641e 1fbe
000001f0: 20bd 8ebd 8587 9c3d f5f9 163d 41f4 32bd
00000200: 1ec4 c03b e2af 9ebb 41f8 7cbc 5dcb b9bc
00000210: 4dcb 1dbd 9fa7 75bd 818a e6bc 4cb2 bdbe
00000220: 693c debe 889f 4dbe 88fb 84be 9ca1 d0be
00000230: 5e96 43be f594 9bbd 23ef 3cbe 88d0 27be
00000240: 5eb8 d8bb 2f1e 9fbd 4588 853d 3c02 963d
00000250: 355b 00bd 2ca7 55bd 6191 413e 1a38 fc3c
00000260: b7f3 0cbd 8439 363d bf71 003c 468b b3bd
00000270: fd91 e93d 3a8e d73d 1602 633d a98c 6e3d
00000280: 3a9d e23d f952 143e f5c8 d43c 87a1 b13d
00000290: b969 403d 90b0 91bc 334d 22bc 2f5e cbbc
000002a0: b2d4 88bd c04c fcbd 72da 55bd 776a 493c
000002b0: 05d2 f5bc af8d f33d 25c6 d4bc 030a f4bc
000002c0: fb43 d43d 473c 593a 3451 afbd 5f33 b63c
000002d0: 463c 8b3d 0bfe 00bd f5f4 153d eb25 983d
000002e0: 12fe 49be 3e6f 2abe a45b 133d 98e8 2fbe
000002f0: 4582 d6bd 2a2a 8b3c 9437 583d 7c6a dcbc
00000300: 549c 863d 33e8 e0bb 4c14 22bd 4e4b b8bc
00000310: b5c3 d8bd 447b bdbd 69cb 26bd 404a bebc
00000320: c46a ca3c 6a90 d43c 3c18 c9bb a5cd c53d
00000330: 9465 c1bd f337 9c3c a502 233e 1cf0 923c
00000340: b299 bf3d b249 a13d 2c41 e03d 0342 163c
00000350: 6626 b63c f612 8f3d e716 a4bb 5618 89bd
00000360: 5d05 a4bc 5a07 c3bc 8637 85bd 6ad5 65bd
00000370: 6777 82bc 257f 503d d6d0 b7bb c143 9f3c
00000380: 2ec4 af3d 3a14 3abe 475f 94be 6ee5 95bd
00000390: 1d7d a0be 0514 eebe 1851 47be 31aa 8ebe
000003a0: f394 b4be 28ff 45be c3f2 5e3d 23f2 b93c
000003b0: dd9e 5abd 72b6 843d 01ea 073a d6c4 9a3d
000003c0: cfb2 df3c b91f 2d3d 0291 a03d 8fac 2e3e
000003d0: de29 823e 1804 de3d 8fff a33e 6536 d93e
000003e0: c0f4 233e 142f 853d 162a 113d 0465 d6bd
000003f0: e67f 61bd 0899 45be 9da4 643e b11a 1abe
-0.009328897 0.08833257 -0.0063298675 0.068390034 0.18176652 0.0399652 0.07200621 0.06596966
0.07983057 -0.12984008 -0.024658196 -0.018005837 -0.073662065 0.040112615 -0.010143949 -0.004720833
0.021655736 0.039708603 0.17122546 0.1754625 0.07271499 0.12939033 0.14236785 0.08017266
0.12133646 0.14053147 0.037585683 0.07494084 -0.052117057 0.03389207 -0.04539956 -0.16433546
0.02434593 -0.09573743 -0.27848098 -0.02113833 -0.048579544 0.08459474 -0.10483796 0.122245684
0.23161806 0.04905279 0.08204485 0.1620442 0.018071651 0.07904635 0.060175907 0.03620532
0.0068306806 -0.047530953 -0.0059325662 0.15731367 -0.031617686 0.05831448 0.20104225 0.2764142
0.0049818726 0.34556627 0.57159626 0.14524937 0.13883014 0.29442132 -0.026137207 0.081710584
0.018147347 -0.011175269 0.16548306 0.221305 0.09686684 0.10145963 0.14240569 0.0018116
-0.11139024 0.023054173 -0.094788566 0.08540247 0.18161918 0.09846685 0.10852282 0.14077194
0.014736076 0.04941342 -0.05090369 0.03908652 0.04580478 -0.07672921 -0.02551494 -0.026631895
-0.050421156 -0.0061359312 0.06743495 0.024580635 -0.06325963 0.025737952 -0.082524255 -0.027708773
-0.046321202 -0.09381065 0.033370864 0.0050165392 0.07696987 0.1598046 -0.09052537 0.002854935
0.14152814 -0.14141555 -0.0669212 0.123096086 0.13245153 0.22687742 0.038431946 0.19220394
0.33137688 0.1371004 0.1932014 0.42367145 0.1196907 -0.080520615 -0.065407515 0.081289366
-0.16542713 -0.06389362 0.09771947 -0.15538937 -0.069696665 0.07643036 0.03685947 -0.04368997
0.005882754 -0.004842744 -0.015440048 -0.022679979 -0.03852396 -0.05997431 -0.028142216 -0.37050092
-0.43405464 -0.20080388 -0.25973153 -0.40748298 -0.1910033 -0.07596771 -0.18450598 -0.16388142
-0.006613775 -0.07769429 0.06520132 0.07324645 -0.03133698 -0.05216138 0.18903114 0.03078847
-0.034412112 0.044488445 0.007839619 -0.08766799 0.11404798 0.105251744 0.05542191 0.058239613
0.11065145 0.14484777 0.02597473 0.08673387 0.046975825 -0.017784387 -0.009906101 -0.024825184
-0.066811934 -0.123193264 -0.05221028 0.01229345 -0.030007372 0.118922584 -0.025973389 -0.02978993
0.10364529 0.0008286875 -0.0856041 0.022241293 0.067986056 -0.031492274 0.036610562 0.07429107
-0.19725826 -0.16643998 0.035976067 -0.17178571 -0.10474066 0.016987879 0.05278738 -0.026906244
0.06572786 -0.006863618 -0.039570138 -0.022496846 -0.10584203 -0.09252027 -0.04072133 -0.023228765
0.024709113 0.025947768 -0.006136922 0.09658364 -0.094432026 0.019069647 0.15918978 0.017936759
0.09355487 0.078753844 0.109499305 0.009171012 0.022235107 0.069860384 -0.005007613 -0.06694095
-0.020022089 -0.023807216 -0.06504731 -0.05611173 -0.015926076 0.050902504 -0.005609612 0.019441487
0.0858234 -0.18171778 -0.2897894 -0.07319151 -0.31345454 -0.4649965 -0.19464529 -0.2786422
-0.3526989 -0.19335616 0.054430734 0.022698468 -0.05337416 0.06480111 0.00051847106 0.07557075
0.027306942 0.04226658 0.07840158 0.17058013 0.25422567 0.108406246 0.32030913 0.42424312
0.16011333 0.0650312 0.035440527 -0.10468486 -0.055053614 -0.19296658 0.2232842 -0.15049244

unet_model.remaining.0.main.bias f4 [32]
00000000: ea0e 0e3e 69e8 d23d c196 643d 0dca 2b3d
00000010: d318 343d 929d d83c 4d5b 663d 4df8 383d
00000020: 9e1d 233c 8621 8e3e 49ca ec3c 4569 1fbc
00000030: 0f22 0bbd 17db 0cbd 46b6 393e 9b90 513e
00000040: 3cfe c63b 7dfd 623e 84a3 df3d 21dd 1c3d
00000050: 11f2 c8bb ee09 b13d 0b4d 733e 38d2 f53d
00000060: 7224 c93c 0657 373d 5c9d 34bd de50 033e
00000070: 4d40 33bd c120 c83c dda8 6c3c 243c 853d
0.13872877 0.10298235 0.055807833 0.041940738 0.043968987 0.026442323 0.056239415 0.045158673
0.009955792 0.2775995 0.02890505 -0.009729688 -0.033968028 -0.034388628 0.18135938 0.20465319
0.0060727876 0.2216701 0.1091986 0.038296822 -0.006132372 0.08644472 0.23759858 0.12002987
0.024553511 0.044760726 -0.044095382 0.12823817 -0.043762494 0.02442968 0.014444557 0.065056115
