2D_CMR_Registration/ModelParameters-ACDC/Voxelmorph_Loss_0_Smth_1.0_LR_0.0001_Mode_0/DICE_0.51985_SSIM_0.92239_MSE_0.000845_Epoch_0001.pth (torch, 898940 bytes, 18 tensors)

unet_model.encoder.0.0.main.weight f4 [32, 2, 3, 3]
00000000: 69ed 5abe 6a63 8cbd 32c0 993d c4d1 313d
00000010: 59c2 9bbd b29b 20be 38af d03c 9580 09be
00000020: 3ee2 1f3e ef0f efbd 2f26 8a3d 61be 7c3d
00000030: a403 5e3c 694b 55be 21c6 4c3d 1790 77bc
00000040: a70e 393b ef1d 0f3c ca68 1fbb d46e 1a3e
00000050: a56d 8a3b 2c11 843e 932b 8ebe b6c5 bebe
00000060: 74d2 153d 7c23 dc3d ed96 8fbe e4ec 29bc
00000070: e2f0 c93d 40a0 27be adcc 23be 5bd0 0d3e
00000080: d5cd 743d f1f8 cfbd d111 8a3e 3ad0 733e
00000090: 2df4 1fbe de6b 623e dad5 1fbe acb9 5ebd
000000a0: 6594 9b3d 7315 543e bc89 febd f7f8 6bbd
000000b0: 050d 59be a95b 2b3e a4c3 a73e 4e77 893d
000000c0: 72c1 3abd 121e 143c dfb1 debc 934f 033d
000000d0: b47e 88bd d719 9fbe d495 10bb caf2 5bbe
000000e0: a7d8 3cbc 7175 c43d b7b3 e7bd 5792 583e
000000f0: b923 d9bd 99ba 4ebd bdc5 cb3b cf87 c6bd
00000100: 56cb 5cbe 0843 13bc 8227 43be 5410 82be
00000110: fd8b 0cbe 651b 013e 87ea 0abb 87f9 5abe
00000120: 24c7 b93c b413 303e 0c4a fd3c f0dd 953e
00000130: 9894 7c3e 0e5e 0d3e 3e16 91bd 50b2 08be
00000140: 07cc 4ebe 6e58 ffbd a181 773e a484 063e
00000150: 9be6 3d3e e713 143e 7dee 9ebd a858 f93d
00000160: f46e a8bd 4eb4 d0bd b2e3 73bd 0efb a03e
00000170: 2dad 17be 8343 11be 8882 193e 0a66 513e
00000180: db00 99be eaa3 803d d1c4 94bc 8a6d fb3d
00000190: 8136 23be f2e1 20be b164 bd3d 262e 883c
000001a0: ef32 97bd e39c 6dbd 2c20 7e3e 8d1b 8ebd
000001b0: 6df6 843e e366 c93c b878 003e 6aa9 0e3e
000001c0: 29f5 a53e c6e7 0a3e 6ac8 85bd 1fac 293d
000001d0: 954e 73be 6888 7b3e d00b 563e e296 2c3e
000001e0: 22fd 68be 4840 d6bc d0c9 38be 71f2 16bd
000001f0: 1221 69bd 9cf0 29be c89c 48be 96dd 283e
00000200: f366 493e e6ae 7abe a7a0 083e b234 913e
00000210: 8695 b5bd 32e4 10be 3d23 1ebe 53cd d33d
00000220: 219e 613e 3130 3b3e 82ac 283c e53e 62be
00000230: fa13 dfbd 1586 3f3d 0487 e9bd 3a76 7abd
00000240: 02ce 08bd 84b6 b3bd ac85 b93d 2b16 2c3e
00000250: f086 ee3d 9ac8 683e c507 8a3e 9667 7cbd
00000260: 2339 a8bb 3641 1bbe f693 3bbe f3cd 413e
00000270: 90eb c33a 7ffb 04be 048e 5abe 2539 223d
00000280: eda2 89be 172d ef3d d2e3 c0bd 0159 89be
00000290: 5f12 333e 66f4 ea3d 06a6 64be d0b5 ba3d
000002a0: c65d 7a3e 0ea1 953e a036 2c3e 95d0 90be
000002b0: 5a57 41be 7db8 1cbe 12ce abbd 50c9 bebd
000002c0: de56 8d3d efc7 3e3e 11cf bb3d ccbd 75bd
000002d0: 6bbc 57be cf7c 483e db4c 4d3e f23b 3f3d
000002e0: 0c66 b93d 61c6 8a3c fa3d 833d da13 0f3e
000002f0: 5cee b1bd 1a4a cbbd df6c a53d 2c8b e6bd
00000300: 9fb9 303e 6ca4 bdbd 53fa fb3c c1e3 513d
00000310: bf4e 44bd 4155 7dbc 9360 7f3e d214 41be
00000320: 45bb acbd 7431 52be f897 38be 880a 19be
00000330: 18e8 3bbe 2e81 a53d 5ee4 a43e 6470 4b3e
00000340: 533e 6a3a bbff 40be 6eed 593d 27d6 633e
00000350: 44b3 273d ca08 0c3e 93fd 3fbe 0c96 54be
00000360: 42a7 07be 1c48 c4bd 1451 49be 96bb ecbc
00000370: 9254 293e f1e9 ad3e 1deb 03bd 6c0d b63e
00000380: e77b b73e 7458 f83d 16e2 2cbe bbc1 54bd
00000390: 25ff 68bd 8cc4 2abe 9c51 5ebe d7bb 9e3d
000003a0: 9b31 50be 87a7 81bd 02d3 65be 1e07 79be
000003b0: 24e2 cbbd 0e0f bf3d f8b5 953c f7e8 0a3e
000003c0: 8efb 923d 10ca 913e f78d 4bbe 45ca efbc
000003d0: d423 2f3e 9aab 2d3e 9225 40be 14f4 98bd
000003e0: 1481 87bc 8944 62bd fff1 083e 789f 4fbe
000003f0: 0570 0bbe 81db 233e ff04 57be a563 973d
-0.21379627 -0.06854899 0.075073615 0.04341294 -0.07605428 -0.15684393 0.025474176 -0.13427956
0.15613648 -0.11672961 0.06745564 0.061704997 0.013550673 -0.20829548 0.049993638 -0.015110037
0.0028237493 0.008735164 -0.0024323934 0.1508134 0.0042244964 0.2579435 -0.2776762 -0.37260216
0.036577657 0.107489556 -0.28044835 -0.0103714205 0.09860398 -0.16369724 -0.15996046 0.13849013
0.05976661 -0.10154904 0.26966718 0.23809901 -0.1562049 0.2211146 -0.15608922 -0.05437629
0.075966634 0.20711307 -0.124286145 -0.05761048 -0.21196373 0.16734184 0.3276645 0.06712209
-0.04559464 0.009040372 -0.027184425 0.03205831 -0.06664792 -0.31074402 -0.002206196 -0.21479335
-0.011526263 0.09592713 -0.11313575 0.21149574 -0.10602517 -0.050470922 0.0062186406 -0.09693872
-0.21561942 -0.008988149 -0.1905804 -0.25403082 -0.13725276 0.12608106 -0.0021196918 -0.2138425
0.022677965 0.17195016 0.030919097 0.29270887 0.24666059 0.1380541 -0.070843205 -0.13349271
-0.20195018 -0.124680385 0.24170543 0.13136536 0.18545 0.14460717 -0.07760332 0.12175113
-0.08224288 -0.101906404 -0.05954332 0.3144154 -0.14812155 -0.1418591 0.149912 0.20449081
-0.29883465 0.06281264 -0.018160256 0.12276752 -0.1593876 -0.15711191 0.09247721 0.016623568
-0.07382762 -0.058010947 0.2481696 -0.06938849 0.25969258 0.024585193 0.1254605 0.13931814
0.32413605 0.13564977 -0.065323666 0.041423913 -0.23760445 0.24563754 0.20902944 0.16854432
-0.22752813 -0.026153699 -0.18045735 -0.036852304 -0.056916304 -0.16595691 -0.19591057 0.16490778
0.19668178 -0.24480781 0.13342534 0.28360516 -0.0886641 -0.1414955 -0.1544313 0.10341897
0.22032978 0.18280102 0.010295035 -0.22094305 -0.10892482 0.04675873 -0.11402705 -0.061147906
-0.03339959 -0.087750465 0.09058699 0.16805331 0.11646831 0.22732773 0.26959053 -0.061622225
-0.0051337644 -0.15161595 -0.18318161 0.1892622 0.0014947522 -0.12986563 -0.21343237 0.03960528
-0.26882115 0.11678522 -0.09418453 -0.26825717 0.17487477 0.114723966 -0.22328958 0.09116709
0.24449834 0.29224437 0.16817713 -0.28284135 -0.18880978 -0.15304752 -0.08388914 -0.09315741
0.06901334 0.18630956 0.09170354 -0.059995458 -0.2106797 0.1957886 0.2004885 0.046688028
0.09052667 0.016940298 0.064083055 0.13972417 -0.086880416 -0.09926243 0.08077406 -0.11257014
0.17258309 -0.092598766 0.030759012 0.051242594 -0.04792666 -0.015462221 0.24939184 -0.18855599
-0.08434156 -0.20526677 -0.18026721 -0.14945424 -0.18350255 0.0808128 0.3220548 0.19867092
0.00089356786 -0.18847553 0.053204946 0.22249661 0.040942445 0.13675228 -0.18749075 -0.20760363
-0.13247398 -0.09584066 -0.19659835 -0.028898042 0.16536167 0.33967546 -0.032206643 0.35557115
0.35836717 0.12126246 -0.1688312 -0.05194257 -0.05688395 -0.16676539 -0.21710819 0.07750671
-0.20331423 -0.063307814 -0.22443774 -0.24319121 -0.09955242 0.09329043 0.018275246 0.13565432
0.071768865 0.28474474 -0.19878374 -0.029271254 0.17103511 0.16959992 -0.18764332 -0.07468429
-0.016541041 -0.05524114 0.13373564 -0.20275676 -0.13616951 0.16001703 -0.20998 0.073920526

unet_model.encoder.0.0.main.bias f4 [32]
00000000: bdb6 863a afca 093b 5b93 1ebd bf97 713c
00000010: d4bc 29be a4cf 83bb 91c5 dabc 5808 5a3b
00000020: 64bf 17be c93e 243d 2249 65bd 338c 063e
00000030: 7b42 d43a 1c17 0d3e ad5a 8c3d f5e8 deb9
00000040: 3670 bebd 5b58 7a3d 4f37 633d 9394 803d
00000050: d555 b7bd 922d 93bd 6bc9 9a3c ad0e db3c
00000060: a6ab 88bd f810 8bbb 1b19 413d 39f9 37be
00000070: ec03 623b 93b4 afbd a68f 1b3b 7d8a abba
0.0010277849 0.002102535 -0.038714748 0.014745652 -0.16575938 -0.0040225554 -0.026705535 0.0033269133
-0.14819103 0.04009894 -0.055977948 0.1313942 0.0016194129 0.13778347 0.068532325 -0.00042516706
-0.09298746 0.06111942 0.05547267 0.06278338 -0.08951918 -0.07186426 0.018894872 0.026740396
-0.06673364 -0.004243966 0.047143083 -0.17966165 0.00344872 -0.08579364 0.0023736744 -0.0013087537

unet_model.encoder.1.0.main.weight f4 [32, 32, 3, 3]
00000000: 2029 7a3d 6f80 143e 7363 a23d d66a bfbd
00000010: 02b0 ac3c bedf 693d d56e 3dbd 7fd1 7f3b
00000020: 0bde 913b e1dc 1fbe 8a68 3bbe 2bab c33d
00000030: 1fc4 98bd e3b7 7d3e 7227 9abd 1915 a9bc
00000040: c677 d6bd f80c b1bd ebe5 8d3e fa6f 003e
00000050: e7d2 e43d 5920 083e a8e3 c5bd 63a0 8e3d
00000060: 24b8 733d f709 d93c 6660 e6ba 0a1e e03c
00000070: 67e7 d13d 7195 0a3d 4aef 14bb 19a0 603d
00000080: 1f41 0d3c 54c1 2bbc f806 61bd 77d1 9cbd
00000090: 52a3 603c 5c56 883c 82f6 36bd 5d66 bb3d
000000a0: c59c 93bd b1be f13c 87a0 da3c f42f 51bd
000000b0: ca4f ac3d db66 3dbd 6c36 98bd 04e8 303e
000000c0: b9d7 103e f37b 923d aa5e 1d3e 00e1 1cbd
000000d0: 3f74 e0bd ab9c ae3c a9f7 093d 232f 143d
000000e0: f711 953c 81ce b43d d39c f83c 4b0d 0abd
000000f0: 04de 06bc 5214 003d b750 bd3d d55d dabd
00000100: 574b 4d3d 5802 ef3d 2cbc 7c3a 485c abbd
00000110: ccf3 8b3e 0434 3cbd 8964 bf3d 4430 103e
00000120: 4e87 7b3d 3dfc 373d 51c6 1bbe 4bf9 f83b
00000130: 09cd 64bd 0e5a b8bd d729 363d 88b3 473d
00000140: 108a c23d 3cc1 1abd f4ad 52bb 4ff2 9d3a
00000150: 169e aebd 5431 973b 691d a63d ab6b a53c
00000160: e920 93bc d2a0 c63c eb6d e3bc f0dc f33c
00000170: 9a9a b2bc 86eb 2c3e 74f8 34bd 11cc 98bc
00000180: 2068 b83d aca8 0ebd 00a5 853d c8f0 663d
00000190: e313 d5bd 21ea 76bd 5f31 61bd d716 8c3d
000001a0: 97c1 b83b 5f46 28bd 6308 603d 34d9 b23d
000001b0: 2cab e03c c54e 03be aa47 97bd 4860 f4bd
000001c0: 3d1e bebe d337 3abe e2f9 41bc 7e4f cdbb
000001d0: 0bbb 373c 453a a93c b827 473e 3b9a 7f3c
000001e0: 86fb 05ba be57 d23c 190d a53c 0b4d 30bd
000001f0: 0997 a23c 5c0e a23d 4d45 d33d d443 2d3e
00000200: 47dc 18bc 3e0c 843d a3a2 723e c738 b9bd
00000210: 3fa4 3fbd 430c 183c 820b 683d bb30 46be
00000220: df52 613e a852 dcbb b3fb 453d 3b5b cb3e
00000230: 55cc fdbc 20ac 183e b2dc 3a3d cf9b 5f3e
00000240: 39ba b03d cda6 993d e1f6 a23d 232a 27bd
00000250: 9b6a f23d adb4 c23d 4bd1 33bd 1bde 0f3d
00000260: a989 263d 2f83 89bc 95af 90bc a044 ce3b
00000270: 3371 10bd 2b3a 29bc fa24 0d3e 8463 6eb8
00000280: 0fe8 5f3c 5120 be3d a57e 93bc 357a 3d3e
00000290: 1f45 35bd ea73 083d 39cf 673d c1c4 353d
000002a0: 6dfb 2cbd e0e3 90bd 0003 933c bbb8 91bd
000002b0: 0bbe ec3b a043 f43c af7c f63c 7328 a0bc
000002c0: a154 8fbc 262d 74bc d294 cebc 60f8 13bd
000002d0: a6ee 4f3d 52e6 393e 06ef e03d a7e7 dfbc
000002e0: 9454 aa3d c534 8d3d c240 52bc e099 abbc
000002f0: 6857 5e3c c872 63bd cd46 a1bd 4ee7 95bd
00000300: 4cd8 ba3d 8a92 8abd 9f58 26be 75f8 9bbc
00000310: 58de 383d 08ae 043d 2948 3f3c ce2d b53d
00000320: d142 83bd 85ca 003d 3a30 bcbc 9cc2 8cba
00000330: 92d4 bc3d bcf3 bebd c7ca 54bd 8f9d 103d
00000340: a8d4 803d fbdf 753e fdb1 4a3d b320 683d
00000350: 0e50 8a3e ef1b bcbb f122 cb3d 74d8 84ba
00000360: 1403 9a3b 1037 5dbd 9544 563c 01b9 843c
00000370: da0c b53c 2b90 3c3d b73f eb3b be23 a93c
00000380: ff0d a93d 124f 68bc 95fe 2e3e 47b1 b9bc
00000390: fec1 c8ba 9824 633d f864 2fbd e138 283d
000003a0: 74e2 0abc 6112 0bbd 15b7 26bd c621 38bc
000003b0: 81d7 89bd eb3e eabd b1bd fb3d 9f9e 5a3d
000003c0: 0ee4 bb3c 374b 23bd 0fd5 52bd 8425 1abd
000003d0: 510a 96bd 6dee 17bd 6e2b 403d 3c58 6abd
000003e0: 9203 4fbb 9c7e f4bc 8f27 febc 2b4f 063d
000003f0: 6461 433d 1ce7 9e3d 595f c5bd f000 d43d
0.061074376 0.14502119 0.07929125 -0.09346549 0.02108002 0.057098143 -0.046248276 0.0039034782
0.0044515184 -0.15611602 -0.18301597 0.09554132 -0.07459282 0.24777178 -0.07527055 -0.020639943
-0.10472064 -0.08645052 0.27714476 0.12542716 0.11173039 0.1329359 -0.096625626 0.06964185
0.059501782 0.02649401 -0.0017576336 0.027358074 0.102492146 0.033833925 -0.0022725635 0.05484018
0.008621483 -0.010483105 -0.054938287 -0.0765714 0.013710814 0.016642742 -0.044668682 0.091503836
-0.07207636 0.029509874 0.026687874 -0.051071122 0.08413656 -0.04624067 -0.07432255 0.17276007
0.14144792 0.07152548 0.15368143 -0.038300514 -0.10959672 0.02131494 0.033683453 0.036177766
0.018197043 0.0882845 0.030348217 -0.033704083 -0.008231644 0.03126938 0.09243911 -0.10662428
0.050120678 0.11670369 0.0009641077 -0.083672106 0.2733444 -0.045948043 0.093453474 0.14080912
0.061408333 0.044918288 -0.1521237 0.0075980774 -0.0558596 -0.090015516 0.044473495 0.0487552
0.094989896 -0.03778194 -0.0032147141 0.0012050363 -0.08526246 0.0046140347 0.08111078 0.020192942
-0.017960029 0.024246607 -0.027762374 0.029768437 -0.021802235 0.1688672 -0.044182256 -0.018651994
0.09004235 -0.034828827 0.06525612 0.05638197 -0.10404184 -0.060281876 -0.054978725 0.06840294
0.005638312 -0.041082736 0.0546955 0.087328345 0.027425371 -0.12823017 -0.07386716 -0.11932427
-0.37132445 -0.18185358 -0.011839362 -0.0062655797 0.011214028 0.020657668 0.19448745 0.015600736
-0.0005111027 0.025676604 0.020147847 -0.043042224 0.01984741 0.07912895 0.103159525 0.16920406
-0.009329862 0.064476475 0.23694853 -0.090440325 -0.046787497 0.009280267 0.0566516 -0.19354527
0.22004269 -0.0067237206 0.048335742 0.3971804 -0.030981222 0.1490941 0.045620628 0.2183678
0.08629269 0.07502518 0.07957245 -0.04081167 0.1183674 0.095071174 -0.04390077 0.035123926
0.040658627 -0.016786186 -0.017661849 0.006294802 -0.035264205 -0.01032881 0.13783637 -5.6836303e-05
0.013666167 0.092835076 -0.018004725 0.1850365 -0.044255372 0.03331367 0.056594107 0.044377092
-0.042231966 -0.07074714 0.017945766 -0.07115313 0.0072248033 0.029817402 0.03008875 -0.019550538
-0.017496409 -0.014903342 -0.025217447 -0.03612554 0.050764702 0.18154266 0.1098309 -0.02733214
0.08316913 0.068948306 -0.012832822 -0.020947397 0.013570644 -0.055529386 -0.07874832 -0.073195085
0.091232866 -0.06766231 -0.16244744 -0.019039372 0.04513392 0.03239253 0.011674919 0.08846627
-0.064092286 0.031443138 -0.022972215 -0.001073915 0.09220232 -0.093238324 -0.051951196 0.03530651
0.06290561 0.24011223 0.04948615 0.05667181 0.27014202 -0.0057406346 0.09918774 -0.0010135309
0.004700074 -0.05400759 0.013077875 0.016201498 0.022100855 0.046035927 0.0071792263 0.020646926
0.08254623 -0.014179008 0.17089303 -0.02266754 -0.0015316603 0.05545482 -0.0428209 0.04106987
-0.008476842 -0.033953074 -0.040701944 -0.011238521 -0.06730557 -0.11437782 0.1229204 0.05337393
0.022935893 -0.039866652 -0.05147272 -0.037633434 -0.073261864 -0.037092615 0.046916418 -0.057213053
-0.0031587821 -0.029845528 -0.031024722 0.032790344 0.0477003 0.07758924 -0.09637327 0.10351741

unet_model.encoder.1.0.main.bias f4 [32]
00000000: 0bf0 93bd 5f08 0dbc 6310 8a3d c906 b9bb
00000010: 2a5d 6bbb f4ba 8bbc 2253 c73c 0d74 a3bb
00000020: f4e1 e13b 35db b7bc d989 063c 5ffe 8c3c
00000030: 4889 bd3a 4054 ae3c 4bc7 fbbc a9d9 90bb
00000040: 60e7 0b3d 407b 4e3d c054 c23b ae6f f4bb
00000050: 893c 8dbb 6f00 34bd 4460 fc3b 98f9 f9bc
00000060: 3d4c 06be 6093 5f3c 1be7 83bc 5ed1 4e3d
00000070: 3e34 7bbb a95a 263d 68e0 e3bb b06f d93b
-0.07223519 -0.008607953 0.06741407 -0.005646561 -0.0035913684 -0.01705692 0.024331633 -0.0049881996
0.006893391 -0.022443393 0.008211576 0.017211137 0.0014460469 0.021280408 -0.030734679 -0.0044204784
0.034156203 0.05041051 0.005930513 -0.0074596023 -0.004310195 -0.043945726 0.0077019054 -0.030514523
-0.1311502 0.013645977 -0.01610141 0.050492637 -0.00383307 0.040613804 -0.0069542415 0.0066356286

unet_model.encoder.2.0.main.weight f4 [32, 32, 3, 3]
00000000: bcff fcbc 52e3 1ebd bea0 3c3d df4d 79bd
00000010: faf7 a83c bfda 8d3c b3ab 51bd 7e07 4f3d
00000020: 8bc0 183c 21c2 12bd 1eeb 83be 320a ecbd
00000030: 596f 8a3d 0d87 e4bd 7707 1bbe 9da2 edbc
00000040: e2a6 473d be4e 223b a678 a13b a998 aa3d
00000050: 5bc5 8b3c 32e2 263d a25a 033d 7876 8fbc
00000060: 40e1 763d eb8c a6bc 814f 193c bb08 143d
00000070: 2dc2 523d 0b7d 9d3d ba64 8cba 84ef 18bd
00000080: 839d dc3d ed40 afbd 0c90 8dbd a0ce 2c3d
00000090: 66af 35bc 9d9d d83c 1a88 a3bc ccf6 fa3c
000000a0: b7e6 e9bd a089 b5bd f34a fcbc 7825 35be
000000b0: 42f7 f7bc 5b90 a1bd 9d86 a0bd dff8 bdbd
000000c0: f6d2 cdbd a20d 6dbe 20ee 43bd c6e7 34bc
000000d0: 91e7 22bd 526c 58bc 3866 44bd fe70 2b3d
000000e0: fdcf 1f3d 151d 6bbd 0f2f a53c db55 8f3d
000000f0: c99b 923d a70e d03d 3b94 1d3d 3a1a dfbd
00000100: ccdd ccbd ccc0 00bc d527 c93d 84bb e83d
00000110: 2c03 c5bc 7ddc a73d 2d90 953b 90c2 393b
00000120: b1b0 18bd bfbf 09be d227 e6bd cf67 0dbe
00000130: f83b 66be ab85 dfbc a6c6 94bd 64f1 bdbd
00000140: d948 c2bc 66ae 65bd 2b17 a6bd 0934 673b
00000150: 49b2 06bd 8f2a eebd 06ed 30be 7bfb a93d
00000160: 3f0b 48bc 3e04 71bd 6933 f13b 823f afbd
00000170: 733f 74bc b863 3d3d b811 15be 66df 8cbd
00000180: e80f 65bc d11d 8abc b13f 4f3d 4e82 593d
00000190: cb16 4c3d 4e80 833c 9a72 2e3d c721 573d
000001a0: 1dac 3ebd dda5 633c 3253 77bd 8e5e 43bd
000001b0: 1413 92bd d368 a0bd 4e03 193d 9208 12be
000001c0: 2358 5c3d e112 bc3c de00 a7bd c406 a6bc
000001d0: 44f4 10bb 9488 12bb 9fd8 06be c4b9 0bbe
000001e0: dfa5 153e 0c46 8dbd 1ab6 f9bd 8b78 933d
000001f0: 8fa7 1cbe a4ce 8ebd e815 663d 7387 06bb
00000200: 339e 2a3d 4476 1abe 4881 3c3b 66ca 53bc
00000210: 22a7 a4bc 4ed2 043d 3005 6f3d d883 52bd
00000220: b99a 07bd 5bdb 763d bf73 c2bc 64bb a6bd
00000230: 3316 5ebc d843 ccbb 4870 f3bb 28c5 8b3d
00000240: 7449 93bd acfd 31bd 109f 153d da1d c9bd
00000250: 65e4 503d a8c0 bc3d 9536 4bbc a243 87bd
00000260: d51a af3a f2de e73c 2056 04be 00f1 213c
00000270: e335 5b3d ac5c e33d 94bc a3bd 04fc abbb
00000280: 3f8b 193d 259b 8a3a 74f1 49bb 8b22 8d3d
00000290: 4534 673d 45da 03be 9f33 c13d f1d8 803d
000002a0: 80fc 533d 44a2 643d 46da 7e3d 4d76 043d
000002b0: 8816 333c b962 d83d 8e70 4bbd 69ad 993d
000002c0: abd2 16bd f0af 933d 638e e33d 8f2a 773d
000002d0: d6a5 4bbd 34d2 853d 5ab9 723d ea37 033d
000002e0: 70a9 683d e61c 00bd b49f b1bc 7e86 cfbc
000002f0: 212a cbbc b634 a13d cdab 5bbd 4a83 d23c
00000300: dc7b 0a3e 5e1f 003e 0b53 ddbc c2b5 0abc
00000310: 4f24 263c f12e b0bc 9cb3 053d f8d8 ca3d
00000320: caf0 8d3c ac22 e6bc 6b13 d2bb b796 883a
00000330: 2fcb 663d a8a6 af3d cace 4a3d db6e 31bd
00000340: e708 2cbd ba62 c1bd 09ed 5b3d 1679 fcbb
00000350: fe74 34bd 6c27 1cbc 007b 963d ed64 bb3c
00000360: db9f 863d 43c3 fcbc 9f52 673d f9d6 c83d
00000370: 2f1b 89bd 468e afbc 9c28 a13d 66c9 ebbc
00000380: bc97 dd3b e494 863c 31f3 cdbd dd49 8c3d
00000390: 8484 88bd b180 2fbe 3ba4 62ba 1f47 423d
000003a0: 0bb9 9cbc 102f 32bc 7747 a73d 44a3 f7bc
000003b0: 7a1d f1bc e4d0 403d 334c 11bd 9e7f 0dbd
000003c0: bed8 943c 1d1f d8bb 65c2 9a3d 1444 913d
000003d0: 9284 38be 9e87 ddbd 860c 1c3d 542e 85bd
000003e0: e6ad d9bd abf3 d5bd 5574 85bd e303 6c3d
000003f0: 1f81 da3d 68af 103d 6885 0abe 80c5 403e
-0.030883662 -0.03879101 0.046051733 -0.06086528 0.020626057 0.01731622 -0.051189136 0.050544254
0.00932325 -0.035829667 -0.25765318 -0.11525382 0.06759519 -0.111585714 -0.15139566 -0.029008204
0.048743136 0.0024766172 0.0049277125 0.08329899 0.01706188 0.04074306 0.032068856 -0.017512545
0.06027341 -0.020330867 0.009357334 0.03614114 0.05145471 0.07689866 -0.0010711171 -0.037337795
0.107722305 -0.085573055 -0.069122404 0.04218924 -0.0110891815 0.026442343 -0.01996236 0.03063526
-0.114209585 -0.088641405 -0.030797457 -0.17690074 -0.030269269 -0.07888862 -0.078381754 -0.09275984
-0.10050003 -0.23149732 -0.047834516 -0.011041587 -0.03977162 -0.013209419 -0.047949046 0.041855805
0.039016712 -0.05740078 0.02016404 0.069987975 0.0715862 0.10159045 0.03847144 -0.10893674
-0.10003242 -0.007858466 0.098220505 0.11363891 -0.024049364 0.08196352 0.0045643062 0.0028344728
-0.03727788 -0.13452052 -0.11238064 -0.13809131 -0.22483814 -0.027285418 -0.07264452 -0.09274557
-0.023716377 -0.056074522 -0.08109888 0.0035278818 -0.03288487 -0.11629211 -0.17277917 0.08299919
-0.0122097125 -0.058841936 0.007360865 -0.08557035 -0.014907706 0.046237677 -0.1455754 -0.06878547
-0.013980843 -0.01685992 0.05059785 0.053102784 0.049826425 0.016052391 0.04258976 0.052522447
-0.04655086 0.013894525 -0.060382076 -0.047697596 -0.07132545 -0.07832494 0.037356667 -0.14261082
0.05379499 0.02295822 -0.08154462 -0.020266898 -0.002211825 -0.002235924 -0.13168572 -0.13645083
0.14614056 -0.06898126 -0.12192936 0.07200726 -0.15298294 -0.06973007 0.056173235 -0.0020527511
0.041654777 -0.15084177 0.002876358 -0.0129266735 -0.020099226 0.032427125 0.058354557 -0.051395267
-0.03310654 0.060267787 -0.023736833 -0.08141211 -0.013555097 -0.0062336735 -0.0074291565 0.06824714
-0.071917444 -0.04345481 0.036528647 -0.09820147 0.050999064 0.09216434 -0.01240315 -0.06604697
0.0013359437 0.02830455 -0.12923479 0.009884119 0.053518187 0.1110166 -0.07994953 -0.0052485485
0.03748631 0.0010574801 -0.0030814083 0.06891354 0.056446332 -0.12876232 0.09433674 0.06291378
0.051754475 0.05581881 0.06221988 0.032339383 0.010930665 0.10565705 -0.049667887 0.075037785
-0.036822002 0.07211292 0.111111425 0.06034332 -0.0497187 0.06534234 0.059258796 0.032035746
0.056802213 -0.03127756 -0.021682598 -0.025332686 -0.024800362 0.07871382 -0.05363064 0.02569737
0.13523811 0.12511966 -0.027017137 -0.008466186 0.010140493 -0.021506758 0.032641992 0.09904665
0.017326731 -0.028092705 -0.006411006 0.0010420893 0.056346115 0.08576709 0.049513616 -0.04331861
-0.042000677 -0.09442659 0.05369285 -0.0077048643 -0.044056885 -0.009530883 0.07347679 0.022875274
0.06573459 -0.030854827 0.056475278 0.09806628 -0.06694638 -0.021430146 0.07869074 -0.028782558
0.006762473 0.016428418 -0.10056151 0.06850026 -0.066659 -0.17138936 -0.0008645688 0.047431108
-0.019131204 -0.010875478 0.08167928 -0.030229218 -0.029433 0.047074214 -0.03547306 -0.034545533
0.018169757 -0.006595506 0.07556609 0.07093063 -0.18019322 -0.108168826 0.03809788 -0.06502977
-0.106288716 -0.104468666 -0.06516329 0.057620894 0.10669159 0.03532353 -0.13527453 0.1882534

unet_model.encoder.2.0.main.bias f4 [32]
00000000: 5f63 e23c ed73 9fbc a50d 1abd 134e e5bd
00000010: ab8a 3bbd 5e92 123d 0b02 dd3c c9f3 b53c
00000020: ce19 a5bc b163 38bb d085 9c3c 5498 b03c
00000030: 98c4 8e3d 36d4 f6bc 931b e23c 9d66 983c
00000040: 62fa 113e 43b6 48bc 6791 643d ea0f 433d
00000050: 35a7 0cbd 3ea9 6b3c 0ba9 b7bc b637 4d3b
00000060: 0673 693a 9749 503a 4c2f aabb 650d 37bd
00000070: a2dc 6abd 891a d9bd 9ab3 87bd 1dcd c53c
0.027635274 -0.019464457 -0.03761067 -0.11196532 -0.04578654 0.035784118 0.026978513 0.022210972
-0.020153906 -0.0028135593 0.019106776 0.02155701 0.06971091 -0.030130487 0.027601039 0.018603617
0.1425567 -0.012250486 0.05580273 0.0476226 -0.03433915 0.014383612 -0.022419473 0.0031313724
0.00089053845 0.0007945536 -0.0051936265 -0.04469051 -0.057339318 -0.10600764 -0.06626053 0.024145657

unet_model.decoder.0.0.main.weight f4 [32, 32, 3, 3]
00000000: e31e 8f3a 9362 233d fdcc 233d b5ba 60bd
00000010: caad da3c 8782 4abd 8a5b 81bd a9a5 77bc
00000020: 42e5 60bc 28ab b1bc 58e6 c73c 3efc 243b
00000030: 3502 163d 114b 3f3c eba4 953c 532c acb8
00000040: 8e99 82bd 1015 a2bd 3ee1 dbbd 2efb 19bb
00000050: ec1c cb3d b816 35bc 81a5 b13d 4174 55bd
00000060: 864e e33b 3083 1abd 091f d2bd e1e2 993c
00000070: 9822 30bd b607 f53c c125 9dbd 0a39 dbbd
00000080: a470 51bd cb8e 5fbc 5f86 11bd 075f 603d
00000090: 3fd5 b9bc 2b58 0ebd 2a79 9d3b 4f7f 08bd
000000a0: 465e 883d 2f38 303c be9e be3c b606 cebc
000000b0: d5e3 87bc b038 8f3c fb0b 5ebd 601d a8bd
000000c0: 04d7 62bd 673e a8bd b14a 51bd fc85 b93c
000000d0: 2d63 3f3c bfdf 983b 7d75 30bd dccf 95bd
000000e0: c374 13bd c4d6 85bc 0c14 603d 5b76 14bd
000000f0: b6e6 60bd dd31 4abb 46d2 f9bd 2dbd 84bc
00000100: 5238 a0bd ac06 763c 6f50 793c 9e9a 0cbd
00000110: 1728 9b3d 9c8a 103d 3055 06bc c26d 723d
00000120: d256 63bd 4073 39bb c371 73bc 645f 09bd
00000130: d43b f63b d319 7ebd a243 88bd 42cf 433d
00000140: 4a8f 913d 60fe 49bd 2fe9 fa3c 5b92 6e3c
00000150: 880b 78bd 6111 743c a57e 58bd a2b8 c5bd
00000160: 9d5e 41bd c45b 92bd 15e7 9e3d 48cf 453c
00000170: 11b7 ca3d 971e 403d e4ed 573c a212 013d
00000180: 7cb5 babd 2c0a 32bd 014e 963c b1e5 63bd
00000190: 70dc c0bd fe95 303d 8ecc 853b 6571 e33c
000001a0: ecba 1dbd c55f b73c 3a54 3abd eff4 7cbd
000001b0: 5780 0a3d d7d6 59bd 958e 61bc c55a 53bd
000001c0: f96c 15bb b3c9 643c a0e8 1c3d cfb7 ba3c
000001d0: 6ce2 3f3c 88cc d4bc f8f8 383d c3ab a7bb
000001e0: cc1e c4bc 1300 27bd 85fa 3cbd 4772 cbbd
000001f0: 3d1c 29bd c38b bdbd 4dbf c53b 2769 813c
00000200: 4db7 ad3c fc5b febd 99d1 6fbd a6b8 e7bd
00000210: f909 18bd ef16 96bd 2fdc 83bd f2bf 59bd
00000220: 3bbd 1d3d 5768 56bd 638d e8bc 5888 523d
00000230: d8aa 84bc a8a3 223d 2c82 1a3c 5d83 173c
00000240: 2e69 823d 7e3c d9bb 0e83 983b 79c6 923b
00000250: 238a 4e3d 6e5e 5f3d 1c33 ddbd 237b c9bd
00000260: 417e b8bc 1e40 873d a577 813d a61f f43c
00000270: 2a03 933d 5a95 8c3b 33de 693d 1019 973c
00000280: 91aa 6d3d 095f d63d 15d4 e63d d2f8 14bd
00000290: c6b1 9b3d ad6c 063e 091f 8f3d a0d0 cc3d
000002a0: 4578 ad3d 587a f63c 99bb 983d cd47 5f3d
000002b0: 6a4d a3bd a08c 0fbc e6e6 283d bb07 b0bd
000002c0: c484 46bd 9524 1e3d 3a07 643d e312 323d
000002d0: af15 8ebc aa1e b23d ddfd 723d b8cb 453c
000002e0: 5f83 9f3c 233c a03c 17ae 0cbe 5d9b 42bd
000002f0: 20aa 563d decf a53c e74a 1e3c 1ac0 9b3d
00000300: 19c7 8e3b 5582 5d3c d9a3 5d3c b2b0 1f3d
00000310: b04b 903d 34d8 173c 3b04 483b 8fa5 8e3d
00000320: e52f 953c 3461 1bbc 74bd 3c3c fe43 01bd
00000330: ca40 9bbd cf90 cbbd 30b7 a6bd d413 2e3c
00000340: af64 143d 1aaa e83c 9f8f 8d3c a3e5 623d
00000350: 9512 d3bc 069c 1f3d 4def 50bd 7565 2cbc
00000360: 73af 113b 3727 1c3d 27f8 8c3c 3817 813d
00000370: 2932 993d 6bb9 df3d 6e9b 8fbd 496c 823c
00000380: fbc1 843d 826a 9dbb 4f6a d2bd 8f12 64bd
00000390: 0a6e 4cbd c9de 8ebd 1136 3dbd 9b0d b43b
000003a0: 3f5b a5ba a8da ab3c 99e0 4c3c 1b8c dc3c
000003b0: cd2b 61bc 1546 bf3c 2f13 8a3d fabd 703d
000003c0: 5f18 50bd 1659 9abd 44b8 84bd 6a73 fa3c
000003d0: b046 cabb fdac aabc 97ab 89bc 7d5a debc
000003e0: 9140 ecbc 6441 50bd 3281 673c d90a c9bc
000003f0: e081 003d a7c4 e63c 10c5 49bc ad9b 373c
0.0010919239 0.03988893 0.039990414 -0.054865558 0.026694197 -0.049440887 -0.06316288 -0.01511518
-0.013726534 -0.021688059 0.024401829 0.0025174762 0.0366232 0.011675612 0.018267116 -8.209855e-05
-0.063769445 -0.079141736 -0.10736321 -0.0023495662 0.09917626 -0.01105278 0.086741455 -0.05211282
0.006936851 -0.037722766 -0.10259826 0.018784942 -0.04300174 0.029910903 -0.076732166 -0.10704239
-0.051132813 -0.013644884 -0.035528537 0.054778125 -0.022684691 -0.034752052 0.0048057036 -0.033324536
0.06658606 0.010755583 0.023269054 -0.025149684 -0.016588131 0.017483085 -0.054210644 -0.08208728
-0.055380836 -0.08215027 -0.051096622 0.022646897 0.01168136 0.0046653445 -0.043080796 -0.07315037
-0.036000025 -0.01633776 0.05470662 -0.036245685 -0.054907523 -0.0030852475 -0.121983096 -0.016203487
-0.07823242 0.015016239 0.015216931 -0.034327142 0.07576006 0.03528844 -0.008199021 0.059186704
-0.05550272 -0.0028297454 -0.014858666 -0.033538237 0.0075144563 -0.062036347 -0.06653525 0.04780508
0.07107408 -0.049314857 0.030628769 0.014561261 -0.060557872 0.014896722 -0.052855153 -0.096543565
-0.04720937 -0.07146409 0.07758919 0.0120733455 0.098981984 0.046904173 0.013179276 0.03151191
-0.09116647 -0.043466732 0.018347742 -0.055638973 -0.09417045 0.043111794 0.0040832227 0.027764032
-0.03850834 0.022384534 -0.04549048 -0.061757024 0.0338138 -0.053183403 -0.013766904 -0.051600236
-0.0022800548 0.0139641045 0.038307786 0.022792725 0.011711698 -0.025976434 0.04515931 -0.005116911
-0.023940466 -0.040771555 -0.04613735 -0.09933906 -0.041286696 -0.09255173 0.0060347677 0.01579721
0.021205569 -0.124198884 -0.058549497 -0.11314516 -0.037118886 -0.07328593 -0.06438481 -0.05316157
0.038510542 -0.0523456 -0.028387731 0.05139956 -0.016194746 0.039706856 0.009430449 0.009247628
0.06367718 -0.0066295257 0.004654295 0.004479226 0.050424706 0.054533415 -0.10800764 -0.098379396
-0.02252114 0.06604026 0.063216485 0.029800247 0.07178338 0.004290265 0.05709667 0.018444568
0.058023993 0.10467345 0.1127092 -0.036370106 0.07602267 0.13127394 0.06988341 0.100007296
0.08470205 0.030087635 0.074576564 0.054511834 -0.0797375 -0.008761555 0.041235827 -0.085952245
-0.04846646 0.038609106 0.055670954 0.043475043 -0.017344324 0.08697255 0.059324134 0.012072496
0.019471822 0.019559925 -0.13738285 -0.047511447 0.052408338 0.02024072 0.009661413 0.07605
0.0043572304 0.013519843 0.013527834 0.03898687 0.07045686 0.009267855 0.00305201 0.069651715
0.018211314 -0.009483624 0.0115197785 -0.031558983 -0.07580717 -0.099397294 -0.08140409 0.010624845
0.03622883 0.028401423 0.017280398 0.05539478 -0.025765697 0.038967155 -0.051009465 -0.010522236
0.002222982 0.038123336 0.017208172 0.06303257 0.074802704 0.109240375 -0.07012068 0.015920775
0.06482311 -0.0048039565 -0.10274183 -0.05568176 -0.04990963 -0.06976087 -0.04619414 0.005494786
-0.0012615694 0.020978287 0.01250472 0.026922276 -0.013743353 0.023348847 0.0674194 0.058774926
-0.050804492 -0.07536523 -0.064804584 0.030572612 -0.0061729774 -0.02083444 -0.016805453 -0.027142758
-0.028839381 -0.05084361 0.014129924 -0.024541305 0.03137386 0.028169943 -0.01231505 0.01120655

unet_model.decoder.0.0.main.bias f4 [32]
00000000: c517 3fbc a3a7 093d 943b f03a 6730 303d
00000010: 06e5 acbd 0187 0fbc 71b7 82b9 c803 903b
00000020: 6a1c b0bd 475f b6bc 1de8 aebc 83bb c2bd
00000030: c8f6 7f3d ef66 d83c ed38 31bd 04b8 5c3d
00000040: dffb f43c e39b a5bd 9c58 c4bc 5475 85bc
00000050: 6c22 ad3b c2df 1bbd 2eba 88bd dd67 15bd
00000060: 8645 cd3c 165d 9a3c b15f 1cbd 274e 82bc
00000070: fb80 143d b222 1f3d b402 a2bd e0a5 fe3b
-0.011663382 0.033607136 0.0018328303 0.04301491 -0.0844212 -0.008760215 -0.00024932207 0.004394982
-0.085991696 -0.022262229 -0.021350915 -0.09508421 0.06249121 0.02641627 -0.04326718 0.05388643
0.029905258 -0.08086374 -0.023968033 -0.016291298 0.0052836444 -0.03805519 -0.06676136 -0.036476005
0.025057565 0.018843215 -0.038177196 -0.015906407 0.036255818 0.038851447 -0.07910672 0.0077712387

unet_model.decoder.1.0.main.weight f4 [32, 64, 3, 3]
00000000: a5bd f5bc 06f2 e23b 7933 5fbd fcc8 2f3c
00000010: b926 c0bc ade1 87bd 7b44 9abc 2431 923b
00000020: d1a5 c7bb a295 8e3d d2e7 3e3d 9ff6 c73c
00000030: e1dd f83c 2700 8fbc 53bc 26bc 6953 3f3b
00000040: 0ad0 85bd bbcd 1cbd 1a2a 643c 85a1 fbbc
00000050: 821b 243b 25b4 69bd bbb6 70bd 62d2 1a3c
00000060: 091b 8abd 7d2a fcbc 72b2 14bc c45c ea3b
00000070: a083 773d 0a2b de3d 21c0 413d f1fb 823d
00000080: 90a0 e03d 1b01 ecbc f469 483b 0d1a 4cbd
00000090: 5590 82bd 04e2 98bd bef6 6abd 10b8 8ebd
000000a0: 4a12 5bbd 3653 6cbd f05d a7bc 5549 a43d
000000b0: 4650 a83c e4b9 e33c e9c2 ed3c c5df a6bd
000000c0: 0c9a 35bc 5e0a 503d 6c1b 0dbd 8b31 b03b
000000d0: af82 553c f690 21bd 4381 df3c 34b6 36bd
000000e0: 3b40 7dbd e075 3ebc ca1d 8dbd 0d14 0dbd
000000f0: a7ab 433d a884 39bd bb82 30bd 3279 8a3c
00000100: 0d82 283d 5a09 d7bc df13 10bd f210 b83c
00000110: 77c0 abbb 173c adbc 2987 56bd 7b85 dabc
00000120: 6701 b6bd 19ac a7bd 387f 81bc 4767 c2bc
00000130: 0ecc a13b 708b 95bc 8d92 c7bc 5763 c13c
00000140: 07a4 f0bc 7606 cebd a589 cabd c7c6 a5bb
00000150: 0eae 9fbd c834 afbd dd76 e4bc 23bd 3abc
00000160: 3b06 75bd 940f 43bd dba0 5fbc ecef 30bc
00000170: 743f 5cbd 7591 b23c a3f6 883c cf88 80bd
00000180: 9e61 92bc 5c02 e2bc 534c 76bd 6c70 35bd
00000190: 0b2c 3dbd 67cf 48bd 1ee3 56bc 3466 b839
000001a0: 737f f23c f5f6 1ebc 7c70 fabc 25ee 8bbc
000001b0: 916a 60bd a540 07bc 6430 273c f9ed 5bbd
000001c0: ece1 0cbd ff3d d3bb 9428 90bc eb59 6ebd
000001d0: 50f7 2abd f7d7 27bd 40cb 113d 4722 273c
000001e0: b2fa 0c3d f3af de3d 23f1 7b3d 34aa 953d
000001f0: ba69 813d 4f68 cd3d 5f64 573c d993 afbc
00000200: 7455 b2bc 7f26 8b3d c818 0cbc e422 b0bc
00000210: fdbe 0abc 481a 9fbd f4eb 01be 3a02 8d3c
00000220: 738b 46b9 0b40 bdbc b84f 973d ca9e 793d
00000230: 5a60 c33c f693 6e3d ef4a 9b3d 9f73 2b3d
00000240: c66a a23b f6a9 5b3c f199 2abd 8c71 53bd
00000250: a2c3 3c3c aa39 9eba cdf7 15bd 254b 2abd
00000260: e61c 533c faf5 0ebd 89a3 91ba 1946 af3c
00000270: 3a29 7abd 5ec8 16bd 8205 c7bc 9c0e 5cbd
00000280: f64e c9bd 05a6 7cbd fefb 003d 5c26 f0bb
00000290: ed11 1c3d 351c 863d 1680 153d 50c0 d2bc
000002a0: 5112 70bc 8c0f c43b 1262 3bbd 7afe f63c
000002b0: b3e1 143c ad35 453d 4b2e 003d 4cd8 853c
000002c0: b23b d6bb 8464 ef3c bd6a 553d 45c4 b63c
000002d0: 371f cabb 1fff 52bd 3510 75bd 1fcf b5bb
000002e0: 2e1c 933b b9b1 813d 93e3 653c 756f 913d
000002f0: 0350 8c3d 49cc 9abc fcaa 81bc 5d76 34bd
00000300: e4e3 2f3a 40b9 b53b 222b c13c 7cfa aabc
00000310: 3822 90bc a858 85bc 953d 87bc 31de 663c
00000320: 24e8 82bb f8e8 7e3c 56c3 973c 8ccb 103d
00000330: f124 11bd dbdc 47bd 08b1 403a bf68 f2bc
00000340: 9455 ac3c a6c1 ce3c 39df 593c a018 093c
00000350: 9b35 963b 6e55 9cbc 2f8c a43c e643 33bb
00000360: 2c34 d4ba 4768 50bb bc0b febc 21e2 893c
00000370: 2fdc b83c f0c2 d53c f478 1a3c 59cb 193d
00000380: 4f32 963d 5a1f 82bb 1de2 c2bc 21c2 73bd
00000390: 49d0 b53c b8bb 233c 2b2a 5bbd 3876 933c
000003a0: a255 a6bb d6de 89bd 0fb0 86bb 2ef0 5a3d
000003b0: 76ee ce3c d844 5abd 6765 b9bd 4cb2 bdbd
000003c0: 8d7b 20bc c7fe c7bd fcad edbd 7b83 4dbc
000003d0: 8e06 19bd 75ae 3cbc f444 02bd a21f ba3b
000003e0: cbe4 18bc b56a b3bc c07f 6cbd 5951 4bbd
000003f0: 6921 d33c a452 fe3c 7f5d e3bb 5e14 20bc
-0.029997656 0.006925824 -0.054492448 0.010729071 -0.023455964 -0.06634841 -0.018831482 0.0044614244
-0.006092765 0.06962134 0.0466078 0.02440959 0.030379238 -0.017456127 -0.010176736 0.0029194003
-0.06533821 -0.038282137 0.013926053 -0.030716667 0.002504081 -0.057056565 -0.058768015 0.009449573
-0.06743438 -0.030781979 -0.009075748 0.007152172 0.06042826 0.10848053 0.04730237 0.0639571
0.10968125 -0.02880912 0.003058073 -0.04982953 -0.063751854 -0.07464984 -0.057364218 -0.06968701
-0.05348424 -0.057696544 -0.020430535 0.080217995 0.02054609 0.0277986 0.029023604 -0.081481494
-0.011084091 0.050791137 -0.03444998 0.0053769997 0.013031646 -0.039444886 0.027283316 -0.044607356
-0.061828833 -0.011624783 -0.068904474 -0.03444295 0.047771122 -0.045292526 -0.043093424 0.016903494
0.04113965 -0.026249576 -0.0351752 0.022469018 -0.0052414495 -0.021146817 -0.052374993 -0.026674977
-0.08886986 -0.08187122 -0.015807733 -0.023730887 0.0049376553 -0.018254966 -0.024361873 0.02360694
-0.02937509 -0.10059826 -0.09889535 -0.0050590965 -0.0779687 -0.08554989 -0.02788871 -0.011397633
-0.059820395 -0.04762228 -0.013649191 -0.010799389 -0.05377145 0.021797875 0.016719168 -0.06276094
-0.017868813 -0.027589016 -0.060131382 -0.044296667 -0.04618458 -0.04902592 -0.013115672 0.00035171362
0.029601788 -0.009702434 -0.030571215 -0.01708133 -0.05478913 -0.008255159 0.010204408 -0.053693745
-0.034395143 -0.0064465995 -0.017597474 -0.05819122 -0.04173976 -0.040977444 0.035594225 0.010201043
0.03441877 0.108734034 0.061509263 0.07307854 0.06318994 0.10029661 0.013146489 -0.021432804
-0.021769263 0.06794452 -0.00855083 -0.021501012 -0.008468387 -0.077686846 -0.12687665 0.017212976
-0.000189347 -0.023101827 0.07388252 0.06094245 0.023849655 0.058246575 0.07582652 0.04185831
0.004956576 0.013407221 -0.041650716 -0.05162196 0.011521252 -0.0012071629 -0.036613274 -0.04157557
0.012885308 -0.03490255 -0.0011111359 0.02139573 -0.061074473 -0.03681218 -0.024294619 -0.05372487
-0.09829514 -0.061681766 0.03149032 -0.0073287915 0.038103033 0.06548349 0.036499105 -0.025726467
-0.0146528045 0.0059832986 -0.045747824 0.03015064 0.009087014 0.048146892 0.03129415 0.01633849
-0.006537878 0.029222734 0.052103747 0.022310385 -0.006168272 -0.051512834 -0.05982991 -0.0055483724
0.0044894433 0.06332726 0.014031309 0.07101337 0.068511985 -0.018896239 -0.015828602 -0.044058193
0.00067096786 0.005545765 0.023580138 -0.020871393 -0.017594442 -0.016277626 -0.016508857 0.0140910605
-0.0039949585 0.015558474 0.01852576 0.035350367 -0.03543562 -0.04879461 0.00073505985 -0.029590962
0.0210369 0.025238823 0.013297849 0.008367687 0.004584027 -0.019083705 0.020086376 -0.0027353703
-0.0016189865 -0.0031800435 -0.031011455 0.01683146 0.02256593 0.02609393 0.009428252 0.037547443
0.07333814 -0.0039710226 -0.02378946 -0.059511308 0.022194045 0.009993486 -0.05350701 0.018000707
-0.005076126 -0.06731956 -0.0041103433 0.05345171 0.025260191 -0.05328831 -0.09052544 -0.09262523
-0.009795082 -0.09765392 -0.116054505 -0.012543554 -0.037359767 -0.011516203 -0.03180404 0.0056800405
-0.009331892 -0.021901468 -0.05773902 -0.049638126 0.025772767 0.031045265 -0.006938636 -0.009770481

unet_model.decoder.1.0.main.bias f4 [32]
00000000: b5de b8bb 749a eb3c fe3c 973b 2883 9cbc
00000010: dd53 273d 17b9 c13b 909b 993c c4dd 1c3c
00000020: 7f7a f6bc 3faf 243d 2ef4 febc ce97 a3bc
00000030: 66ba 813c 8031 67bc bffa 783b e2eb b53a
00000040: 4878 68bd e336 35bc e999 263c 785a 14bc
00000050: ab4d 5e3b 6cd6 9aba 76e0 bfbc 47d1 17bb
00000060: 0506 54bc b1c9 f1bb e637 2ebc b07b a938
00000070: 5718 89bd a5df 4dbc fc02 2dbe 3a43 12bd
-0.005641783 0.028760172 0.004615425 -0.019105509 0.040851463 0.005911957 0.018750936 0.009574357
-0.030087708 0.04020619 -0.031122293 -0.019969847 0.015835952 -0.014110923 0.0037991253 0.0013879503
-0.056755334 -0.011060449 0.010168531 -0.009054773 0.0033920805 -0.001181317 -0.023422461 -0.002316551
-0.012940888 -0.00737878 -0.010633444 8.0815866e-05 -0.066940956 -0.012565528 -0.1689567 -0.035708643

unet_model.decoder.2.0.main.weight f4 [32, 64, 3, 3]
00000000: eee4 b73d 065c 6c3d 77c1 b53c 72ea a93d
00000010: 79a5 f23d 82a4 b43d 231e 193e b890 393e
00000020: 9a09 ca3d 1cda 4d3d 1955 1f3d ee5e febb
00000030: 9b18 2dbd 88d5 a4bd d49d 7fbd a6b9 fcbb
00000040: 117a a0bd b185 c8bd b8a8 2c3d 20de 2d3d
00000050: 7850 e73d cd8b 88bc d539 ad3c f23d 553d
00000060: 18cf 4fbc 1cb8 f93a be87 483c 7949 55bd
00000070: b26e e73c a22e a1bb b534 e6bd 818a edbd
00000080: bab4 1e3a 7d6f 95bd 8776 b6bd 48da c0bd
00000090: cb20 9bbd 846c 08be b345 84bd 7b61 80bd
000000a0: 0074 aebd 9eaa 9bbd af8d 923d 93ad 863b
000000b0: 754c f7bc 681a 823c eea2 3fbd ccfc c33c
000000c0: b127 543c 5916 7c3c d09f ab3c 312b 2f3d
000000d0: 5e92 6d3d 7acd 01bd 7b65 29bd 3b31 36bb
000000e0: 386a 88bd 915d 49bd f60e 06bc 3718 fcbc
000000f0: 022c 77bd 35a0 3ebd 22fd 2dbc a5fa c1bc
00000100: 4d9c efbc b7e5 d13c 348a 8fbd 8dfb aebd
00000110: 17ca 463d 96a8 4cbd 5cdd 1fbd f89e 153c
00000120: 6aaf 5fbc cb3f 3ebc 5b7a ccbc 0d1a 11bd
00000130: 9eed 1dbd 4333 32bc 8bd5 f2bc 3574 20bc
00000140: 19f2 cd3c bb2e 983d 14b7 7c3d 5231 843d
00000150: 3dff fb3d a1a9 e53d 961c 903d c0bb 413b
00000160: 450e 813d 06a4 b83d 5b4c 52bd b073 c3bc
00000170: 9cfb 2e3d 2c38 13be ba27 13bd a04a 1ebd
00000180: 6651 bebd fe2a a6bd 8079 4dbd 37a9 183d
00000190: 65f2 923d b105 d03c 3d1d 203d b072 a93d
000001a0: cb72 af3c 668a fe3b 920a 0c3d 32ac 9abc
000001b0: ca72 e83d 4b90 d93d 709d 893d a64c 833d
000001c0: 43de 6a3d 2d21 223d 5925 b43c 71b7 c63d
000001d0: f9a0 433d 6be5 1c3e 6e7a 4d3e 7dbc 2e3e
000001e0: a1bb 1d3e f8f1 293e 31ed fb3d c305 9c3d
000001f0: b2d5 f13d 5005 063e 593f df3c db4c 2b3d
00000200: 84eb b13c 21a0 78bc 9ddf 063c 754b 233d
00000210: 085f bc3c d1a2 8d3c dff6 8a3d e0a4 7bbd
00000220: 3f8c f33b 387e d3bc 6bff b43b 71b6 1a3c
00000230: 266b 06bd 1614 cc3b 2256 80bc 7429 f8bc
00000240: 9cf0 c2bc c3ec be3c 9a1a cf3c 6f0a bf3c
00000250: 2c97 bc3d 9a99 a43c 170c a8bd 10b6 40bd
00000260: 6d5d 8cbd a6af e4bd aaa1 08be 6798 03bd
00000270: a95f e2bd 6f38 c2bd 7d44 c2bd 8649 1fbd
00000280: ea60 0ebd da07 cabc 0fec a43b d146 413d
00000290: b721 a53d fe0a f3bc 9646 d03c c38d 1dbc
000002a0: 16db 213c 6a74 54bc d641 f63c 0cfd a0bd
000002b0: dded b2bd b89d d1bd 5a56 54bd 524e 19be
000002c0: c087 a9bd 5f48 c4bd f620 a6bd f5fb b8bd
000002d0: de92 b33d c8cd a53d 1c19 0c3d bd7f f03d
000002e0: f43a c43d 3df9 c53c fe97 233d b849 1d3c
000002f0: 1162 1bbb 5f65 1abd 6650 2abd 4fba 60bd
00000300: 1366 b8bd fb4e efbd 8202 aabd 1c79 babd
00000310: b93d 7cbd 7a8a d7bd 47f0 993d a3f4 383d
00000320: dcba f9bc 3012 ad3c afd1 103d a4e7 613c
00000330: e732 57bd 5f48 203a 49b5 313d 4290 f03c
00000340: a7ff c63b 6e65 4b3d 7c1a 1f3d 08f8 e23c
00000350: 3a8c 263d af52 3d3b 6008 8c3c 3d9f de3c
00000360: 241b 01be 7d18 cabd ce66 9dbd ca87 9dbd
00000370: 0b83 0dbe eac2 cfbd 1741 513c 4f29 bebc
00000380: 8e40 d2bc fa81 963d 5711 863d ec92 993d
00000390: 1662 8e3d d800 413d 0396 e13d a747 473d
000003a0: da7c 0e3d ff1b 113e abf9 8c3c 9ae7 d73c
000003b0: a943 453d bdc5 843d e521 993d 1a6e 973d
000003c0: d29d d0bc 5425 acbc c897 0fbd fab4 eabd
000003d0: 3d15 fbbd 5b31 14be f483 6cbd a67d dcbd
000003e0: 5d8d d2bd 6e97 70bd 4543 8bbd 280d 71bd
000003f0: 9a31 95bd b872 08bc 447a 8fbd f3cc cbbc
0.08979212 0.057704948 0.022186978 0.0829667 0.11847968 0.0882044 0.14952902 0.18121612
0.098651126 0.050256833 0.038899515 -0.0077627813 -0.042259794 -0.0804854 -0.062406376 -0.0077125607
-0.07835782 -0.097911246 0.04215309 0.042448163 0.11294645 -0.016668225 0.02114574 0.05206103
-0.012683652 0.0019052061 0.012239395 -0.052072022 0.028251026 -0.004918889 -0.11240522 -0.11598683
0.0006054152 -0.07296655 -0.08909326 -0.09416634 -0.07574614 -0.13322645 -0.064586066 -0.06268593
-0.08518219 -0.07600902 0.0715593 0.004110047 -0.030187825 0.015881732 -0.04678624 0.023924254
0.012948916 0.0153861875 0.020950228 0.0427658 0.058000915 -0.0316901 -0.041356545 -0.002780034
-0.066608846 -0.049161498 -0.008182278 -0.030773265 -0.060344703 -0.046539504 -0.010619434 -0.023679087
-0.029249335 0.025622232 -0.07008782 -0.08544073 0.04853257 -0.049965464 -0.039029464 0.009132139
-0.013652662 -0.011611889 -0.024960687 -0.035425235 -0.038556688 -0.01087648 -0.02964284 -0.009793331
0.025139855 0.07430788 0.061698034 0.064547196 0.12304542 0.11213995 0.07036702 0.002956137
0.0630155 0.0901566 -0.05134235 -0.023858875 0.042720422 -0.14376897 -0.035926558 -0.038645387
-0.09292869 -0.08113669 -0.0501647 0.03727075 0.07175139 0.025393339 0.039090384 0.08273828
0.021417042 0.007767963 0.034189768 -0.018880937 0.11350019 0.10623225 0.06719482 0.06411104
0.05734087 0.03958242 0.021990465 0.097029574 0.047760937 0.15321891 0.20066234 0.1706409
0.15403606 0.1659621 0.123011 0.076182865 0.11808337 0.13087964 0.027251886 0.041821342
0.021718748 -0.015174896 0.0082320245 0.039866883 0.022994533 0.017289551 0.06785368 -0.061436534
0.00743249 -0.025817022 0.0055236123 0.0094429115 -0.03281703 0.0062279804 -0.015666071 -0.030293204
-0.023796372 0.023306256 0.02528124 0.023320405 0.09208521 0.020092774 -0.08205431 -0.04704863
-0.06853757 -0.11166315 -0.1334292 -0.032127764 -0.11053402 -0.0948342 -0.09485719 -0.038888477
-0.034760393 -0.024661947 0.005033023 0.047186676 0.08063071 -0.029668327 0.025424283 -0.009616318
0.009878894 -0.012967208 0.03006069 -0.07860765 -0.08736775 -0.102351606 -0.051840164 -0.14971283
-0.082778454 -0.09584116 -0.081117555 -0.09032432 0.08768247 0.0809589 0.034203634 0.11743114
0.09581557 0.024166698 0.039939873 0.009600095 -0.0023709575 -0.03769433 -0.04158058 -0.054865178
-0.09003844 -0.11684986 -0.083012596 -0.09105131 -0.0615823 -0.10524459 0.075165324 0.04515518
-0.03048461 0.021126837 0.03535622 0.013788138 -0.05253878 0.00061143 0.043385778 0.029365662
0.0060729566 0.049657278 0.038843617 0.027706161 0.040661074 0.0028888395 0.017093837 0.02717554
-0.1260801 -0.09867952 -0.07685624 -0.07691915 -0.1381952 -0.10144599 0.012771866 -0.023213057
-0.025665548 0.0734901 0.06546276 0.07498726 0.06952302 0.047119945 0.110149406 0.048652317
0.034787036 0.14170836 0.017208895 0.026355553 0.04816023 0.06483028 0.07477168 0.07394047
-0.02546588 -0.021013893 -0.03505686 -0.114603 -0.1225991 -0.14471953 -0.057743028 -0.10766153
-0.10280869 -0.058738165 -0.0679994 -0.058850437 -0.07284851 -0.008328132 -0.07005742 -0.024878

unet_model.decoder.2.0.main.bias f4 [32]
00000000: 797f a03b f852 0f3c e690 15bd 7719 8e3d
00000010: 4e21 c53c 73a2 b7bb 8ca6 ce3c 8a26 853d
00000020: 89bb 6f3d 8827 f1bb 61e4 353d 3323 033d
00000030: 29eb 643c c138 99bc 1c9c bcbc 59ce b93c
00000040: ede0 a7bc 470d 77bc 3822 013d caca 9f3c
00000050: da73 83bc 4014 52b9 4998 f53c 2015 c9bc
00000060: 6662 da3a d2a1 763c 16ad 843c 7640 38bc
00000070: faca cb3c c615 703c 3ece 07bc 5427 ccbb
0.0048980084 0.008747809 -0.03651514 0.06938451 0.024063732 -0.0056040823 0.0252259 0.06501491
0.058528457 -0.007359449 0.044407252 0.03201599 0.013972082 -0.01870382 -0.023023658 0.022681402
-0.020492995 -0.015078849 0.031526774 0.019505877 -0.016046453 -0.00020034704 0.029979842 -0.024546206
0.0016661405 0.015053229 0.016195815 -0.011245837 0.02487706 0.014653629 -0.008288918 -0.006230274

unet_model.remaining.0.main.weight f4 [32, 64, 3, 3]
00000000: 0238 62bc 83b7 8e3d 974f 113d ac2d c3bc
00000010: 7d39 16bd 8a78 e13c ac80 babc a612 15be
00000020: 15d8 af3d 5f5b 993c 697a 963d b63f e5bc
00000030: 0e5f e9bc dd4e a13c dae9 adbc 31c6 843d
00000040: 3b09 33bd 3993 9dbc 896e a83d 4545 f5bc
00000050: 2ba1 833d e7e0 f93c 22e1 82bd 98d7 fcbb
00000060: a7b9 5a3d c625 823d ba88 d83d 0dad df3d
00000070: 6bfc 29bb 3779 2f3e cae1 9fbd 78a0 a63a
00000080: dcea 283d 4934 a53b e02f 003d 95d8 9e3d
00000090: d808 09be 3178 1fbd 5322 f3bd 809d 8f3a
000000a0: 02aa 963b 383f ab3d 88c4 0abe ab7f 36be
000000b0: a17b 1d3d 53bf b83d 7857 983d b888 a83d
000000c0: eec6 cc3d 0c9c cb3d 711e 953d 385a faba
000000d0: 8966 ccbd 2724 97bc 1e1a 163d 1ec4 a7bc
000000e0: 558e cf3d cddd 0a3d 8650 3f3c 16bc 793c
000000f0: 90a8 463e 2f51 6c3e ac25 443e d1be 41bb
00000100: 7a46 99bd df43 c4bd 7705 9bbd 7d3a 35bd
00000110: a442 ecbd 237f 0dbd fe2d 893c b79b 913d
00000120: c0eb 643d f491 913c d6c6 033e b423 473d
00000130: 666a ffbd 61b1 83bc deca a13d 6138 d7bd
00000140: fda4 98be abbb 68bc 72ff cfbc c77d 9dbd
00000150: 6c9a 15bd 789d a73c f3ce a2bd da71 803d
00000160: 817e c93c d4e8 0e3d f565 113c a209 683d
00000170: c898 2e3e 80f5 f63d 066a 92bc 46d3 b43d
00000180: 1cd6 b83d a9f6 523d 2e1b 8d3d fecc cebc
00000190: 6737 a7bc 1d54 9bbd c3ec 1dbd b4a3 3fbd
000001a0: cd9a 11bd f537 38bb 0085 c8ba aca3 5ebb
000001b0: a350 84bd b283 273c b78a b1be a566 d83d
000001c0: f246 e23d d241 fdbd 2247 39be 72c5 20be
000001d0: ab9b 1d3d df0f 253d 14e3 043c e00a 4f3d
000001e0: ef65 5abd 3d54 b5bc 9f6a e93c 067c ec3d
000001f0: 107c 1c3e 2e36 893d 14ed aebb b73a d23c
00000200: 1109 82bc f096 b13d 601d b53d dbad d33d
00000210: f356 103e 0ee9 593e 4702 eb3d 6352 af3d
00000220: 6f9a 893d 9794 853d 098f cdbc eb4f c33d
00000230: a94a 243d 7d7e 5bbe e71b 12be 3abb 0abe
00000240: 1441 ad3d 2b16 2f3d 924b 04bc c0e8 a0bc
00000250: cfda b1bc aeac 0bbc 5329 e4bc 5f9b 6dbd
00000260: 77cd 3dbd b076 3abc 97f9 693d 2c71 38bc
00000270: b11f 76bd 2d28 013d 61e5 c4bd e242 52be
00000280: 8ab5 15be 66f7 34be 502b 493d 8fe2 aa3d
00000290: df40 ce3c 670c 353e 4851 183e 80ef e23d
000002a0: 3215 d83d b0f3 203e b418 743e 1a3d 403d
000002b0: a32d 1abd 9b2d 263d d2fd 9f3d a20b 853d
000002c0: 5552 a93d 6144 a23d 4a6f 123e bb8d 553c
000002d0: 98d6 28bd b17b c5bd eba9 ffbc 359b b6bd
000002e0: 748e 39bd e002 a0bd 6db3 c93b fc84 603d
000002f0: a423 8b3c e0b0 83bd 9e20 3fbc a05e 79bd
00000300: abbf 39bd 0902 0d3c de78 ca3d faed 6b3d
00000310: 365f 69bd 05cc 693d cd80 d0bd b5d3 bfbc
00000320: 74a3 f4bd c958 5abd ba67 78bb ea9a abbd
00000330: b618 e0bd 7356 ccbd ed1d 4fbe ffbf 3a3c
00000340: 360f a83d 69b8 1abd 5576 473d 03c7 ba3b
00000350: b608 06bd 4020 5abd 9194 2ebd 1dbc e9bd
00000360: 1c85 e33d 8b99 483d 71c6 863d 9c1f 0d3c
00000370: cf27 b1bd 8c57 483c 6ebf 883c 2f4b 6fbd
00000380: 8a64 95bd 5878 2b3b ac58 173d fd01 8abd
00000390: 77f9 6d3d b270 cd3d 3264 c33c 3315 5cbd
000003a0: 1e8c edbd 0af6 27be aec0 293c 2acb 89bd
000003b0: 3cf9 cfbc 17a9 79bd d887 a3bd bdb7 a5bd
000003c0: eb33 4ebd 2825 a1bd 25b4 80bd 3594 3d3d
000003d0: 63c9 82bc db32 643d 1cdc 56bb eae6 dbbc
000003e0: fc35 13bd be19 173e 0015 923d e386 c7bb
000003f0: dbd9 89bd cb52 afbb f267 aabc 2fcf a2bd
-0.013807299 0.06968596 0.035476293 -0.023825489 -0.03667592 0.027523298 -0.022766434 -0.14557895
0.08586136 0.018720327 0.07347567 -0.027984481 -0.028487708 0.019690925 -0.021229673 0.064831145
-0.043709975 -0.01923524 0.08224208 -0.029940257 0.06427225 0.03050275 -0.06390597 -0.0077161305
0.053399708 0.06354861 0.105729535 0.10921679 -0.0025937806 0.17136084 -0.07806738 0.0012712618
0.041239604 0.0050416333 0.031295657 0.077561535 -0.1338228 -0.038932983 -0.11871781 0.0010956973
0.004597903 0.083616674 -0.13551533 -0.17822139 0.03844798 0.09020867 0.07438558 0.08229202
0.0999888 0.09941873 0.07281197 -0.0019100374 -0.099804945 -0.018449856 0.036646 -0.020479258
0.101345696 0.033902932 0.011676913 0.015242597 0.19400239 0.23077844 0.19154996 -0.0029563198
-0.074841455 -0.09583258 -0.07569402 -0.044245232 -0.11536148 -0.034545075 0.016745564 0.071097784
0.05588889 0.017769791 0.12868819 0.048618034 -0.12471466 -0.016075792 0.07900022 -0.105088
-0.29813376 -0.0142049 -0.02539036 -0.07690006 -0.03652422 0.02046083 -0.07949629 0.062717155
0.024596455 0.03489001 0.008874406 0.05664981 0.17050469 0.12058544 -0.017872822 0.0882936
0.09025213 0.051504765 0.0688995 -0.025244232 -0.02041216 -0.07584403 -0.03855587 -0.04678698
-0.03554802 -0.0028109525 -0.0015298426 -0.0033972068 -0.06460693 0.01022427 -0.34676144 0.10566453
0.11048688 -0.1236607 -0.18093541 -0.1570032 0.038478535 0.04029834 0.00811078 0.05054748
-0.053319868 -0.022134895 0.028493224 0.11547093 0.15281701 0.06699787 -0.0053383205 0.025662763
-0.015873464 0.08671367 0.088434935 0.10335895 0.14095668 0.2128031 0.11475044 0.08560636
0.06718909 0.06522482 -0.025092619 0.095367275 0.040110264 -0.2143497 -0.14268456 -0.13547984
0.08459678 0.04274575 -0.008074658 -0.019642234 -0.021710781 -0.008525057 -0.027851736 -0.0580095
-0.046338525 -0.011380836 0.057122793 -0.011257451 -0.060088817 0.031532455 -0.09614063 -0.20533326
-0.14620033 -0.176725 0.04911357 0.08343994 0.025177417 0.17680512 0.14874756 0.11080837
0.10550918 0.1571796 0.23837548 0.04693327 -0.03764118 0.040570837 0.07812084 0.064963594
0.08267657 0.079231985 0.14300266 0.013034279 -0.041220278 -0.09642733 -0.031208953 -0.08916322
-0.04530187 -0.07813048 0.0061554224 0.054814324 0.016984768 -0.064302206 -0.011665491 -0.060881257
-0.045348804 0.008606442 0.09886335 0.0576 -0.056975566 0.057079334 -0.10180817 -0.02341638
-0.11945239 -0.05330733 -0.0037903623 -0.08379157 -0.10942213 -0.099774264 -0.2022626 0.0113983145
0.08206026 -0.037773523 0.048696835 0.0056999936 -0.03272315 -0.053253412 -0.042622153 -0.11412833
0.11109373 0.048974555 0.065808184 0.008613493 -0.08650171 0.012227904 0.016692843 -0.05842131
-0.07294567 0.002616426 0.0369498 -0.067386605 0.058099236 0.100312606 0.023851488 -0.053731155
-0.11598991 -0.1640245 0.01036088 -0.067282036 -0.025387399 -0.060952272 -0.079848945 -0.08091686
-0.05034248 -0.07868415 -0.0628436 0.04628392 -0.01596517 0.055712562 -0.0032785004 -0.026843507
-0.035940155 0.14755914 0.07132912 -0.006089078 -0.06731006 -0.005350446 -0.020801518 -0.079496734

unet_model.remaining.0.main.bias f4 [32]
00000000: b8d3 4c3d eadb be3b c36d 23bb b4ae 8f3d
00000010: 9a70 e53c a7d8 ad3d def5 4d3d 6b4a 373d
00000020: c515 d43d cbc9 573d d20b 6aba 386a 943d
00000030: 6825 043d 9a3c 8b3d e532 153b 0161 0c3c
00000040: b271 3e3d 2c3d a63d 83e6 35bc 27ed 0ebc
00000050: e3b3 033d 4e35 693d 79f9 563d 0aa0 32bc
00000060: d79e 773d 823d 153d 2db4 053d f3ac 643d
00000070: ebfc 3e3c 78ee bb3c b96d cc3c 38fc 063d
0.0500066 0.0058245556 -0.002493725 0.07015744 0.028007794 0.08488589 0.050283305 0.044748705
0.10355715 0.05268268 -0.0008928153 0.07246822 0.032262236 0.06798668 0.0022765931 0.008568049
0.046495147 0.08117136 -0.011102322 -0.008723534 0.032153975 0.0569356 0.05248401 -0.010902414
0.060454216 0.03643561 0.032642532 0.055829 0.01165698 0.02294086 0.024954664 0.03295538
