2D_CMR_Registration/ModelParameters-CMRxRecon/Model_0_Diffeo_1_Loss_1_Chan_8_Smth_0.01_LR_0.0001_Mode_0_Pth/SSIM_0.912666_MSE_0.000470_Epoch_0055.pth (torch, 316934 bytes, 27 tensors)

model.eninput.0.weight f4 [8, 2, 3, 3]
000000 10 18 fd 3d 23 3c 40 3e c5 01 f3 3d b7 54 2e be
       0.12358105 0.1877294 0.11865572 -0.17024504
000010 5b dc 08 be 7d 2d 99 3e 65 54 42 3e 3e 58 d3 bd
       -0.13365309 0.29917517 0.18977506 -0.10319565
000020 02 ac 52 bd 66 91 38 3e 98 18 63 3c ec 9b 80 3c
       -0.05143357 0.18024215 0.013860844 0.01569935
000030 5a df a2 bd 44 6d ba bc bb d5 26 3e d3 db 40 3c
       -0.07952757 -0.02275718 0.16292469 0.01177116
000040 eb 3b c1 bd 9e 82 38 3d 4e d3 6e bd 7c 2e 7f 3d
       -0.094352566 0.04504644 -0.058306985 0.06230019
000050 dc bf 54 be 91 bb 1a 3e 84 c5 c4 3e 0b 28 b5 bc
       -0.20776314 0.15110613 0.38431942 -0.02211382
000060 e9 9f 84 bc a1 e1 85 bc bb fa 20 3e 83 16 d5 bd
       -0.016189532 -0.01634294 0.15720646 -0.104046844
000070 28 95 b6 3d fe 3e a4 be 3a da 3a 3e 9c 0c a7 3e
       0.08915168 -0.3207931 0.1824731 0.32626808
000080 d2 36 4a 3d ec e2 36 3d 19 40 b3 3d 50 68 f0 bd
       0.049368687 0.044650003 0.0875246 -0.11738646
000090 72 51 b5 bc f0 63 a7 bd 02 52 5f 3e bf 06 62 3d
       -0.022133563 -0.081733584 0.21808627 0.055182215
0000a0 26 15 e7 3b f8 47 f2 bd 48 78 b3 bd 5d 38 ce bc
       0.0070520816 -0.11830133 -0.08763176 -0.02517336
0000b0 0e 6b 84 3e ea ee 7c be 61 84 1d be da 90 0d 3e
       0.25862926 -0.24700513 -0.1538253 0.13824788
0000c0 9b 83 dd be f2 a7 cc bd 4a 25 f7 3d ba 7c af bd
       -0.4326447 -0.099929705 0.12067659 -0.085687116
0000d0 16 e4 54 3e 9a f5 8b 3e 32 da fe 3c dc 02 da 3d
       0.20790133 0.27335817 0.031109903 0.10645077
0000e0 b2 24 ec bd 53 fc bd 3e e9 1d ad 3e 38 59 c3 bd
       -0.115304366 0.3710657 0.33811882 -0.095385015
0000f0 5d 51 32 3e a4 a5 bd 3d 84 4a 4e 3e 9c 00 46 be
       0.1741385 0.09260109 0.20145613 -0.1933617
000100 4a 44 73 3d c1 26 11 be 13 09 6d be 20 79 63 3d
       0.059391297 -0.1417494 -0.23147993 0.055535436
000110 de ee 7b 3c b3 6e 8c be ff 32 6a be e4 43 8e bd
       0.015376775 -0.27428207 -0.22871016 -0.06946543
000120 bc 9f 9a bd 5b f3 72 be 06 ea 16 be c6 e2 29 be
       -0.07549998 -0.23725645 -0.1473771 -0.16590413
000130 84 4d 9e bd 11 b2 39 3e bf e0 e2 bd 4e 26 73 3e
       -0.07729629 0.18134333 -0.11078023 0.23745081
000140 d2 2b 9d 3e 5a cb 38 3d 03 00 9e bc 4c 17 8c bb
       0.30697495 0.045115806 -0.019287115 -0.004275238
000150 90 bb 8d bd 0d a0 f2 3c 9e ec 6b 3d 2d b7 94 3c
       -0.0692054 0.029617334 0.057598703 0.018153751
000160 d3 ec ff 3c a0 a2 4d 3c c6 75 c4 3c 45 24 86 3e
       0.031240856 0.01255098 0.02398194 0.26199546
000170 ae 65 15 3d 60 8b 8f 3e fe fb a7 3d 7f bb d8 bc
       0.036473922 0.28036022 0.082023606 -0.026456593
000180 ff 16 88 3e d4 81 32 bc dd 67 83 3d d4 a1 04 3d
       0.26580045 -0.010895211 0.06416295 0.032380894
000190 68 be 26 3c 73 63 64 bd 8f db b0 be c1 f6 e2 be
       0.010177232 -0.055758905 -0.3454251 -0.44328883
0001a0 7a 55 6e 3d 45 94 8b 3d 78 c4 35 be 90 21 e2 bd
       0.058186986 0.068153895 -0.17750728 -0.11041558
0001b0 43 fa 38 be 5a c8 6e 3e 4f 1e b8 3e 33 0b 40 be
       -0.18064217 0.23318616 0.35960624 -0.18754272
0001c0 24 6d 55 3e 3b 10 73 3d 39 15 7f be d1 bf 05 be
       0.20842415 0.05934165 -0.2491044 -0.13061453
0001d0 2b a6 a4 3e da 33 fe bd e4 18 8f 3c 6c 02 f1 3d
       0.32158026 -0.12412234 0.017467923 0.1176804
0001e0 b9 5b 9f 3b e7 ef 32 3e 07 82 17 be d9 82 14 be
       0.004863229 0.17474328 -0.14795695 -0.1450304
0001f0 e2 5a 50 be 21 34 2e 3e b8 23 93 3e d9 31 71 3e
       -0.20347169 0.17012073 0.2873819 0.23554172
000200 ad 13 4a be 59 1b 09 3f 03 fb c9 3e 75 d7 45 be
       -0.19734068 0.53557354 0.3944932 -0.19320472
000210 fa 15 0a 3e 04 bc 52 be 87 e8 82 be 37 ef 8c bc
       0.13484946 -0.20579535 -0.2556803 -0.01720391
000220 be d6 cb bd 5f eb dd 3c 39 00 a0 3c 16 1f 00 be
       -0.09953068 0.027089773 0.019531356 -0.12511858
000230 4e 7b 34 3d 38 14 9d 3b 5c a2 b1 bd 54 6f 4d bd
       0.044062905 0.00479367 -0.08673546 -0.050155

model.eninput.0.bias f4 [8]
000000 8a 55 4b be 28 9e 79 bd b3 49 fc 3c 55 fc d5 3b
       -0.1985685 -0.060941845 0.030796861 0.0065303245
000010 cb 29 fc bc 00 f5 b2 3d 25 f8 4c 3a 97 7f 49 3b
       -0.030781647 0.08738136 0.0007818959 0.0030746215

model.ec1.0.weight f4 [8, 8, 3, 3]
000000 4e 21 e4 bd 2a 5b b8 bd 8a 32 36 3e a9 f9 9c 3d
       -0.11139165 -0.09001763 0.17792717 0.076648064
000010 42 e4 7b bd a4 3f 8d bd 1a 78 c1 3b bc 33 0d bd
       -0.06149698 -0.06896904 0.00590421 -0.034473166
000020 a5 1d 19 be 84 fe 0e bd 2b 53 3b bd 8e ed f1 3c
       -0.14952715 -0.034910694 -0.045733612 0.02953222
000030 6a 90 b1 3d 9d ca 27 bb df 9b 9b 3d 58 da 8c 3c
       0.08670123 -0.0025602945 0.075980894 0.017193958
000040 10 e9 81 3d bb af ab bc 09 47 ad bc 0c 9e a5 bd
       0.06343281 -0.020957818 -0.021152036 -0.08086786
000050 77 22 80 3b 42 da f2 3c 3d d6 02 bc 63 d4 81 3b
       0.0039103585 0.029645089 -0.007985649 0.003962086
000060 ee bd 29 3c 04 07 15 bd 79 93 08 bb 98 91 ef bb
       0.010360224 -0.036383644 -0.0020839854 -0.0073110573
000070 55 1f c8 3d 4c 8c fa bd 8d b2 f4 3d 31 c0 f9 3e
       0.09771601 -0.12233791 0.11948118 0.48779443
000080 b0 7f d9 3d 45 fa b9 bc df 11 9a bc 86 70 eb bd
       0.106200576 -0.022702346 -0.01880735 -0.114960715
000090 61 9a bf bc d3 c2 96 3d bb 29 03 be 41 58 ee 3d
       -0.023389043 0.073613785 -0.12808888 0.11637927
0000a0 6a 6c 4c 3e 4f a6 f9 3d 36 b6 43 bd 34 ad f0 bd
       0.19963232 0.12189924 -0.04778119 -0.11751786
0000b0 96 e6 54 bd b8 1c ff bd 27 97 9e 3d 41 15 b5 bc
       -0.051977716 -0.124566495 0.07743674 -0.022104861
0000c0 0e 94 06 3e 18 80 86 3e d3 9e 41 3e 84 da 0b be
       0.13142416 0.26269603 0.18908243 -0.13657576
0000d0 ad 48 a6 3d dd 4a 2c be 23 67 ae bb 96 7b 95 bb
       0.081193306 -0.16825433 -0.0053223534 -0.0045618517
0000e0 ea 34 cf bc 39 14 ee 3d 0a 76 95 3d 41 1b 37 3d
       -0.025293786 0.11624951 0.07297905 0.044703726
0000f0 f5 ba 4e 3d 19 d5 69 3e 12 6d 2f bd 8e a6 3d bd
       0.050471265 0.22835197 -0.042828627 -0.046301417
000100 fd 92 64 3b 53 8a 93 bd 2d 20 09 3d 13 5d 90 3e
       0.003487765 -0.072041176 0.03347795 0.2819601
000110 2a cc 13 3e 3f 45 a8 3c 76 b7 1a 3e da 0d 8d bd
       0.14433351 0.020540832 0.15109047 -0.068874076
000120 ba 78 83 3d 2d 37 29 be 90 0e 79 be 7a 1e fb 3e
       0.06419511 -0.16524954 -0.24321961 0.4904669
000130 df f2 42 3d 04 08 70 be 2a 81 a8 3e e7 9f 60 3d
       0.0475949 -0.23440558 0.32911044 0.054839995
000140 4a f8 df be d9 51 da 3d 7a cd 3d be 90 37 32 be
       -0.43744117 0.106601425 -0.18535414 -0.17404008
000150 2c c4 85 3e 23 1d 7e 3d 7a 94 b1 bd 53 1b 01 3e
       0.2612623 0.062039506 -0.08670898 0.1260808
000160 9c 7d 01 be 3a 38 d1 bd 8b 2d 19 3d b2 64 ab bd
       -0.12645572 -0.102158025 0.03739695 -0.083688155
000170 c8 1f 96 be 83 0a fc 3d 87 3b 2d 3b fc 51 80 be
       -0.29321122 0.123066925 0.0026433186 -0.2506255
000180 67 25 03 be fe ea af bd 9a 2f 3d be 36 1d 24 3d
       -0.12807237 -0.08589743 -0.1847519 0.04006692
000190 3c 01 a3 3d a7 60 a9 bd e5 0c 5b bc bc 35 55 3e
       0.0795922 -0.08270388 -0.0133697735 0.2082128
0001a0 7d af 1e 3d b7 23 32 be a3 73 d2 bc a9 df 01 bd
       0.038741577 -0.17396437 -0.025689906 -0.03170744
0001b0 14 d0 80 3e f1 82 27 3e 79 d7 d4 bd d6 16 3a be
       0.2515875 0.16358544 -0.10392661 -0.18172774
0001c0 5d f7 82 3c 98 c4 ba bd 33 55 50 be 0d aa e2 3b
       0.015987093 -0.091195285 -0.20345001 0.0069172443
0001d0 d9 b9 c5 bd 19 86 bb be a2 27 1c be cb c8 9a 3d
       -0.09654588 -0.36625746 -0.15249494 0.075578295
0001e0 f6 db 37 3d a7 97 e9 3d 03 1d de 3d ed 12 3b be
       0.044887505 0.114058785 0.10845377 -0.18268938
0001f0 e6 6f d1 3d 28 98 4c 3d 35 83 6a bd 1e c2 dc 3d
       0.10226421 0.049949795 -0.057254035 0.107792124
000200 f6 90 5f be e6 77 41 3e 24 31 aa 3d 93 44 bd be
       -0.21832642 0.18893394 0.08310154 -0.3696638
000210 6d e4 8d 3d 93 a7 25 bd 39 50 b6 be b6 a2 09 3e
       0.069283344 -0.040443014 -0.3560808 0.13440976
000220 24 3c c1 3d d4 f8 6e be cd aa c1 3e a1 06 84 3e
       0.09435299 -0.23337108 0.37825623 0.25786307
000230 43 ab 02 bd 77 17 78 3e 98 7f 49 bd cd 75 5f be
       -0.03190161 0.24227701 -0.04919395 -0.21822281
000240 68 fd c0 be 01 39 79 be 26 ef 98 3d e7 1a 86 be
       -0.37693334 -0.24338152 0.07467489 -0.261924
000250 85 4f 9c 3d 1f ed e6 3e bc 12 96 be 1c c9 99 3d
       0.07632355 0.45102784 -0.29311168 0.07509062
000260 67 04 d8 3e c8 18 87 be e0 93 f6 bc 0f d4 77 3d
       0.4219086 -0.26386094 -0.03009981 0.06050497
000270 0a 92 59 be 12 0d 7d ba df 1e 7e 3e e6 be 0a bd
       -0.21247116 -0.0009653132 0.24816464 -0.03387346
000280 cf 6e d1 3c 2f ed 80 3e 71 7d 21 bd be 94 e6 3d
       0.025565533 0.25180957 -0.03942627 0.11258839
000290 2a 23 85 3d 23 15 01 bb 63 48 53 3d d3 13 b4 3d
       0.06500848 -0.0019696436 0.051582705 0.08792844
0002a0 b4 9e 11 3e 7a d7 d2 3d 8c f4 65 bd 5f a8 d7 bc
       0.14220697 0.10295005 -0.05614142 -0.026325403
0002b0 3f 1a 82 3d 37 f3 7d 3c 3a dd 28 bd 36 4e 41 3e
       0.06352662 0.0154998815 -0.041226603 0.18877491
0002c0 ba 92 39 3d 43 32 11 bd 44 7b 37 3d aa 30 98 3d
       0.045305945 -0.035448324 0.04479529 0.07431157
0002d0 28 5a d2 be 99 0e 0a 3d db 78 a9 3d 25 36 1f be
       -0.4108441 0.033705328 0.082750045 -0.15547998
0002e0 9a 61 9b 3e 88 65 e0 3d 33 6e 01 3e df 19 fd 3d
       0.30347902 0.109568655 0.12639694 0.1235845
0002f0 16 91 10 bd 0d b0 3e 3d 69 ec c6 bd ac 5c 68 bd
       -0.035294615 0.046554614 -0.097130604 -0.056729004
000300 82 7c fc 3d 94 d5 c4 bd 15 74 61 be 16 a6 66 3d
       0.123284355 -0.09611049 -0.22016938 0.056310736
000310 dc 5a d0 bc 10 34 db bd 0f 80 2d be 6e b0 80 bc
       -0.02543395 -0.107032895 -0.16943382 -0.015709128
000320 fa 3e 00 3d b3 7c cf bd 11 10 ba bc d5 86 71 3e
       0.03131006 -0.10131206 -0.02271274 0.2358659
000330 58 dc 87 bb b0 0c 2a 3e bf b7 9b 3e 87 62 99 be
       -0.00414614 0.16606402 0.30413625 -0.29957983
000340 dc a2 8f 3c 45 48 d2 3c 97 8a 9b be 71 24 ff 3c
       0.017533712 0.025669226 -0.30379173 0.031145306
000350 02 08 4e 3e 0a 2e 6e be 8e 45 ce 3d 79 eb 4f 3e
       0.20120242 -0.2325975 0.1007186 0.2030467
000360 f8 35 cd 3c 57 42 e5 bd 84 8d f6 bd 7e f5 85 3e
       0.025050148 -0.11194294 -0.12038711 0.26163858
000370 53 c2 68 3e 3e fb 1b 3d 93 58 04 3d 0d dd e3 3b
       0.22730379 0.0380814 0.032311033 0.0069538415
000380 16 c9 84 bd 68 73 19 3e 58 93 56 3d fc 45 83 3d
       -0.064836666 0.1498543 0.05238661 0.06409833
000390 06 72 f5 3d d0 cc 80 3e 4e 52 57 3e 13 d5 e7 3b
       0.11984639 0.2515626 0.2102749 0.007074961
0003a0 42 25 ad 3d 60 aa 0d 3e 11 13 d1 3d f9 14 5f 3e
       0.08454372 0.13834524 0.10208715 0.21785344
0003b0 0e 2a 01 3e 39 3e 7d 3e 71 08 fd bd eb b2 27 be
       0.12613699 0.24730767 -0.12355126 -0.16376846
0003c0 42 34 9e 3d 6f 79 6a be ec 63 89 bd 43 be fa 3a
       0.07724811 -0.22897886 -0.06708512 0.0019130189
0003d0 71 6e 21 be a8 a5 71 bd 1c c9 b5 bd 96 1b 3f be
       -0.15764786 -0.058995873 -0.08876249 -0.18662867
0003e0 5d 3d 43 be ae 1e 5e 3d 49 95 47 3c 3b 12 06 3d
       -0.19066377 0.054228477 0.012181588 0.03273223
0003f0 c0 4a c5 bd 6f 34 81 bd 04 97 71 bd 71 ee 65 3d
       -0.09633398 -0.06308829 -0.05898191 0.0561356

model.ec1.0.bias f4 [8]
000000 56 27 1d 3d da 24 e0 b9 bc 83 3b 3d 82 c0 c9 3d
       0.03836759 -0.00042752066 0.04577993 0.09851171
000010 2b 40 c0 bb b5 3e 1d 3e a3 48 84 3d c9 a7 75 bd
       -0.0058670244 0.15355952 0.06459167 -0.059974466

model.ec2.0.weight f4 [16, 8, 3, 3]
000000 31 95 89 3d 1e 67 d6 3b d2 8b 14 bc 86 27 83 3c
       0.06717909 0.0065430542 -0.009066539 0.016010057
000010 c2 18 00 be e1 d0 6d 3e 48 91 c8 3c 28 a9 9e 3d
       -0.12509444 0.23224212 0.024483338 0.07747108
000020 4a 02 38 3d e6 b2 19 bd 94 12 8f bd 52 53 09 bd
       0.044924058 -0.037524126 -0.06985965 -0.033526726
000030 68 b3 00 bf 25 d9 36 3d a1 00 d3 3d 17 c0 39 bd
       -0.5027375 0.04464068 0.10302854 -0.045349207
000040 cb 0b 67 bd 51 0e ca 3d 24 51 bc bd 36 60 5f bc
       -0.05640773 0.09866012 -0.09195164 -0.013633778
000050 69 59 1d 3e 73 e8 d2 3c c7 a1 a8 3d bc e5 3a 3e
       0.15366139 0.025745606 0.082339816 0.18251699
000060 2e d9 6a 3d 6d 7c 08 bd a0 3a 91 3d a7 a8 0a be
       0.057336025 -0.033321787 0.0709126 -0.13540898
000070 48 21 d9 bd 71 e3 d3 3d ef 97 21 be 8b 89 74 bc
       -0.10602051 0.103461154 -0.15780614 -0.014925371
000080 49 83 fa 3d 8b 4c 15 bd b7 55 13 3e 12 6d 3b 3e
       0.12232072 -0.03644995 0.14388166 0.18303326
000090 4d 1f 59 be 44 54 8e 3d 5d 25 b3 3e 4f 77 4e bd
       -0.21203347 0.06949666 0.34989443 -0.05040675
0000a0 48 c3 d2 3d 6c cd ad 3e 62 30 ac bd f6 e1 8a bc
       0.10291153 0.33945787 -0.08407666 -0.01695345
0000b0 ad 02 35 3d d5 68 1f 3d 3a e9 b6 3d 4b 07 49 3d
       0.044192005 0.038918335 0.08931203 0.04907922
0000c0 34 e2 3f 3e a4 c9 93 bd 09 b1 a4 bd 66 b6 9e bd
       0.18738633 -0.07216194 -0.08041579 -0.077496335
0000d0 87 fe d1 bd 46 7b 84 bd fe 46 b4 3c 10 10 50 3c
       -0.10253625 -0.06468825 0.022006508 0.012699142
0000e0 ea 79 91 bc 42 ee c1 bd e1 54 49 be c3 d7 1f bc
       -0.017758328 -0.09469272 -0.19661285 -0.009756031
0000f0 c6 42 fe bc 49 94 35 be 59 1c 6e 3c d1 64 23 3e
       -0.0310377 -0.17732348 0.014533126 0.15956427
000100 04 c7 16 3d 9f 00 ca bd 22 f9 11 3e 3a 4e 42 3c
       0.03681089 -0.098634 0.14255193 0.011859471
000110 6d 11 2b 3d 32 93 0e 3d 77 ed 49 3d cd 6a 51 bd
       0.041764665 0.034808345 0.04929873 -0.051127244
000120 83 88 49 be aa 63 42 be 0d 75 ff bc 65 4d 8c be
       -0.19680981 -0.18983331 -0.031183744 -0.27402797
000130 3e fe c6 be 82 19 00 be 68 31 00 be 21 fc 92 bd
       -0.38865846 -0.1250973 -0.12518847 -0.07176996
000140 0a f7 48 bd 42 56 a3 bd 32 72 17 3c 65 71 b8 3d
       -0.04906372 -0.07975437 0.009243535 0.09006003
000150 0f 78 e3 3d 3c e9 23 be e2 8d d4 bb 72 79 97 3a
       0.11106884 -0.1600694 -0.0064866403 0.0011556579
000160 29 8c 82 3d de 8a 03 3d 97 b4 77 bc c5 90 80 3d
       0.0637439 0.032114856 -0.01511874 0.062776126
000170 78 47 8b bd 18 48 bf bb ae cc 61 3c 2c 02 5c 3b
       -0.06800741 -0.0058374517 0.01378171 0.003357063
000180 a4 49 9e bd 47 32 5a 3d 58 5a cf 3a de 5f 23 3e
       -0.077288896 0.053270604 0.0015819771 0.15954539
000190 e7 51 89 bd 56 00 a8 3b fe 29 0e 3e 2b 31 66 3d
       -0.06705075 0.005126993 0.13883206 0.056199234
0001a0 89 70 c3 bd 2f 13 f9 3d fa b2 60 3c 3a 4b 9c 3c
       -0.09542949 0.12161862 0.013714546 0.01907884
0001b0 25 47 ff 3d e7 ef 8d bc aa 63 4d ba 12 e2 3e be
       0.124647416 -0.017326308 -0.00078349805 -0.18640926
0001c0 3e 0d 0a 3e f4 94 5f 3c 45 91 99 bd 51 7b 90 bb
       0.13481614 0.013646353 -0.07498411 -0.0044092317
0001d0 fa 24 5f 3b 6a e8 fd 3d 71 78 02 3e 76 10 db bd
       0.003404914 0.12397845 0.12741257 -0.10696499
0001e0 3e 16 01 3e fe fc 85 3d 08 4a d1 bd 1d 92 4e bd
       0.12606141 0.06542395 -0.102191985 -0.050432313
0001f0 3b bb 56 bd 7d dc 71 bd 21 e4 90 3e a6 f9 d4 3d
       -0.05242465 -0.059048165 0.2829905 0.10399179
000200 33 37 14 be c5 a9 b5 3e b7 75 83 3e db d3 64 bd
       -0.14474182 0.35481086 0.25675747 -0.055866104
000210 c8 87 5f 3d 84 d2 37 3d 4c a3 2f bc 80 39 48 bd
       0.05457285 0.044878498 -0.010720085 -0.04888296
000220 60 39 76 bd 2c 9f e0 3d 66 96 a7 bd e9 27 c7 bd
       -0.06011331 0.109678596 -0.08182983 -0.09724409
000230 5c cd d1 3d 41 95 a7 3d af fc 11 be 91 55 95 bd
       0.10244247 0.08182765 -0.14256547 -0.07291711
000240 75 ef 49 be c1 28 97 bd 92 35 65 3e 19 c0 cd bb
       -0.19720252 -0.0738082 0.22383717 -0.0062790033
000250 3c 3b 82 3e 56 c1 aa 3e cc b1 e9 bd 80 cb bc bc
       0.25435817 0.3335063 -0.11410865 -0.023046255
000260 13 73 c0 3d 74 a8 12 3e 2e 26 cb 3d b6 38 fa 3c
       0.09396949 0.14322072 0.099193916 0.03054462
000270 d6 46 c4 3d ac 8b ce bd b7 6b d4 3c d8 31 e3 3d
       0.095838234 -0.10085234 0.025930269 0.11093491
000280 e1 0e e1 3b 18 d0 bf bc 33 28 53 bf 2f 76 60 bd
       0.006868229 -0.023414657 -0.82483214 -0.05480021
000290 a9 23 69 be 08 a5 b9 be db af ce 3e 3b be 03 bd
       -0.2276751 -0.3625872 0.40368542 -0.03216384
0002a0 98 34 84 be 2e 61 8e 3e cb 8f 2a bf 99 d0 a3 3e
       -0.25821376 0.27808517 -0.6662566 0.31995085
0002b0 59 cf 99 bc a8 4d 32 3e 99 a2 25 3e 9b 69 9b be
       -0.018775629 0.17412436 0.16175307 -0.30354008
0002c0 93 ef 47 be a0 47 c8 bc 4e 71 c6 be 65 a8 e0 bd
       -0.19524984 -0.024448216 -0.3875832 -0.10969619
0002d0 c7 d9 06 be 5c f0 49 bd 21 e9 24 bd 1c 00 91 be
       -0.13169013 -0.04930149 -0.04026139 -0.28320396
0002e0 dd a3 66 bd bf 94 e0 bd 97 a7 20 3e 89 b0 4d 3e
       -0.056308616 -0.10965871 0.1568893 0.20086874
0002f0 d8 1b b1 3e 11 81 94 be 71 4f 81 bd 30 96 78 3d
       0.34591556 -0.2900472 -0.0631398 0.060690105
000300 a7 4f 1d bf b3 b4 9b bd 9b f3 52 bc 0f 43 0b 3d
       -0.61449665 -0.07602825 -0.012875463 0.0339995
000310 fd b6 33 3e 80 56 d3 3e a8 6c 3e 3e 64 e9 ff bd
       0.17550273 0.41276932 0.18596137 -0.124956876
000320 0d 3c 5a be f7 85 00 be 14 35 09 bf 51 81 95 be
       -0.2131197 -0.12551104 -0.53596616 -0.29200223
000330 0c 01 9d be 89 dc e0 be 8b 9f 19 3f 08 76 ed 3c
       -0.3066486 -0.43918255 0.6000907 0.028986946
000340 0d 2b ed bb 23 45 78 bd 66 b7 cd bd b4 c7 06 be
       -0.007237798 -0.06061281 -0.10044746 -0.13162118
000350 a5 dc 12 be 11 b7 9a 3d 44 59 0b 3e c0 4e 73 3e
       -0.14341982 0.075544484 0.13608271 0.2376051
000360 2b 52 9e bd a9 da 6a 3e ab b8 91 3e 94 7d f8 3b
       -0.07730516 0.22934975 0.28461203 0.0075833295
000370 b0 1a a8 3d 01 14 65 3e b8 75 9f bd dc 7d e5 3c
       0.08208215 0.22370912 -0.07786125 0.028014116
000380 fe e3 ef 3d 62 d2 ef 3c ca c8 5f be 93 52 e1 be
       0.11713408 0.029275123 -0.21853939 -0.44008312
000390 37 11 5a bd 08 db 58 3d 25 3e ee bd c2 77 3e bc
       -0.053239074 0.05294326 -0.11632947 -0.011625232
0003a0 06 b8 61 be 39 7c 8d be ba 64 46 bc 6a 7b 76 be
       -0.22042856 -0.27633837 -0.012108976 -0.24070516
0003b0 6f bb dc bd 88 52 af 3d 2d 4f 78 bd 20 6c d0 bd
       -0.107779376 0.085606635 -0.060622383 -0.10176873
0003c0 a1 be 06 be fe de 0e be 2c 3f 33 3e 1a 08 69 3d
       -0.13158657 -0.13952252 0.17504567 0.056892492
0003d0 11 e1 dd 3c 40 ee d3 bd ea db 3c 3d 79 a4 e4 bd
       0.02708486 -0.10348177 0.046108164 -0.11164183
0003e0 21 90 9a be b1 0a b8 bc e1 8b 00 bd 48 83 70 be
       -0.30188087 -0.022466036 -0.0313834 -0.2348758
0003f0 c1 c0 1b be 64 3c 3f be 08 8e 4a bd 54 71 d4 bd
       -0.15210249 -0.18675381 -0.049451858 -0.10373178

model.ec2.0.bias f4 [16]
000000 7e 03 4e bd 4d b5 ca 3d 37 3d fc ba 91 5e 51 bd
       -0.0502963 0.09897862 -0.0019244318 -0.051115576
000010 f7 73 4a bd 6a a1 80 bd 41 e5 d5 3d 3a 2a ea 3c
       -0.049427 -0.06280787 0.10444117 0.028584588
000020 15 01 ef 3d 14 5d 92 3d 07 10 18 3d d1 ee be 3d
       0.11670128 0.071466595 0.03712466 0.09322894
000030 a1 ca 53 3d 2c 3b 89 ba 1c 84 b3 3d 1e 16 d6 3c
       0.051706914 -0.0010469905 0.08765432 0.026133593

model.ec3.0.weight f4 [16, 16, 3, 3]
000000 2b 10 06 3c 10 81 b1 bc 8f f7 94 3d 87 45 dd bc
       0.008182566 -0.021667987 0.072737806 -0.027010692
000010 b5 90 13 3e aa 13 01 3e 0d 46 e6 b9 f5 f2 80 3d
       0.1441067 0.12605157 -0.0004392121 0.062963404
000020 2e 40 de bc b4 4d 3e be 7a 79 81 bd db 15 03 bd
       -0.027130213 -0.18584329 -0.06321998 -0.032003265
000030 2f f6 d4 3d 79 b5 70 be 0a e3 d5 be d7 2d 17 be
       0.10398518 -0.23506726 -0.4177478 -0.1476358
000040 5a b8 ed 3e aa 40 c8 3d c2 88 2a 3e 30 b6 00 3e
       0.46429712 0.09777959 0.16653731 0.12569499
000050 0b 9f 16 be 14 be f1 3d 5d 63 c3 3d 80 81 d4 bd
       -0.14709108 0.11803833 0.095404364 -0.10376263
000060 b9 57 8c 3d 81 e8 af 3e 91 90 aa bd ac 80 ec bd
       0.06852669 0.34357074 -0.08328355 -0.1154798
000070 c7 05 53 3d 03 97 69 bd 36 93 a4 3c 39 dd 3c 3d
       0.05151918 -0.05702878 0.020089727 0.046109412
000080 c3 b2 a3 bd f5 c2 8a be c1 a0 76 be f0 3b 86 be
       -0.079930805 -0.27101865 -0.2408476 -0.26217604
000090 0f 3e 81 bd b5 00 ff bb 8c 8a 13 3d 03 e5 6a bc
       -0.06310665 -0.0077820667 0.0360208 -0.014336827
0000a0 a9 73 53 3d 62 95 9f 3d cf 7f b2 3d f2 14 73 bd
       0.051623974 0.077921644 0.08715784 -0.059346147
0000b0 fb 40 4c 3e 81 fa 13 bd ed 12 7c bc 8d 7e fc 3c
       0.19946663 -0.03612757 -0.015385372 0.030822063
0000c0 78 0f f0 3c 27 7b 8c bd a7 4a 21 bd e3 60 c8 bc
       0.029304251 -0.06859427 -0.039377835 -0.024460262
0000d0 aa 3e 0d be c2 25 3b 3d ca 21 6e 3d fd d9 c0 bd
       -0.13793436 0.045690306 0.058137693 -0.09416578
0000e0 33 da 3a bd 72 70 63 3d e0 bb 38 3b 83 01 d2 3d
       -0.045618247 0.055527158 0.0028188154 0.102541946
0000f0 cc fe 91 bd 8e 1c 8a 3e ea 85 17 3d 7d 04 c9 bd
       -0.07128677 0.2697491 0.036992945 -0.09815309
000100 25 a0 02 3e 96 2f bf bd e1 33 61 be 5b 16 2b 3e
       0.12756403 -0.09335248 -0.21992446 0.16707747
000110 31 c9 39 be 03 45 f7 bd d0 d5 f2 3c 33 3a e0 bd
       -0.18143155 -0.1207371 0.02964297 -0.109486006
000120 34 be 34 3d 2c 02 3b 3e cf 99 15 3e 5f e5 ad bb
       0.044126704 0.18262547 0.14609455 -0.005306884
000130 2b 7d d1 3d c2 5f d0 3d 28 6b 19 3e 1b 6c 01 3e
       0.10228952 0.10174514 0.14982283 0.12638895
000140 cb 26 44 3e 59 7e 35 3d 08 7d 21 3e cb a3 cc bd
       0.19155423 0.044309948 0.15770352 -0.099921785
000150 f9 1a f1 3d 90 8b 10 3e bf a0 df bc 4e 4f 38 3e
       0.11772723 0.14115739 -0.02729833 0.17999002
000160 14 df 78 3e a7 ee 53 bd 76 0c 70 bc 31 93 45 be
       0.24303848 -0.05174127 -0.014651408 -0.1929443
000170 77 ea 07 3e 2a e5 a9 3e 65 a1 6f 3d 14 55 10 3d
       0.13273035 0.3318265 0.058503527 0.035237387
000180 af 76 5d bd b6 2c 1b 3e e8 d7 5a 3d 91 7d 50 3d
       -0.054068264 0.15153775 0.05342856 0.050901
000190 01 7d 70 bd ab ca f1 ba 0e 29 06 3d 32 e8 1c bd
       -0.058712963 -0.001844724 0.032753997 -0.038307376
0001a0 e5 fb 00 b9 89 58 2e bd 84 2d 10 be 5c 33 80 3b
       -0.0001230087 -0.042564902 -0.14079863 0.0039123725
0001b0 e3 8b e8 bd 99 c5 1a be 6b 6d 23 be b0 d5 d3 3c
       -0.11354806 -0.1511444 -0.15959708 0.02585873
0001c0 7e b1 b7 bd 84 29 9f bd 65 e0 c7 bc 83 2b 81 bd
       -0.08969401 -0.0777159 -0.024398992 -0.06307127
0001d0 bc 4e 8e be ac 10 19 3d cb 33 f4 bd f6 93 67 3d
       -0.27794445 0.037369415 -0.11923941 0.05653759
0001e0 1c 8e a1 bc 3f 44 19 3d 18 5a 4d 3e 1a 08 10 bd
       -0.019721083 0.0374186 0.200539 -0.035163976
0001f0 81 67 3e 3d df 82 0a bd 82 06 0d be ff d3 8b 3b
       0.046485428 -0.033816215 -0.13772014 0.0042672153
000200 98 7c 02 be 08 70 a3 be 5b bd 8c 3e 44 91 dc 3e
       -0.12742841 -0.3192141 0.27488217 0.4307958
000210 ea 5a 73 bd b8 36 9f be 29 fb b3 be 70 62 41 bd
       -0.059412874 -0.31096435 -0.35152557 -0.047213018
000220 c8 29 0f 3e e5 4e 3d bd 6e d1 eb bd a3 af c1 bd
       0.13980782 -0.046217818 -0.11514555 -0.09457328
000230 5b 38 fa 3d 7f 27 74 3d 4f 5a 74 bd e0 b2 d3 3c
       0.1221778 0.05960798 -0.059656437 0.02584213
000240 a4 6d 65 3c bf ff 89 3d d5 8c 9a bd 96 64 4a be
       0.014003191 0.06738233 -0.07546393 -0.19764933
000250 e5 02 9b bc d4 8f 04 3e b8 59 22 bb 25 ef ea 3d
       -0.018922279 0.12945491 -0.0024772715 0.114713944
000260 65 4a db bc 7c 44 1d bd d0 bb 64 3d bf 8f 2c be
       -0.026768873 -0.03839539 0.055843174 -0.1685171
000270 34 80 a9 3e 3b 88 27 3f 7c ec ba bd c4 e0 1c be
       0.33105624 0.65442246 -0.09127137 -0.15320116
000280 53 c5 31 be 1f b4 ba be 8c 24 30 be 50 60 5c 3d
       -0.1736043 -0.36465546 -0.17201442 0.05380279
000290 5c 3d e9 bd 1d 14 99 be 29 b7 d4 3d f9 a2 05 3d
       -0.113886565 -0.29898158 0.103864975 0.032626126
0002a0 17 6d b3 3d 93 2c 0d be ad ce d0 bd 76 52 a4 3d
       0.087610416 -0.13786535 -0.1019567 0.08023541
0002b0 ea dc dd be b7 c6 a8 be 97 2f f6 bd 71 3d 62 3e
       -0.43332607 -0.32964107 -0.12020796 0.2209375
0002c0 36 a9 37 be 0b 2a af be cb 27 90 be 4f 73 03 be
       -0.17935643 -0.34211764 -0.2815536 -0.12836955
0002d0 19 bb 5f 3d fd 98 71 3e cf ab e7 3d da 1a a8 be
       0.05462179 0.23593517 0.11312067 -0.32832986
0002e0 c4 57 42 bd 9e 28 5d 3e df 38 80 be b0 ae e1 3d
       -0.04744698 0.21597525 -0.2504339 0.11019647
0002f0 2a 36 67 3e a8 d5 d5 bc 36 7b 82 3d 28 90 9b bd
       0.22579256 -0.026102856 0.06371157 -0.07595855
000300 48 76 d6 bd f4 bf 39 3e ae c0 7b 3c 95 eb cf bd
       -0.10471779 0.1813963 0.015365763 -0.101523556
000310 46 8e ae 3c 47 39 78 bd 9e 4f 2b be 3d 57 08 3b
       0.021308076 -0.0606015 -0.1672959 0.0020803951
000320 07 b6 a3 bd 11 84 e1 3d 02 1d 92 3e f8 1c f0 bd
       -0.07993703 0.11011518 0.28537756 -0.11724275
000330 be a1 f0 3d 4d 9c f2 3d be ab 33 bb f3 ec b9 3d
       0.117496 0.11846218 -0.0027415599 0.090783976
000340 bf 0f 51 bd 38 0a 12 be 27 94 c2 3d ac 6d 98 3e
       -0.051040407 -0.1426171 0.09500914 0.29771173
000350 50 df 1a bd b9 21 cb 3c 7b b2 b9 3c 9e 6b f9 bd
       -0.037810624 0.024796354 0.022668114 -0.121787295
000360 82 86 7c 3d e7 f6 53 bd ef be 8a 3d 30 91 5b be
       0.061651714 -0.051749136 0.06774699 -0.21442103
000370 46 ff 26 be 84 03 ce bc 89 7f 61 3d 4c 52 90 3d
       -0.16308317 -0.02514816 0.055053268 0.07046947
000380 9b 07 59 bc 0c ae 27 be c9 13 39 be b3 1c 36 be
       -0.013246442 -0.16374987 -0.18073954 -0.17784385
000390 e3 ad 99 3e 09 f0 1d 3d 8e 12 e0 bd fc f7 8a bd
       0.30015478 0.038558993 -0.10941039 -0.067855805
0003a0 8d c4 48 be 46 cc e2 3b c6 96 77 3e 15 57 28 3e
       -0.19606228 0.006921324 0.24178609 0.16439469
0003b0 14 4a d1 bd b9 43 1f 3e 50 ad 96 3d 9b 86 77 be
       -0.102192074 0.15553178 0.073572755 -0.24172442
0003c0 8b a0 43 3d c4 14 ad 3d 9e a6 13 3d 97 5f 43 3d
       0.047760528 0.08451226 0.03604757 0.047698583
0003d0 ec 46 b9 3c 1e af 7c 3d b0 1a 01 bc eb 3b 35 3e
       0.022616826 0.061690442 -0.007879898 0.17698638
0003e0 af 74 79 3c ef 6d 26 3e f1 1b d0 3d 66 0f bd 3d
       0.015225573 0.16252874 0.101615794 0.09231453
0003f0 4f 41 68 3e fa 84 10 bc d1 c1 c2 bc 46 24 67 3c
       0.22681163 -0.008820767 -0.02377406 0.014107769

model.ec3.0.bias f4 [16]
000000 b0 1e 18 3d a8 38 87 3c ed fa dd bd 6e e8 83 bc
       0.03713864 0.016506508 -0.10838876 -0.016102042
000010 e5 ff ac 3d a1 fb 8e 3d 8a 44 9e 3b 66 d1 77 bb
       0.084472455 0.06981588 0.004829948 -0.003781402
000020 ca 05 29 bc 25 9b 0a 3b b5 49 18 3c b0 22 ad bc
       -0.010316322 0.0021149602 0.009294917 -0.021134704
000030 a1 07 ec 39 0b 89 1c 3d 0c 96 40 be fc d4 28 bb
       0.00045019112 0.03821663 -0.18807238 -0.0025761714

model.ec4.0.weight f4 [32, 16, 3, 3]
000000 fd 99 6e bd 87 e0 bc bd 36 60 0e 3e 0c ae 0a be
       -0.058252323 -0.09222513 0.13903889 -0.13542956
000010 aa 81 63 be a0 07 ba 3d 9e 80 ec bd aa c8 9b be
       -0.22217432 0.090834856 -0.11547969 -0.30426532
000020 d1 ab ff bd 70 d8 64 bd 84 75 3b be 79 b0 27 3d
       -0.12483943 -0.055870473 -0.18306547 0.04093978
000030 62 ae b9 bd 8c 2b 71 be d6 b3 1d 3f 91 e1 f1 bd
       -0.09066464 -0.23551768 0.6160253 -0.118106015
000040 3b f8 8b bd 26 3e b8 3e b2 ce cf bd 06 62 11 be
       -0.068344556 0.35984915 -0.10146846 -0.14197549
000050 a5 cb 54 3d 18 8b f3 bd fb 44 22 bc 25 57 43 3d
       0.051952023 -0.118917644 -0.009904142 0.04769053
000060 19 ff 06 be 9e 5d ea 3d c5 0a 67 3d fb 24 88 3d
       -0.1318325 0.11443637 0.056406755 0.066476785
000070 b1 27 6b be 0a b6 14 be 9f 0b 3e be c1 76 18 bf
       -0.2296436 -0.14522567 -0.1855912 -0.59556204
000080 68 06 4d be 0e 36 e6 bd 42 29 d4 bd 4f fd a8 bc
       -0.20021975 -0.11240779 -0.10359432 -0.0206286
000090 c6 2b 14 3e 94 70 46 be d2 eb 60 bd dd 7a 89 bd
       0.14469823 -0.19378883 -0.054912396 -0.067128874
0000a0 1f dc e1 be 21 9d c2 bd df da 45 3d 03 f3 b8 be
       -0.44113252 -0.09502626 0.048304435 -0.36122903
0000b0 9e 9b fe bc 28 8c d2 bd 02 de 74 3d af 81 e4 3d
       -0.031080063 -0.10280639 0.059782036 0.11157548
0000c0 8d 9f c6 bd 9b 9b 37 3e f1 e6 fd 3d 5c b1 32 be
       -0.09698401 0.17930453 0.12397564 -0.1745047
0000d0 b5 7f 0c 3e cc cc 08 bc c1 be b8 bc 76 bf 9c bd
       0.13720591 -0.008349609 -0.022551896 -0.07653706
0000e0 a4 6d 4b bd 9b e6 32 bd 70 72 a6 bd 53 cc 5d 3d
       -0.04966511 -0.043676954 -0.08127296 0.054149937
0000f0 4c f6 71 3c ca 55 12 bc 84 d9 88 bd 05 23 fd 3d
       0.014768194 -0.0089315865 -0.06682113 0.12360195
000100 45 1e 9f 3e 34 9b 6f 3e 77 32 f8 3d 3b a8 f9 3e
       0.3107778 0.23399049 0.121190004 0.48761162
000110 18 61 de 3e f2 bf e5 3d 57 e5 3a 3e 84 7d 7f 3e
       0.43433452 0.11218251 0.18251549 0.24950224
000120 c7 b9 47 be 28 aa 1f 3e 2e 97 5e bc e9 8c 0d bd
       -0.19504462 0.15592253 -0.013585849 -0.03455821
000130 68 45 98 bd 5e 91 f4 3c 5c 3a 7c bd 9b df 66 3c
       -0.07435113 0.029854473 -0.061579093 0.014091398
000140 1b 02 7a bd 48 9f a4 3d 71 2d 97 3e 34 ce ee 3d
       -0.061037164 0.08038193 0.29526857 0.11660424
000150 b8 f9 b5 bd 76 df 9a 3e 98 ee 0f 3e 8f 6b b6 bc
       -0.08885521 0.30248612 0.1405586 -0.022268085
000160 e1 83 8e 3d f9 6b 0c 3e d0 d1 6a bc 44 80 0d be
       0.06958748 0.13713063 -0.01433225 -0.1381846
000170 ed c4 16 be e4 16 fe 3d 17 bc 0b be d6 87 c6 be
       -0.14723559 0.1240671 -0.1364597 -0.3877551
000180 c7 ee 08 3e 1d b0 cf 3d 11 45 0e be ef 32 63 3e
       0.13372336 0.10141013 -0.13893534 0.22187398
000190 48 c0 77 3d d3 8c 6b bd bf ae e5 3c d0 d1 a0 3d
       0.060486108 -0.057507347 0.028037427 0.078525186
0001a0 e6 7e 4a be 00 86 40 3c 59 77 0c 3d e3 a3 b9 bd
       -0.1977497 0.011750698 0.034293506 -0.09064462
0001b0 42 f7 bc 3d dc 39 4d 3c a0 88 bb bb 5b c3 64 3e
       0.09226848 0.012526002 -0.005723074 0.22340147
0001c0 19 1b 2e 3e 48 3b 35 be e1 95 ff 3d e5 a7 1f 3e
       0.17002524 -0.17698395 0.12479759 0.1559139
0001d0 a0 21 f6 bb 9a 80 22 3d 49 ac c5 3c 3d 2c 63 bd
       -0.0075113326 0.039673425 0.024130004 -0.05546211
0001e0 11 00 c7 3d 81 7d f4 3d 88 8c 78 bc ed 03 cb 3c
       0.097168095 0.119380005 -0.015170224 0.024782145
0001f0 dd c9 80 3d 42 1d d7 bd 31 dc 58 3c 8a c8 91 3d
       0.06288502 -0.10503627 0.0132360915 0.07118328
000200 30 4c 38 3d 24 9f 33 be 59 89 f3 3d d0 fc f7 3d
       0.044994533 -0.17541176 0.11891431 0.12108767
000210 74 8f f7 bd 37 c0 ce 3d 9e ae 12 3d 8a d2 2e 3c
       -0.120879084 0.10095256 0.03581106 0.010670314
000220 0b 49 ae bc f9 8a b8 3d 67 4f 4f 3e b5 7f 84 3d
       -0.021275064 0.09010882 0.20245133 0.06469671
000230 ed db a0 3e 51 e5 0a 3e 2d 55 9a 3d 60 f1 b7 3d
       0.3141779 0.1356404 0.07535777 0.089815855
000240 9d 1b 4f 3e b7 39 ff 3d f6 61 37 bd e9 81 19 3e
       0.20225377 0.1246218 -0.044771157 0.14990963
000250 dc 50 19 3e 04 84 18 3d d4 d6 d4 bd d9 0f 0f 3d
       0.14972252 0.037235275 -0.10392538 0.034927223
000260 89 26 26 bd 5b 94 86 3d f9 8d e5 3c 6f cf 35 3c
       -0.040564094 0.06571265 0.0280218 0.011096819
000270 5a 99 ee 3d fd 0f 1c be ec 42 8f 3d 1f 38 8d bd
       0.11650343 -0.15240474 0.06995186 -0.0689547
000280 6e 0a 20 be 95 d3 e3 3c 9d 34 94 bd f3 96 5a 3d
       -0.15628979 0.027810851 -0.07236598 0.053366613
000290 03 4d 57 bb ec 06 f5 bd 7b 27 a7 3c 0d 62 99 bd
       -0.00328523 -0.11964211 0.020404568 -0.07489405
0002a0 1d 88 0b 3d 89 ef 6f 3d 6c 10 18 3d f6 68 6f 3e
       0.034065355 0.058578048 0.037125036 0.23379883
0002b0 2c 31 86 3e 70 f1 19 bd b2 3e 9d 3d 6e f7 10 3e
       0.2620939 -0.03758377 0.07677974 0.14156887
0002c0 26 12 85 bd d8 b2 13 bd b1 b4 8a 3d 9f 4f 49 bd
       -0.06497602 -0.03605923 0.067727454 -0.0491482
0002d0 8e ee 50 3e 44 05 84 3e 8b bb dc 3d c0 b3 17 3e
       0.20403501 0.25785267 0.107779585 0.14814663
0002e0 fa e6 37 3e 06 ac 64 3d 01 fa 63 bc 31 35 83 bd
       0.17959204 0.055828117 -0.013914586 -0.0640663
0002f0 51 28 c9 bd 4c ad df 3d f5 ba 40 3d b1 de 80 3c
       -0.09822143 0.10921726 0.047053296 0.015731188
000300 20 6f 74 3d de 1e bc 3d 43 28 ab 3d b5 31 4a be
       0.05967629 0.09185575 0.08357289 -0.19745524
000310 cf a1 ed bc 80 d4 52 bd 7d 4e f1 3d 9a 9c a7 3e
       -0.02900782 -0.051472187 0.117825486 0.32736665
000320 2c f9 08 3e 9f d1 1f be 82 8f 2e bd 17 3f a1 3d
       0.13376302 -0.15607308 -0.04261733 0.078733616
000330 ef 79 c4 bd ae 70 a0 bd f7 41 55 bd 15 1b 28 3e
       -0.095935695 -0.07833992 -0.052064862 0.16416581
000340 e4 99 80 bb 81 29 6f 3d fa 67 21 bd 4f e4 a1 bc
       -0.003924595 0.05838919 -0.0394058 -0.019762186
000350 b2 db 1c 3c 76 c5 64 bd 27 e9 c9 bc 8f 34 69 3d
       0.009573864 -0.055852376 -0.024647309 0.05693489
000360 40 dd 02 bd 49 78 50 3e 39 71 1f 3c c1 9d 24 bd
       -0.03194928 0.20358385 0.009731584 -0.04018951
000370 3a a4 3a bb 04 50 13 bc d7 74 1b bd 09 21 e0 bd
       -0.0028479234 -0.008991245 -0.037953224 -0.10943801
000380 0b 95 c0 bd b4 f3 40 3e 0e 26 1f bd cb d2 9d be
       -0.09403428 0.18842965 -0.03885465 -0.30824885
000390 25 8d 6e 3d 8e 85 e6 3d b7 63 90 bd ef 83 16 bd
       0.058240075 0.11255942 -0.07050269 -0.036746915
0003a0 38 01 0f bd fd ac 34 bd 7f f4 38 bd b7 d4 a0 bb
       -0.03491327 -0.044110287 -0.045155045 -0.00490817
0003b0 c4 11 00 3d 29 02 59 bc d1 79 4a bd e9 e4 3f 3d
       0.031266943 -0.013245144 -0.04943258 0.046849165
0003c0 02 31 47 3d cc 5c 16 3d 95 4a 58 bc ec db 97 3d
       0.048630722 0.03670959 -0.0132013755 0.07414994
0003d0 c1 b1 2d be 08 ba 08 be 36 88 86 3c 0c 45 cc bd
       -0.16962339 -0.13352215 0.016422372 -0.09974107
0003e0 ec 0e bb bd df 86 a9 3d b8 e3 0b 3d f0 98 82 3d
       -0.091337055 0.08277678 0.034152716 0.06376827
0003f0 4d 4d 9e bc 62 57 e2 bd b5 a6 b4 3b 68 0c e8 3b
       -0.01932397 -0.11051823 0.005513037 0.007081557

model.ec4.0.bias f4 [32]
000000 ae 72 a9 3d ba 45 db bd 12 94 e9 3d af 2d 76 3c
       0.082738265 -0.10706659 0.11405195 0.01502554
000010 17 bd bd bc 91 a3 c0 3d a2 74 f7 3e 3d 18 c8 3e
       -0.023161454 0.09406198 0.4833117 0.39080992
000020 82 63 fc be b1 73 c8 bc 79 87 60 3d 94 99 f1 bc
       -0.49294668 -0.024469228 0.054816697 -0.029492177
000030 13 50 a6 3d a2 c5 9c bc bf 60 67 bc aa b3 df bd
       0.08120742 -0.019137207 -0.014122187 -0.1092294
000040 01 c3 b0 bd 7e a1 08 3e 00 97 ef 3c 19 54 26 ba
       -0.08630944 0.13342854 0.029246807 -0.0006344929
000050 29 2b 64 3c e3 4a a8 bc 65 2b a2 bd ef 03 5d bd
       0.013926306 -0.020543521 -0.07918433 -0.05395883
000060 15 7e 13 3d 36 af 63 3c 39 ad fb bd 2f 3d de bb
       0.036008913 0.013896754 -0.12288899 -0.006782196
000070 08 50 af be df 72 09 3e 90 58 11 bc 9e 10 28 bc
       -0.34240746 0.13422726 -0.008871213 -0.010257868

model.ec5.0.weight f4 [32, 32, 3, 3]
000000 a8 8e e3 bc 5a b9 16 3c 02 24 4b bd 6e 80 70 3d
       -0.027777985 0.009199465 -0.049594887 0.05871623
000010 fa 06 10 bc 3b 2b 00 be 1b d0 1f 3e b0 ff a1 3d
       -0.008790726 -0.12516491 0.1560673 0.07910097
000020 bc 22 05 3c f0 f6 01 be d0 c3 bb bd 70 70 48 be
       0.008125957 -0.12691855 -0.09168208 -0.19574142
000030 8c a5 b6 3d 4c 1b ff 3e ec af 35 bd 00 15 ef 3d
       0.08918294 0.49825513 -0.044357225 0.11673927
000040 f0 aa 4f 3d 6f 6d 9f 3d d4 e3 a2 be c0 50 0f bf
       0.050700128 0.07784545 -0.31814444 -0.5598259
000050 69 b4 8e be 84 b0 97 bd 74 4c d5 bc 43 60 b5 3c
       -0.27872017 -0.074067146 -0.026037432 0.022140628
000060 90 b8 28 3c 27 fb 3a 3d 65 ae dd 3c a3 06 a0 bd
       0.010297909 0.045649674 0.027060697 -0.07813766
000070 a0 ca 1a be c9 83 5e be b3 8f de 3d 84 c2 77 bd
       -0.15116358 -0.2172996 0.10867252 -0.06048824
000080 b8 31 0f 3e f4 a4 0f bd e2 04 73 bc 39 2d 73 3d
       0.1398381 -0.03506942 -0.014832707 0.0593693
000090 37 7d 02 bd 22 25 2f 3e b1 9c 02 3e 34 03 ee bd
       -0.031857695 0.17104009 0.12755086 -0.11621705
0000a0 26 33 30 be 2c bf 27 be 5a 43 a6 3d 42 ca 22 3d
       -0.17207012 -0.1638152 0.08118315 0.03974367
0000b0 d9 1a 85 bd b0 18 63 3e 17 74 b5 be 35 3d aa 3d
       -0.064992614 0.22177386 -0.35440132 0.083124556
0000c0 4f a5 39 ba 9f 9a 05 3e 8f 0c a3 3e 21 4a 8b bd
       -0.0007081823 0.13047265 0.3184552 -0.06801248
0000d0 15 82 a3 bd 50 53 04 bd d5 8b bc 3c d0 31 61 3e
       -0.079837956 -0.032306015 0.023015896 0.21991658
0000e0 a6 7d f2 3e cd dc a0 be f1 2e 5a bd 40 63 11 be
       0.47361487 -0.31418458 -0.053267423 -0.14198017
0000f0 54 7a 21 be 86 ae 0c 3d 53 e4 62 bd 87 f4 0e 3e
       -0.1576932 0.034346126 -0.05539353 0.13960467
000100 cd 94 12 3e 92 d5 81 3e a5 40 09 be c6 ff 80 be
       0.14314575 0.25358254 -0.13403566 -0.2519514
000110 ed 0d c9 3c e1 e9 13 be 16 8f 18 3d 1d 84 27 bd
       0.024542773 -0.14444686 0.037245832 -0.040897477
000120 3c 30 48 be a3 b2 81 be 86 86 8f be 07 ff 74 3e
       -0.1954965 -0.25331602 -0.2803232 0.2392541
000130 c2 cf 64 3e 9b 65 96 bd d8 cb 2b 3d b1 d6 0b 3e
       0.22344878 -0.073435985 0.041942447 0.13656117
000140 8c 5e 18 bc 1d ed 69 bd 22 39 df 3e 67 46 38 3e
       -0.0092998855 -0.057110894 0.43598276 0.17995606
000150 4b fd 31 3e 1a 52 1b be af 76 0c be fc 7b 38 bc
       0.1738178 -0.15168038 -0.13717149 -0.011260029
000160 67 19 3d bd 2b 20 9e 3c c3 ff 9f 3d e4 5c 47 be
       -0.046166804 0.019302448 0.078124546 -0.19469029
000170 78 27 92 bd ed d3 44 3e 7b 0e 13 3f 38 1e a0 bc
       -0.07136434 0.19221468 0.5744397 -0.01954566
000180 c3 be 7e bd 19 e3 d5 bd 2f 85 81 3d 6d c1 9e bd
       -0.062193643 -0.10443706 0.06324231 -0.07751737
000190 05 03 33 3d 0a a8 4b 3e 45 fd 8d bd 0f a1 90 bd
       0.04370405 0.1988832 -0.06933073 -0.070619695
0001a0 56 17 2c be 89 e1 6b bd 24 5a 44 bc 80 0b 3e 3d
       -0.16805777 -0.057588134 -0.011984382 0.046397686
0001b0 ac fb 94 3d be 76 85 3c 21 03 2c be e7 bd d0 bc
       0.07274565 0.016291972 -0.16798069 -0.025481177
0001c0 31 53 d9 bd 7e 67 f4 3d 13 4c 36 be 41 1d 69 be
       -0.106115706 0.11933802 -0.17802458 -0.22765066
0001d0 01 4f 4e bd 72 e6 2f 3e 6f 7e af bc b2 8d ca bd
       -0.050368313 0.17177752 -0.021422593 -0.098903075
0001e0 eb 27 5b bd e7 46 8b bd 12 a5 73 bd 0e 6d 45 bd
       -0.053504866 -0.06800633 -0.059483595 -0.048199706
0001f0 0b a3 9d 3d 87 70 84 3a ec ec a8 bc 97 e2 ae 3d
       0.076971136 0.0010104337 -0.020620786 0.08539312
000200 8b 25 97 bc 72 6c 1e bd f2 5f 11 be fb d9 37 be
       -0.01845052 -0.03867764 -0.14196756 -0.17954247
000210 f3 11 e0 3c 2e 19 65 bd b3 1c 0b 3c 75 74 45 3e
       0.027352309 -0.055932216 0.008490729 0.19282706
000220 54 af 81 be 18 f6 9c bd 3b b1 06 be 4e 27 9e bd
       -0.25329077 -0.07664126 -0.13153546 -0.077223405
000230 37 90 b9 3d 34 26 0d bc db bc a5 3d c9 49 84 3d
       0.0906071 -0.008615065 0.08092662 0.06459386
000240 54 eb fc 3d 6c 30 4b 3c f3 34 14 be 35 cb e2 3d
       0.12349573 0.012401681 -0.14473324 0.11073915
000250 8f 3d 2b 3d 89 54 1e be 8a 6d 71 3d 3b ab 97 bd
       0.041806754 -0.15461935 0.058942355 -0.074057065
000260 c6 d7 87 3d 3d 51 15 3e 94 64 68 be a6 2d 9a 3e
       0.066329524 0.14581771 -0.22694618 0.30112952
000270 58 41 16 3d 27 e7 50 3e da 0f 9a bc 1c 4a 43 3b
       0.03668341 0.20400678 -0.018806387 0.0029798811
000280 30 48 2d bd 8c 44 8c bd 9c 9d 0a be 74 04 49 3e
       -0.04230517 -0.06849012 -0.13536686 0.19630605
000290 19 67 2a 3e 1f 8f 36 3c 2b 06 49 3e 5f 2b 46 be
       0.16640891 0.011142521 0.19631259 -0.19352482
0002a0 1c 71 e8 3c 34 e6 c0 bc 81 ec 3c 3d 45 25 bb 3b
       0.028374247 -0.02354727 0.046123985 0.00571123
0002b0 7e 4c 97 3e c4 cc cc bd 70 26 19 be 25 7a d8 ba
       0.29550546 -0.099999934 -0.14956069 -0.0016515894
0002c0 5c b8 ae bc e7 f3 d5 bd db 14 52 3d 95 c0 d5 bd
       -0.021328144 -0.10446911 0.05128942 -0.10437123
0002d0 e1 8e ef bc 37 d3 e6 bd 46 76 66 bc 3f e4 bb 3d
       -0.029242935 -0.11270755 -0.0140662845 0.09174394
0002e0 f4 c9 63 3e 42 38 0a 3e ca ab 5e 3d 98 37 23 be
       0.22245008 0.13498023 0.05436305 -0.15939176
0002f0 7e 3d c2 3d 45 fc 94 bd c7 09 0e be 49 04 c2 3d
       0.09484385 -0.07274679 -0.13870917 0.094734736
000300 af 84 27 be b1 d9 36 be 67 0d 9c 3d a9 42 09 bd
       -0.16359209 -0.1785648 0.07619744 -0.033510838
000310 88 15 e2 3c 0a 70 d4 3d 69 ac a5 be 6e 60 ae be
       0.027598158 0.10372932 -0.323581 -0.34057945
000320 1f 4c 99 bd 07 00 44 3d 34 eb b0 3e eb 72 0d bd
       -0.07485222 0.04785159 0.34554446 -0.034533422
000330 1e 80 93 bd c8 04 f8 3d 78 be c2 3c 20 39 66 3c
       -0.07202171 0.12110287 0.023772463 0.014051706
000340 86 b7 2e 3e bc 60 16 be a7 35 43 bd 83 c2 6f bd
       0.17062196 -0.14685339 -0.04765859 -0.05853511
000350 b7 54 f2 3c f3 fd 9a 3d 64 04 cc bd 6e 00 ae bc
       0.02958141 0.07567968 -0.09961775 -0.02124044
000360 f1 8e 37 be b3 2d fe bd 15 b8 90 bd fc db d6 ba
       -0.17925622 -0.1241106 -0.07066361 -0.0016392465
000370 59 0b 1a 3e d5 02 47 bd af 12 e3 3d e5 ac 32 3d
       0.15043391 -0.048586685 0.11087548 0.043621916
000380 2a eb 96 3c 9f f9 a4 3e fa 76 2e 3e 55 a3 27 3e
       0.018422682 0.32221696 0.17037573 0.163709
000390 19 b6 8a be 6c 92 40 be a8 0c 6b 3e d0 fb e9 bd
       -0.27092054 -0.18805856 0.22954047 -0.114249825
0003a0 19 e5 a8 bd 3d 73 e3 3d 49 ae 15 be ce 4e 25 be
       -0.08246822 0.11105964 -0.14617266 -0.16143343
0003b0 73 f1 19 be f6 0b b5 3e f0 b6 93 3e 95 88 42 be
       -0.15033512 0.35360688 0.28850508 -0.18997414
0003c0 50 5f 00 3e 50 86 93 bd 29 2f 16 3d 99 2a e0 bd
       0.12536359 -0.072033525 0.03666607 -0.10945625
0003d0 48 b9 6b 3e 2e 3d 0f bd d2 ae 4c bd be d1 5e be
       0.23019898 -0.034970455 -0.04997141 -0.21759698
0003e0 82 71 ee 3c 19 dc 31 3c 80 c2 96 3c 0a b6 b0 bc
       0.02910686 0.010855698 0.018403292 -0.021571178
0003f0 69 22 49 be 09 a6 c2 be cc e9 65 be 0d 69 74 3e
       -0.19642033 -0.380173 -0.22452468 0.23868199

model.ec5.0.bias f4 [32]
000000 62 f3 54 bd 16 71 7a bd c7 97 15 be 5c f6 84 3e
       -0.05198992 -0.061143003 -0.1460868 0.25969207
000010 b2 08 65 bc 22 5c ef bd 58 b1 02 be ff fd 72 3c
       -0.013979124 -0.11687495 -0.12762964 0.014831065
000020 84 b4 ca 3c b7 1f d0 bd 98 41 3a be c2 fc f2 3d
       0.02474428 -0.10162299 -0.18189085 0.11864616
000030 c7 13 91 bb ef d7 72 3d 33 4c 9c be b5 29 1c 3d
       -0.0044274065 0.05928796 -0.30526885 0.038125712
000040 fb ad 17 3b f4 b2 56 be 8b f0 94 bd eb c7 ca 3d
       0.0023144472 -0.20966703 -0.072724424 0.099014126
000050 80 1f cf bc b2 db 8e ba c3 69 af 3c ca 83 68 3b
       -0.025283575 -0.0010899215 0.021412736 0.0035478943
000060 a4 06 63 3f c2 78 f6 be 8e 8b 00 bd 70 e4 22 3e
       0.8868201 -0.48139006 -0.03138309 0.15907454
000070 1a d2 a7 3a e8 8d 17 bd 32 f1 ed 3d 60 21 ef bd
       0.0012803704 -0.037000567 0.1161827 -0.11676288

model.ec6.0.weight f4 [64, 32, 3, 3]
000000 52 22 2d bc 24 c4 07 be 8d 02 0a bd c1 54 5c 3d
       -0.010567265 -0.13258415 -0.03369384 0.053791765
000010 0f 8d be 3d a8 d5 fd 3c 9e 96 18 3c f8 b3 68 bc
       0.093042485 0.030985668 0.009313254 -0.014203064
000020 7a 46 18 bc 1c 6d 81 3d 6c b0 87 bc 11 a1 b3 3d
       -0.009294147 0.06319639 -0.016563617 0.08770955
000030 26 c8 2e be ab ad b8 bd 0d 94 c2 bd db e6 23 bb
       -0.17068538 -0.090174995 -0.09500895 -0.0025009427
000040 02 30 e3 3b e0 8b a9 bd 70 cb aa 3b 82 ea 3c 3e
       0.006933213 -0.08278632 0.00521224 0.18448833
000050 6a ac fc 3d 1d 83 be 3d 1d 49 ad 3d 26 e2 04 be
       0.12337573 0.093023516 0.08461211 -0.12976894
000060 f9 15 fe bc 46 81 e4 bd c8 55 41 be 77 e5 69 be
       -0.031016337 -0.111574695 -0.18880379 -0.2284144
000070 e9 c0 32 be 6e 6e 2f be 2d 35 72 be 38 38 47 be
       -0.17456402 -0.1713197 -0.23653097 -0.1945504
000080 d4 f6 58 bd 02 ba eb 3c f1 75 90 3b c4 74 81 bd
       -0.05296977 0.028775219 0.004408591 -0.063210994
000090 4d 61 26 bd cf cc 29 be 49 59 9c bd 54 7a 6f be
       -0.040620137 -0.16582035 -0.07634217 -0.23386508
0000a0 e2 76 eb be a4 d9 d8 be 51 40 bd bd d7 a3 98 be
       -0.45989138 -0.42353547 -0.09240783 -0.298125
0000b0 5c 0b bb 3d 90 33 c2 be 95 09 c4 be 39 a5 7e be
       0.09133026 -0.37929964 -0.3828856 -0.24867715
0000c0 45 b3 6a be a1 f3 2f be b3 62 8f 3d bb 4a 54 3d
       -0.22919948 -0.17182781 0.07001247 0.05182908
0000d0 26 3b f0 3c 06 14 d8 3d 66 94 39 3e 9e 96 a1 3d
       0.02932508 0.10550694 0.18123016 0.07890056
0000e0 5f 00 08 3e 86 79 3c 3e f0 4c b4 3e 48 43 9b 3e
       0.13281392 0.18405733 0.3521495 0.3032477
0000f0 49 38 a3 3e 47 79 df 3e 17 2f 60 3e f4 61 17 3e
       0.3187888 0.43647215 0.21892963 0.1478346
000100 a6 49 4d bc f6 10 ea 3d e3 16 9a 3d 84 4a 08 3d
       -0.012529766 0.11429016 0.075238965 0.03327419
000110 15 38 5a 3c e7 95 9b 3d 87 98 03 bd 11 83 aa bc
       0.013319035 0.07596951 -0.032127883 -0.02081445
000120 a3 17 66 bd f9 27 5b bd cd 2f 21 bd 8c 51 9c 3c
       -0.056174885 -0.053504918 -0.039352227 0.019081853
000130 1b 3a 0b be d7 34 10 bd bf 99 3b 3d 5f c3 ce bd
       -0.13596384 -0.035206642 0.04580092 -0.10095858
000140 d1 c5 99 bd 64 23 0b bc fe ae 66 3d 9c 1f b2 bc
       -0.075084336 -0.0084923245 0.05631923 -0.021743588
000150 bf 32 45 3d 90 a9 5d 3d 5e bb b0 3d 07 16 0c bd
       0.0481441 0.054116786 0.086294875 -0.034200694
000160 b2 71 b1 bc c2 71 a5 3d 36 b3 91 3d f3 c1 b0 3d
       -0.02166066 0.08078338 0.0711426 0.08630743
000170 02 56 1e bd 4f 75 8f bd 51 1a 0c be 7b f2 7e be
       -0.038656242 -0.07004797 -0.13681914 -0.24897186
000180 76 41 ea 3d a7 50 cf 3b c2 7f 51 3d d8 25 74 3d
       0.11438267 0.006326753 0.05114723 0.059606403
000190 5a d1 cc 3c f9 c0 a5 bd 01 7f 1e bd d0 83 84 be
       0.02500217 -0.08093447 -0.03869534 -0.25881815
0001a0 90 ff fe bc 1c 94 06 3b da 53 08 3e dd c6 e8 bb
       -0.031127721 0.0020535057 0.13313237 -0.0071037845
0001b0 19 1d 49 be 65 9d 7a be 7a 33 12 be a7 91 ca be
       -0.19640006 -0.24474104 -0.14277449 -0.3956425
0001c0 3f a2 51 bf 39 25 28 bf 80 ef 4c be 4e f9 aa be
       -0.8188819 -0.656818 -0.20013237 -0.3339333
0001d0 ea a5 98 3d 6b b8 04 3e 05 29 23 bd a5 9f 1b bb
       0.074535206 0.12960975 -0.03983404 -0.0023746279
0001e0 5e 31 7a bd d5 5e 8d bd fa 5b c5 3d fc 80 36 3e
       -0.061082236 -0.069028534 0.09636684 0.17822641
0001f0 0f f3 8a 3e 25 e1 95 3d fb f2 43 3d 4b 84 43 be
       0.27138564 0.073183335 0.047839146 -0.19093435
000200 c2 46 03 be ec 84 9a be 87 0a c9 be bb ea 81 be
       -0.1281996 -0.30179536 -0.39265844 -0.25374398
000210 9a 36 96 3b 3e 31 0c bd 82 37 a5 3d 0b 8c 2c be
       0.0045841457 -0.03422665 0.08067228 -0.16850297
000220 38 fb 7b bd aa 7f 4c be a3 98 e1 be 13 c5 27 bf
       -0.061518878 -0.19970575 -0.44061765 -0.65535086
000230 b8 ea aa be d4 1a 38 be 98 4b d3 bd 09 fd 60 3e
       -0.333822 -0.17978984 -0.10317153 0.21971525
000240 e1 52 25 3e 7c 18 9d 3d e5 76 f7 3d 0c f2 6a 3e
       0.16144897 0.07670686 0.12083224 0.22943896
000250 24 f6 43 3e 93 8e 03 be b4 11 11 3d fa 85 3d bd
       0.19136864 -0.12847356 0.035417274 -0.046270348
000260 bc 0d bf bd 02 1d 8d be 88 b0 51 be ed 8b 53 bc
       -0.093287915 -0.27561194 -0.20477498 -0.012911779
000270 ff 99 a3 3d 08 43 58 3e d7 9a 78 3e 32 45 02 3d
       0.07988357 0.2111932 0.24277817 0.03180427
000280 7a 1e cf 3d e6 61 7f 3d f2 29 b4 bd 40 ae 6f 3d
       0.10113235 0.062349223 -0.08797063 0.058515787
000290 b7 82 67 3d fc ae ed 3d 4e 4c d9 3d 10 8c c8 3d
       0.056521144 0.11605641 0.10610257 0.0979234
0002a0 ba a8 6c 3c 35 e1 44 bd 7f 80 8d bd 63 d4 53 3e
       0.014444524 -0.048066337 -0.06909274 0.20686488
0002b0 d7 43 09 3e b5 d4 98 3d a4 7c 8a 3e 95 9e dd 3d
       0.13404785 0.07462446 0.27048218 0.10821263
0002c0 4e 8b 5f bd 80 8f 90 bd 83 09 2b be 2a 56 fa bc
       -0.05457621 -0.070586205 -0.16702847 -0.030558664
0002d0 9c 30 b2 3d 66 79 75 3d 98 df 1b 3e 36 86 c9 bd
       0.08700678 0.059930228 0.15222013 -0.09840052
0002e0 cb ee 34 3e 08 27 fc 3d c6 dd 53 bb d1 af 33 bd
       0.17669217 0.12312132 -0.0032328232 -0.043868843
0002f0 d5 c5 95 3d d5 ed 74 3c 42 7f 42 3e b6 46 da 3d
       0.07313124 0.014949282 0.18993858 0.10658018
000300 d2 7a 60 3e 33 76 8c 3e 01 a2 85 3d 9f db 06 3e
       0.21921852 0.2743393 0.065250404 0.13169716
000310 80 70 ce 3d c3 71 72 bd d2 78 43 3e b8 dc 7f 3e
       0.100800514 -0.059190523 0.19089058 0.24986541
000320 4c 2b 48 3e f9 2b 34 3e 43 77 36 3e 7b 7c 74 3d
       0.19547766 0.17594899 0.17818932 0.059689026
000330 d3 64 9d 3d 12 85 74 3d 0f 85 ad bd ea 11 89 3e
       0.07685246 0.05969722 -0.084726445 0.2677148
000340 28 72 18 3e dc 05 40 3d e2 b4 9f bc ea 7e fe 3d
       0.14887297 0.046880588 -0.019495431 0.12426551
000350 10 f0 98 bd e8 6b 5d be a2 92 26 be ec d2 18 3c
       -0.07467663 -0.21623194 -0.16266873 0.009327631
000360 48 f5 6c bd 74 22 c8 3d 83 c3 27 3e a6 56 ad 3d
       -0.057851106 0.097721964 0.16383176 0.084637925
000370 81 47 7b 3e e2 2b 33 bd 25 e0 a6 3d 38 68 09 3d
       0.24538995 -0.04374302 0.08148221 0.033546656
000380 69 c4 e2 3d 1f e7 20 3e 91 bd ea 3d 7e b9 dd bd
       0.110726185 0.15713166 0.11461938 -0.108263955
000390 85 d4 3a bd 3d c4 98 bd 37 97 0f bd 51 bd 21 be
       -0.04561283 -0.074593045 -0.03505632 -0.15794875
0003a0 c1 34 12 be 0a a2 f4 3c 0a dc 74 3e f7 18 b3 3e
       -0.14277937 0.029862422 0.23912063 0.34979984
0003b0 4b 58 2d 3e bd 76 ad 3e e6 f3 d7 3e 77 de 9e 3d
       0.16928212 0.33879653 0.42178267 0.077572756
0003c0 03 ab 16 bd 78 32 38 bc 1c 32 e6 bd 81 0e 69 3e
       -0.036784183 -0.011242501 -0.11240026 0.22759439
0003d0 b3 20 a5 3d 77 4f c4 3d 67 f0 d3 3d 13 90 39 3e
       0.080628775 0.09585469 0.103485875 0.18121366
0003e0 32 a1 a0 3d 28 da 1e 3e 89 8a 28 3d 2d 22 0b be
       0.078432456 0.15512908 0.041147742 -0.13587256
0003f0 86 ad 94 bd f7 1f 28 3e 03 5e a2 bd 48 73 e5 3d
       -0.072596595 0.16418444 -0.079280876 0.11203629
