2D_CMR_Registration/ModelParameters/Model_0_Diffeo_1_Loss_1_Chan_8_Smth_0.01_LR_0.0001_Mode_0_Pth/SSIM_0.912726_MSE_0.000473_Epoch_0086.pth (torch, 316934 bytes, 27 tensors)

model.eninput.0.weight f4 [8, 2, 3, 3]
000000 47 a4 13 3e 33 5f 05 3e 1c c4 bf 3d d6 a9 e0 bd
       0.14418136 0.13024597 0.09363577 -0.10969894
000010 d2 93 3c be 4c c5 87 3e 8c 96 62 3e fe 5d 4a bd
       -0.18415764 0.26517713 0.22127742 -0.049406044
000020 42 7e fb bb b0 b7 46 3e be 6a 40 bc 0c d0 6c 3d
       -0.007674963 0.19406009 -0.011744199 0.057815596
000030 8c d0 88 bd f1 a9 d2 bd 18 7f 27 3e fc 5f 4e 3d
       -0.06680402 -0.1028632 0.16357076 0.050384507
000040 b4 38 9a bd f4 32 2c 3d 19 77 b9 bd 33 c0 91 3c
       -0.075303465 0.04204078 -0.09055919 0.017791843
000050 06 13 5b be 01 bb 51 3e a3 8a d4 3e c9 4d dd bc
       -0.21393976 0.20481493 0.4151202 -0.02701463
000060 10 a9 42 3d 3b 52 89 3c 22 5b 08 3e d3 38 2c be
       0.04752451 0.016762843 0.13316014 -0.16818552
000070 15 3e ea 3d 1a 68 88 be e6 c7 0f 3e ee d1 ab 3e
       0.114376225 -0.26641923 0.14041099 0.335586
000080 0d f0 75 3d 36 a6 e5 3c 7e 88 f6 3d ad 8b aa bd
       0.060043383 0.028033357 0.120377526 -0.08327422
000090 17 a9 e7 ba d5 45 7e bd 7a 97 3e 3e 55 35 28 3d
       -0.0017674294 -0.062078316 0.18612471 0.041066486
0000a0 6c 81 81 bd 17 91 0a be 65 df 80 bd c6 6d 98 bd
       -0.063235134 -0.1353191 -0.06292609 -0.074428126
0000b0 dc c3 65 3e e2 42 51 be 6c d9 50 be 2e c2 f1 3d
       0.22437996 -0.2043567 -0.2039544 0.11804615
0000c0 3e 33 b5 be 4a f1 d8 bd 6b 60 20 3e 7f a5 ed bd
       -0.35390657 -0.10592897 0.1566178 -0.116038315
0000d0 19 4a 1f 3e e0 a8 83 3e 51 80 a2 3d c4 2a 0e 3e
       0.1555561 0.2571478 0.07934631 0.13883501
0000e0 09 ed 05 bd 80 15 b2 3e 1d 55 ad 3e bd 7e d8 bd
       -0.032696757 0.34782028 0.33854 -0.105710484
0000f0 17 49 86 3e 55 d4 ef 3d f0 93 36 3e 90 31 57 be
       0.26227638 0.11710421 0.17829871 -0.21015
000100 d4 e5 01 3d 3d 51 02 be ea d3 90 be db 70 95 bc
       0.03171332 -0.12726302 -0.28286678 -0.01824229
000110 7a cd 52 bc fb f6 83 be 4c 68 86 be 18 23 97 bd
       -0.012866372 -0.2577437 -0.26251447 -0.073797405
000120 b4 32 f4 bd 33 77 9d be ed 1f 4f be 82 6f 2c be
       -0.11923733 -0.30755004 -0.20227022 -0.16839412
000130 83 d5 05 bd 29 87 1f 3e 57 4b 47 be 47 29 9a 3e
       -0.032674324 0.15578903 -0.19462334 0.30109617
000140 66 12 bd 3e 44 44 1f 3d 72 5c 6d 3c d1 d0 19 3c
       0.369281 0.038883463 0.014487373 0.009388165
000150 16 d0 87 bd 20 23 b2 bc a9 28 3e 3d f2 5b 51 3d
       -0.06631486 -0.021745265 0.046425495 0.051113077
000160 96 8e a6 3c a3 24 86 3d 4a f0 45 3d 02 a2 4b 3e
       0.020331662 0.06549957 0.04832486 0.1988602
000170 89 47 69 3d e9 71 5c 3e 0c 5c 14 3d 40 b4 f1 3b
       0.056952987 0.21527828 0.036220595 0.007376224
000180 44 b0 8a 3e ac 5a b4 bc f5 c8 4b 3d 12 df 06 3d
       0.27087605 -0.022015892 0.049752194 0.03292758
000190 fc 6f 55 3a 07 2f 25 bc bb 3b a8 be 5c 13 f1 be
       0.0008141992 -0.010082013 -0.3285807 -0.47085083
0001a0 bc da 75 3d 60 4d bb 3d 35 a4 05 be 0a 70 c4 bd
       0.060023054 0.091456175 -0.13050921 -0.09591682
0001b0 ac a4 3d be 1b 0b 71 3e e0 01 d1 3e 83 58 57 be
       -0.18519849 0.23539393 0.40821743 -0.21029858
0001c0 d0 b9 60 3e f7 78 bf 3d b4 fc 6d be e4 61 15 be
       0.21945882 0.09349244 -0.2324093 -0.14588124
0001d0 32 24 92 3e f3 c6 02 be 0d f8 7b bc 72 2f a7 3d
       0.2854324 -0.12771206 -0.015378964 0.08163346
0001e0 fa 18 50 3d 07 7e 2f 3e 7c 2c 16 be 88 20 02 be
       0.05080507 0.1713792 -0.14665407 -0.12707722
0001f0 43 06 40 be 9f 6f 02 3e 40 26 93 3e 66 37 20 3e
       -0.18752389 0.12737893 0.2874012 0.15646133
000200 3d dc 47 be 0a e1 1b 3f c5 5f dd 3e 43 a1 51 be
       -0.19517608 0.6089026 0.4323713 -0.20471673
000210 34 be 80 3d fa 98 48 be af 3c 71 be 48 e3 44 bd
       0.06286278 -0.19589606 -0.23558305 -0.048068315
000220 e9 7b 8e bd 39 b2 07 bb 25 ae 8e 3c a2 6d 8a bd
       -0.06957228 -0.0020705594 0.017417023 -0.06759192
000230 39 e7 1d 3d b1 65 93 3a ed 26 92 bd 59 a0 b8 bd
       0.03855059 0.0011245516 -0.07136331 -0.09014959

model.eninput.0.bias f4 [8]
000000 a8 5b 43 be 21 50 8b bd cd 7d 1b 3d 5f 78 06 3c
       -0.19077933 -0.06802393 0.03796177 0.00820741
000010 b4 69 3f bd 70 ea a1 3d 45 15 1d 3b d1 d0 c1 3b
       -0.046731666 0.079060435 0.0023968976 0.0059147854

model.ec1.0.weight f4 [8, 8, 3, 3]
000000 05 eb cf bd 21 9a ae bd b1 75 00 3e 17 b5 9f 3d
       -0.10152248 -0.085254915 0.12544896 0.07798212
000010 d6 3a a7 bd ed 50 e7 bc 65 3d 18 bb 15 20 9f bd
       -0.08165519 -0.02823683 -0.0023229953 -0.07769791
000020 c8 41 d8 bd 86 b6 23 bd 69 ad 0f bd 97 0a 12 3d
       -0.10559422 -0.03996899 -0.035077486 0.03565463
000030 df 27 a0 3d 2a 56 61 3c 7d 6a b2 3d c0 2b dd bb
       0.07820105 0.013753453 0.08711717 -0.0067496
000040 c8 0e 7a 3d 11 60 b8 bc 5b 06 11 bc 97 6a ce bd
       0.061049253 -0.022506746 -0.008851613 -0.10078924
000050 97 aa c9 bc c6 9d 06 bd c6 5f aa bd 3d 2a 7b 3d
       -0.024617476 -0.03286531 -0.083190486 0.06131958
000060 91 49 8b 3c d9 9c b7 bd 69 9a d8 3c b9 a5 ad 3c
       0.017002853 -0.08965463 0.026440816 0.021197187
000070 1e 19 d0 3d f3 91 d9 bd 50 b8 0c 3e 81 6d 04 3f
       0.10161041 -0.10623541 0.13742185 0.5172959
000080 1c 05 e0 3d 6d 00 0d 3c 87 b6 a0 bc 5b 5c ef bd
       0.109384745 0.008606059 -0.019618286 -0.11687537
000090 a2 13 e6 bd 58 26 3d 3d 5d 1d 0e be ea 84 17 3e
       -0.112342134 0.046179146 -0.13878389 0.14796796
0000a0 e1 e0 8e 3e d4 7f d7 3d 15 3a c4 bc f7 a0 9e bd
       0.27905944 0.10522428 -0.023953477 -0.07745545
0000b0 ad 5d 9f bc 20 d7 22 be fb d6 ae 3c ec 28 7e bd
       -0.019453848 -0.15902376 0.021342745 -0.062050745
0000c0 18 36 ba 3d 8e 0a 7d 3e e3 97 1b 3e 58 c5 f8 bd
       0.09092349 0.24711058 0.15194659 -0.12147015
0000d0 0c a1 35 3d 31 75 37 be 1d 9f ca bc cb 51 a0 bc
       0.04434304 -0.17915799 -0.024734074 -0.019570252
0000e0 48 4d 7d 3c c0 53 14 3e db ad b4 3d f2 b8 96 3d
       0.01546032 0.14485073 0.08822223 0.07359494
0000f0 f6 8f 4b bb 8e 31 67 3e 88 03 d3 bd 4d ac 7d bc
       -0.003106115 0.22577497 -0.10303408 -0.015482974
000100 62 1f db bc 24 62 3e bd 6f dc 2d 3d 5e e1 91 3e
       -0.026748363 -0.046480313 0.04244655 0.28492254
000110 c6 59 27 3e 7b a3 88 3b 38 d4 07 3e 15 72 84 bd
       0.1634284 0.004169879 0.13264549 -0.06467072
000120 6b a7 3c 3e 97 73 c8 bd 2c 58 cb be 91 90 00 3f
       0.1842324 -0.09787672 -0.39715707 0.5022059
000130 3d e8 21 3d 18 d7 79 be f2 bb d4 3e e5 3e f7 3c
       0.03952812 -0.24398458 0.4154964 0.030181358
000140 a0 db 01 bf 81 75 1a 3e 5c de 0b be 59 ac 27 be
       -0.50725746 0.15083887 -0.13659042 -0.16374339
000150 3e 4a 9b 3e 5e e1 56 3d ea 8d 0d be 95 02 37 3e
       0.3033008 0.05246102 -0.13823667 0.17872079
000160 60 7c 97 bd 24 c8 08 be ad bf 36 bc 38 ce fb bc
       -0.073967695 -0.13357598 -0.0111540975 -0.030737981
000170 29 e2 0f be d5 36 1c 3e d6 ca d3 3d 7d dd 53 be
       -0.14051117 0.15255292 0.10341422 -0.2068996
000180 72 ae 14 be df 54 0e be 17 02 47 be a1 c3 d0 bc
       -0.1451967 -0.13899563 -0.19434391 -0.025483908
000190 63 8a 52 3d a8 20 06 bd aa 12 c0 bc de 7e 4b 3e
       0.051401507 -0.032745987 -0.0234464 0.19872615
0001a0 95 e2 93 3d f1 e7 48 be 99 4a 79 bc f0 40 64 3c
       0.072209515 -0.19619729 -0.015215539 0.013931498
0001b0 fb ff 7f 3e 06 00 26 3e c0 f3 33 be 22 ad bf bc
       0.24999993 0.16210946 -0.17573452 -0.023397986
0001c0 0b f4 14 3e d8 6b 0a be 09 d3 eb bd 68 36 a5 bd
       0.1454622 -0.13517702 -0.11514861 -0.08067018
0001d0 5b a7 86 be ec e7 c5 be ad 5f 46 be 11 62 d1 3d
       -0.26299557 -0.38653505 -0.19372435 0.10223783
0001e0 fe 52 a7 bb 4d 9b ad 3d ab a4 16 3e 65 14 35 be
       -0.005106329 0.08476887 0.14711253 -0.17683561
0001f0 7e c9 f6 3d f8 6f e6 3d 1d eb 1e 3d ca 11 14 3e
       0.1205015 0.11251825 0.03879844 0.14459911
000200 a0 ab c6 be de 48 b3 3e 08 4f 2a 3e 01 00 c9 be
       -0.38802814 0.3501653 0.1663171 -0.39257815
000210 94 0b b3 3d 14 49 bb bd ed e9 d4 be a7 4f 2f 3e
       0.08742443 -0.09144798 -0.4158472 0.17120229
000220 a2 27 65 3d 9d 35 85 be 48 cd d9 3e 6f fb 0d 3e
       0.055946 -0.26017466 0.4253943 0.13865446
000230 81 f6 22 be 80 fe 8a 3e bd 3a d5 bd da 9d 9c be
       -0.15914346 0.27147293 -0.10411594 -0.3058918
000240 a3 0f f7 be 5a 45 99 be b1 8a 28 3e a9 07 95 be
       -0.48254117 -0.29935724 0.16459157 -0.29107407
000250 c5 1e ac 3d 04 2d 01 3f aa 50 b3 be 64 04 bb 3d
       0.08404306 0.50459313 -0.3502248 0.09131697
000260 de 89 09 3f 7e 5d 98 be 27 ba 6e bd 61 63 8b 3d
       0.53725994 -0.2975883 -0.058282997 0.068060644
000270 43 3a 49 be 05 4a 6a 3d e4 a8 9b 3e 54 40 4c bd
       -0.19651131 0.057199497 0.3040229 -0.049866036
000280 0c ca 54 3d 37 e4 91 3e dc 61 af bd f8 a3 95 3d
       0.0519505 0.28494427 -0.08563587 0.07306665
000290 83 b8 bd bc 4a 0e 9d bd 19 43 ac 3d ba 81 83 3d
       -0.023159271 -0.07668741 0.08411235 0.06421228
0002a0 76 e7 3b 3d 5a f5 c9 3d ab b7 0f bd f3 3f 52 3d
       0.045875035 0.0986125 -0.03508727 0.051330518
0002b0 c3 b7 c7 3d d4 2c 4c bc 32 e1 11 bc 57 7e 4d 3e
       0.09751847 -0.01246186 -0.008903788 0.20067726
0002c0 82 a6 2f 3c 7d 6e c8 bb 3a d8 85 3c 19 9d c8 3b
       0.010720851 -0.006116687 0.016338456 0.006122243
0002d0 32 de fb be f8 b6 03 3e 8d e2 a8 3d 1c ac 93 be
       -0.4919296 0.12862766 0.08246336 -0.28842247
0002e0 9c bf c8 3e 83 e8 e5 3d e5 84 f2 3d 00 12 5e 3e
       0.39208686 0.11225989 0.11841754 0.21686554
0002f0 a6 33 d1 bb fd 6d b7 3d db 26 a0 bd e6 ae 64 bd
       -0.006384331 0.089565255 -0.07819911 -0.05583086
000300 f0 7a 0b 3e 72 71 aa bd 28 05 8a be 4b 79 aa 3d
       0.13621116 -0.08322419 -0.2695706 0.08323916
000310 ef 2e 14 bc 43 62 08 be 60 a8 8a be d8 d5 1e bd
       -0.009044393 -0.13318734 -0.27081585 -0.038778156
000320 6c 30 65 3d 4c a9 0a be 58 34 82 bc b1 9c 90 3e
       0.05595438 -0.13541144 -0.0158941 0.28244546
000330 f1 27 c7 bc 65 f0 43 3e 0c b9 82 3e 38 19 99 be
       -0.024311038 0.19134672 0.25531805 -0.29902053
000340 dd 9d 18 bb f2 21 85 3c ed e2 b8 be 59 7a 7a 3d
       -0.0023287453 0.016251538 -0.3611063 0.061151836
000350 6d 0d 80 3e cb 72 8b be f8 0f d9 3d c1 55 62 3e
       0.25010243 -0.27236018 0.10598749 0.22103025
000360 a7 9d 97 bc 36 a0 c0 bd 7c 81 66 bd f3 94 5b 3e
       -0.018507792 -0.09405558 -0.05627583 0.21443538
000370 17 55 7b 3e 2d ac 36 3d 4f 16 09 3d 82 69 0e bd
       0.24544178 0.044597793 0.03346854 -0.03476859
000380 94 5a c4 bd 60 19 31 3e 89 a0 c3 3d a9 fe b9 3d
       -0.09587589 0.17294836 0.09552104 0.09081776
000390 c5 c9 b6 3d 19 73 44 3e 7a bd 25 3e 81 fd a7 3b
       0.08925203 0.19184531 0.16185561 0.0051266556
0003a0 1c f1 76 3d d1 f4 0e 3e 7a 59 c3 3b 36 a9 5e 3e
       0.060288534 0.13960578 0.005961594 0.21744236
0003b0 c0 52 aa 3d d9 19 79 3e 95 18 23 bd 37 7e 55 be
       0.083165646 0.24326266 -0.039818365 -0.20848928
0003c0 e9 43 97 3c 24 6c 1f be be a6 83 bd e1 74 05 bd
       0.018465 -0.15568596 -0.06428288 -0.032582168
0003d0 d9 df 3e be 35 c3 3c bd e7 1f 07 be f6 d8 81 be
       -0.18640079 -0.0460846 -0.13195764 -0.2536084
0003e0 a8 19 58 be 38 89 87 3d 74 10 b1 3c 5e a4 a9 3c
       -0.21103537 0.06617969 0.02161429 0.02070826
0003f0 2c 5c cf bd 5e da 24 bd 13 6c b0 bd 4d 0c 8a 3d
       -0.10125002 -0.040247314 -0.086143635 0.067406274

model.ec1.0.bias f4 [8]
000000 af 6b 4e 3d 06 1d 49 3c 06 37 5f 3d b2 af 6d 3d
       0.050395664 0.012274986 0.054495834 0.058028884
000010 32 d7 7e bb ab 19 11 3e b0 c7 35 3d 25 7a 8c bd
       -0.003888559 0.14169948 0.04437989 -0.06859235

model.ec2.0.weight f4 [16, 8, 3, 3]
000000 aa 0e f3 3d 21 04 d3 bc 8c 81 dc bd 50 9c 23 3c
       0.11868031 -0.025758805 -0.107668966 0.009985998
000010 fc bd 3f be ec b1 3f 3e e9 e1 f4 3d 4e 43 0e 3d
       -0.18724817 0.18720216 0.119571514 0.034732156
000020 28 3a 90 bc 2b cb 0e bd c1 82 8a 3d fc dd aa bc
       -0.017605856 -0.034861725 0.067632206 -0.020857804
000030 f0 ec c4 be c3 a3 0e bd 52 12 be 3c 4e 05 04 be
       -0.3846202 -0.034824144 0.023202095 -0.12892649
000040 c4 77 59 bd 4c 73 93 3d 09 53 e2 bd 74 af 16 bc
       -0.053092733 0.071997255 -0.11050994 -0.009197105
000050 57 8d 45 3e 5e 12 7c 3c 7e 47 da 3d ac c7 39 3e
       0.19292198 0.015385238 0.10658167 0.18142575
000060 7d 82 11 3e 1b dd ca bd e6 c0 a0 3d d8 c0 1a be
       0.14209934 -0.09905454 0.078492925 -0.15112627
000070 4e d6 fe bd a2 ea 0b 3e 46 1f 5f be e9 ec 84 bd
       -0.12443219 0.13663724 -0.21789274 -0.064904995
000080 d0 9d 29 3e ff ff 2e bd c2 5f 17 3e ac c3 56 3e
       0.16564107 -0.042724606 0.14782622 0.2097308
000090 a4 b5 e2 3b fa a0 6a 3c 73 75 c9 3e 72 68 0f be
       0.006918626 0.014320606 0.3934742 -0.14004686
0000a0 07 f0 bb 3d 84 05 a3 3e 19 e3 f7 bd f3 e9 b4 bd
       0.09176641 0.31840146 -0.12103862 -0.08833685
0000b0 e5 92 b2 3d 3b b6 20 3c d2 1a 98 3c 9d 50 5d 3d
       0.08719424 0.009809072 0.018567476 0.054031957
0000c0 62 36 fa 3d 4f 72 15 be 09 fe 0e be ec c1 31 be
       0.12217404 -0.14594387 -0.13964094 -0.17359132
0000d0 e9 67 2c bd b1 f0 0f bc b5 f8 89 bd 00 45 cb 3c
       -0.042091284 -0.008785413 -0.0673689 0.024813175
0000e0 af 34 12 bb f2 18 a8 bd 3e 68 5c be 46 48 2c bd
       -0.0022309234 -0.08207883 -0.2152414 -0.042061113
0000f0 34 2a de 3c 5c 5d a6 bd f6 50 7a bc f0 52 84 3d
       0.027119733 -0.08123276 -0.015278092 0.064611316
000100 41 35 82 3e be 08 91 bd da 4c 23 3e 71 00 19 3e
       0.25431255 -0.070817456 0.15947285 0.14941575
000110 9e 56 91 bc 07 41 10 bc 82 40 2b 3d 09 8a d3 bd
       -0.017741498 -0.008804566 0.041809566 -0.103290625
000120 cf 06 65 be 97 b5 66 be 52 d8 5c bc 79 18 93 be
       -0.22365879 -0.22530209 -0.013479309 -0.2872961
000130 d2 f8 d6 be 8c 30 a9 bd ca 0e fa bd 78 ab 9e bd
       -0.4198671 -0.08261213 -0.12209852 -0.07747549
000140 b6 ac 10 bd 19 a9 ad bd 5a b1 05 3b 18 e0 85 3d
       -0.03532096 -0.084795184 0.00203999 0.06536883
000150 26 fe e0 3d d1 ae 10 be e2 d3 a3 3b 65 9d 9a bb
       0.10985975 -0.14129187 0.0049996236 -0.00471847
000160 14 66 6b 3d b9 a5 49 3d 80 c5 52 bd 6a 57 69 3d
       0.057470396 0.04923031 -0.051457882 0.05696813
000170 12 8a e9 bc 5c c1 7c ba 98 8a 5e 3c 22 08 f6 bb
       -0.02850822 -0.000964185 0.013582848 -0.0075082937
000180 b0 66 70 bd 67 7c c3 3c cc 37 d3 3c 58 30 1b 3e
       -0.05869168 0.02386303 0.025783442 0.1515516
000190 a8 32 69 bd 59 e7 98 bc 8a f7 47 3e ce d9 8d 3d
       -0.056933075 -0.018665003 0.19528022 0.069263086
0001a0 ef 5d d9 bd c8 3e bb 3d 1f 0c 83 3c bf 61 46 3d
       -0.106136195 0.09142834 0.01599699 0.04843306
0001b0 bb dc 3d 3e 45 59 c6 bc d0 f6 99 bd 2e 5c 0b be
       0.18541233 -0.024212489 -0.07517779 -0.13609383
0001c0 2a 5b 23 3e ca 50 32 3c 95 be b2 bd 28 50 0b 3c
       0.15952745 0.010883519 -0.08727757 0.008502997
0001d0 7b e7 8d 3b ce 95 20 3e 00 26 d9 3d b6 4e 32 be
       0.004330573 0.15682146 0.10602951 -0.17412838
0001e0 1a 61 34 3e 92 1b 9d 3d 8e af 68 bd 8f 24 88 bd
       0.17615166 0.07671274 -0.056808047 -0.06647598
0001f0 23 21 80 bd 19 f0 08 bd bc 3f b3 3e 4f 3c d5 3d
       -0.0625632 -0.0334321 0.35009563 0.104118936
000200 26 2d f4 bd 2d 64 c8 3e eb 32 64 3e 83 03 a5 bd
       -0.11922674 0.39138928 0.22285049 -0.080573104
000210 95 4d 39 3c 35 2b ed bb af ee ac 3b a6 39 13 be
       0.011310001 -0.0072378167 0.0052774767 -0.1437746
000220 6a f4 3b bd a4 0e 2e 3e 29 98 1d be 86 6d 80 bd
       -0.04588739 0.16997772 -0.15390076 -0.0627089
000230 8b db 01 3e 8b 1a a0 bb c8 e3 2b be 25 ba 39 bd
       0.12681405 -0.0048859767 -0.1678611 -0.045343537
000240 7b bb 69 be e2 23 8e bd 94 7f 7e 3e fa f1 07 bd
       -0.22825424 -0.06940438 0.24853355 -0.03318975
000250 ff fa 87 3e 63 70 b2 3e 48 94 a0 bd 4d fc ef bb
       0.26558682 0.3485137 -0.078407824 -0.007323778
000260 30 01 b1 3d 9a 99 90 3d d2 f5 f2 3d 6a ad 91 3d
       0.086428046 0.07060547 0.11863293 0.07113154
000270 49 a7 15 3c 31 59 24 be 5a 52 8b 3d e9 ef 32 3e
       0.009134122 -0.16049649 0.06802817 0.17474331
000280 96 30 a3 3c 96 3a 98 bd 00 6b 6f bf 37 c8 0a bc
       0.019920629 -0.074330494 -0.93522644 -0.0084705865
000290 c7 40 7c be 24 7f 8d be 4a f0 fd 3e 18 c7 f7 bc
       -0.24634086 -0.27636063 0.49597389 -0.030246302
0002a0 14 7e 9d be d7 3a 6a 3e f7 07 33 bf c8 6b d1 3e
       -0.30760252 0.22874008 -0.6993403 0.40902543
0002b0 54 99 06 3d 9c f1 26 3e d4 8a 30 3e ab be b3 be
       0.03286107 0.16303104 0.17240459 -0.35106406
0002c0 33 b5 88 be 69 28 13 3d 66 8a e8 be 87 b5 03 be
       -0.26700744 0.03592721 -0.4541809 -0.12862216
0002d0 18 74 54 be 30 a6 bb bc cd 8c af 3c b9 7d c9 be
       -0.20747411 -0.022906393 0.021429444 -0.3935373
0002e0 ee 5d a1 3b ce c1 90 be 07 06 86 3e 25 1f 63 3e
       0.0049245274 -0.2827286 0.26176473 0.2217985
0002f0 c2 3d 75 3e 2a e9 a1 be f6 8b e4 bc 57 8b 12 3e
       0.2394934 -0.31623203 -0.02789877 0.14310966
000300 d6 f3 2e bf b0 b4 57 bd 0e 48 31 3d 41 6b e6 bc
       -0.68340814 -0.05266255 0.043281607 -0.028127315
000310 5d 8f a4 3e e6 92 21 3f 7d 2c 32 3e df ec 4b bd
       0.32140628 0.63114774 0.17399783 -0.049786445
000320 44 ee ea be 97 29 49 be 4f 17 87 be ac b3 e6 be
       -0.45884907 -0.19644772 -0.2638497 -0.45058954
000330 1b 4c 93 be 7a ab 1b bf 72 6b 0e 3f e1 67 05 3e
       -0.28769 -0.6080853 0.556327 0.13027908
000340 50 4a 7a 3d c2 7c c5 bc 10 9a 08 be da 63 1b be
       0.061106026 -0.02410734 -0.1334002 -0.15174809
000350 8e a3 cb bd 4d 01 cd 3c 7d 37 0c 3e 4d 78 b7 3e
       -0.09943305 0.025025034 0.13693042 0.3583397
000360 ab 78 b8 bd 86 d4 8f 3e 5c 2b ac 3e a9 2e f7 bc
       -0.090073906 0.2809183 0.3362683 -0.030173616
000370 25 07 e9 3d f1 7d 8c 3e 21 17 0d be 44 92 17 3d
       0.11378316 0.27439836 -0.13778354 0.037004724
000380 5b 9b 1f 3e d5 d8 fd 3d 35 61 81 be ca 1c e8 be
       0.15586607 0.12394873 -0.25269476 -0.45334464
000390 24 b6 cc 3d e3 f4 d0 bd 07 05 83 be 94 2c ae 3d
       0.09995678 -0.102029584 -0.25589773 0.08504596
0003a0 7d 82 96 be 32 0f b4 be 43 c7 b6 bc fa 60 82 be
       -0.2939643 -0.35167843 -0.022311812 -0.25464612
0003b0 46 de 21 be 06 7d 9f 3d 60 c3 8e bd 42 dd f6 bd
       -0.15807447 0.07787518 -0.069708586 -0.1205392
0003c0 9f c2 97 bd 7a 5c 29 be 54 cf 0b 3e 58 f1 d3 3d
       -0.07410168 -0.16539183 0.13653308 0.10348767
0003d0 0d bb 8a 3d 0d b0 60 bc 84 db e6 3d df e9 c2 bd
       0.06773958 -0.013713849 0.11272338 -0.095172636
0003e0 4f c4 94 be 39 ed d4 3b 7a b2 47 bd cd eb a3 be
       -0.29056022 0.0064980057 -0.048754193 -0.3201584
0003f0 94 f3 6e bd 72 12 58 be 87 0e 15 3e 75 1b 4a be
       -0.058337763 -0.21100786 0.14556323 -0.19737037

model.ec2.0.bias f4 [16]
000000 61 f5 1b bc 90 96 b4 3d eb dd 05 bd 94 ef 57 bd
       -0.009518952 0.0881778 -0.03268234 -0.052718714
000010 f8 e9 a2 bd 79 b1 93 bc 63 c2 e0 3d 42 b7 1b 3d
       -0.07954782 -0.018028961 0.10974576 0.038016565
000020 45 de a7 3d b2 2f d1 3d 16 d3 e5 3c 34 5c a9 3d
       0.081966914 0.10214175 0.028054755 0.082695395
000030 52 eb 54 3d ad a1 86 bc e3 c8 7c 3d b3 c7 b0 3c
       0.05198223 -0.016434515 0.061715018 0.021579599

model.ec3.0.weight f4 [16, 16, 3, 3]
000000 89 7a 24 3c 9c 14 7e 3d fc 73 05 3e 51 39 5c 3d
       0.01003898 0.062031373 0.13032526 0.0537656
000010 72 d0 bf 3d 65 19 18 3e 23 3f 2d bc 38 77 fd 3d
       0.0936593 0.14853437 -0.010574135 0.12376255
000020 7f 22 d9 bc 9c e9 0d be bb 04 91 bd e0 0d 0a 3c
       -0.026505707 -0.13858646 -0.070809804 0.00842616
000030 d0 1f 39 3e 06 66 f3 bd 17 c0 d8 be 5e 9a 41 be
       0.18078542 -0.11884694 -0.42334053 -0.18906543
000040 55 5b a2 3e 8d cf 31 3e 1d 09 3b 3e e7 80 f3 3d
       0.31710306 0.1736433 0.18265195 0.118898205
000050 50 56 f7 bd cd 4b 12 3e b1 95 be 3c db df 68 bd
       -0.1207701 0.14286728 0.023264738 -0.05685411
000060 62 f3 fa 3c d0 68 90 3e 10 4f ca bd aa b2 c8 bd
       0.030633632 0.28204966 -0.09878361 -0.097997025
000070 dd 86 b3 3d 31 63 0d be 62 0d d8 3d ff 39 b2 3d
       0.087659575 -0.1380737 0.105494276 0.08702468
000080 72 80 0b be f0 0f e9 be 9d ca 97 be 5a 23 8a be
       -0.13623217 -0.45519972 -0.2964677 -0.26980096
000090 fc de 7b bc 43 75 a6 bc 95 33 a3 3c 8f 7c 1b bd
       -0.015372988 -0.020319587 0.019922057 -0.037960585
0000a0 96 c2 2e 3b bb 81 1a 3e 33 20 b2 3d 98 89 af bc
       0.0026666275 0.15088551 0.08697548 -0.021427915
0000b0 a7 74 41 3e 95 5a ef bc 0e 38 ab bb fa 8c 39 3d
       0.18892156 -0.029217998 -0.005225188 0.04530046
0000c0 04 c4 05 bc 27 f3 f6 bd a1 1a d9 bc 4b f1 07 bd
       -0.00816441 -0.120580964 -0.026501955 -0.0331891
0000d0 f7 7d cd bd 87 6c 84 3d 9c 5a b3 3d 27 06 68 bd
       -0.100337915 0.064660124 0.08757517 -0.056646492
0000e0 7b ad b5 bc f6 34 62 3d 80 f9 31 3c f1 e3 dd 3d
       -0.022177448 0.05522629 0.010862708 0.10834492
0000f0 78 48 12 bc b9 db 45 3e a9 59 f9 3d 11 2f 11 be
       -0.008928411 0.19322099 0.121753044 -0.1417811
000100 80 e2 f2 3d 3f 84 51 bd 6a 52 98 be e5 ad 80 3d
       0.11859608 -0.05115151 -0.29750377 0.06283168
000110 94 c6 74 be 2b 85 ca bd 9a ed ef 3d 0e f1 b1 bd
       -0.23903877 -0.09888681 0.11715241 -0.08688556
000120 98 ae 3a 3c a9 9b 0c 3e a5 e5 18 3e 4a df b0 bc
       0.011394165 0.13731255 0.14931352 -0.021590848
000130 9a 5c 16 3e 0e c5 f7 3d 6e 13 0b 3e fc 64 6c 3d
       0.14683762 0.12098132 0.1358163 0.057713494
000140 3f 91 1d 3e c2 9d 21 3c 80 f5 f9 3d 52 c8 9e bd
       0.15387438 0.009864273 0.122050285 -0.07753052
000150 6b 70 75 3d ff 56 5e 3e 4b f7 82 bc 35 ef 4c 3e
       0.059921663 0.21712874 -0.01598706 0.20013125
000160 96 36 b7 3d 3d e3 b2 bd a0 c9 67 bc b2 57 89 be
       0.08945958 -0.087347485 -0.014147192 -0.2682472
000170 1b e5 0d 3e be da b1 3e 49 27 ea 3d 7b 27 03 3e
       0.13856928 0.347372 0.11433274 0.1280803
000180 6e 0b a7 bc 89 46 92 3d 37 25 90 3d cf a3 f4 bc
       -0.020391192 0.0714236 0.07038348 -0.029863266
000190 ec 1d 3a bd 8c 9a 19 bd e5 f5 a6 3a 16 6a 78 3d
       -0.045438692 -0.037500903 0.0012738077 0.060648046
0001a0 83 e0 a7 bd ff da b3 bc 82 88 7e be 4d 2f 8e bc
       -0.08197119 -0.021955011 -0.24856761 -0.01735654
0001b0 f3 92 84 bd d7 5b fd bd 6d 13 17 be 83 ba d3 3c
       -0.06473341 -0.12371033 -0.14753504 0.025845772
0001c0 ea 77 00 be ba 70 33 be c6 47 7d 3c f3 c9 63 3a
       -0.12545744 -0.1752347 0.015459007 0.00086894556
0001d0 b7 b1 96 be 6c 79 70 3d 9a 94 89 bd d8 56 fa 3d
       -0.2943246 0.058709547 -0.067177966 0.122235954
0001e0 29 f9 f6 3c 01 03 19 bd 5d 91 4c 3e 08 06 3b bd
       0.030148106 -0.03735638 0.19977327 -0.04566005
0001f0 57 98 aa 3d 4f 7e df 3c 79 75 20 be 84 c0 55 3b
       0.08329838 0.027281908 -0.15669812 0.003261597
000200 93 88 5b be 3e 7b ba be eb 6a 4e 3e 35 fe e5 3e
       -0.21438818 -0.3642215 0.20157973 0.44920507
000210 8b 81 e2 bc 36 f3 90 be ba e0 ad be c5 82 80 bd
       -0.027649662 -0.28310555 -0.33960515 -0.06274942
000220 8c ce df 3d 54 df 02 bd 91 f2 6a be d8 8b dc bd
       0.109280676 -0.031951264 -0.22944094 -0.107688606
000230 78 69 bb 3d 48 c1 d3 3d 0c 11 07 bd c6 db da 3b
       0.09150976 0.103396 -0.03297524 0.006679031
000240 7e 50 4c 3c d9 64 cb 3d 30 b8 f8 bc 11 7c 80 be
       0.012470363 0.099313445 -0.030361265 -0.25094655
000250 d3 61 fd bd 88 9d ec 3d 57 b6 2a 3d 70 dd ff 3d
       -0.12372174 0.11553484 0.0416778 0.12493408
000260 36 e5 85 bd bf ec 18 bd 6e ef b7 3d b2 a2 12 be
       -0.06537859 -0.037335154 0.089812145 -0.14319876
000270 f6 f1 c0 3e 3d 6e 46 3f dd 73 19 be bd 2a 08 be
       0.37684602 0.7751196 -0.14985605 -0.13297553
000280 fd f7 f2 bd a4 11 9d be a8 c4 79 be c4 96 73 3d
       -0.11863706 -0.3067752 -0.24391425 0.059469953
000290 ae f4 5a be a6 3d 12 be c8 0f 32 3d 5a ce 51 bb
       -0.213824 -0.1428133 0.04347208 -0.0032013864
0002a0 af 86 b9 3d 0f 2c 0d be cb 06 fb bd dd 74 bb 3e
       0.09058892 -0.13786338 -0.12257155 0.36612597
0002b0 cf d1 f4 be b8 7e bd be 8f 48 fa bc 0f 84 80 3d
       -0.4781632 -0.3701074 -0.030552177 0.06275188
0002c0 68 68 1b be b4 2d a7 be b3 79 8a be 8d 02 fd bd
       -0.15176547 -0.32652056 -0.27045974 -0.12354002
0002d0 42 08 72 3d 10 a8 9d 3e d4 e4 1c 3e 05 7f b2 be
       0.059089907 0.30792284 0.15321666 -0.34862533
0002e0 76 b2 42 3d 2f 29 3c 3e af d6 63 be 5e 7a f8 3d
       0.047533475 0.18375085 -0.22249864 0.12132715
0002f0 d6 33 62 3e 68 63 9a bd b2 fd 06 3e 96 94 30 bd
       0.22090086 -0.075384915 0.13182715 -0.043110453
000300 88 78 41 be 8f 7f 28 3e c4 f0 1b 3c 36 13 d9 bd
       -0.18893635 0.1645491 0.009517852 -0.10599367
000310 46 71 87 3d 48 a6 d2 bc b4 03 3d bc 9e d2 f1 bc
       0.06613402 -0.025714055 -0.011536527 -0.029519375
000320 83 de 01 bd 75 cb b0 3d 8d e6 f2 3d 02 3d 08 be
       -0.031706344 0.08632556 0.1186038 -0.13304523
000330 4a 18 ff 3d 25 b3 ef 3d 54 9c 1b bc 1f 5b e8 3d
       0.12455805 0.11704091 -0.009497721 0.11345505
000340 1e c4 60 bd 15 ee 15 be b1 08 3d 3c 87 c9 ac 3e
       -0.054874532 -0.14641602 0.011537717 0.33747503
000350 73 8c 78 bd fe 27 a3 3b 77 f7 95 3c 65 02 0d be
       -0.060680818 0.0049791327 0.018306477 -0.13770445
000360 4f 4d 93 3d 14 f5 fb bc 98 c9 60 3d 62 cd 34 be
       0.0719248 -0.03075651 0.054879755 -0.17656472
000370 ca 76 bd bd bc dc 71 bc 98 59 99 3d d8 80 b5 3d
       -0.09251173 -0.0147621 0.07487792 0.088624656
000380 97 34 64 3c 6c 13 e9 bd 1f 8b e6 bd b8 89 64 bd
       0.013928554 -0.113806576 -0.11257004 -0.0557954
000390 6e a7 1e 3e a0 68 57 3d aa 0c 08 3d bb 07 31 be
       0.15493557 0.052590013 0.033215202 -0.17288105
0003a0 46 ae 0a be bd 0a 4d 3d ab 7a 88 3e 9e 51 1d 3e
       -0.13543043 0.05005907 0.26656088 0.15363166
0003b0 ea c0 d3 bd 6e ac 0b 3e 02 af cc 3c 1c 76 62 be
       -0.1033953 0.13639995 0.024985794 -0.22115368
0003c0 ca b3 b8 3c a3 db 79 3d 1d f2 31 3d 6c 14 81 3d
       0.022546668 0.061000478 0.043443788 0.06302723
0003d0 48 1c 4e bc 88 49 40 3d 12 d6 48 bd bb 56 d4 3d
       -0.012579985 0.046945125 -0.04903228 0.10368105
0003e0 af 2f 63 bc a3 f1 f0 3d 16 1d 9f 3d 27 fe 99 3d
       -0.013866349 0.117648385 0.077692196 0.07519179
0003f0 2b af 66 3e b6 31 dc bd 75 7e d6 bd 89 a7 9f 3c
       0.22527759 -0.10751669 -0.104733385 0.019489067

model.ec3.0.bias f4 [16]
000000 f1 84 07 3d c7 c5 18 3c 7a 66 5c bd 58 43 7d bc
       0.033085767 0.009324498 -0.053808667 -0.0154579505
000010 48 5f b7 3d f1 e6 82 3d 99 66 59 3b 27 d6 8c bb
       0.0895372 0.06391705 0.0033172725 -0.00429799
000020 f2 03 d4 bb 08 2a 26 3a 48 e5 28 3c 09 21 bb bc
       -0.006470197 0.00063386606 0.010308571 -0.0228429
000030 15 9e 1c bb 2f d3 1d 3d 3d 17 6a be f0 b4 32 bc
       -0.0023897935 0.03853148 -0.22860427 -0.010907397

model.ec4.0.weight f4 [32, 16, 3, 3]
000000 d1 02 76 bd 90 fd bc bd 81 1a 01 3e f1 76 75 be
       -0.06006128 -0.09228051 0.12607767 -0.23971154
000010 c6 4d 8f be 01 11 14 3e bf ec e1 bd 71 6a 91 be
       -0.27989024 0.14459611 -0.11031484 -0.2840152
000020 83 58 22 bd 60 43 22 bd 3e 0b 5c be 77 56 1a 3d
       -0.039635193 -0.039615035 -0.21488664 0.037680116
000030 0e 6c e5 bd 76 f0 3b be 68 2d 1e 3f 36 94 ec bd
       -0.112022504 -0.18353447 0.61788034 -0.115517065
000040 b3 c4 24 bd 52 db e0 3e f6 ac f0 bd 6e 7a 51 be
       -0.04022665 0.43917328 -0.1175174 -0.2045686
000050 c6 9f 07 3e 1b 64 f7 bd bb 30 81 bc 08 3d 23 3d
       0.13244542 -0.120796405 -0.015770307 0.039853126
000060 22 9e f3 bd 51 69 e2 3d 58 86 72 3d 17 d2 64 3d
       -0.11895396 0.11055244 0.05921015 0.05586442
000070 e6 ab 84 be be 3a d8 bd b1 5e 61 be 08 af 19 bf
       -0.25912398 -0.10558079 -0.22008778 -0.600327
000080 21 7a 37 be 1b fd 96 bd de 9a a6 bd 8e 51 36 bd
       -0.17917682 -0.07372495 -0.08135007 -0.04451137
000090 67 c6 0f 3e 51 bb 61 be e4 f4 0e bd 09 62 01 be
       0.14040528 -0.22044112 -0.034901515 -0.12635054
0000a0 52 66 f3 be 1c c9 ca bd f4 6e 8e bd 6b f7 c5 be
       -0.47539002 -0.0990164 -0.069547564 -0.38665327
0000b0 93 fc 34 bd ce 2c d4 bd 1b 0f a1 bb 4e 3f 09 3e
       -0.044186186 -0.10360108 -0.004915131 0.13403055
0000c0 d5 fe 15 be ac 17 00 3e 15 85 22 3e 46 9b 49 be
       -0.14647992 0.1250903 0.1587108 -0.19688138
0000d0 86 5b f3 3d 84 7e 41 3d fc d2 de 3b 02 35 b5 bd
       0.11882691 0.047239795 0.0068000536 -0.08848001
0000e0 77 6b ca bd 84 79 75 bd a8 77 03 bd f7 f5 a9 3d
       -0.098837785 -0.05993034 -0.032096535 0.08298867
0000f0 2c 0f 32 3d f7 db 26 bc 8d b9 0b bd 84 2d e5 3d
       0.0434715 -0.01018428 -0.034112502 0.11190322
000100 f4 7c a8 3e 1e 45 4f 3e 33 e6 08 3e 6d 1c e1 3e
       0.32907832 0.2024121 0.13369064 0.43967
000110 22 13 bf 3e 10 74 fc 3d 50 c9 4d 3e c9 65 56 3e
       0.37319285 0.12326825 0.20096326 0.20937265
000120 40 51 69 be 03 fe 0f 3e 9f fd 50 bc c5 94 26 bd
       -0.227849 0.14061742 -0.0127557805 -0.04066922
000130 71 3f 2d bd ac a8 22 bb 71 9e 4f bd 59 02 69 3c
       -0.04229683 -0.0024819775 -0.05068821 0.014221751
000140 48 9d fc bd 90 f9 9f 3d d6 ed 85 3e 8f 16 1b 3e
       -0.123346865 0.07811272 0.26158017 0.15145324
000150 17 88 da bd 7c ef a8 3e ec 06 76 3e 8e 1a 67 bc
       -0.10670488 0.32995212 0.24026078 -0.014105452
000160 07 c8 03 3d 2f 0f e7 3d 1e 75 8f 3b 42 20 06 be
       0.032173183 0.11282193 0.004377975 -0.13098243
000170 e4 0d 15 be df 00 f7 3d dc 29 3d be c5 6d d0 be
       -0.1455608 0.12060713 -0.18473 -0.40708748
000180 6f 2b 17 3e 96 ef bf 3d 67 0b 01 be 89 38 91 3e
       0.14762662 0.09371869 -0.12602006 0.28363445
000190 20 04 90 3d c1 1f a1 bd 0e ad 47 3d 72 6e ba 3d
       0.07032037 -0.07867385 0.048749022 0.09103097
0001a0 60 0e 57 be e5 84 92 bc 56 c2 6a bc a2 81 ab bd
       -0.21001577 -0.017885635 -0.01432856 -0.08374335
0001b0 c8 d3 0b 3e c7 29 b3 3c a6 77 8d bc a4 63 76 3e
       0.13655007 0.021870507 -0.017268967 0.24061447
0001c0 be 51 12 3e cb 96 17 be 3b 2f 15 3e 70 6e 0c 3e
       0.14288995 -0.14803617 0.14568798 0.13714004
0001d0 bb fb 89 bc 41 15 7e 3d 8a e4 6e 3c ae bb 02 bd
       -0.016843667 0.062031988 0.014580855 -0.031917267
0001e0 2e 72 c6 3d 06 e6 b3 3d ac e5 ee 3c 8e 1c ff bc
       0.09689747 0.08784108 0.02916225 -0.031141546
0001f0 40 5a b6 3d ae b2 93 bd 6b 4c 03 bb ca 99 17 3d
       0.089039326 -0.07211815 -0.0020034562 0.0370119
000200 44 a0 8a bd 25 56 45 be e7 8e 9f 3d e3 ac 33 3e
       -0.067688495 -0.19271143 0.07790928 0.1754642
000210 68 87 2f be de 2c c9 3c a5 5a 97 3d 7b af 8d 3d
       -0.17141497 0.024557527 0.07390336 0.06918236
000220 10 d0 9a bb 3f 5d 1c 3e d8 50 5d 3e aa 08 70 3c
       -0.00472451 0.15269946 0.2161287 0.014650503
000230 85 e2 93 3e ba 38 09 3e ce d3 69 3d 4d f7 92 3d
       0.28883758 0.13400546 0.05708676 0.07176075
000240 79 17 40 3e 9e bb 13 3e d8 a9 b5 bd b0 76 09 3e
       0.18758954 0.14427039 -0.08870286 0.13424182
000250 cd 63 47 3e 5e 78 00 3d d0 53 ad bd 34 eb 3f 3d
       0.19471665 0.03136479 -0.084632516 0.046855167
000260 7e 66 48 bd ca 18 21 3d ec e0 4d 3d 3a 4e 00 3d
       -0.04892587 0.03933028 0.05026333 0.031324603
000270 ac 75 dc 3d 31 5b 0c be 70 a0 86 3d 8b 15 c5 bd
       0.10764632 -0.13706662 0.0657357 -0.096232496
000280 e6 71 53 be ce 85 e9 3a a6 68 49 bd 20 d4 78 3d
       -0.20648918 0.0017816366 -0.049172066 0.060749173
000290 d6 bd ae 3c e1 bd 0b be 5d df 17 bd 8b 50 b4 bd
       0.021330755 -0.13646652 -0.03707825 -0.08804425
0002a0 4b 53 a3 3c e4 95 2f 3d a2 ad 67 3c 5e 5f 98 3e
       0.019937178 0.042867556 0.014140518 0.2976026
0002b0 9f 7e b4 3e f8 9d 16 bd 9f 64 d5 3d 3f ac 3b 3e
       0.35252854 -0.036771744 0.104195826 0.18327425
0002c0 1a 40 a5 bd 9f 3e 27 bd 5a 30 a6 3d ca 84 9c bc
       -0.08068867 -0.040831205 0.08114691 -0.019106288
0002d0 1f 23 6c 3e 0f 71 a6 3e a9 d6 12 3e c9 0d ee 3d
       0.23060273 0.32508132 0.14339699 0.11623723
0002e0 14 31 12 3e 5b ef 82 3d a8 6d 93 bd c4 80 93 bd
       0.14276534 0.0639331 -0.0719865 -0.072022945
0002f0 77 07 a8 bd f8 cf 95 3d a2 65 62 3c a2 85 1a 3d
       -0.08204549 0.073150575 0.013818176 0.0377251
000300 bf cf 26 3d 56 b9 96 3d 86 e4 d1 3d 83 64 32 be
       0.040725466 0.07359569 0.102486655 -0.17421155
000310 9b 42 11 bd f9 03 e7 bc 72 66 ee 3d ff 23 ab 3e
       -0.03546391 -0.028200136 0.11640634 0.334259
000320 85 97 f5 3d 47 19 e8 bd 62 17 cb 3c a4 b6 92 3d
       0.11991791 -0.11332946 0.024791423 0.07163742
000330 21 de b6 bd b7 77 61 bd da ba 29 bd 81 15 19 3e
       -0.089290865 -0.05504581 -0.04143796 0.1494961
000340 8f 10 a8 bd 53 d9 29 3d da c6 15 bd 4c 4b ac bd
       -0.08206283 0.041467022 -0.036566593 -0.08412799
000350 22 9d bd bc e0 b9 28 bd 4a c7 e8 bc f6 7d ce 3c
       -0.023146216 -0.04119289 -0.02841534 0.025206547
000360 1e ad c4 bc cd 71 74 3e 17 ff de bc fa 46 86 bd
       -0.02400833 0.23871537 -0.027221246 -0.065565065
000370 26 54 ee 3c e4 64 27 bc f4 75 a1 bd 9a 8c d2 bd
       0.02909286 -0.010216925 -0.07883826 -0.10280724
000380 97 ad c2 bd 40 97 29 3e db 8d c3 bd 62 70 a6 be
       -0.09505766 0.16561604 -0.09548541 -0.32507616
000390 47 b2 bf 3d c6 f6 e2 3d 42 82 f5 bd 19 f0 9e 3c
       0.093601756 0.110822245 -0.11987735 0.019401597
0003a0 8a 59 ed bc 99 0a aa bc 8f b4 6a bd 58 dd 6e 3d
       -0.02897336 -0.020757006 -0.0573011 0.05831656
0003b0 ad 15 d2 3c 17 56 3d bd 92 33 03 bd 32 a4 8f 3d
       0.025645101 -0.04622468 -0.032031603 0.0701374
0003c0 b0 12 d7 3c 97 64 9b 3c cc 54 0d bd 19 33 df 3d
       0.026254028 0.018968863 -0.034504697 0.10898418
0003d0 4b cd 3a be 76 6f a1 bd 38 3a 33 bc 1d cb 94 bd
       -0.18242376 -0.078825876 -0.010939173 -0.07265303
0003e0 1a 3b 9e bd 50 cc 29 3d c9 1b bd 3c 62 38 26 3d
       -0.077261165 0.041454613 0.023084538 0.040581115
0003f0 62 a9 9a bb 03 f5 1c be de 72 6f bd e7 7e dd 3b
       -0.004719899 -0.1532784 -0.058459155 0.0067595127

model.ec4.0.bias f4 [32]
000000 8a 66 fa 3d 05 5a e7 bd a1 9f ff 3d e0 58 8c 3c
       0.12226589 -0.11296467 0.12481619 0.017132223
000010 6d 03 70 bb c3 e6 c6 3d 8a 55 02 3f 8a da e5 3e
       -0.0036623136 0.09711983 0.5091177 0.44893295
000020 62 48 04 bf d1 90 e2 bc 6d 82 2b 3d 47 55 33 bd
       -0.5167295 -0.027656944 0.04187243 -0.0437825
000030 97 8a a7 3d e3 1d b6 bc 68 16 eb bb 9e 02 00 be
       0.08180731 -0.022231048 -0.007174302 -0.12500998
000040 fd 4c e8 bd e8 d8 1c 3e ff 36 4b 3d 39 40 87 3c
       -0.11342809 0.15317118 0.049612995 0.016510116
000050 6c ce 4b 3c ad 86 89 bc fb 9b ac bd f5 5f 8c bd
       0.0124393515 -0.016787851 -0.084281884 -0.0685424
000060 b2 f6 6e 3d d4 7e 21 bc 21 35 ae bd 45 72 0c 3d
       0.058340736 -0.009856898 -0.08506227 0.034288663
000070 f2 39 b8 be 31 c9 1a 3e 6c 04 b5 bc 7b 7d 79 bc
       -0.3598171 0.15115811 -0.022096835 -0.015227671

model.ec5.0.weight f4 [32, 32, 3, 3]
000000 aa 3d 58 bd fd 60 6b 3d 48 6c fb bd ad 66 75 3d
       -0.052793182 0.057465542 -0.122765124 0.059912372
000010 c5 c4 33 3d f0 dc 0f be 81 07 e4 3d a4 1e b4 3d
       0.043888826 -0.14049125 0.11134244 0.08794907
000020 a6 65 77 3d bf bc 0a be 7f c8 bf bd c8 0c 89 be
       0.060399674 -0.13548563 -0.093644135 -0.26767564
000030 de 25 ec 3d 10 bd 1a 3f 5c e2 72 bd 71 6c 00 3e
       0.1153066 0.60444736 -0.059297904 0.12541367
000040 cd d4 ba 3c 51 1a 77 3d 57 57 ed be dc 09 15 bf
       0.02280655 0.06032783 -0.46355698 -0.5821817
000050 b6 f1 96 be 41 ef 5b bd 8e 75 94 bd 65 0c a3 3c
       -0.29481286 -0.053694967 -0.07248984 0.019903371
000060 ac 05 a0 3c 8a 9f 60 3d 9f 60 31 3c 1f 0f 6d bd
       0.019533955 0.05483965 0.010826259 -0.05787575
000070 77 b6 25 be e1 7d 40 be 3c 1a ab 3d 29 e2 74 bd
       -0.16182886 -0.18798019 0.08354613 -0.059785996
000080 10 12 a6 3d e3 64 d6 bc da c7 41 3c 87 5e ad 3d
       0.08108914 -0.026171153 0.0118274335 0.08465295
000090 65 a7 83 3d 31 7b 91 3e 31 fd 38 3e 7f 62 45 bd
       0.06428412 0.284143 0.18065335 -0.048189636
0000a0 f5 bb 62 be be b7 f1 bd 16 0f d4 3d 9d 3c aa 3c
       -0.22142012 -0.11802624 0.1035444 0.020780856
0000b0 a5 46 6d bd 59 e2 78 3e d2 19 b4 be 9f 71 a4 3d
       -0.0579287 0.24305095 -0.3517595 0.08029484
0000c0 c6 0d d5 3d 98 f7 5c 3e d5 88 ab 3e 72 d7 17 bc
       0.10403018 0.21578825 0.33502832 -0.009267675
0000d0 c1 20 b3 bd 53 d1 5f bd d3 07 d4 3d a8 32 a8 3e
       -0.08746482 -0.054642987 0.10353055 0.32851148
0000e0 9f 0a 0f 3f f3 43 ba be 89 68 23 be 68 99 21 be
       0.5587558 -0.36379966 -0.15957846 -0.15781176
0000f0 fa 3f 48 be d0 0e 21 3d be 0f 13 bd 60 49 5f 3e
       -0.19555655 0.039320767 -0.035903685 0.21805334
000100 95 c5 5b 3e af b0 67 3e e3 7e 30 be 98 54 05 be
       0.2146209 0.22625993 -0.17235903 -0.13020551
000110 f2 4c 8c bd e5 b8 54 be 7b ff 07 bc 38 1a ee bd
       -0.06850614 -0.20773657 -0.008300657 -0.116260946
000120 45 32 80 be e4 3b a4 be 98 20 83 be 78 43 96 3e
       -0.25038353 -0.32076943 -0.25610805 0.2934835
000130 43 a5 77 3e e3 ff 6c bd ff 5f 78 3d 0b 79 02 3e
       0.24184136 -0.05786122 0.060638424 0.12741487
000140 dd 59 95 bc 94 5c a3 bd 62 0a 0b 3f 44 51 19 3e
       -0.018231327 -0.07976642 0.5431272 0.14972407
000150 7f 96 4b 3e 39 8b a2 be c5 27 2d be 89 c0 4b bc
       0.19881628 -0.31746843 -0.16909702 -0.012436041
000160 af 57 b0 bc 4f 72 15 3d 28 f6 f1 3c ec 2e 7f be
       -0.021526186 0.036485966 0.029536322 -0.24920243
000170 65 ac 5a bd 58 d2 e1 3d 07 ec 1c 3f de 75 2e bd
       -0.053387064 0.11026448 0.6129765 -0.042592876
000180 ad b9 1f bd 5c e9 9f bd 0c 25 2a 3d 4c c8 55 be
       -0.038995434 -0.07808182 0.041539237 -0.20877188
000190 c9 2c a2 3c 9b c8 b6 3e 85 2e 17 be 20 89 3a be
       0.019796746 0.35699925 -0.1476384 -0.18216372
0001a0 df 9e ab be 07 0b 08 bd 08 ef e6 3c ab 60 3f 3d
       -0.33519647 -0.03321364 0.02819015 0.04672305
0001b0 40 69 f9 3d 1b 4a e0 3d a5 f3 0a be 2f c2 c7 bb
       0.12178278 0.109516345 -0.13569506 -0.0060961465
0001c0 60 fc 03 be 54 6f 63 3e 9d 5c 70 be 0c 94 8f be
       -0.12889242 0.22210437 -0.23472829 -0.28042638
0001d0 4b 7b 0f bd 2d 35 e0 3d 7d 03 d9 3b b7 d6 e7 bd
       -0.03502969 0.109476425 0.0066227303 -0.113202505
0001e0 47 91 f3 3c 14 c5 b2 bd b9 3a 90 bd fb f6 a5 bd
       0.02973236 -0.08728996 -0.070424505 -0.081037484
0001f0 4d d2 f9 3d 19 be 2b 3c 39 df c8 bd 6e b9 73 3d
       0.12198315 0.0104823345 -0.09808201 0.05950301
000200 2a ea e9 bc 88 b7 8c bd 6c 5b a1 be d5 a3 27 be
       -0.028554041 -0.06870943 -0.31515062 -0.1637109
000210 06 33 91 3c 5c 78 57 bd 78 f0 fd bb 06 ce bd 3d
       0.017724525 -0.052605018 -0.0077496134 0.092678115
000220 7f 66 a3 be 1e 9d f0 bd 0d 32 38 be 58 8c 1c bc
       -0.31914136 -0.11748718 -0.17987843 -0.009554945
000230 ff 25 6c 3d 71 32 5e 3c ef 37 e7 3d 2f ec 5b 3d
       0.057653423 0.013561831 0.11289965 0.05369204
000240 2f ca e2 3d 5a a0 82 bc d2 08 32 be 32 a8 10 3e
       0.1107372 -0.015945602 -0.17386177 0.14126661
000250 d8 b8 3d 3d 2d a7 20 be 03 f2 b1 3c 21 91 51 bd
       0.04631886 -0.15688772 0.021721845 -0.051163796
000260 c3 55 95 3d 18 28 f1 3d 43 e3 3b be 26 e5 a5 3e
       0.072917484 0.117752254 -0.18348412 0.3240139
000270 8e 6e f5 3d 6f 39 28 3e 55 ce 2f bb ea a2 17 bd
       0.11983977 0.16428159 -0.0026825864 -0.0370206
000280 f6 8b f1 bc d9 33 37 bd 24 a7 35 be 64 aa 98 3e
       -0.029485684 -0.04472718 -0.1773954 0.29817498
000290 ff 95 62 3e be 0b 19 3d e2 a7 fa 3d a7 70 69 be
       0.22127531 0.037364714 0.12239052 -0.2279688
0002a0 c1 15 af bb f1 56 83 3b 0b cb 8b 3d c9 06 0d 3d
       -0.0053431694 0.004008167 0.06825837 0.0344303
0002b0 61 a9 a0 3e af db 49 bd c1 b1 04 be 18 f0 a1 bb
       0.31379226 -0.049281772 -0.12958433 -0.0049419515
0002c0 e4 78 22 3d a8 bf f0 bd 23 6f f1 3c d8 05 b4 bd
       0.03966607 -0.117553055 0.02947194 -0.08790177
0002d0 4a 9a d8 bc c6 b8 39 be ae 09 f6 3b c3 a7 fe 3d
       -0.026440758 -0.18136892 0.007508478 0.12434342
0002e0 fc ad a5 3e 90 44 04 3e 53 a3 85 3d 12 1e 54 be
       0.32359302 0.1291678 0.06525292 -0.20714596
0002f0 6b 4a 04 3e de 3a 4e be c7 a7 16 be 4d 50 cb 3d
       0.12919013 -0.20139644 -0.1471244 0.099274255
000300 07 12 4c bd c7 70 3a be 25 7b 90 3d 72 ae 0f 3c
       -0.04982188 -0.18207084 0.07054738 0.008769618
000310 01 7c 3b 3c c9 ec d0 3d e2 53 9f be f2 0a 8b be
       0.011443139 0.10201413 -0.31118685 -0.27156788
000320 a8 95 a3 3c 88 86 45 3d 56 f0 d3 3e 1a 42 99 bc
       0.019968823 0.048224002 0.413943 -0.018708277
000330 4b 6a b1 bd 1f 25 13 3e 68 79 a6 3c e2 39 01 3e
       -0.08662852 0.1436963 0.020321563 0.12619737
000340 5f e5 db 3d e0 14 37 be 9a 51 96 bd 3f 57 1b be
       0.107371084 -0.17879057 -0.07339783 -0.1517
000350 92 75 b2 3c 22 dc ce 3c 2e 4f 2e be 1a 37 49 bd
       0.021784578 0.025251452 -0.17022392 -0.049124815
000360 40 c1 0d be e7 8f ce bc e6 2c 8c bd 4c 38 17 bd
       -0.1384325 -0.025215102 -0.06844501 -0.036918923
000370 c2 aa 95 3d 1b e6 69 bd 11 f8 13 3e aa 10 68 3d
       0.0730796 -0.05710421 0.14450099 0.056656517
000380 71 1e 35 3d aa c9 a8 3e 1e 1b 75 3e bb 9f fe 3d
       0.044218484 0.32966357 0.23936126 0.1243281
000390 b8 1a bd be e5 9a 67 be 73 d9 58 3e c3 51 10 be
       -0.36934447 -0.22617681 0.211767 -0.1409369
0003a0 62 75 49 bd f2 79 8a 3d 84 41 08 be 21 59 34 be
       -0.04918421 0.067615405 -0.13306242 -0.17612125
0003b0 a2 a3 32 be 2e 55 d3 3e 0a d2 48 3e fa fa 22 be
       -0.17445233 0.41275924 0.19611374 -0.15916052
0003c0 11 94 39 3e 98 c8 f1 bd b5 22 8c 3d c3 c2 f4 bd
       0.18122889 -0.11805838 0.06842557 -0.1195121
0003d0 fa 73 c2 3e 55 be dd bd d7 28 68 bc 8e 82 7a be
       0.37979108 -0.108273186 -0.014169893 -0.24463865
0003e0 79 7f d0 3d 1e 43 7c 3b 9a e6 3e 3d 45 dc c8 3c
       0.101805635 0.0038492153 0.046606638 0.024519095
0003f0 76 af 3c be eb a2 e9 be 59 0f 80 be 6d a4 9c 3e
       -0.18426308 -0.4563211 -0.2501171 0.30594197

model.ec5.0.bias f4 [32]
000000 cb 95 1d bd 61 20 cc bd e3 43 1e be a0 e0 90 3e
       -0.03847293 -0.09967113 -0.15455584 0.28296375
000010 0c 6d 3b bd 81 1e 04 be 3b d1 13 be ce d5 2f 3c
       -0.045758292 -0.12902261 -0.14435284 0.010732127
000020 23 87 c5 3c 28 f5 fd bd 1b f1 40 be 22 be 14 3e
       0.02411229 -0.124002755 -0.18841974 0.14525655
000030 4c d9 f5 39 81 df 89 3d ec 88 a5 be ed e3 1e 3d
       0.0004689194 0.06732083 -0.32331026 0.038791586
000040 14 12 88 bc 3b 46 5f be 8c 26 bf bd 00 25 3e 3e
       -0.016610183 -0.21804135 -0.09333524 0.18568802
000050 45 6a 1d bb 6e 79 b6 3b b3 09 17 bb 24 ae b6 bc
       -0.002401964 0.0055686748 -0.0023046553 -0.022299834
000060 be 31 84 3f 1e bf 08 bf f2 09 d0 bc de 60 2d 3e
       1.032768 -0.5341662 -0.025395367 0.16931483
000070 9f cc aa 3c ab 52 55 bd 1c 2f c3 3d cb f8 00 be
       0.020849524 -0.05208079 0.0953047 -0.12594907

model.ec6.0.weight f4 [64, 32, 3, 3]
000000 b1 b3 02 bd 92 e7 1a be 80 a1 f7 bb bb 44 ce 3d
       -0.03190965 -0.151274 -0.007557094 0.10071703
000010 75 70 d3 3d 3d d5 a9 3d e4 40 43 3d 72 e5 37 bd
       0.10324184 0.08292625 0.047669306 -0.04489655
000020 20 fc 68 3d 10 ab b2 3d 66 4d 64 bd da 65 0f 3e
       0.05688107 0.08724034 -0.055737875 0.14003697
000030 03 d6 14 be e3 7c 02 be 21 9a 1b be 69 fb 41 bd
       -0.14534764 -0.12742953 -0.15195514 -0.047358904
000040 b2 fb b3 3d 6e 08 04 be 16 6a 8a 3d 6d 96 f3 3d
       0.087882414 -0.1289384 0.067585155 0.11893926
000050 f4 ed 51 3e e1 3f a0 3d 8a af fa 3d 2e 46 fb bd
       0.20500928 0.07824684 0.12240513 -0.12269245
000060 4a 39 d5 bd 34 a8 3b be 7b 16 83 be 19 41 87 be
       -0.10411318 -0.18325883 -0.2560309 -0.26416853
000070 c6 82 84 be 15 19 84 be 6c 3c 98 be 4a cc 9a be
       -0.25881022 -0.25800386 -0.29733598 -0.30233985
000080 be ce 0f bd ec 7b 8c 3d e5 84 22 bd 17 c3 c4 bc
       -0.035109274 0.06859574 -0.03967752 -0.024018807
000090 75 c4 e7 bd e3 09 8f be a8 d2 18 be ec ee 70 be
       -0.11316768 -0.2793723 -0.14924109 -0.23528641
0000a0 04 f2 0d bf 52 68 ff be a8 ef 6d bd d9 25 78 be
       -0.5544741 -0.49884278 -0.058089882 -0.24233188
0000b0 bd b2 f4 3d 7a 8a f9 be 8d 91 bd be 4a 16 90 be
       0.11948154 -0.48738462 -0.3702511 -0.28142005
0000c0 97 1a 50 be 11 31 9a be a2 7c 98 3c 59 f3 8e 3d
       -0.20322643 -0.3011556 0.018614117 0.06980009
0000d0 69 e9 8b 3d 37 c2 8c 3d c5 32 76 3e 0c 9e 97 3d
       0.06831629 0.06872981 0.24042805 0.07403192
0000e0 57 72 d5 3d 4d 03 4d 3e d4 05 da 3e 79 cd b0 3e
       0.10422199 0.2002079 0.42582572 0.34531763
0000f0 99 36 a1 3e 5f a1 f4 3e 67 0c 8b 3e 24 62 29 3e
       0.31486967 0.47779366 0.271579 0.16541344
000100 70 b2 04 bc 1e c6 15 3e 15 59 bd 3d 2d 25 ad 3d
       -0.008099183 0.14626357 0.09245507 0.08454356
000110 49 9e 50 bc c5 1d 92 3d 04 a6 10 bd 96 cb d7 3c
       -0.012733051 0.07134584 -0.035314575 0.026342195
000120 73 f7 26 bd f6 94 c6 bd 09 e0 a5 bc 22 87 07 bd
       -0.04076333 -0.09696381 -0.02024843 -0.033087857
000130 c5 7e 75 be 4d 98 04 bd eb 06 37 3d a2 94 aa bd
       -0.2397414 -0.032371808 0.044684332 -0.08329131
000140 b2 7a 99 bd 19 f8 4e bb 0f 96 2d 3d d7 e7 0c bd
       -0.074941054 -0.0031580983 0.042379435 -0.034400787
000150 f8 0e f6 3c 68 ab 97 3d 24 ad ec 3d a1 b9 f2 bc
       0.030036435 0.0740574 0.115564615 -0.02962953
000160 1c 7d 8a 3b f7 6a ee 3d 80 7c 81 3d 3a a0 de 3d
       0.00422634 0.11641496 0.063225746 0.108704045
000170 f3 f1 87 bd 57 23 f3 bd 0b 71 08 be 08 f4 91 be
       -0.06637945 -0.11871975 -0.13324372 -0.28506494
000180 50 7a 98 3d b1 b7 e3 3d 28 2c 3d 3d 13 52 c7 bc
       0.07445204 0.11119021 0.04618469 -0.024331128
000190 47 d0 63 bd eb a1 6c bd bc fb 9e bd 8b 3c a1 be
       -0.05561855 -0.057771605 -0.07762858 -0.31491503
0001a0 a1 91 90 3c 84 99 80 3d bb cc 09 3e 03 a2 ae 3b
       0.017647566 0.06279281 0.13457005 0.005329372
0001b0 91 a9 12 be b5 d2 46 be bb 49 b5 bd 86 ce 07 bf
       -0.14322497 -0.19416316 -0.088519536 -0.53049505
0001c0 19 26 81 bf 6a 4f 55 bf 27 e0 0a be 54 6f b9 be
       -1.0089751 -0.833243 -0.1356207 -0.3621775
0001d0 46 dc 79 3d 11 90 1b 3e 6b ed 04 bd c2 24 53 3d
       0.061001085 0.15191676 -0.032452982 0.051548727
0001e0 97 50 fb bd 34 e9 e3 bd 26 4d cf 3c 8c f0 5b 3e
       -0.12271231 -0.11128464 0.025305342 0.2147848
0001f0 d4 59 b8 3e 17 a2 e9 3d 23 41 a6 3d 69 ad 7a be
       0.36006033 0.11407869 0.081178926 -0.24480213
000200 bf 25 03 be 0d f1 89 be f7 eb ab be f4 dd 90 be
       -0.12807368 -0.2694172 -0.33578464 -0.28294337
000210 c0 0c 53 3d d8 5d e7 3c fe f5 78 3d 1d 4d 51 be
       0.05152583 0.02824299 0.06078147 -0.20439573
000220 ac 41 82 bd ff 3e 6b be fc 5f 1a bf bc b4 3a bf
       -0.06360182 -0.2297325 -0.6030271 -0.7293203
000230 7f 35 9d be 43 33 e7 bd a5 f9 fe bd 38 45 86 3e
       -0.30704877 -0.11289074 -0.1244996 0.26224685
000240 5e 96 46 3e 1d 65 ad 3d c9 00 d0 3d cb d5 11 3e
       0.19393298 0.084665515 0.101564 0.14241712
000250 6f 00 77 3e c6 a2 81 bd 79 d4 1f bd 6b a1 be bd
       0.24121259 -0.06329875 -0.03902099 -0.09308132
000260 7d 60 b5 bd 5c 74 8b be c0 f0 59 be f9 36 4a bc
       -0.08856294 -0.27237213 -0.21283245 -0.012342208
000270 11 52 60 3d 32 aa 59 3e 28 43 8a 3e 00 9b 84 3d
       0.054765765 0.2125633 0.2700436 0.064748764
000280 73 06 02 3e b3 b4 15 3e ac d9 2e bc 8e 3c b0 3d
       0.12697773 0.14619713 -0.010672014 0.086053
000290 c5 15 9e 3d 30 d8 09 3e 33 86 49 3e 48 e4 02 3e
       0.07718996 0.13461375 0.19680099 0.12782395
0002a0 b3 d2 3a 3c 06 ea df bd 9b 67 b0 bd fe 99 7c 3e
       0.011402774 -0.10933308 -0.08613511 0.24668118
0002b0 f2 f9 0d 3e d8 9e 14 3e 3d 94 87 3e a9 57 ad 3d
       0.13864878 0.14513719 0.26480284 0.084639855
0002c0 0c 3e 5b bd 4e bf ea bd ac 5b 4a be a8 a3 79 bd
       -0.05352597 -0.1146227 -0.19761533 -0.06094709
0002d0 ab aa af 3c 79 82 04 3c 6c 08 4e 3e 10 b9 eb bd
       0.021443686 0.008087748 0.201204 -0.11509907
0002e0 ee a8 0d 3e 22 8c 19 3e 79 a7 38 3b 16 18 ca bd
       0.13833973 0.14994863 0.0028175993 -0.09867875
0002f0 df ea 84 3d cd d5 1f 3b 52 cd 62 3e 53 52 17 3c
       0.064901106 0.002438891 0.22148636 0.009235936
000300 c3 21 77 3e 2f b2 db 3e f0 83 00 3e 5a 99 1b 3e
       0.24133973 0.4290938 0.1255033 0.15195218
000310 8d c8 06 3e f6 01 bc bd 77 43 7a 3e a5 5d b8 3e
       0.13162442 -0.091800615 0.24439798 0.36008945
000320 71 4d 57 3e e7 a9 92 3e 31 ad 86 3e 74 65 81 3d
       0.21025635 0.2864525 0.2630401 0.06318179
000330 32 1d 53 3d 9d d6 b4 3c 4c 0a 03 be b5 8f cd 3e
       0.051541515 0.022074992 -0.12796897 0.40148702
000340 89 5a b3 3e ff 3b 3c 3e 23 ba 0d 3e 46 6b 82 3e
       0.3503001 0.18382262 0.13840537 0.25472468
000350 a8 80 44 3c 3f 6c 3c be 51 0f 57 be a7 4f 96 ba
       0.011993565 -0.18400668 -0.21001936 -0.001146783
000360 8c 17 84 bd 89 a2 96 3d 19 03 2c 3e 8c 21 cb 3d
       -0.06449804 0.0735522 0.16798057 0.09918508
000370 f7 6b 95 3e e8 33 8d 3c 5d 26 49 3d 3d 37 0d 3e
       0.29183933 0.017236665 0.04910885 0.13790603
000380 4c 3b b7 3d 49 89 6c 3e 5e b1 e1 3d 4d 97 0e be
       0.08946857 0.23099245 0.11020158 -0.13924904
000390 17 5c 5e be f0 fc 3d be 03 31 11 bd f7 20 46 be
       -0.21714817 -0.18553519 -0.03544713 -0.19348513
0003a0 b5 0c 1e be ac 03 d3 3c 63 37 93 3e 21 71 e8 3e
       -0.15434535 0.025758587 0.28753194 0.4539881
0003b0 b2 5e 59 3e 92 27 ef 3e 8f 05 04 3f 48 8c 9f 3b
       0.2122753 0.46709877 0.5157098 0.0048690178
0003c0 3e a8 6b bd 19 26 47 3c 14 7c 34 be 06 b8 6a 3e
       -0.057533495 0.012155079 -0.17625457 0.22921762
0003d0 90 cf a2 3d ee 3f 0a 3e 19 b7 cf 3d 85 06 40 3e
       0.07949746 0.1350095 0.10142345 0.18752487
0003e0 18 70 d9 3d c3 08 d6 3d 05 aa 1f 3d d1 d7 f3 bd
       0.10617083 0.1045089 0.038980503 -0.11906398
0003f0 33 78 8f 3b 67 05 19 3e 46 38 86 3d 9c 43 56 3e
       0.0043783425 0.14943467 0.06553702 0.20924228
