2D_CMR_Registration/ModelParameters/Model_0_Diffeo_1_Loss_1_Chan_8_Smth_0.01_LR_0.0001_Mode_0_Pth/SSIM_0.912424_MSE_0.000479_Epoch_0089.pth (torch, 316934 bytes, 27 tensors)

model.eninput.0.weight f4 [8, 2, 3, 3]
00000000: 6fad 163e aeac f83d be9a b83d df41 e3bd
00000010: 2b94 49be fcc5 823e 9fa7 5c3e d6fb 5ebd
00000020: 8423 13bc 905a 513e 680b d4bb 0f2c 803d
00000030: c6c1 82bd 640a d2bd 521e 2e3e cac3 4d3d
00000040: 69d0 97bd 3a86 463d 95a2 bfbd fca2 803c
00000050: b3d7 54be e463 513e 6a90 d43e 37e7 d3bc
00000060: 6bb5 433d 1e05 7b3c 16b2 033e e487 2ebe
00000070: 3ee8 eb3d da63 86be ff24 0c3e 8dc3 aa3e
00000080: a4f6 743d 2b9f d03c ce8f f53d b52e a1bd
00000090: 374f 59bb 0d0d 68bd 43d0 383e 5746 203d
000000a0: be2c 8ebd 5732 0fbe 2baa 62bd 3fbf 91bd
000000b0: fb16 663e 6fb7 42be f33f 52be 4c1a f23d
000000c0: d454 aabe b9f6 ccbd 3a97 293e 238c ecbd
000000d0: edfc 113e 205c 7f3e 66c6 ae3d 8373 113e
000000e0: faa4 e5bc dc26 b13e 67a0 ad3e 559a dabd
000000f0: aae9 883e 0950 ed3d 7d09 313e f1a9 5bbe
00000100: fbf9 ea3c 12f3 f9bd 3d47 94be e7ba cabc
00000110: 2bf6 48bc d5a5 82be 28d5 88be 53cb 96bd
00000120: 884c ebbd 3123 9cbe abe1 4dbe d972 26be
00000130: a3fc babc 500d 233e 364a 4dbe 6e54 9d3e
00000140: 193d c03e 656f 173d 8cd6 8e3c 8691 3e3c
00000150: 25f2 85bd 7ecc dbbc 2b5f 2b3d 70e2 513d
00000160: c2b7 813c 7cdd 7e3d c0b0 5d3d 8609 463e
00000170: bb08 763d a6c8 573e 6ff7 023d 7b8e 2f3c
00000180: 07b9 893e 51ca c8bc 8d3a 403d b734 e33c
00000190: fa87 3dbb 319f 16bc 0d0b a6be 823c f0be
000001a0: d79e 773d 9971 c43d 9f8e f5bd 4493 bcbd
000001b0: b34b 44be 26bd 6b3e 5fec d13e 6c9f 58be
000001c0: d06f 623e f45c c43d 8c94 6cbe d44e 16be
000001d0: da2a 8f3e ef32 06be 7867 adbc c727 a13d
000001e0: 49c7 4c3d 35fe 293e 1ede 18be 09b8 03be
000001f0: ebe7 40be 14b2 f33d 1b45 953e 443f 1b3e
00000200: e7e8 40be 2f00 1e3f 1436 de3e 2000 52be
00000210: 1cf9 663d 9517 4bbe 0ace 70be ab54 28bd
00000220: c28f 82bd ccc0 3fbb 820c bf3c 11d7 7fbd
00000230: b525 173d 7bee a33b 2abe 8fbd b181 c2bd
0.14714597 0.12142311 0.0901389 -0.11096548 -0.19685428 0.25541675 0.21548317 -0.05443939
-0.008980636 0.20444703 -0.0064710863 0.062584035 -0.063846156 -0.10255888 0.17003754 0.050235547
-0.07412798 0.048467852 -0.09357182 0.015702717 -0.20785408 0.20448261 0.4151643 -0.025867088
0.047780436 0.015321044 0.12860903 -0.17044026 0.11518906 -0.26248056 0.13685988 0.33352318
0.059805527 0.025466522 0.11990319 -0.07870237 -0.0033158788 -0.05665307 0.18048196 0.03912958
-0.06942128 -0.13984047 -0.055338066 -0.071165554 0.22469704 -0.19015287 -0.20532207 0.11821422
-0.33267844 -0.10007996 0.16561595 -0.115501665 0.1425664 0.24937487 0.08533935 0.1420422
-0.028032769 0.3459996 0.3391144 -0.10673968 0.26740772 0.11587531 0.17288776 -0.21451546
0.028683653 -0.12204565 -0.289606 -0.024747325 -0.012265722 -0.25517145 -0.26725125 -0.07363
-0.114892066 -0.304956 -0.20105617 -0.16254748 -0.022825545 0.15923047 -0.2004784 0.30728477
0.37546614 0.03697147 0.017436288 0.011631375 -0.06540326 -0.026830908 0.041838806 0.05124134
0.015834693 0.062222943 0.05412364 0.1933957 0.06006692 0.21072635 0.031974252 0.010715122
0.26898977 -0.024510534 0.04693084 0.027735097 -0.002892016 -0.009193228 -0.32430306 -0.46921164
0.060454216 0.095919795 -0.119900934 -0.09207776 -0.19169502 0.23021373 0.4100065 -0.21154565
0.22112966 0.09588042 -0.23103541 -0.14678508 0.2796238 -0.13105367 -0.021167502 0.07868915
0.04999474 0.16600879 -0.14928481 -0.12863173 -0.1883847 0.118992 0.29154286 0.15160853
-0.18838845 0.6171903 0.43400633 -0.2050786 0.056389913 -0.19833215 -0.23516098 -0.04109637
-0.06375076 -0.0029259203 0.023321394 -0.062460963 0.036901195 0.0050027943 -0.07018693 -0.09497393

model.eninput.0.bias f4 [8]
00000000: a1a3 41be 6b8f 81bd 6f49 1a3d 8e84 e43b
00000010: 611e 34bd e8a6 9c3d dbbe db3a 4206 303c
-0.18910076 -0.06326183 0.037667688 0.0069738096 -0.043974284 0.07649022 0.0016765253 0.0107436795

model.ec1.0.weight f4 [8, 8, 3, 3]
00000000: 75c2 cabd 2dc4 a4bd e2cd 013e 1e4f a03d
00000010: 7377 adbd b174 bdbc 3a04 97bb bc7f aebd
00000020: 3d77 d3bd eacd 24bd 9fad 0fbd 42ee 0d3d
00000030: b6e6 993d 5a51 643c af22 b03d 2215 32bc
00000040: 0898 6a3d 502f dfbc cc12 c6ba 8cf7 c8bd
00000050: 8567 e9bc 980f 0ebd f0ec afbd 2665 8e3d
00000060: 2748 a03c c88a bebd 401d 103d 5921 b73c
00000070: 350e cd3d 030a dbbd 1629 0b3e c4ba 043f
00000080: 2fdb e23d c4b8 1e3c a366 bdbc 7f3c f2bd
00000090: 8a8a e0bd 2d3b 553d a090 0cbe a5c5 1c3e
000000a0: ca4b 943e 0784 ce3d 9346 8fbc 5b22 9abd
000000b0: 1331 b7bc ccaa 26be 4455 923c 4ec4 7bbd
000000c0: cbcf b13d 3c79 7b3e 8d4e 1a3e 1428 f7bd
000000d0: ac42 273d 36ec 36be 8f4e cabc 67bf 8fbc
000000e0: 745b ae3c 1d81 173e a259 b73d 9a5b 993d
000000f0: cc24 06bc 5310 653e c95b e3bd 0631 86bc
00000100: c9f2 00bd ab9c 31bd 76eb 253d d20b 923e
00000110: 9ee4 2b3e 3968 093a f383 073e 1b87 77bd
00000120: 33ac 463e 59c4 d3bd 8015 d1be e26c 013f
00000130: d32d 213d 3169 7cbe 7962 de3e e227 0e3d
00000140: 86b6 01bf 19c9 1c3e 6a17 09be e12b 2bbe
00000150: 1b1e 9c3e 7683 513d 190d 12be ba34 373e
00000160: 4517 8fbd fa40 09be 68b3 c2bc 7b47 7fbc
00000170: ec95 efbd c505 1c3e d33e f33d ae3b 46be
00000180: a2bf 0fbe bd06 06be 3367 40be eb2d 18bd
00000190: 68e2 383d 2677 14bd fb8b f1bc d250 463e
000001a0: 8f66 8b3d f983 51be cd6f a7bc 027b 243c
000001b0: a130 813e 5367 263e 2db9 36be af39 a7bc
000001c0: 22be 103e 730d 15be 6cad dbbd 410d babd
000001d0: 5d0c 84be 339f c5be 0246 49be 80d6 d03d
000001e0: 525b 31bc de3d a33d 4c6f 123e e427 35be
000001f0: 62a1 f53d 9cc5 e13d 33ed 383d a418 1d3e
00000200: b376 d2be f7db bc3e 219b 3a3e edf4 c2be
00000210: a8ad bd3d 5ca3 b2bd c9dd ccbe 8bb5 3b3e
00000220: 7950 863d 1ca9 7ebe 1f7d df3e 8307 0c3e
00000230: b660 21be d44d 903e 488d d4bd 86bd 9fbe
00000240: 45f5 f8be a805 99be 7b02 303e 0f6a 96be
00000250: b231 b33d 832a 013f 704b b7be 4b5a b93d
00000260: f753 0a3f d95b 97be 232d 69bd 81f8 8c3d
00000270: 5850 49be caa0 6e3d 9525 9d3e b9dd 4bbd
00000280: e2ac 4f3d e8f2 933e 43d5 b0bd 5cf2 823d
00000290: 04bc aebc edd9 a4bd df82 bc3d afdd 953d
000002a0: 8d24 093d 3faf bc3d e5ba f8bc 5333 623d
000002b0: 0521 c53d 469e acbc 1703 1ebc bb76 493e
000002c0: bb08 293b c8ce 01bc 419f 193c 1ecf a4ba
000002d0: 6523 fbbe 8eb7 103e 044a ad3d 4479 9fbe
000002e0: 1096 cb3e 002f e43d 83b5 ee3d 3a62 603e
000002f0: 3dfb b8bb fe54 ba3d 034e 9dbd 3d32 6bbd
00000300: 6073 0c3e 1acf a3bd 4dac 8dbe 02bf aa3d
00000310: 8400 19bc 2ee4 0cbe a86d 8fbe 3e9b 23bd
00000320: 25f9 513d 4b87 0ebe 560b 92bc 018a 923e
00000330: 7a90 00bd 66f0 453e 06f2 823e 0dab 96be
00000340: a349 e5ba 030a 593c 6942 bcbe 5d5b 773d
00000350: 48d0 7f3e c6eb 8dbe 5068 d23d 552f 603e
00000360: 5567 acbc 9d41 c7bd 8053 5dbd f26b 563e
00000370: 6efc 753e 1303 1c3d 1503 163d 8663 21bd
00000380: c999 d2bd b080 343e 2d6e cc3d 0a1d b23d
00000390: 36ed b33d f174 433e e1d9 213e ea69 b73b
000003a0: fd08 7f3d cec1 133e f930 f7b9 428c 613e
000003b0: 4621 b83d 694a 733e 5650 06bd 6232 56be
000003c0: ad0a 493c 3721 17be e6e0 69bd 4f57 0abd
000003d0: 7aa3 41be ddc3 3dbd 3aa1 0abe 15b0 83be
000003e0: 2dd5 5abe c10a 7d3d 821a a53c c8f2 933c
000003f0: bdf9 c7bd cad8 11bd 3052 bcbd 9db4 8d3d
-0.09900371 -0.0804523 0.12676194 0.078275904 -0.08470049 -0.023126932 -0.004608658 -0.08520457
-0.10325477 -0.040235437 -0.035077687 0.03465105 0.07514708 0.013935411 0.08600365 -0.010869296
0.057273895 -0.02724424 -0.0015111803 -0.09812841 -0.028491745 -0.03468284 -0.08590114 0.06952886
0.019565655 -0.09303814 0.035184145 0.022354769 0.100124754 -0.10695269 0.13589892 0.5184748
0.11076962 0.009687606 -0.02312023 -0.11827945 -0.10963924 0.052058388 -0.13727045 0.1530977
0.28964072 0.10083776 -0.017489707 -0.07526084 -0.022362268 -0.16276091 0.017862923 -0.061466508
0.086822115 0.24557966 0.15069027 -0.12068191 0.040835068 -0.17863545 -0.024695663 -0.017547322
0.021283843 0.14795347 0.08952643 0.07488175 -0.008187484 0.22369508 -0.11101491 -0.016380798
-0.031481538 -0.0433623 0.040507756 0.28524643 0.1678643 0.00052416656 0.13233928 -0.06043158
0.19401626 -0.10340185 -0.40836716 0.50556767 0.039350342 -0.24649502 0.43434504 0.034706004
-0.50669134 0.15311088 -0.13387838 -0.16715957 0.3049172 0.05115076 -0.14262809 0.17891207
-0.0698686 -0.13403693 -0.023767188 -0.015581007 -0.11698517 0.15236576 0.11877217 -0.19358703
-0.14037946 -0.13088508 -0.18789367 -0.037153166 0.045137793 -0.03624644 -0.029485693 0.19366768
0.06806671 -0.204605 -0.020439053 0.010039093 0.25232413 0.16250353 -0.17844076 -0.020413248
0.1413503 -0.14555912 -0.10726437 -0.09084559 -0.25790682 -0.38598022 -0.19655612 0.10197163
-0.010824995 0.079707846 0.14300269 -0.17690998 0.11993672 0.11024019 0.045148086 0.15341431
-0.41106185 0.3688657 0.1822324 -0.3807749 0.09261638 -0.087225646 -0.4001296 0.18330972
0.06558318 -0.24869198 0.43650147 0.1367474 -0.15759549 0.28184378 -0.1037851 -0.31199282
-0.48624626 -0.29887128 0.17188446 -0.2937779 0.08749713 0.5045549 -0.35799742 0.09050425
0.5403437 -0.29562262 -0.05692781 0.06883336 -0.19659555 0.05825881 0.30692735 -0.049771998
0.050701983 0.2889626 -0.086344264 0.06393883 -0.021329887 -0.080493785 0.09204649 0.073176734
0.033482123 0.09213113 -0.030362556 0.055224728 0.096254386 -0.021071564 -0.009644291 0.19674198
0.0025792557 -0.007922836 0.009376348 -0.0012573933 -0.4905044 0.1413252 0.08461383 -0.31147206
0.39762926 0.11141777 0.11655714 0.2191247 -0.0056451843 0.09098242 -0.07680895 -0.057420958
0.13715887 -0.07998486 -0.27670518 0.08337213 -0.009338502 -0.13758919 -0.2801335 -0.039942972
0.051262993 -0.13918798 -0.017827671 0.28620914 -0.031387784 0.19329986 0.25575274 -0.29427376
-0.0017493259 0.013247016 -0.36769417 0.060389865 0.24981797 -0.27718943 0.10273802 0.21893056
-0.021045366 -0.097293116 -0.05403471 0.20939615 0.24022076 0.03808887 0.036624033 -0.039401554
-0.102832384 0.17627215 0.09981952 0.08696945 0.08785479 0.19087578 0.1580577 0.0055973427
0.06226443 0.144294 -0.00047148 0.2202616 0.089907214 0.23758854 -0.032791458 -0.20917657
0.012270612 -0.14758764 -0.057099245 -0.03377467 -0.18910018 -0.046329368 -0.13538066 -0.25720277
-0.21370383 0.061777834 0.020154241 0.018060103 -0.09764431 -0.035607137 -0.091953635 0.06919215

model.ec1.0.bias f4 [8]
00000000: cb37 553d 2e8b 2b3c ce81 723d c3ca 5a3d
00000010: 0eaf b3bb 7756 103e fa49 363d 2fc3 9bbd
0.05205516 0.010470195 0.059205823 0.053416025 -0.0054835146 0.14095484 0.044504143 -0.07605588

model.ec2.0.weight f4 [16, 8, 3, 3]
00000000: 37db 003e 88d7 cdbc 1d10 e9bd b256 433c
00000010: 52d0 41be 94f9 3d3e 7b12 033e be52 063d
00000020: de83 72bc 202a febc c114 ac3d e2c5 c1bc
00000030: 24c7 bebe dcf9 2ebd ea56 893c 1561 1abe
00000040: 970b 22bd e2a3 a13d dfd8 dbbd a555 08bc
00000050: 1380 4c3e d76c 3c3c 7d22 d33d 1f9e 3b3e
00000060: c322 193e f60d d7bd aeb7 a03d 24e2 13be
00000070: 35a5 fcbd e529 0f3e 2a57 5fbe e469 87bd
00000080: f0da 2f3e 0ca5 2fbd 0877 1a3e 8182 5c3e
00000090: 04bd e33c 9865 a83b bf18 cb3e 2eed 1ebe
000000a0: d500 aa3d 8882 9e3e 51ec ffbd a418 eabd
000000b0: 26fc aa3d 56e0 7d3c 6c0d 4b3c 3b39 423d
000000c0: dcd2 fb3d 14bb 12be 27d3 12be 7f0d 2cbe
000000d0: fd57 0fbd f2c9 2cbc 9fca a6bd f44c c23c
000000e0: a6d6 89bb cfec a2bd 44d6 5dbe 8ebb 4cbd
000000f0: 90bf f13c d000 9bbd 2262 9cbc 4c6a 1d3d
00000100: 212b 803e 29d6 a9bd 34b9 253e 58da 253e
00000110: 8059 89bc c578 4abc 0dd5 2c3d d8c2 dcbd
00000120: 1a4c 64be a092 66be 0794 2cbc 6c23 94be
00000130: e145 d7be 44e3 a1bd 8a53 efbd d6b9 9abd
00000140: 84ba 0ebd e59d acbd 89ac 51b9 0ce6 773d
00000150: d7ec d53d ebc3 12be 4386 c53a 42d3 cabb
00000160: dec0 663d 95a2 583d ad18 50bd f8b4 6c3d
00000170: d176 a0bc 0eec 09bb dd0b 513c 0be5 dcbb
00000180: 2f2b 6ebd 5907 a43c 7a64 fc3c 4b05 163e
00000190: f7b4 73bd 0cac cabc a6de 4a3e b04d 8c3d
000001a0: a858 debd 05b1 b73d 067b 913c 8a5d 4a3d
000001b0: bec4 3f3e 129f a5bc 8a24 89bd d480 08be
000001c0: 9793 263e 4e82 753c 3ecf adbd d4d5 513c
000001d0: 6718 fc3b 57dc 203e d7f8 d03d 8b29 3abe
000001e0: bbfb 343e da71 9c3d 2f85 67bd a6d9 91bd
000001f0: 4324 89bd 968d f3bc 979e b13e 199b d23d
00000200: 5108 efbd eaba c83e ce25 623e 0684 a0bd
00000210: 947a e73b 0d4f 10bc 7e6d b23b dc25 28be
00000220: 242c 39bd fa3f 373e 63f0 31be c7f8 70bd
00000230: f9ea fe3d acbd 8fbc 720c 2cbe bcd4 35bd
00000240: 81b9 68be 9658 85bd 1ad2 813e fb34 13bd
00000250: 4ebb 883e cf59 b33e d952 98bd 1ef6 9ebb
00000260: 47f0 b03d 20db 8c3d 3997 f83d 480b 9c3d
00000270: 06c0 1d3b d16b 27be b065 943d 8d21 2d3e
00000280: 9f41 8d3c df33 95bd f5f3 71bf 9043 73bc
00000290: 781d 7cbe a99e 8cbe a380 fc3e 75f0 09bd
000002a0: 736c 9fbe 5115 603e 1491 35bf ed8d de3e
000002b0: f80f 4e3d b525 2e3e 0762 3f3e cb8a afbe
000002c0: a5ba 86be 54b8 383d e286 e8be cec2 fabd
000002d0: 45ae 61be 05df 2abd c8da 063d a795 c6be
000002e0: 9f49 8d3c 40f0 8fbe bd29 863e 1fff 653e
000002f0: fcfc 6c3e 7dac 9fbe ea78 20bd 790b 043e
00000300: f828 2ebf 9f66 a5bd 3334 143d 62a3 4cbd
00000310: 894d 933e 1619 213f 41ae 403e 4b20 20bd
00000320: 47f0 efbe 00a9 4dbe f3da 81be 8d2f f3be
00000330: ecfd 8dbe 36fc 0dbf aacf 0e3f cff0 233e
00000340: 9a7e ad3d e1be 92bc b722 0abe 970f 1cbe
00000350: 5eb3 cabd 595a 7e3c a158 063e b21b ba3e
00000360: e5d8 c6bd 4c3c 8f3e 91d1 ab3e eb8a 1cbd
00000370: 3ce6 eb3d 5784 8f3e 4d6d 1abe b6c5 0f3d
00000380: 9add 233e 6b3e eb3d 7187 7bbe 2fdc ebbe
00000390: 9e2f d43d 2397 d3bd 6e5c 86be a97a 513d
000003a0: a8f4 99be c1b7 b7be 8f77 e2bc 035f 84be
000003b0: 5eea 2dbe ed42 a73d 1ade 80bd 7d59 fdbd
000003c0: 9f38 72bd ecda 22be d197 043e 101e cf3d
000003d0: 9a44 883d 2c85 77bc 261b e23d 5edb cbbd
000003e0: d228 99be 37ff de3a 6ebf 57bd 3670 aabe
000003f0: 8744 4ebd 524e 62be 80ee 113e c471 4dbe
0.12583624 -0.025127187 -0.113800265 0.011922525 -0.18927124 0.18552238 0.12800018 0.032793753
-0.014801947 -0.031025946 0.08402396 -0.023653928 -0.37261307 -0.042718753 0.016765077 -0.15076096
-0.039561834 0.07892586 -0.10734724 -0.0083212005 0.19970731 0.011500559 0.103093125 0.18322037
0.14954667 -0.1050071 0.07847534 -0.14441735 -0.12336198 0.13980825 -0.21810594 -0.06611994
0.17173362 -0.04288201 0.1508447 0.21534158 0.02780009 0.005139064 0.39667317 -0.15520164
0.0830094 0.30958962 -0.12496246 -0.11430481 0.08348875 0.01549538 0.012393337 0.04741786
0.122960776 -0.14329177 -0.1433836 -0.16802023 -0.03499602 -0.010546194 -0.08144116 0.023718335
-0.0042064963 -0.07955324 -0.21663767 -0.049983554 0.02951029 -0.07568514 -0.019089762 0.03843145
0.25032905 -0.08292801 0.1618393 0.16196573 -0.01676631 -0.012357895 0.04219537 -0.10779351
-0.22294655 -0.2251687 -0.010533339 -0.28933275 -0.420455 -0.079046756 -0.11685856 -0.07554977
-0.034845844 -0.084285535 -0.00019996068 0.060522124 0.10445564 -0.1433255 0.001506992 -0.0061897347
0.056336276 0.052889425 -0.050804783 0.057789773 -0.019587906 -0.002104524 0.012759176 -0.0067411712
-0.05814665 0.020023035 0.03080963 0.14650457 -0.059498753 -0.024740241 0.19811496 0.06850755
-0.108567536 0.08969311 0.017758857 0.049405612 0.18727395 -0.020217452 -0.066964224 -0.13330394
0.16267239 0.01498468 -0.08486794 0.012807328 0.0076933387 0.15709053 0.102037124 -0.1817991
0.17674153 0.07638903 -0.0565235 -0.07121591 -0.066963695 -0.0297306 0.34691307 0.10283489
-0.11671508 0.39205104 0.22084734 -0.078376815 0.007064173 -0.00880791 0.0054451814 -0.16420692
-0.04520811 0.17895499 -0.17376857 -0.058831003 0.12447161 -0.017546497 -0.16801623 -0.044392332
-0.22727014 -0.06511037 0.25355607 -0.035939198 0.26705402 0.35029456 -0.07437677 -0.004851117
0.08639579 0.06877732 0.121382184 0.07619339 0.0024070754 -0.16349722 0.07245958 0.1690733
0.017243205 -0.07285284 -0.94512874 -0.014847651 -0.24620616 -0.27464798 0.49316892 -0.033676583
-0.31137428 0.21883132 -0.70924497 0.43467656 0.050308198 0.17006572 0.18689738 -0.34285578
-0.26314273 0.045097664 -0.45415407 -0.12244187 -0.22039135 -0.041716594 0.03292349 -0.3878605
0.01724702 -0.28112984 0.2620372 0.22460602 0.23143381 -0.31186286 -0.039177813 0.12895001
-0.68031263 -0.08076214 0.036182594 -0.0499605 0.28770092 0.62928903 0.18816473 -0.039093297
-0.46863005 -0.20084 -0.25362357 -0.47497216 -0.2773279 -0.5546297 0.5578562 0.1600983
0.08471413 -0.017913284 -0.13489805 -0.15240322 -0.09897493 0.01552447 0.13119747 0.36349255
-0.09709338 0.2797569 0.33558324 -0.03821842 0.11518523 0.28030655 -0.15080757 0.03510066
0.16002503 0.11486515 -0.24563386 -0.46066424 0.10360645 -0.103315614 -0.26242393 0.05114237
-0.3006947 -0.3588238 -0.0276449 -0.25853738 -0.16983935 0.08167062 -0.062923625 -0.12370584
-0.05913603 -0.15903825 0.12948538 0.10113156 0.0665371 -0.015107434 0.110403344 -0.0995395
-0.29913956 0.0017013316 -0.052672796 -0.33288735 -0.05035832 -0.2210019 0.14251137 -0.2006293

model.ec2.0.bias f4 [16]
00000000: f4b7 22bc 6afa b23d 4e9a 10bd cdb9 7abd
00000010: 446d 99bd 76ff 5cbc 39c2 e63d caba 303d
00000020: 665d 9d3d 5748 db3d 033b ca3c fe8a a33d
00000030: eda6 533d 69c8 84bc 34be 6b3d 7b3b b43c
-0.009931553 0.08739169 -0.035303406 -0.06121235 -0.07491544 -0.013488641 0.11267514 0.043146886
0.0768383 0.10707157 0.024686342 0.07985495 0.051672865 -0.016208844 0.05755444 0.022001019

model.ec3.0.weight f4 [16, 16, 3, 3]
00000000: 459c cd3c f280 9c3d 6620 f73d 34f7 7d3d
00000010: 9258 af3d 8452 1d3e dffe 473a 3493 033e
00000020: c4b1 49bc fc8b 08be 8ed3 c8bd 0b13 683c
00000030: 0e5e 453e f23c e3bd 263f d1be 79b6 47be
00000040: fedf 9c3e 6f07 383e eb0c 2a3e c4a6 bb3d
00000050: 20a1 0cbe d54e 093e d3a8 cb3c 2ae1 91bc
00000060: 9e1f 4f3d c2c9 993e 73ef d8bd 4006 cfbd
00000070: 70b4 ab3d 7acb 16be 954a e13d 6fca d23d
00000080: a9d8 11be c533 e8be 2288 9fbe 619d 97be
00000090: d4a8 9ebc 52ce f5bc 329c 053c ae11 6ebd
000000a0: d020 d9bb c589 1d3e 05ec cb3d 75b4 25bc
000000b0: 3930 2c3e 7c6b b9bc 3a4d 15bc e60e 303d
000000c0: 33ef fcbb 910e f7bd d24a aebc 8b4a ffbc
000000d0: f477 bebd 45f6 8d3d 280f 863d dd6b 76bd
000000e0: 30ab 0ebd 2993 4b3d c2d6 b83c 3b1f fe3d
000000f0: 7f88 6ab9 ee6f 463e a354 f43d 0dd9 20be
00000100: f7ac c83d e774 52bd e1e3 9abe 71aa 563d
00000110: 08f7 61be 5ff4 b7bd 1e86 e03d c524 8ebd
00000120: 5caa 173c e9fe 0f3e eabd 153e 7fdc bdbb
00000130: 6e1f 203e c7ca 013e d05e 1c3e 6f26 983d
00000140: bf60 2e3e 7d28 c93b ce7d e63d 5dc0 86bd
00000150: 7c1c 6e3d 39d9 663e 7272 363c cb98 453e
00000160: e786 bc3d 409d 8fbd c4f3 69bc 7356 90be
00000170: d177 083e 773b b13e fa5f ee3d d6aa 0b3e
00000180: e788 93bc 75de a63d 7410 a13d 3a18 38bd
00000190: f7f1 35bd bcdc 2cbd 0935 74bc 5f14 1c3d
000001a0: 38c1 b7bd 254c 04bc 8aa1 82be b658 07bc
000001b0: 0198 97bd 89d0 f5bd b098 1fbe 1c30 023d
000001c0: f99b 03be de48 1dbe 2b3d b33c 3100 813c
000001d0: 1861 87be 3fe3 7a3d f836 5dbd b88d ff3d
000001e0: ece0 ba3c eff7 1cbd d91b 4b3e ff47 34bd
000001f0: 8122 ac3d ee23 ef3c bbd9 1dbe e02f 4ebb
00000200: 313d 61be d7aa babe 1c4c 4f3e 1658 e73e
00000210: 1b84 cfbc 8ce7 8dbe 1998 a7be 51a1 89bd
00000220: 09aa d83d 932f 0abd 2eb5 77be e176 d8bd
00000230: 45b2 b53d aa1b d63d c263 00bd 63c9 febb
00000240: 8792 a53c d844 b53d de10 0fbd f685 81be
00000250: 826c 12be ac2c 003e 3698 c93c a978 e93d
00000260: da5a 44bd bcb6 1bbd 4c0a c33d 8f5f 13be
00000270: 8f74 bf3e 25a7 483f 90bb 1abe dd79 0fbe
00000280: 5437 f9bd eb19 9abe ecc9 83be 3fcb 6e3d
00000290: 97de 71be 26a0 06be 23cd 463d 07bc c5bc
000002a0: 35b2 c63d a507 08be e4d4 0cbe 4962 aa3e
000002b0: 6823 f9be 4cf8 c5be 236c 9bbc 70e8 253d
000002c0: e90d 2bbe 2394 a2be 7247 86be d9cc 0abe
000002d0: 569d 7d3d dc9a a63e cf16 1a3e f18f b1be
000002e0: 6beb 453d 2c31 353e 04e5 5dbe 9c7a c93d
000002f0: ca8d 603e b9df afbd 2a8c 093e 5869 2dbd
00000300: 5adc 48be 1628 223e 4ab8 cf3b f717 ccbd
00000310: 5a1f 913d 0bda c8bc b243 babc 2002 c2bc
00000320: e6e9 3fbc 27bd 8d3d d8bb e83d 9b0e 03be
00000330: e201 033e 9043 fa3d d3c0 3fbc 27d8 d73d
00000340: 210e 6dbd 0087 15be 9ce7 c03b b8ff ac3e
00000350: fd17 80bd 87c7 ddba 1a33 1f3c 6c4e 0ebe
00000360: ce0e bf3d db49 1abd ae06 223d 91b0 2cbe
00000370: f935 b1bd b2c6 2bbc f54a a43d b301 ca3d
00000380: 5a55 cb3c 873c e8bd e014 e0bd c598 9ebd
00000390: 19f1 133e dab4 7f3d c8ca 463d da10 22be
000003a0: bb9d 05be f5f3 553d 2103 8a3e b30f 243e
000003b0: e276 ccbd e1a9 0b3e ea57 e63c 8ba2 60be
000003c0: b068 d53c 5077 833d 4893 2c3d 224b 893d
000003d0: e648 58bb 5b8f 4d3d 2ea2 73bd 9593 ad3d
000003e0: cb07 f3bc 6747 e03d a2ea a63d f0a1 a23d
000003f0: 1b95 553e abc5 d4bd 36af e1bd bbea ca3b
0.02509893 0.07641782 0.120667264 0.06200333 0.08561815 0.15363508 0.00076292263 0.12849122
-0.012310449 -0.1333465 -0.09805976 0.014164696 0.1927416 -0.11095609 -0.4086849 -0.19503202
0.30639642 0.17971586 0.1660649 0.091626674 -0.1373334 0.13408978 0.024860775 -0.017807562
0.050567262 0.30036741 -0.10592546 -0.10108614 0.08384025 -0.14726058 0.110005535 0.102925174
-0.14242806 -0.45351997 -0.3115855 -0.29612258 -0.019367613 -0.030005608 0.008154916 -0.05812233
-0.006626226 0.15384586 0.099571265 -0.010113825 0.1681527 -0.02263426 -0.0091126505 0.04298296
-0.0077189445 -0.12063325 -0.021275911 -0.031163475 -0.09300223 0.06931738 0.065458596 -0.06016146
-0.034831226 0.04970089 0.022563342 0.124083005 -0.00022366828 0.19378635 0.11930206 -0.15707798
0.097986154 -0.051381018 -0.30251983 0.05240864 -0.22066891 -0.08982157 0.10963081 -0.06940607
0.009256925 0.14062084 0.14623228 -0.0057941074 0.1563699 0.1267501 0.15270543 0.074292056
0.17029093 0.00613886 0.11254464 -0.06579659 0.058132634 0.22543801 0.011135684 0.19296567
0.09205418 -0.07012415 -0.01427931 -0.28190956 0.13326956 0.3461568 0.116394 0.13639387
-0.018009616 0.08147899 0.07864466 -0.04494498 -0.04442021 -0.042202696 -0.014905223 0.038105365
-0.089724004 -0.008074795 -0.2551387 -0.008260896 -0.07402039 -0.120026655 -0.1558559 0.031784162
-0.12852468 -0.15359828 0.021879753 0.015747162 -0.26441264 0.061251875 -0.0540075 0.124782026
0.02281233 -0.038322385 0.19834842 -0.044013973 0.084050186 0.029191937 -0.15415089 -0.0031461641
-0.21995999 -0.36458465 0.20243877 0.45184392 -0.025331547 -0.2771572 -0.3273323 -0.06720222
0.10579307 -0.033736777 -0.24190208 -0.10569549 0.08871893 0.10454495 -0.031345136 -0.007775472
0.020211471 0.088510215 -0.034928195 -0.25297517 -0.14299205 0.12517041 0.024608713 0.11399967
-0.047938205 -0.038016066 0.09523448 -0.14391921 0.37393615 0.7838004 -0.15110612 -0.14011331
-0.12168756 -0.300979 -0.25739992 0.0582993 -0.23620068 -0.1314703 0.048535477 -0.02413751
0.09701959 -0.13284166 -0.13753086 0.3327811 -0.48659825 -0.38665998 -0.018972462 0.040504873
-0.16704525 -0.31753644 -0.26226383 -0.13554706 0.061917625 0.32540023 0.15047763 -0.3468013
0.048320215 0.17694539 -0.21669394 0.09837839 0.21929088 -0.085875936 0.13432375 -0.04233679
-0.19615307 0.15835604 0.0063391076 -0.099655084 0.07086058 -0.024518033 -0.022737358 -0.023682654
-0.011713481 0.069208436 0.11363953 -0.1279854 0.12793687 0.12219918 -0.011703688 0.10539275
-0.057874803 -0.1460228 0.005886985 0.33788848 -0.062545754 -0.0016920426 0.009716773 -0.13897103
0.09328996 -0.03766809 0.03955715 -0.1686423 -0.086528726 -0.010484384 0.080221094 0.09863605
0.024820972 -0.1133967 -0.109414816 -0.07743982 0.1444744 0.062428333 0.04853323 -0.15826741
-0.1304845 0.05223461 0.26955512 0.16021614 -0.099836126 0.13639022 0.028118093 -0.21937005
0.026050895 0.064192414 0.042132646 0.067037836 -0.0033002435 0.050185543 -0.05948084 0.08475415
-0.029666802 0.10951119 0.081502214 0.079410434 0.2085766 -0.10389265 -0.11019747 0.006192533

model.ec3.0.bias f4 [16]
00000000: 8e85 0b3d 2c40 103c 8a06 6bbd b344 72bc
00000010: bcc6 b33d f125 793d 15a2 423b 1229 85bb
00000020: 2fd1 a5bb b052 e73a ca7d 273c cb3d a0bc
00000030: c735 d1ba 55a2 143d b036 6cbe 263a c4bb
0.034062915 0.008804362 -0.057379283 -0.014786887 0.0877814 0.0608272 0.002969866 -0.004063734
-0.005060337 0.0017648544 0.010222862 -0.019560715 -0.0015961461 0.036287624 -0.23067737 -0.005988377

model.ec4.0.weight f4 [32, 16, 3, 3]
00000000: 95c2 76bd 3f5c cdbd d23a 0a3e cf14 84be
00000010: 3a89 8fbe 53e7 103e fa08 f7bd 56a7 93be
00000020: 0f94 18bd 046b 2dbd 6b39 68be 7fba f43c
00000030: 2bab cebd ada6 37be 664f 213f 5a5c ecbd
00000040: 0858 45bd 1ce7 e33e 32bc f1bd 02ac 4dbe
00000050: 11a1 0e3e 07fc 06be 25a6 85bc fb2c 533d
00000060: 4b15 efbd 99be e53d 8eeb 8e3d fec7 983d
00000070: f888 82be a504 d5bd 63a9 58be c65a 17bf
00000080: de0f 2ebe e068 4abd 970e 97bd 639d 15bd
00000090: 707b 103e df87 5fbe b5a7 1abd 7c50 02be
000000a0: 6eae f3be 5321 bcbd 03f3 9ebd aff2 bebe
000000b0: 473e 3cbd b9f0 c3bd e77e f1bb 557f 103e
000000c0: db42 1ebe da65 fc3d 0148 203e ebad 46be
000000d0: dce7 e73d 3de1 4d3d 086a ca3a 0c4d 86bd
000000e0: 3be9 afbd bae1 96bd 3733 0cbd f44a ac3d
000000f0: e2c4 503d c650 77bb c0d5 d5bc 07fc cf3d
00000100: fda9 a83e d6b1 603e e1a5 133e b2dc d43e
00000110: 0dd7 c73e 6ed1 fe3d 17d1 4a3e 399c 4a3e
00000120: 30fe 75be 6bbf 153e b3a3 aabb f0cf 2cbd
00000130: 36ab 67bd 8b74 aaba 4e24 4bbd a257 493c
00000140: a467 05be 8286 933d 653c 863e 0018 123e
00000150: f38f dfbd b128 ab3e 6128 843e 83d3 c2bb
00000160: 476a 2e3d 16f0 f13d 8a43 103c 5550 f2bd
00000170: 1b77 0cbe b935 fb3d 9fda 4bbe 1094 d0be
00000180: 81ac 0e3e 7a76 c53d 57a7 febd eddc 8d3e
00000190: c74a a33d a55e aebd 622b 383d c3f9 ad3d
000001a0: 3a01 58be c74e cdbc 0ca0 8abc 0538 bcbd
000001b0: bb78 193e c9d0 643b 3285 b8bc 3bd7 823e
000001c0: 3c07 0c3e df68 1bbe d90f 133e 6c4f f23d
000001d0: f6a0 9fbc fba0 843d 8873 763c 328d 09bd
000001e0: a2f9 ba3d 8c64 b33d 49ee ff3c 9fd4 08bd
000001f0: 9236 bf3d 28ed 90bd 9222 98bc 3922 283d
00000200: 04a5 4ebd 4aa9 38be 36c6 8a3d a2d2 533e
00000210: dfa3 16be eb85 2c3d e7e6 e83d 2967 b43d
00000220: fa83 943c 448f 513e 5227 663e 4bcf 2d3c
00000230: 69d5 9b3e d600 123e 4c9d 483d 1c10 a53d
00000240: 891e 3a3e b073 1e3e 8e82 a8bd a23b 0c3e
00000250: 701f 423e 6755 0a3d 744d c7bd 2c28 2f3d
00000260: 75c9 79bd 2e12 553d 0fa6 793d 7f55 463d
00000270: 0ee1 e83d 7ec9 02be 19be 893d f7b2 c8bd
00000280: 0289 54be f17b 623b 1588 cabc 871b 8c3d
00000290: 9b3f b23c 7d22 03be b6d6 ecbc b4c6 a0bd
000002a0: 3da8 dc3c 339a 633d a1bc b63c 9694 973e
000002b0: f5f2 b53e ad0e 0abd f7d6 bb3d d0f4 303e
000002c0: 89e1 c2bd a747 71bd 57e6 a43d 5540 7fbc
000002d0: 5db5 6b3e 4e06 ab3e 83f2 1c3e 57f6 e83d
000002e0: c48b 0b3e 6024 873d d969 9ebd 8224 96bd
000002f0: 6a4b b2bd 1ee2 873d 431c 063c 7015 363d
00000300: 2dc3 093d 71f3 a33d f892 cc3d 8a7e 29be
00000310: eb7e f8bc 7d9e d9bc 33ea 023e 3aa6 a83e
00000320: b66d e73d 83d2 debd 2afb e53c ed59 683d
00000330: b92a bebd 36cf 89bd c76d 8bbd 22e9 203e
00000340: 64dc bebd 2020 4c3d 2a00 69bd f68d c7bd
00000350: cbfa 40bd 5f27 06bd a79b e1bc fe81 d03c
00000360: 3252 f8bc 9c90 753e b66f 24bd a996 49bd
00000370: 0cb7 4d3d 42c5 0abc ac75 89bd 6645 cdbd
00000380: faa2 acbd f1fe 1b3e 85bf dabd 455d a6be
00000390: 9115 aa3d 9484 d13d 1424 04be 748f 8f3c
000003a0: 7536 e5bc 4e23 09bd 99b2 3abd a24c 7b3d
000003b0: dd54 fb3c 9131 31bd e9df 17bd ecfb 983d
000003c0: 46b2 d63c 1260 a33c a1c0 05bd fcff e43d
000003d0: fa0a 30be aec8 8bbd bb27 20ba fa83 75bd
000003e0: a579 93bd 62d6 1a3d 50f0 4c3c c89b 223d
000003f0: ce28 a1bc f037 2abe cbd6 3cbd 221e 2d3c
-0.06024416 -0.1002736 0.13499 -0.25797126 -0.28034383 0.14150743 -0.12062259 -0.28838605
-0.037250575 -0.042338386 -0.22678153 0.029874085 -0.100912414 -0.17934676 0.6301178 -0.11541052
-0.048179656 0.4451226 -0.118034735 -0.20085147 0.1392863 -0.13182078 -0.016314575 0.05155657
-0.11673983 0.11217994 0.06978522 0.074600205 -0.25495124 -0.104012765 -0.21158366 -0.59122884
-0.1699824 -0.049416423 -0.0737583 -0.03652705 0.14109588 -0.21829174 -0.037757594 -0.12726015
-0.47594017 -0.091860436 -0.077611946 -0.37294528 -0.04595783 -0.095673986 -0.0073698643 0.14111073
-0.15455191 0.12324114 0.15652467 -0.19402282 0.113235205 0.050263632 0.0015442977 -0.06557664
-0.08589407 -0.07367273 -0.03422853 0.08412734 0.050969012 -0.0037737354 -0.0261029 0.10155492
0.3294219 0.21942839 0.14418747 0.41574627 0.39031258 0.12442289 0.19806324 0.19786157
-0.24022746 0.14623801 -0.0052075027 -0.042190492 -0.056559764 -0.0013004703 -0.04959517 0.01228896
-0.13027817 0.0720339 0.26217952 0.14266968 -0.10916128 0.33429483 0.25812057 -0.0059456243
0.042581823 0.11813371 0.008805165 -0.11831728 -0.1371731 0.12266106 -0.19907616 -0.40737963
0.13932993 0.09641738 -0.12434261 0.27707615 0.07973247 -0.08514146 0.044963248 0.08494904
-0.21094218 -0.025061978 -0.01692202 -0.091903724 0.14987461 0.0034914485 -0.02252445 0.25554833
0.13674635 -0.15176724 0.14361514 0.11831555 -0.019485932 0.06476017 0.015042193 -0.03358192
0.09129645 0.08759412 0.031241553 -0.033405896 0.0933658 -0.07076484 -0.018571172 0.041048262
-0.05045034 -0.18033329 0.06776087 0.20685819 -0.1471095 0.0421199 0.11372166 0.08808739
0.018129338 0.20464808 0.22475937 0.0106085045 0.30436257 0.14258131 0.048978135 0.08059713
0.1817571 0.15473819 -0.08228026 0.13694623 0.18957305 0.033772852 -0.0973157 0.04276292
-0.06098314 0.05201929 0.06094938 0.04842138 0.11371051 -0.12772176 0.067257114 -0.0979976
-0.2075539 0.0034558738 -0.024723092 0.06841188 0.021758845 -0.12806125 -0.028910976 -0.078503996
0.026935691 0.055566978 0.022306742 0.2960555 0.35536924 -0.033705402 0.09171861 0.17280889
-0.09515674 -0.058906224 0.08051746 -0.015579303 0.23018403 0.33403248 0.15326886 0.113751106
0.13627535 0.06598735 -0.077350326 -0.07331182 -0.0870579 0.06634925 0.008185449 0.04445404
0.0336334 0.08005417 0.099889696 -0.16552177 -0.030333957 -0.02656483 0.12784652 0.3293932
0.113002226 -0.10879996 0.028073866 0.056726385 -0.092854924 -0.067289755 -0.06808048 0.15713933
-0.0931938 0.049835324 -0.056884922 -0.09743874 -0.047114175 -0.03275239 -0.027540041 0.02545261
-0.030312631 0.23980945 -0.0401456 -0.049215946 0.050223395 -0.0084698815 -0.06711897 -0.10023002
-0.08429523 0.15233971 -0.10681061 -0.32493034 0.08304895 0.102303654 -0.12904388 0.017524458
-0.027980069 -0.033480935 -0.04558048 0.06135238 0.030680114 -0.04326016 -0.03707877 0.07469925
0.026208054 0.01994327 -0.03265441 0.11181638 -0.17191687 -0.06825386 -0.0006109436 -0.059940316
-0.07200936 0.037802108 0.012508467 0.039699346 -0.019672778 -0.16622901 -0.04610328 0.010566266

model.ec4.0.bias f4 [32]
00000000: bae4 fe3d 94ea e4bd 4291 013e e754 7e3c
00000010: 6704 dabb 30dd c23d cdf0 023f 5e7a e73e
00000020: ed9b 06bf 700d f8bc 29f1 253d 8264 53bd
00000030: a17d 9b3d 5814 a7bc b997 87bb 4b70 00be
00000040: dd0a f1bd ab8d 1d3e fcac 4d3d 65d8 903c
00000050: f4e2 b53c 2f22 87bc 7034 b2bd e121 8dbd
00000060: cb4d 843d 3838 40bc ff3c aabd 9b9f 143d
00000070: 1899 bfbe a868 223e 9115 afbc e522 aabc
0.1244597 -0.11177555 0.12653068 0.015523172 -0.006653357 0.095148444 0.5114868 0.45210546
-0.52581674 -0.030279845 0.04051319 -0.051609524 0.07592321 -0.020395443 -0.00413796 -0.12542836
-0.1176965 0.15386073 0.0502138 0.01768131 0.022202946 -0.016495792 -0.08701408 -0.068912275
0.0646015 -0.011732154 -0.08312415 0.036285024 -0.3742149 0.15860236 -0.021372588 -0.020768592

model.ec5.0.weight f4 [32, 32, 3, 3]
00000000: 0c6f 55bd 8057 8c3d d42e 01be 84c5 7e3d
00000010: b411 1b3d 1b65 12be ea7c eb3d ec42 8c3d
00000020: 16f7 8c3d 36fd 04be 971c c1bd 3c16 8fbe
00000030: 97e9 e73d c341 1d3f 6398 4fbd 5e4f 0a3e
00000040: eca0 913c c249 473d d6d6 f7be a6fc 16bf
00000050: c0ac 98be c766 81bd 819e a2bd 9a12 963c
00000060: 917d 753c 9d68 313d e017 753c d5d8 2bbd
00000070: a104 37be 41ca 24be 8230 ae3d adf2 98bd
00000080: c0c4 793d e4fa b6bc 778a 413b f126 ad3d
00000090: 1f78 a23d 005b 923e d8f9 363e 12e3 5cbd
000000a0: acac 63be 9ca2 f5bd ba75 c53d a446 423c
000000b0: 7404 25bd e1d8 773e 57e0 b6be 70a6 893d
000000c0: 5ee8 cd3d a08a 5d3e 5f4e a93e 5c4b 9abc
000000d0: 9c66 a8bd 7f7a 3fbd ca34 db3d 8c3f b23e
000000e0: 3900 113f 4e02 babe 9536 22be dd0a 15be
000000f0: 7323 51be ca31 c53c b520 10bd 664e 643e
00000100: 019e 673e 2b32 6b3e 63d8 35be f39e fabd
00000110: 140d 9fbd 9293 5bbe 0f76 f5bb 6d29 ebbd
00000120: 5a68 73be 37a1 a1be f41c 72be 32cc 993e
00000130: 515a 783e 2710 68bd 7f07 723d fe94 033e
00000140: 4591 89bc 4d6c cabd c834 0d3f 8b4b 153e
00000150: 3921 3f3e 73db 9dbe 552d 22be 0a44 97bc
00000160: 589b 5ebd 7ced bb3c f303 993c 2975 80be
00000170: 1424 95bd b6af dc3d 8c26 1b3f 943a 32bd
00000180: be9e 16bd ebb6 89bd 7de0 f53c d969 68be
00000190: 91bf 1f3c cede b93e 866d 10be 9cae 3fbe
000001a0: a1f2 a7be 98a4 0cbd 95e5 0b3d 78bf 723d
000001b0: b0ea fd3d e7a1 de3d dc29 ffbd 643b 79ba
000001c0: f323 0abe 0d3a 6c3e 85b4 73be b66b 8dbe
000001d0: 2b55 11bd 1e54 ca3d cb2a 1a3c 5070 cabd
000001e0: 5a0d 903c ef6f c2bd c9df 82bd 02aa aabd
000001f0: 7650 e33d 7108 073b 847a e6bd 702d 8d3d
00000200: 9499 2ebc d43d a7bd b98e a1be eac6 22be
00000210: 602d 1c3d f70c 6abd 86e4 afbc ee98 913d
00000220: 4392 abbe 4e5c d4bd 81e3 21be 65fb 9b3b
00000230: 8619 523d d0e3 ed3c bc19 cb3d 525f ee3c
00000240: 05f8 d63d 7201 9bbc 8bb4 42be 7ff3 1d3e
00000250: 01a6 3e3d 75d5 37be e03c 173d 4b36 38bd
00000260: 523a 773d 8eaa df3d af7a 28be 21cc a43e
00000270: 5c85 f23d fa43 2a3e fa12 cd3c e16b 22bd
00000280: 4c9b 32bd 98c5 81bd e23f 19be d3e6 923e
00000290: a1e1 803e 8a9e 833c 3f69 d43d 64fe 73be
000002a0: 7430 49bc d054 d13b 4452 433d a2b2 a33c
000002b0: 42a2 983e e4a1 83bd 8161 07be 3e22 44bc
000002c0: c5b8 293d b87f 02be 628b c33c c6b2 c4bd
000002d0: 5293 25bd 6174 3fbe 6152 5a3c 2f77 0d3e
000002e0: 8de9 aa3e 825b 043e 52b6 973d 7022 42be
000002f0: 0fe8 133e 7173 46be 7cf9 febd 5b02 e33d
00000300: 6821 cbbc d59f 32be b342 a43d e7b4 04bc
00000310: 2d64 ec3c 8ca9 d63d bd9a 9ebe 19e5 6bbe
00000320: b979 2f3d 9396 713d cb10 dc3e a4d8 5fbc
00000330: 8a1c 99bd 94db 293e 58f1 fa3c ff81 fb3d
00000340: fb7c d63d 9901 38be a87e 7abd de6e 21be
00000350: 556a 32bb 483c a63c a5b5 15be baba cabc
00000360: 9ba3 11be b720 aabc 19a2 6cbd 47e5 08bd
00000370: be6e 963d 819c 75bd 95ce 093e 51c1 5d3d
00000380: b0c3 223d a445 ac3e 5427 7d3e 78a6 ec3d
00000390: 8343 c4be 0d3a 69be 2046 553e 27f8 0dbe
000003a0: 644f babc 429b 9c3d 6340 03be 1bb4 52be
000003b0: c12c 3fbe e147 d63e 2bc2 413e 5891 02be
000003c0: aa96 3d3e c400 fabd ea39 ac3d 7cc8 c8bd
000003d0: 02ed cd3e b7c2 d1bd 8f8e e7bb 80fa 89be
000003e0: f22b 123e 6bed 30bb d6f6 363d 4a6d 1a3d
000003f0: 8a82 1cbe ecac e2be eb70 83be f23e a63e
-0.052107856 0.06852627 -0.1261552 0.062200084 0.03785868 -0.14296381 0.11498435 0.06848702
0.068830654 -0.12987217 -0.09429281 -0.2794665 0.113238506 0.6142847 -0.050682437 0.13506839
0.017776929 0.048654325 -0.48406094 -0.5897926 -0.29819298 -0.06318431 -0.079403885 0.018319417
0.014983551 0.043312658 0.0149593055 -0.041954834 -0.1787286 -0.16092779 0.08505346 -0.07468162
0.06097865 -0.02233643 0.0029531994 0.08454693 0.079330675 0.28585052 0.17868745 -0.05392749
-0.22233838 -0.11993906 0.09641595 0.011857662 -0.04028745 0.24203826 -0.35718033 0.067211986
0.10054086 0.21634912 0.33067605 -0.018834762 -0.08222696 -0.04674768 0.10703428 0.34814107
0.56640965 -0.36329883 -0.15841134 -0.14554925 -0.20423679 0.024071593 -0.03518744 0.22295532
0.22618867 0.22968356 -0.17758326 -0.122373484 -0.07766166 -0.21443012 -0.0074908803 -0.11482511
-0.23770276 -0.3156831 -0.23643857 0.300386 0.24253203 -0.05665603 0.05908918 0.12849805
-0.016792903 -0.09883938 0.5515866 0.14579599 0.18665017 -0.3083149 -0.15837605 -0.01846506
-0.054347366 0.02294039 0.018678641 -0.25089386 -0.07282272 0.10775702 0.6060569 -0.043512896
-0.036772482 -0.06724342 0.03001427 -0.22696628 0.009750263 0.363028 -0.1410428 -0.18718952
-0.328023 -0.034336656 0.034154493 0.05926463 0.12398279 0.10870724 -0.12459156 -0.0009507446
-0.13490276 0.2306902 -0.23799331 -0.2762124 -0.035481613 0.09879325 0.009409617 -0.09884703
0.017584492 -0.09494006 -0.0639034 -0.08333208 0.11099331 0.0020604397 -0.11253837 0.06893432
-0.010656733 -0.0816609 -0.315542 -0.15896192 0.03812921 -0.05714127 -0.021471273 0.07109247
-0.33510026 -0.10369168 -0.15809442 0.004760193 0.051293872 0.029039294 0.09917018 0.029098187
0.10496525 -0.018921588 -0.19014184 0.15424918 0.046545032 -0.17952521 0.03692329 -0.044973653
0.060358353 0.109212026 -0.1645305 0.32186988 0.118418425 0.16627494 0.025033463 -0.039653663
-0.043605134 -0.06336516 -0.14965776 0.2869173 0.2517214 0.016066808 0.103716366 -0.23827511
-0.0122796185 0.0063882843 0.047685876 0.01998264 0.29811293 -0.064273626 -0.13220789 -0.011971055
0.041435976 -0.12744033 0.023870174 -0.09604411 -0.0404237 -0.18696739 0.013325305 0.13814996
0.3338131 0.12925532 0.07407822 -0.1895845 0.14443992 -0.19379975 -0.12449929 0.11084434
-0.024796203 -0.17443784 0.08020534 -0.008099771 0.028856361 0.10481557 -0.3097743 -0.23036613
0.042840693 0.05898149 0.42981562 -0.013662491 -0.074761465 0.16587669 0.03063266 0.12280654
0.10473057 -0.1796936 -0.061155945 -0.15764949 -0.0027224023 0.020292416 -0.14620073 -0.024747241
-0.14222567 -0.020767553 -0.057771776 -0.03342178 0.07345341 -0.059963707 0.13457711 0.05413944
0.039737403 0.33646882 0.24722034 0.11555189 -0.38332757 -0.22776051 0.20827532 -0.13864194
-0.022742935 0.076468006 -0.1281753 -0.20576517 -0.18669416 0.41851714 0.18921725 -0.12750757
0.18514505 -0.12207177 0.08409484 -0.09803864 0.40219885 -0.10242217 -0.007066555 -0.2694893
0.14274576 -0.002699698 0.044668995 0.037701882 -0.15284172 -0.44272554 -0.25672087 0.32469898

model.ec5.0.bias f4 [32]
00000000: c0a9 00bd 0c65 d6bd 79f2 1bbe ddf6 933e
00000010: 5744 46bd 9aa6 03be 12ab 1abe c584 073c
00000020: 07f8 dc3c 23ab 00be 5cda 4dbe 01eb 193e
00000030: 1990 34bb d0b0 873d 2e90 a6be b954 163d
00000040: d1d1 81bc 310c 5cbe 7ce4 b3bd 04ba 3e3e
00000050: 53f1 c1bb bfc0 043c a859 863a 435c d7bc
00000060: 99ae 853f 06f8 07bf 5414 a9bc 098e 2d3e
00000070: 94fd a13c 1813 3ebd fc9b b93d ebca 00be
-0.031411886 -0.10468492 -0.15229215 0.2889928 -0.048405018 -0.12856522 -0.1510432 0.008271401
0.026973737 -0.12565283 -0.20102829 0.15031053 -0.002755171 0.06625521 -0.32531875 0.03670189
-0.015847119 -0.21489026 -0.08783814 0.18625647 -0.0059186607 0.008102595 0.0010250108 -0.026289111
1.0443908 -0.5311283 -0.020639576 0.16948713 0.019774236 -0.046404928 0.09062955 -0.12577407

model.ec6.0.weight f4 [64, 32, 3, 3]
00000000: 6956 f7bc 0fa1 0dbe 7108 b8bc 81ac c33d
00000010: 88be c13d abe7 bf3d 894e 623d 644e debc
00000020: 7ca3 463d 4467 a63d 5b09 6abd 5758 1f3e
00000030: e183 13be 20ee 0dbe 54f5 14be 3eba 70bd
00000040: 3799 d43d a3da 15be 8fd3 b43d f6fd c73d
00000050: 4fdf 503e 5122 a03d 6b57 de3d c2a4 0abe
00000060: 5364 01be dfe3 4abe d35e 8bbe 7f44 88be
00000070: 4dfd 91be 8524 8bbe ee89 99be 033a a3be
00000080: e835 fdbc d1fb 723d 3e39 46bd 6e3c c7bc
00000090: e707 ebbd 83ce 8cbe f464 1cbe b505 70be
000000a0: 1937 0fbf 3db5 04bf 6b74 47bd 7a5e 74be
000000b0: 8cb5 043e 9bce f8be 797b bfbe 0613 90be
000000c0: 99d0 39be 7016 96be ddf1 aa3b 6b1d 8d3d
000000d0: 344d 4d3d 6eef 463d a6fc 713e 73c3 8d3d
000000e0: 42e5 c63d 913c 413e 7c2e d93e b802 ba3e
000000f0: a517 963e 506b f53e cbf9 893e 029a 273e
00000100: d624 c3bb c451 073e f29e b93d b94b af3d
00000110: 3dc3 4bbc b0ec 4c3d 3359 01bd 5676 be3c
00000120: 595a 08bd 3623 bbbd 9818 d8bc ecfb 39bd
00000130: 4968 7cbe e9d2 2bbd 8a24 043d 5d8c c4bd
00000140: 81fd 9abd 4038 533c 0c1f 4c3d 8fd2 afbc
00000150: df4a fd3c 4942 803d c934 f13d fcf9 15bd
00000160: 1c63 713b 6ebe ea3d 610f 9f3d 4c6b 043e
00000170: 3d31 01bd 0602 d1bd fe0b 11be e2fe 8ebe
00000180: 2166 a43d 4226 e03d effd 6b3d 27c9 c1bc
00000190: bf3b 76bd dd7d 67bd d3a0 a8bd ee7e a2be
000001a0: 36ed 753c b467 663d eafb 103e 25df 083c
000001b0: 1576 01be bd8a 4abe f228 90bd 84ae 06bf
000001c0: cb06 82bf 2c55 57bf 2c9a 1ebe f054 c6be
000001d0: e722 543d c550 1b3e b277 2abd fc51 143d
000001e0: 4335 00be fde1 ffbd d011 153d 11d1 5f3e
000001f0: 3b95 bb3e c4e7 dd3d 85c1 b93d ee56 6fbe
00000200: 3947 ebbd 9691 86be a152 b8be 68bd 9ebe
00000210: 219a 863d d43b bf3c 1d54 653d ee1a 41be
00000220: 5eaa 9dbd c33f 65be fd8e 17bf 169e 3ebf
00000230: 985b 9dbe fbc1 c5bd 0403 0bbe a518 873e
00000240: 9633 543e 210f a43d db5a d13d 8cbd 163e
00000250: 0ca1 8b3e fa8b 99bd dc42 99bc 2416 7cbd
00000260: 9ca8 90bd 0be4 85be 4c9f 59be f87d 3c3b
00000270: 18e7 6f3d 05c7 593e 1c2d 923e ce82 943d
00000280: c50f dd3d e7c2 253e 609a a53c 14ca 9e3d
00000290: 06a7 9c3d e61a 163e 847a 5c3e 6988 023e
000002a0: d5b7 533b c533 ddbd 58b5 85bd c6bf 813e
000002b0: 55e5 0f3e 7157 133e 9da5 873e 30a4 a83d
000002c0: 22ed 47bd 2181 01be 33da 3fbe ccaf 89bd
000002d0: b4f0 ae3c 5bcb bd3b 7b5b 6c3e 2804 efbd
000002e0: 42d4 073e f57d 223e a188 ed3b d94a c5bd
000002f0: 723c 8a3d 3145 633c 9af8 683e 4fc0 fa3a
00000300: bd5f 823e e751 e33e b4d7 033e d5b9 153e
00000310: 1760 fc3d dc24 c3bd 2a92 813e fbcf bc3e
00000320: a02b 613e d9cd 9c3e 5239 8e3e 10fa 8d3d
00000330: c26e 3f3d d9eb 123c 266d e2bd f0a4 cd3e
00000340: bb36 b83e b840 393e f720 303e a49f 8d3e
00000350: 4f10 aa3c c8cd 32be 5fb7 60be a7bf d8bc
00000360: 7d8d 6ebd fcc9 9f3d 5a0d 2e3e 825f d83d
00000370: c729 9c3e b095 0a3d 454c 3e3d 0e20 1d3e
00000380: cb10 bd3d d941 663e a6bb da3d 6981 e9bd
00000390: 69c5 65be 1b33 51be 3c97 86bd cc82 28be
000003a0: d516 3cbe 4b89 1abb 61a3 943e 67d9 e63e
000003b0: e006 503e a389 ef3e c750 033f 81dd 3d3c
000003c0: 5209 47bd a5b3 953b 8117 42be c13b 623e
000003d0: c9ba 873d 70b9 003e 2eed cb3d 4f6e 393e
000003e0: 1d73 f63d ef7c e33d 1dca 7c3d f9a7 d2bd
000003f0: 231a a53c 5002 223e 474f c93d d2aa 653e
-0.03019257 -0.1383097 -0.022464963 0.09554387 0.09460169 0.09370359 0.05525068 -0.027136989
0.048495755 0.08125165 -0.05713783 0.15561043 -0.14405777 -0.13860369 -0.1454671 -0.058771364
0.10380786 -0.14634185 0.08829414 0.09765236 0.20397685 0.07819045 0.108565174 -0.13539413
-0.12635927 -0.19813488 -0.27220783 -0.26614758 -0.28513566 -0.271763 -0.29988045 -0.31880197
-0.030909494 0.059322182 -0.048394434 -0.024320807 -0.114761166 -0.27501306 -0.15272886 -0.23439677
-0.5594345 -0.5183905 -0.04869501 -0.23864165 0.1295988 -0.48595127 -0.3739889 -0.28139514
-0.1814598 -0.29313993 0.0052168206 0.06890377 0.050122455 0.04856818 0.23631534 0.069220446
0.09711696 0.1887076 0.42418277 0.363302 0.29314914 0.47933435 0.2694839 0.16367343
-0.005955319 0.13214785 0.090635195 0.08559365 -0.012436685 0.05003041 -0.031579208 0.023249786
-0.033289287 -0.09137575 -0.026378915 -0.045406267 -0.24649157 -0.041949186 0.03226141 -0.09597085
-0.07567883 0.012891829 0.049834296 -0.021462707 0.03091949 0.06262643 0.11777646 -0.036615357
0.0036832755 0.11462103 0.07766605 0.12931556 -0.031541098 -0.10205464 -0.14164731 -0.27928835
0.08027292 0.10944797 0.057615217 -0.023655487 -0.060115572 -0.056516517 -0.082338 -0.31737465
0.015010169 0.056251243 0.14158598 0.008353983 -0.12642701 -0.19779487 -0.0703906 -0.5261004
-1.0158323 -0.84114337 -0.154885 -0.38736677 0.051791098 0.1516753 -0.041618057 0.036211
-0.12520318 -0.12494276 0.03639394 0.21857096 0.3663729 0.108352214 0.09070114 -0.23373005
-0.11488194 -0.26282948 -0.3600054 -0.3100388 0.065723665 0.023343958 0.05598842 -0.18857929
-0.076985106 -0.22387604 -0.5920256 -0.7445997 -0.30733943 -0.096561395 -0.13575369 0.2638599
0.20722803 0.08010698 0.102224074 0.14720744 0.27271307 -0.074974015 -0.018708639 -0.061544552
-0.0706341 -0.26150545 -0.21252173 0.0028761607 0.058569998 0.21267326 0.2855004 0.072515115
0.107940234 0.1618763 0.020215213 0.07753387 0.07649045 0.14658698 0.21531111 0.12747349
0.0032305617 -0.1080089 -0.06528729 0.25341624 0.14052327 0.14388825 0.2649354 0.08234441
-0.04881013 -0.12646915 -0.1873558 -0.06722984 0.02135501 0.005792064 0.23081772 -0.116707146
0.13264564 0.15868361 0.0072489535 -0.09633417 0.0674981 0.013871477 0.22751084 0.0019130799
0.25463668 0.44398424 0.12875253 0.1462167 0.12323015 -0.09528515 0.25306827 0.36877427
0.21989298 0.306258 0.27778107 0.06932461 0.046736486 0.008967363 -0.11055975 0.401649
0.35979256 0.18091094 0.17200075 0.2766086 0.02075973 -0.17461312 -0.2194495 -0.026458574
-0.058240402 0.07802197 0.1699728 0.10565092 0.30500624 0.03383416 0.046459455 0.15344259
0.09231719 0.22486056 0.10680322 -0.11401636 -0.22438587 -0.20429651 -0.065718144 -0.16456145
-0.18368085 -0.0023580368 0.29030898 0.4508774 0.20315123 0.46784696 0.5129513 0.011588455
-0.048592873 0.0045685344 -0.18954279 0.22093107 0.06627423 0.12570739 0.09957348 0.18108486
0.12033675 0.111078136 0.061716188 -0.102859445 0.020154065 0.15821195 0.09829574 0.22428444

model.ec6.0.bias f4 [64]
00000000: 7dcb de3e 0c0e d7be fbdd bf3e a138 113f
00000010: 4542 17be b522 8d3c 5690 a83e 1c84 66bf
00000020: 1493 5d3c faea b23e 6bfe 7b3f e48f 52be
00000030: e06a 993e 1b70 153e bbc2 273e 9365 183f
00000040: ef37 613e a9e6 a53e 67f6 ffbd b74f c4bd
00000050: 26f4 253e ffff 513d 3d48 d3bd ce6f b6bd
00000060: e1df 753e 8c8f 163d 6274 4ebd 0da9 8fbe
00000070: 87b6 513e 09be e5be 00b5 f23e 3ef1 9cbf
00000080: ecbc 843e 9dee c53e c4ad f33d ae16 82bd
00000090: e193 b7bd 23e3 273e 9ef8 bd3e 1317 cebe
000000a0: 4ec7 743f 306a e03e 7f26 b53d 35b1 863e
000000b0: 65cb 01be 56e7 cf3e f200 b43e 6d57 b63d
000000c0: cf39 e6be 1f97 de3b ab13 9fbd 5a19 d93d
000000d0: c00e 553f 5219 9e3e 82b0 893e 24eb 943f
000000e0: 7428 f03e fc0b 8a3d b196 a33e bcca 27be
000000f0: bdcf d2bd 6361 db3e 84a7 013f 9890 2a3f
0.43514624 -0.42002904 0.37474045 0.56727034 -0.14771374 0.017228464 0.3292262 -0.9004533
0.013523836 0.34944898 0.98435086 -0.20562702 0.29964352 0.14593546 0.16382878 0.5952999
0.21993993 0.32402542 -0.124981694 -0.09585517 0.16206416 0.051269528 -0.10316513 -0.08908044
0.24011184 0.03675799 -0.05040396 -0.28058663 0.20479785 -0.44871548 0.47403717 -1.2261121
0.25925386 0.3865861 0.118983775 -0.06351982 -0.089637525 0.1639524 0.37103742 -0.4025198
0.95616615 0.43831015 0.08845233 0.26307073 -0.12675245 0.40606183 0.3515697 0.08903394
-0.4496598 0.0067929174 -0.07767423 0.106005386 0.8322563 0.30878693 0.26892477 1.1634259
0.46905863 0.06740567 0.31950906 -0.16385931 -0.10293529 0.42847738 0.50646234 0.6662688
