2D_CMR_Registration/ModelParameters/Model_0_Diffeo_0_Loss_1_Chan_8_Smth_0.01_LR_0.0001_Mode_0_Pth/SSIM_0.909411_MSE_0.000513_Epoch_0017.pth (torch, 316934 bytes, 27 tensors)

model.eninput.0.weight f4 [8, 2, 3, 3]
00000000: a297 173c 7e02 193e 4309 223e 7b19 7a3e
00000010: 9a51 95bd 6b22 f8bd 581e 663e 034f babd
00000020: ce68 b6be 4959 893e bfcd 113e 548c 20be
00000030: aaf8 54be 9725 4abe d1b9 95be 934f 9b3d
00000040: 36bf 8dbe 4f41 fabd 8ff4 72bc 388a 253e
00000050: 10ef 9b3d 5a20 8d3e f26d 97bd 027b 83bd
00000060: 6c70 a23d 012b 803d 603e a93d b2e0 98be
00000070: db12 86be 2b26 b63d d25b 4abe 22a9 d1bc
00000080: ea39 bdbb f58c 97bd 0da2 5a3d 166c 293e
00000090: e10e 64be 65bf 6abb 9a70 0d3e 2ebb c5bc
000000a0: 9f59 ad3c 02b6 ddbd 9091 b83c 1fe2 053e
000000b0: 571c 4ebe 37ce 93be fba2 83be 6681 013e
000000c0: 01f3 0cbe 49a7 b0be 983b 313e e6fe 34bd
000000d0: e0e5 49bc fd8f 53bd 5051 47bd 6e1d 5a3e
000000e0: a9bc 0ebe d5fa cf3e cf44 273e ffc5 a7bd
000000f0: 9a60 1bbd 771e 103e 1ab2 903d f9f7 33be
00000100: add8 3f3e bf1e f8bd fc08 a43e 0350 583e
00000110: 746e 00bd 45a2 19bd f1a8 6a3e 9574 40bd
00000120: ce99 4abe b729 f83d aded 21be 398e 30be
00000130: 02fc 82be e042 aabe 39a8 d7bd 3680 8abb
00000140: 1705 f5bc 777f 613e 3c19 e4bd b683 053e
00000150: 6635 3d3e d704 6e3e d6f1 3f3e fc4b 5ebd
00000160: 9729 633d 8c1f 4f3e 2e99 1abe f54a a5be
00000170: a512 9e3d 96a4 03be 9b0f 073d 810a 06bc
00000180: 67c7 65bc e859 2c3e f154 b23e be7f 803d
00000190: 01a3 26be f1a8 66bd 29bf 183e d742 c33d
000001a0: 9288 9dbd ccc2 a6bd 6b38 dabd 1c3f 8d3d
000001b0: c455 4abc 5c6c 583e 7d0c 6b3e ea63 793d
000001c0: 7fc1 aa3e 1973 0f3e 714f 9bbd 73d8 7b3d
000001d0: 0d7d d13d f663 8dbd c672 303d 88eb 8fbd
000001e0: ea12 d5bd dda9 1bbd bb9e 58be ceba 58be
000001f0: a021 2d39 d519 8abe 39f2 42be be6e 46be
00000200: fa07 75bd 6572 92be 06a5 74bd 1cc1 abbe
00000210: 591e 79be 61bc 63be ec77 dabd 6c19 013e
00000220: abe7 84bd c8b3 013d 5a6e 9dbc 3902 aabd
00000230: faea 41bd c29c 283e 6ded d23d dff7 b8bc
0.009252461 0.14942357 0.15823846 0.24423783 -0.07290955 -0.1211594 0.22472513 -0.090971015
-0.35626835 0.26825932 0.14238642 -0.15678531 -0.20797983 -0.19740902 -0.2924333 0.07583537
-0.27684945 -0.12219488 -0.014828815 0.16166008 0.07613957 0.27563745 -0.07394017 -0.06419946
0.07931599 0.06258202 0.0826385 -0.2985893 -0.2618626 0.08893999 -0.19761589 -0.025593344
-0.005774726 -0.07399932 0.0533772 0.16545138 -0.22271301 -0.0035819646 0.13812485 -0.024137106
0.021160899 -0.10825731 0.022530347 0.1307454 -0.20127998 -0.28868267 -0.25710282 0.12647018
-0.13764574 -0.34502628 0.1730789 -0.044188403 -0.012322873 -0.05165099 -0.04866153 0.21300289
-0.13939156 0.40621057 0.16334842 -0.08192062 -0.037933923 0.14074121 0.0706522 -0.17575063
0.18734999 -0.12115239 0.32038105 0.21124272 -0.031355336 -0.037508268 0.22916009 -0.04698618
-0.19785234 0.121173315 -0.15813322 -0.17241754 -0.25582892 -0.33254147 -0.10530133 -0.0042267097
-0.029909654 0.2202128 -0.111376256 0.13038525 0.18477401 0.23244034 0.18744597 -0.054271683
0.055459585 0.20226878 -0.15097496 -0.3228375 0.077184 -0.12855753 0.032973867 -0.008181215
-0.014024592 0.16831172 0.3483043 0.06274365 -0.16273119 -0.05631346 0.14916672 0.09534233
-0.07692064 -0.08142623 -0.10655292 0.06896803 -0.01234955 0.21135086 0.22953983 0.0608863
0.3335075 0.1400875 -0.075835116 0.06148572 0.1022893 -0.06903832 0.043078206 -0.07027346
-0.10403998 -0.03800379 -0.21154301 -0.2116501 0.00016511092 -0.26972833 -0.19037713 -0.19378182
-0.05982206 -0.286029 -0.05972769 -0.33545768 -0.24327983 -0.2223983 -0.106674045 0.12607354
-0.064895 0.031665593 -0.019217659 -0.08301205 -0.04734323 0.16466048 0.102991916 -0.022579132

model.eninput.0.bias f4 [8]
00000000: 76df b13c 288c 043e 15d6 f23c 379d babc
00000010: 5769 4b3e 71dc 9f3d 5bb2 303e c817 8e3c
0.021713 0.1294409 0.029643098 -0.022780044 0.19864403 0.07805718 0.17255537 0.017345324

model.ec1.0.weight f4 [8, 8, 3, 3]
00000000: 8efe 063e 7c3e b83c 5212 723c f135 173e
00000010: 750a afbc a1fe f53c 8acf 95bc f5c1 53bd
00000020: d496 37bc cc1f 20be fc4d 1abd 98b0 4cbc
00000030: a422 20be 640b 193e 17cd ee3d c44f 82bc
00000040: aea2 3b3e 271f f43d a073 c7bd a52a 8bbd
00000050: 89bc 883d cefb e03b 1c93 d8bc 61a5 e63d
00000060: 2043 5abe 72aa 963d f677 0c3e 20a3 35bc
00000070: f317 b03d 9b8b e5bc 6da8 713d 92ee c8bc
00000080: 3bd7 c1bd c194 973d 34e6 3dbd 38f1 c1bc
00000090: a493 003d 3022 c8bd fbc5 9f3d 09e7 1abe
000000a0: 986c 9fbe e3ef 04be fc1f ac3c 15e1 6ebd
000000b0: 7e50 12be 9a9a adbd fd76 1f3d cff4 9a3d
000000c0: 5602 f53a adbf 863d 4098 1e3d c2b1 d43d
000000d0: c0d0 a8bc 5797 413d b391 c73d 2afd d73d
000000e0: 4e8c 36bc 6282 3b3e 1b9f 293e 4497 a73d
000000f0: 2904 07bd 59f4 c43d 85d0 033e 6d97 7abd
00000100: 916a f3bd 4c20 9bbd d5bb 543c f89a e23c
00000110: 955b fdbd 7a9f 933d 8e21 bf3c 9d49 c3bd
00000120: 4e1a a13d ff52 c03d bb35 36be c899 27bd
00000130: f72f 6d3b 59a3 d73c b4c1 683c 14e0 0cba
00000140: 5978 c0bc 836a 873d 2e2f ebbc 0678 013c
00000150: e298 a43c 391a 9bbd 6cd2 b1bd 5619 f03d
00000160: 26a7 41bc fa7f edbd 650c f7bd cbdd 2c3d
00000170: 9c9e c4bd 95ff 1dbd 612f 40bd f8df 6b3d
00000180: 34df 24be 848c f9bd a378 843d e99c 073e
00000190: d2d8 d6bd 00aa 83bc 6a9b 083e faf3 9bbd
000001a0: 3041 5abe 7262 9e3c 4b27 49bd dd45 c5bd
000001b0: a501 c2bd 03ac ad3d 71d2 113d 0baf 31bd
000001c0: 260f 353e 284b 463e 9d48 0ebd f270 643d
000001d0: 0b1a 533d 0573 7dbd 5b67 48be 23a6 2abe
000001e0: 4b06 d6bd 69f6 2abe c022 81bc 655e e0bd
000001f0: b747 143e 2016 f33d cd0f 973d 526d 05bc
00000200: e6c1 1a3e 3d11 89bd 79a1 8cbe 895e d0bc
00000210: c05b be3d f3f6 f3bd a538 1dbe ff89 70be
00000220: a9ca 17bd bcd3 a5bd 84b3 13be 4e13 533e
00000230: 6d5b 463e 0402 06be 500a b6bd a40c 433e
00000240: 2a27 39bd 8aff 0ebd 98ac 2abe e444 8ebd
00000250: 04eb e9bc 0199 4fbe 1587 52be c894 3cbe
00000260: eff3 09be 4020 0c3d 6fe0 66bd b4c2 5ebd
00000270: 87e7 4b3c a7a5 313d 077d a7bd 27fd 9b3e
00000280: e5eb 983e 9665 833e edee e93d 86c7 a63d
00000290: 12ba ebbc 1814 323d bc90 d43d f3a7 48bd
000002a0: 7468 7dbe ab05 29be 63c0 a2bd 6e7f e53d
000002b0: 09fe 77bd 136b 43bd ff43 a33d 1eda 2bbe
000002c0: 5ac8 71be 2a52 4f3e 0ad4 143d 08f1 99bc
000002d0: 8ee1 4f3c 0621 db3d 14e7 81bd e8f5 823d
000002e0: 20bd e93d c647 303e 20cb e6bc a943 313c
000002f0: 22b3 49bd 1d4b 62bd 64c7 c1bd 747f 2d3d
00000300: 84bd 1ebe c057 bf3b b778 343d 84f9 c23d
00000310: eba0 4b3e 2bf2 663e 9f3d ccbd 1e3f 6a3d
00000320: 6e97 b03d d282 c6bd 9408 2dbe fd5a 0ebe
00000330: 1da1 e73c 9ab9 b5bd e3b0 69bd b2e5 47bd
00000340: 354a 743b 530d d0bd 3edc c3bb fb87 543e
00000350: 00a0 303e d1a6 febd 2468 abbd 7188 bfbd
00000360: f27d 3e3d 8f77 863d d808 0c3e 26fb cfbd
00000370: 7ba7 04be b341 75bd bf5f 003d cb94 a03d
00000380: d7b2 5f3e cfd5 903d 1447 8dbc 2d62 bebd
00000390: ab2e 0c3e 81c6 ea3d 3422 363c 8b84 333e
000003a0: 18fc d93d 7726 eabb a3b6 433e 31dd bfbc
000003b0: f1df 163e a138 203e 96be 1e3e 41a0 613e
000003c0: c1fe 9c3c 2bb8 3c3d a3d4 0e3e 1e00 a0bd
000003d0: d199 31be 6b63 11bd b39d 8b3c bd16 1cbe
000003e0: 3d39 51be 795f fb3c 75fd 2abe 7db6 b5bd
000003f0: f72a 1fbe 5d0b 60bc 46aa 0dbe ae81 7e3c
0.13183042 0.022490732 0.014774876 0.14766671 -0.021367291 0.030028643 -0.018287439 -0.051698644
-0.011205394 -0.1563713 -0.037672028 -0.012493275 -0.15638214 0.14945751 0.116602115 -0.015907176
0.18323776 0.11920004 -0.097388506 -0.06795243 0.06676585 0.006865955 -0.026437335 0.11262012
-0.21314669 0.073567286 0.13717636 -0.011086255 0.08598318 -0.02802067 0.058998514 -0.024527822
-0.0946488 0.074014194 -0.046362117 -0.023674592 0.0313908 -0.09772146 0.07801434 -0.15127195
-0.31137538 -0.12982135 0.021011345 -0.058320124 -0.14288518 -0.084767535 0.038931835 0.07566225
0.0018692713 0.06579528 0.038719416 0.10385467 -0.020607352 0.04726347 0.09744587 0.10546334
-0.01114185 0.18311456 0.165646 0.081831485 -0.03296295 0.09616918 0.12872513 -0.061179567
-0.1188556 -0.075745195 0.012984236 0.027661785 -0.123709835 0.07208152 0.02333143 -0.09535525
0.07866345 0.0939083 -0.17793934 -0.04091814 0.003619192 0.026323007 0.014206339 -0.00053739664
-0.023494886 0.066121124 -0.02870902 0.007902151 0.020092431 -0.07573361 -0.08682713 0.117235824
-0.011819636 -0.11596675 -0.12062911 0.042203706 -0.09600565 -0.03857382 -0.046920184 0.05758664
-0.1610077 -0.12185004 0.06468322 0.1324345 -0.10490574 -0.016072273 0.13340536 -0.07614894
-0.2131393 0.019334052 -0.04910974 -0.09632466 -0.0947297 0.08480074 0.035601083 -0.043379825
0.1768156 0.19364607 -0.03473722 0.055771776 0.05153851 -0.06187727 -0.19570677 -0.16664939
-0.10450419 -0.1669556 -0.01576364 -0.10955504 0.14480482 0.118694544 0.07376061 -0.00814374
0.15113029 -0.06692741 -0.27466944 -0.025435703 0.09294844 -0.11912336 -0.1535364 -0.23490141
-0.037058506 -0.08097026 -0.14423949 0.20612833 0.19370814 -0.13086706 -0.08888686 0.19047791
-0.045203365 -0.03491167 -0.16667402 -0.069467336 -0.028554447 -0.2027321 -0.20559342 -0.1841613
-0.1347196 0.034210443 -0.05636638 -0.054384902 0.012445337 0.04337087 -0.08178144 0.30466577
0.29867473 0.2566344 0.114225246 0.08143525 -0.028775249 0.043476194 0.103791684 -0.048988294
-0.24746877 -0.16506068 -0.07946851 0.11205946 -0.060545 -0.047709536 0.079719536 -0.16782424
-0.23611584 0.20246187 0.03633503 -0.01879169 0.012688054 0.10699658 -0.06342903 0.06394559
0.11413026 0.1721488 -0.02817303 0.010819354 -0.0492431 -0.055247415 -0.09461859 0.042357877
-0.15501982 0.005839318 0.044060435 0.095202476 0.19885604 0.22553317 -0.09972691 0.0571891
0.08622633 -0.09692921 -0.16897804 -0.13901897 0.028275067 -0.08873291 -0.057053458 -0.04880304
0.0037275676 -0.101587914 -0.0059771826 0.20754997 0.17248535 -0.124341615 -0.083694726 -0.09352196
0.04650683 0.06565773 0.13675249 -0.10155325 -0.12954514 -0.05987711 0.03134131 0.0784088
0.21845566 0.07072031 -0.017245807 -0.09296069 0.13689677 0.11463643 0.011116553 0.1753103
0.10643786 -0.0071456986 0.19112639 -0.023420902 0.14733864 0.15646602 0.1550239 0.22033788
0.019164445 0.046074074 0.13948302 -0.07812522 -0.17343833 -0.035495203 0.01704297 -0.15243049
-0.20431991 0.030685173 -0.16698249 -0.088726975 -0.15543734 -0.013674584 -0.13834485 0.015533848

model.ec1.0.bias f4 [8]
00000000: f894 ed3d 1c8a 153e c170 5abd a436 2bbd
00000010: 3c51 99bc 9dba 06bd 5ea7 f2bd ae6f 863d
0.11600679 0.14603466 -0.053330187 -0.041800156 -0.018715493 -0.032892812 -0.11848329 0.0656427

model.ec2.0.weight f4 [16, 8, 3, 3]
00000000: 6802 d7ba 98c8 a03b 2f22 1dbe ca14 093e
00000010: 287f dc3d c6a8 42bc 607f a23d 7e7c 0b3e
00000020: 73a8 d33b 40d3 44ba e3b9 a3bd 01f0 dc3d
00000030: bd15 68be 3936 3cbe 3dd4 4b3e a685 60be
00000040: bb9f 79be f559 b23c 35fe a5bd a148 3abd
00000050: 9c85 713d 2b72 03be 7821 10be 02ff 8e3d
00000060: 229c 813a 1532 30bd 2d50 05be d0ca f23d
00000070: 991f 753d 556b 823d c9eb 3e3c e544 593e
00000080: 7350 36bc 0d3d 7abe e166 20bd 6cbb 44be
00000090: 94aa 26be 7f12 65bd 5ed3 03bc 9b01 4fbe
000000a0: 44e9 83bc ac9c 1e3e eaad 77be f608 11be
000000b0: b21c 9e3c 66bf 64be ee14 09be 5e48 82be
000000c0: fb8e f83d 453d ee3d 8130 18bc 8d39 3dbe
000000d0: 291b 103e fedb aabd faf0 593d c877 a0bd
000000e0: 8a7c 893d eb92 5ebd ea93 9abc b0bd f2bc
000000f0: 3463 f73c 868c 203d 8ddf 473d a991 8f3c
00000100: 6292 3b3e 3233 813b 8e18 0f3c a4a5 2bbd
00000110: b3ea d1bc 5c95 7c3b 8d18 fd3d 6b52 8f3d
00000120: fe43 29be 3cc7 f53b 9a26 9ebd 5e77 d2ba
00000130: 9b49 0dbc 1d18 70bd 1efc cdbc 690a 7a3d
00000140: a424 a93d eaac d43c b928 cdbd 0695 0abe
00000150: 6634 0cbe 49fb b5bd 2d5a 943d dd4a 03bc
00000160: 331b 2cbd 7c05 aa3b 1420 2ebd 931c 83bd
00000170: df57 05bd 7cbb 52bd 5432 3fbc 6093 ea3d
00000180: 89fe ae3c 83b0 46bd d13e 8f3c fa8d 49be
00000190: 984c 03be a753 72bd 6464 babd ec33 9cbd
000001a0: 3595 96bd 6824 dbbd eb6a 3ebe 3633 1f3c
000001b0: ff05 0f3e 68c2 953d 3270 f2bd 8ca0 4f3e
000001c0: 8921 dc3d d60e 053e 9976 183e 8ea5 023e
000001d0: 8959 d6bb 26a7 17be 3e68 15be b686 b3bc
000001e0: 20c7 13be 2228 4c3c 7c2b e5bb 1592 d9bd
000001f0: 3d61 f5bd 0c4a 3cbd 3f5b 42bc b13d 153e
00000200: 8d6b 553d a3dc 113e 0567 663e ec71 d93d
00000210: 56a0 9b3e b7fb 523e f097 7e3e 25ec f3bd
00000220: 970c 103d 08cf d23d 8ee1 05be ab99 45be
00000230: 86d7 27be 5704 5ebd 17f0 1ebe 3697 58bd
00000240: 7e4b 4dbe d3a3 20be 05c8 4d3b bee7 313c
00000250: 088c 303e 2eca 013e cdac 8bbd 0b2b 193e
00000260: c99f a63d 9f26 943d 76c8 4c3d a289 d1bb
00000270: 5ead 5cbe 767f d2be 3c83 2bbc 659d 17bd
00000280: 8e4c d5bd 84f0 9c3d 6432 0c3d cd3c cbbd
00000290: 40ee 9a3c 4403 2cbe 738e e3be 77e2 55bd
000002a0: b8af bdbd bb52 1dbe 763e 15be a113 1abe
000002b0: c25b 11be 7401 57bd 9e6e 57bd 4edc 193e
000002c0: 6f34 383d 6ce0 6bbd f022 203e 6f1b 1e3e
000002d0: d08d 2e3e a7e9 ca3c a024 7c3d 8ad7 a2bd
000002e0: 3bca 71be 4e7f 34bd 287b 99bd c3f1 9dbe
000002f0: 50dd cebd d52a 4fbe 319a 70bd 7b7b 3abe
00000300: d606 56bb ce75 943d f57c 19bb 47c9 3bbe
00000310: c55d 2bbe aa9c 0abe 70f6 26bd a320 45bd
00000320: bcca 053c 9cbc 9a3c 2dc8 3e3c 9383 67bd
00000330: e1a6 113e 0794 ee3d d841 c43c 3cf7 bd3d
00000340: 6f53 e33d 884a a93c 287b bdbd 5183 e1bd
00000350: a1a4 21be 2e6b 2d3e 7511 aa3d c355 483d
00000360: ade0 09bd 9da2 d2bd 66f6 863d 8ead 40bd
00000370: aaa5 eabd 6814 fa3b 42fc 4fbd e788 23bb
00000380: e5d9 0abd a87d f8bd 8f79 acbd d99f 393b
00000390: b76c e73d 582c c33d 5208 bd3d f35c 793d
000003a0: deb3 37bd c317 823d b8c0 b63a 421e b7bd
000003b0: 3bdf 58bd 3263 81bd e9e5 4a3c 0c07 993d
000003c0: d35a 0bbe 11df 133b 55e9 653b e23c ea3d
000003d0: bdc8 ca3d e0b1 c63b 954a 953c 3daa cbbb
000003e0: 5b48 b63d cf17 03bd fe44 af3d 7aef 6a3d
000003f0: 4014 94bd f138 b9bd a21e f8bd 96d7 2c3d
-0.0016403915 0.004906725 -0.15345071 0.13386837 0.10766441 -0.011881059 0.07934451 0.13621709
0.0064592897 -0.00075082853 -0.079944395 0.107879646 -0.22664542 -0.1838006 0.19905181 -0.21925983
-0.24377339 0.02177141 -0.08105127 -0.04547942 0.05896531 -0.1283652 -0.14075267 0.06982233
0.000988845 -0.043016512 -0.13018866 0.1185509 0.059844587 0.06368128 0.011652895 0.21217687
-0.011127579 -0.24437352 -0.039160613 -0.19212121 -0.16276008 -0.055925842 -0.008045999 -0.20215456
-0.01610244 0.15489453 -0.24187437 -0.14163575 0.019300792 -0.22338638 -0.1338689 -0.25445837
0.12136646 0.1163278 -0.009288908 -0.18478985 0.14072861 -0.083427414 0.05320833 -0.078353465
0.06713207 -0.05433933 -0.018869359 -0.029631466 0.03019867 0.039196514 0.04879718 0.01752551
0.1831756 0.0039428705 0.008733882 -0.041906014 -0.025624609 0.0038541174 0.12358198 0.06998142
-0.16529843 0.007500557 -0.077222064 -0.0016057303 -0.008623506 -0.058616746 -0.025144633 0.061045084
0.08258942 0.025961358 -0.10017533 -0.1353341 -0.13691863 -0.088858195 0.07243762 -0.008013454
-0.042018127 0.005188642 -0.04251106 -0.064019345 -0.032554504 -0.05144833 -0.011669714 0.11453891
0.021361606 -0.04850818 0.017486008 -0.19683066 -0.12822187 -0.05916181 -0.09101179 -0.07627091
-0.07352678 -0.10700303 -0.18595473 0.0097167995 0.13967131 0.07312471 -0.11837806 0.20276088
0.10748584 0.1299394 0.14888991 0.12758467 -0.006541435 -0.14809856 -0.14590546 -0.021914821
-0.14431429 0.01246074 -0.006993709 -0.10623566 -0.11981437 -0.045969054 -0.011862575 0.14574315
0.05210452 0.14244322 0.22500236 0.10617432 0.30395764 0.20603834 0.24862647 -0.11910275
0.035168257 0.10293394 -0.13074324 -0.19296901 -0.1639081 -0.054203358 -0.15521275 -0.05287858
-0.20048329 -0.15687494 0.0031399739 0.010858474 0.17240918 0.12674782 -0.068200685 0.14957826
0.08135945 0.07233929 0.049995862 -0.006394581 -0.2155051 -0.4111287 -0.0104683 -0.037015337
-0.10414992 0.07663062 0.034227744 -0.09923706 0.018912435 -0.1679812 -0.44444618 -0.052217927
-0.09262031 -0.1536359 -0.14574608 -0.1504655 -0.14195159 -0.05249162 -0.052595727 0.15025446
0.04497188 -0.057587072 0.15638328 0.15440153 0.17046285 0.024769617 0.061558366 -0.07951267
-0.23612301 -0.04406672 -0.07494193 -0.30848512 -0.10100806 -0.20231183 -0.0587408 -0.18211167
-0.0032657883 0.07249032 -0.0023420427 -0.183385 -0.16734989 -0.13536325 -0.040762365 -0.048126828
0.008166011 0.018888764 0.011644405 -0.056521963 0.14223816 0.11649328 0.023957178 0.09275672
0.11099898 0.020665422 -0.09252006 -0.11011375 -0.15785457 0.16935417 0.08304111 0.048909914
-0.033661533 -0.10284922 0.065899655 -0.047040515 -0.11457379 0.007631827 -0.05077768 -0.0024953426
-0.033899207 -0.12133342 -0.08421623 0.0028324036 0.113000326 0.09529942 0.092301026 0.06087966
-0.04484927 0.063521884 0.0013942933 -0.08941318 -0.052947264 -0.06317748 0.012383916 0.07472047
-0.13608865 0.0022563378 0.0035081704 0.11437394 0.09901569 0.006063685 0.01822404 -0.0062153623
0.089005195 -0.032005128 0.08558081 0.05735729 -0.07230425 -0.09044064 -0.12115218 0.042197786

model.ec2.0.bias f4 [16]
00000000: dd04 1abd 6364 79bd 8114 513d de08 d0bd
00000010: 3396 6bbc 7406 cbbb 09df ae3d f196 023e
00000020: d64b 873c 0348 993d 6630 483d 3ce1 303e
00000030: 5504 bebd 408b cabc 530f 903c 71e4 c53d
-0.037602294 -0.06088675 0.051044945 -0.10157941 -0.014379072 -0.0061958376 0.08538634 0.12752892
0.016515654 0.07484438 0.04887428 0.1727342 -0.0927817 -0.024724603 0.017585432 0.09662712

model.ec3.0.weight f4 [16, 16, 3, 3]
00000000: 4888 44ba 7e63 873d e8bd b7bc d22f b2bd
00000010: b1f0 a4be b55b 29be a37a 3dbe 0be1 c53d
00000020: da83 ddbd fbfe 6d3c 7b3e cc3a b405 043d
00000030: 2162 e5bc 6edf 893c 61f8 853c c272 88bc
00000040: 01d7 573d 63a9 a0bc ae13 003e 845f 763d
00000050: bfe4 663d 5631 41bd d358 d9be 45f3 373e
00000060: 38b7 b0bd 6e32 433e 8d17 d73d ee9f 753c
00000070: 21d1 743c ff2b 823d fc68 17bc 2ec2 8b3e
00000080: 0e95 933d a704 9cbd dc10 303d fd13 203e
00000090: 3d79 36bd 8f8c cabd 0440 26bd f7f6 883c
000000a0: 1ad7 713e 5237 023c b775 f5bd cd37 6d3d
000000b0: f37d 2f3e 5d4e 54bc bce1 02bc 2bf1 55bd
000000c0: 0c82 dd3c 348a b3be 6d04 e3bc 6a87 373c
000000d0: dc3e 0d3e 5616 a9bd 2f54 0fbe d24e 2abc
000000e0: 8eb1 cebd a71b a1be fc54 853e c653 113e
000000f0: 327d e4be 7d4f 32be d826 1abe cc1d d6bc
00000100: e50e 8bbb 382e 4d3d a829 8c3d 3709 a33c
00000110: c192 f4bd ef25 2a3d 4042 73bd 05fd ca3c
00000120: 6457 cfbd 13e0 edbd d1a1 cbbd 0efc 0b3d
00000130: 1e8b 943e b9a4 8bbd 76a7 dbbd 195e d9bd
00000140: 6f80 83bd 7305 a1bc 4b6b bab9 9a72 67bd
00000150: ef65 c73d 3ac2 91bc c512 c4bc bcb1 563e
00000160: eea0 04be 9e66 f3bd 0c2a 203e 289b e33d
00000170: 06e2 6c3e 7d7f 013e 3c6b b4bb 5035 a9bc
00000180: 7cef b23d 7b16 49bd cc44 cabd e686 39be
00000190: 625b 60be 98e4 2cbe 4ad2 4ebe b347 053e
000001a0: c07d 0f3e 7abb 36be b701 423d 717e a53d
000001b0: f713 c4bd 475a 15be fe23 84bd 7f85 d0bc
000001c0: 0002 2b3d f77d 91bd afc5 e83c b26c 5c3d
000001d0: d17f 52bb 4ab8 4ebd c630 413e 30e3 843d
000001e0: b973 033d 5e5d 1fbf 8201 24be 1968 bbbc
000001f0: bcd6 5cbe 2477 63bd 6619 7d3d cc99 803d
00000200: 9a9e 653d 4d65 1f3e d9b2 13be f230 1c3e
00000210: 2374 83bb b055 053e afd2 d4bc 2dc3 a13d
00000220: 0fd4 db3d 0e37 4d3d 7fa8 b43d 931b 6dbd
00000230: 4861 c93d fade 9a3c 7633 11be 9d1c 01bd
00000240: 2792 a139 9bc0 1dbe 14d9 6fbe adc5 92bd
00000250: c927 443c 5fa2 e8bc 1514 02be 9484 363d
00000260: 2a69 60bd db53 72bd ad25 85bc 8915 cf3c
00000270: c41b 2c3d 191d 74bc bd53 98bb 30fa 89bc
00000280: d5af 0f3d c21d cfbc 507b cfbd 7407 b9bd
00000290: b6df 12bd fc81 30be 0014 b63e f1b3 5b3e
000002a0: eceb 963d 6d69 393e 3e3b cfbd 11e4 e1bc
000002b0: 653a 5cbc b006 4fba 201f d23d edb2 6d3d
000002c0: 449a 07bd a873 053d d79a d8bd 8c41 2abb
000002d0: 0ee6 643d 1e2b c23d d1ab f4bd f3f9 7a3e
000002e0: ada9 8c3d 4775 07bd 57a1 13be b81f dcbd
000002f0: 569a 12be bbcc 13be 04dc 12bd 4d67 70bc
00000300: c4af 38bb f7ac 6b3e 78ec b1bc 11b8 bcbc
00000310: 0c57 30be e7bc efbd ce66 2c3d ada2 0a3e
00000320: ea60 ff3c c164 133e bcf4 9c3e 272b 69be
00000330: adaa f4bc b0bd 383e 3ec2 aebd a85d 323c
00000340: 0d5b 48bb 9fa7 b03c ddb9 613d 4cd1 8dbd
00000350: 27c7 3c3c 738a d33c 9d52 c3bd c328 1e3d
00000360: ee46 7a3d 5578 6c3d 620e 3ebe 8eb1 3e3e
00000370: d04c 52be 8fa6 51be f310 cebd fb8c ccbd
00000380: 4cdc fa3d 0079 023e 3736 5b3d 47e2 31bd
00000390: e978 63bc 770a f9be 89a5 173e 31a1 903c
000003a0: 24dd ac3d 8e11 ae3e 3338 4f3d 44db ef3d
000003b0: 96eb d73d 1215 27be da64 21be 4f00 333d
000003c0: 4d61 843c 6995 153d e9f7 8bbc c0fb 8e3b
000003d0: f7de d63d 23d4 25bc 5187 303e c38d 023e
000003e0: bec2 6fbd ef48 14be f89f 6fbe 43b4 63bd
000003f0: 58cb 19bd 267f 53bd 3e37 92bd 30fb 473e
-0.0007497114 0.066107735 -0.022429422 -0.08700527 -0.32214883 -0.1653889 -0.18503813 0.09662064
-0.10816164 0.014526124 0.0015582585 0.032232 -0.028000893 0.016830172 0.016353788 -0.016656283
0.052695278 -0.01961202 0.12507507 0.060149685 0.056370493 -0.04716619 -0.4245058 0.17963894
-0.08628696 0.19062206 0.10502539 0.0149917435 0.014942438 0.06356048 -0.009241339 0.27296585
0.07206164 -0.07618075 0.04298483 0.15632625 -0.044549216 -0.09890091 -0.040588394 0.016719325
0.23617211 0.00794776 -0.11985343 0.057914544 0.1713789 -0.012958136 -0.00798839 -0.05223195
0.02703955 -0.35066378 -0.027712071 0.011201719 0.1379351 -0.08256213 -0.13996957 -0.010394769
-0.100924596 -0.3146641 0.260414 0.14192113 -0.44626766 -0.17413135 -0.1505388 -0.026137255
-0.004243719 0.050092906 0.06843883 0.019901855 -0.119420536 0.041540083 -0.059389353 0.024778852
-0.1012409 -0.116150044 -0.099429734 0.034175925 0.29012388 -0.06818528 -0.107253 -0.10613651
-0.06420981 -0.019655919 -0.00035556624 -0.056505777 0.09736239 -0.01779281 -0.023934731 0.20966238
-0.12952015 -0.11884807 0.1564104 0.11113578 0.23133096 0.12646289 -0.0055059474 -0.020655304
0.08737084 -0.049093705 -0.09876403 -0.18117866 -0.2190986 -0.16884077 -0.20197406 0.13015632
0.14012814 -0.17844954 0.047364917 0.080807574 -0.095741205 -0.1458522 -0.064521775 -0.02545428
0.041749954 -0.07104104 0.028414575 0.053814597 -0.0032119642 -0.05046872 0.18866262 0.06488645
0.032092784 -0.6225184 -0.160162 -0.022876786 -0.2156629 -0.055533543 0.0617918 0.062793344
0.056059457 0.15565987 -0.14423694 0.15253046 -0.0040116473 0.13020968 -0.025979368 0.07898555
0.10733806 0.050101332 0.088212006 -0.057887625 0.09833008 0.018905152 -0.14179787 -0.03152143
0.00030817205 -0.15405504 -0.23422652 -0.0716661 0.011972376 -0.028397737 -0.12702973 0.04456003
-0.054787792 -0.059162002 -0.016253317 0.025278823 0.042018667 -0.014899516 -0.0046486543 -0.016842932
0.035079796 -0.025282744 -0.10130942 -0.09034625 -0.03585788 -0.17237085 0.35562134 0.21455361
0.07369217 0.18106623 -0.101187214 -0.02757457 -0.013441657 -0.000789742 0.10259843 0.058031965
-0.033106104 0.032581 -0.10576408 -0.002597901 0.05588346 0.0948088 -0.11946834 0.2450941
0.068683006 -0.03307083 -0.14417015 -0.10748237 -0.14316687 -0.14433567 -0.035854355 -0.014673066
-0.0028180936 0.230152 -0.021719202 -0.023036988 -0.17220706 -0.11705952 0.04209023 0.13538618
0.031174142 0.14393903 0.30655468 -0.22770368 -0.02986654 0.1804111 -0.085331425 0.010886587
-0.0030571849 0.021564303 0.055108894 -0.06924686 0.011522091 0.025822854 -0.095372416 0.038613092
0.0611028 0.057731945 -0.18560174 0.18622419 -0.20537114 -0.20473693 -0.100618266 -0.099878274
0.122490495 0.1274147 0.0535185 -0.043428686 -0.013883808 -0.48640797 0.1480924 0.017654987
0.08440617 0.33997768 0.050590705 0.117117435 0.10542981 -0.16316631 -0.15761128 0.043701466
0.016159678 0.03651944 -0.017085986 0.004363507 0.10491746 -0.010121378 0.17239119 0.1274939
-0.05853533 -0.14480947 -0.23400867 -0.055591833 -0.03754744 -0.05163493 -0.07139443 0.19529414

model.ec3.0.bias f4 [16]
00000000: f0eb b03d 7dd0 023c 7250 6abd 696f 1bbd
00000010: 21c1 d33d 3ace ee3d 2b40 103d c871 6c3d
00000020: 1606 913b 9cdb 17bd 215b e5bc d2f8 db3d
00000030: be7e 943b ecde 713d 11f9 58bd 9c94 d2bd
0.086387515 0.007984278 -0.057205625 -0.037948046 0.10339571 0.11660428 0.035217445 0.057725698
0.0044257743 -0.03707467 -0.027997555 0.10740818 0.0045317104 0.059050485 -0.052971903 -0.10282251

model.ec4.0.weight f4 [32, 16, 3, 3]
00000000: 3fe6 e93d e15b 85bb bdf9 7bbd d7e3 393e
00000010: 50f9 253e 9513 47be cc44 03bd d1f5 d63c
00000020: c2e5 31be e138 67be f56a 63bd f0e5 cebd
00000030: 05a0 4abe 2fc4 f7bd a743 0dbe 3c18 1cbe
00000040: 2ee6 4cbd 4635 823d 7051 90be bb59 edbd
00000050: 77e9 933b d99e 05bf 2876 babe a684 de3c
00000060: 07ef b0bd f6bc 3cbe 594e ddbd 746f 50bc
00000070: d1f4 373d 366d 96bd 4fe0 8fbd 7aae ac3c
00000080: 5317 66bd fbe0 d9bd 403d 873d d653 d13c
00000090: 9442 a2bc d1ee 2d3d 3cc6 053b d94a c23c
000000a0: 8a48 943c 8406 05bd c96a 383c c3d0 25bc
000000b0: daa2 fe3c 481f c13d 8fca 9dbd 64e5 6ebe
000000c0: 23d9 4f3e cdea d83c 83ec 52be 24a1 e83b
000000d0: a31f cd3d d025 7a3c 0f00 e53d 57e0 a73d
000000e0: 25fa 1d3c 320a 1e3d 1495 b63d dc3d 963c
000000f0: fd5f d83d a194 d83c 76d9 cd3c f483 39be
00000100: 2fd8 4fbd 2b4a df3c 6986 73bb 42a5 d53c
00000110: 1a48 a6bd 7988 df3a 69d1 ac3c 4a45 80bd
00000120: 34a3 a3bb a9fb 4f3d e04c b53d 508e e63c
00000130: 23ba 81bc b1d5 863d 78fb 2cbc e6f1 8a3d
00000140: e38f af3c 181c 0a3e 14bc da38 69ef 2bbd
00000150: abf8 7dbd 4491 1bbd 98ad cd3c 49ff 3fbd
00000160: 99e1 533b 0650 d6bc ae92 643b b014 513d
00000170: e96c 9b3d 32df babc 9a8f 983d 2e41 893d
00000180: 783b 8f3d 73bc 813d 2d70 27bb f1ae f4bd
00000190: 344c 153b 2627 163d 006c 993d a1d6 b23c
000001a0: 116e 6b3c 3823 8f3d fcd2 70bb e906 0bbe
000001b0: 81f6 8ebe 35c1 94be 0940 b5bd 5a58 83be
000001c0: 58cf 10bf 105e 4cbe c869 84be bb7b e3be
000001d0: 6a7c 59be a65a 6bbd 4e85 22bd 56d5 0c3d
000001e0: 6907 083e f1d7 583d 404a 6cbc 1d3a 443d
000001f0: 6bb8 633d 391a e03c a7c1 e5bd 1126 81bd
00000200: c29c e2bc 9349 80bd d95d 3bbd ffa2 13bd
00000210: ffba 1bbe be79 a1bd 4afb 86bd 83ae 98bd
00000220: 5988 8ebd 9c05 4ebd d66c b5bd 96a6 33bd
00000230: b2ea 16bd a364 4b3d cb06 02bd b57f 553c
00000240: 4562 5abd a861 68be adaa 993c 443f f1bd
00000250: 7eec 5a3d 4958 fe3d 6863 15be 9cb9 8abb
00000260: b7d9 e6bc 91e7 543d 78f1 aabd 0ff4 2abe
00000270: 7dff d13c 5135 edbe fd8f 8cbd 81a3 803c
00000280: 9841 70be 39ac 053e 43fe fc3c 0552 303e
00000290: d351 e2bc 36b5 0e3d 782d 61bc 8453 35bd
000002a0: f6e3 413d ea61 e53c 96d6 0d3e deeb 0a3e
000002b0: 3850 3dbd 6037 453d 31da 08bd b2f8 babe
000002c0: 3f6a 21bd 28b9 51bd f9ce 23be e266 ec3d
000002d0: c790 acbd 5140 76bd 0f4a b93b 4583 51bd
000002e0: bdb6 053e c15b 403d ca16 59bb b47e 403d
000002f0: 314f bebc 2d2f 03bc 4a7e 04be a868 16bd
00000300: 8c82 75be 01b9 2abe 25e7 363d c385 c0bd
00000310: 1a6c e63d e062 ba3d c7eb 05be bae5 a4bd
00000320: 6e1d 0e3e 6e81 7bbe 9918 6e3e cfcc 633e
00000330: 689f 543c 5667 8f3e 342e 19bd c544 22be
00000340: d7a7 6bbb bb84 8f3b 7fe4 42be 68f1 5e3d
00000350: f49d 253c e9b2 74bd ebdd 4f3e 63e6 873c
00000360: 59f3 1fbd ca2d 29bb aefb adbc d87d 67bc
00000370: ba65 b93c 1a9f 813c 2741 093d 8fa9 0b3e
00000380: b658 4ebd da43 c53d 2137 a2bd d935 3bbc
00000390: 9243 ab3d 6f7f b1bd 3ae5 663e b8f9 76bd
000003a0: 8e6c 483d c4b5 393d 42f5 0f3e 5893 3e3d
000003b0: c430 d8bd 5d44 ab3c 9fa0 8dbc b72b 37bd
000003c0: 908d 87bc cf69 ba3d 35d4 e4bd 6228 213c
000003d0: b09f 2a3e 57ac 57be 18fd 4a3e 7b5d e53d
000003e0: 5a8d 67be 196f 65bc d648 e8bd 0db2 2fbe
000003f0: efaa 3abe 0c78 c13d 882a f7bd 7d12 4abd
0.11420869 -0.0040697907 -0.061517466 0.1815332 0.16208386 -0.19441064 -0.03204803 0.026240261
-0.17372802 -0.22580291 -0.055521924 -0.10102451 -0.19787605 -0.12097966 -0.13795339 -0.1524362
-0.050024204 0.06357817 -0.28187132 -0.1158938 0.004513915 -0.5219551 -0.3641827 0.027162861
-0.08639341 -0.18431458 -0.10805959 -0.012721885 0.04491121 -0.07345049 -0.07025205 0.02107929
-0.056174587 -0.10638615 0.066034794 0.025552671 -0.019807138 0.04246408 0.0020412346 0.02371733
0.018100996 -0.032476917 0.011255928 -0.010120573 0.031083513 0.094297945 -0.077046506 -0.23329693
0.20297675 0.02647915 -0.20598035 0.0070992876 0.100158 0.015267804 0.11181652 0.08197086
0.009642159 0.03858394 0.08915153 0.018340044 0.10565183 0.02643806 0.025128108 -0.18116742
-0.050743278 0.027257046 -0.0037158972 0.026079778 -0.08119221 0.0017054222 0.021095948 -0.06263216
-0.0049938206 0.05077711 0.08852553 0.028144032 -0.015835827 0.06583727 -0.010558002 0.0678442
0.021430915 0.1348728 0.00010430082 -0.041976366 -0.062004726 -0.037980333 0.02510719 -0.04687432
0.0032330512 -0.026161205 0.0034877467 0.05104512 0.07589132 -0.022811506 0.07449265 0.06701885
0.06993765 0.06334772 -0.002554904 -0.1194743 0.0022781016 0.03665843 0.074913025 0.021830859
0.014369504 0.06989139 -0.003674685 -0.13576855 -0.27922443 -0.29053655 -0.08850104 -0.25653344
-0.5656638 -0.19957757 -0.25861955 -0.44430336 -0.21238866 -0.057459496 -0.03967791 0.03438314
0.13284077 0.052940313 -0.014421999 0.047906984 0.055595797 0.027356254 -0.11218577 -0.06306089
-0.027662639 -0.06264033 -0.045743797 -0.036044117 -0.15208052 -0.078845486 -0.06590898 -0.074551605
-0.069596 -0.05029832 -0.088586494 -0.04386004 -0.036844917 0.04965652 -0.03174476 0.013030936
-0.053316373 -0.22693503 0.018758142 -0.11779645 0.053448193 0.12419183 -0.14588702 -0.004233552
-0.028179986 0.05197865 -0.08346838 -0.16694663 0.025634522 -0.4632974 -0.06863401 0.015702965
-0.23462522 0.13053979 0.03088296 0.17218788 -0.027626907 0.034840785 -0.013743751 -0.0442691
0.04733654 0.02800079 0.1385139 0.13566539 -0.04621908 0.048148513 -0.03341121 -0.36517864
-0.039407965 -0.05120197 -0.15996923 0.11543061 -0.084260516 -0.06011993 0.0056545804 -0.05115058
0.1305799 0.046962503 -0.0033125156 0.046995834 -0.02323112 -0.008006853 -0.129388 -0.0367209
-0.23975581 -0.16672136 0.04465403 -0.09400513 0.112510875 0.0910089 -0.13078223 -0.08051629
0.13878414 -0.24561092 0.23251571 0.22246097 0.012977459 0.28008527 -0.03739758 -0.15846546
-0.0035958195 0.0043798364 -0.19032477 0.05442944 0.01010846 -0.059740935 0.20299499 0.01658935
-0.039050434 -0.0025814646 -0.021238174 -0.014129125 0.022631515 0.015822936 0.0335094 0.136389
-0.05037757 0.09632082 -0.07920671 -0.0114264125 0.083624974 -0.08666884 0.2254838 -0.060296744
0.04893165 0.04533936 0.14058402 0.046527237 -0.10556176 0.020906622 -0.017288504 -0.044719424
-0.016546994 0.09102213 -0.11173288 0.009836288 0.16662478 -0.21061836 0.1982311 0.111994706
-0.22612515 -0.0140035385 -0.11342017 -0.17157765 -0.18229268 0.09446725 -0.12068659 -0.049334038

model.ec4.0.bias f4 [32]
00000000: 496a e83d c361 dc3d 4434 c23c 4069 57bd
00000010: 49fe 603b a20e 473b 7f05 84bc cacf 3dbc
00000020: 3c75 c1bd c9ff ae3d 0b76 933c a149 59bd
00000030: b8db a03d 5495 ad3d ca04 a03d 4cdb 2c3d
00000040: 3d09 1ebe 01c6 90bc aa6d 4fbd ce20 d0bd
00000050: bb63 083e 2094 43bd 8147 683d ba0c d93d
00000060: 251a 2cbd f52d cb3d 1dfe b8bd bf99 00be
00000070: 5ff0 543d ccda edbd 948d b53d 8109 2b3e
0.11348397 0.10760834 0.023706563 -0.05259061 0.0034331253 0.0030373712 -0.016115902 -0.011585185
-0.09446189 0.08544881 0.018000623 -0.053048734 0.07854408 0.08475748 0.078134134 0.042201325
-0.15433212 -0.01767254 -0.050641693 -0.10162507 0.13319294 -0.047748685 0.056708816 0.105981305
-0.04201712 0.09920875 -0.09032843 -0.1255865 0.05198705 -0.11613998 0.088648945 0.16702844

model.ec5.0.weight f4 [32, 32, 3, 3]
00000000: a0cb c7bd a8b9 7ebe 2566 48bd 763a 083d
00000010: cda9 8abe f188 82bd a71e ffbc 0d50 00bd
00000020: aa6b a1bc 8ffe 6ebd 97ba 45bc 9649 8e3b
00000030: a930 373d 0b34 9b3d 5619 083d a9e1 0ebb
00000040: 4f12 19bd b1af bf3a b431 133e 8eec 30be
00000050: f313 1c3d 8b0a e2bd c3fa d0be a693 c23d
00000060: 3b05 e2bd 9c33 cf3c 64bf 1d3c 7a7f b5bc
00000070: 9243 9e3c 82fd 063e 9012 c3bc ac2f b13b
00000080: 3a45 b1ba 6f02 0c3d f0c9 4a3c 4e93 0dbc
00000090: 6f3e 39be 2cac 5c3c ff86 25bd 36ff 7abd
000000a0: e3ba 40be 6459 96bd f7a7 2dbd ae28 813c
000000b0: a7c7 a0bd 1903 9b3c d169 59be 03c7 d23d
000000c0: b324 14be 2f78 3ebe cfa1 773d d907 5c3b
000000d0: ab1d c73c 53a2 f73d 81f7 023e 46e0 5f3d
000000e0: 8bde 98bc 5f33 703d 5c30 ff3c 9481 be3d
000000f0: c83f b73d 9bbc ba3d 592d 113c 3058 a83c
00000100: 24a0 823c cec7 2bbd 9e1c 3bbd 4ef0 fdbc
00000110: c305 603d 877a 743c ceae 03bc 9f80 27bc
00000120: e3ef ff3b d928 53bd 59aa 4bbd cfd4 be3c
00000130: a2d5 253e a949 26bd eb7d 9fbd c0df f2bb
00000140: b26a 76bd 88c4 bcbd 9c2b fdbd d788 83bd
00000150: 6288 08be de39 c73d 6400 b93d 56d8 a3bc
00000160: f17c 243d f585 6f3d 4dfe 8fbe 2d27 9a3d
00000170: bf2a 183c 322f d93b 8dc4 8bbe 6000 a13c
00000180: 0a96 bd3c 80ba 083d 2170 3b3d 69d4 20be
00000190: c979 d8bd 6448 cd3a 69ec 423e d165 08be
000001a0: 5f49 673c c04e bbbd e672 2b3d 1d99 e5bd
000001b0: 640a 3c3c 2679 783d cd25 023d fe3c 0e3d
000001c0: 4724 44bd aa1b ae3c b70a 063c 0d69 883d
000001d0: ce61 17bd 9b93 e13b 8202 33bd 011d 12be
000001e0: e58e 2dbc 5774 5f3e c1fc 87bd f518 72bd
000001f0: dded 06bd f362 3abd 8902 ce3a fdfc 9ebd
00000200: 72bc 643d 9639 c43d 8a2a 843e d1b0 a4bd
00000210: 4120 903d b2e8 123e 80dd a13c a399 313d
00000220: f290 51be cda8 b23d 71b6 d2bd 6369 00be
00000230: 6dbc 10be 4959 c0bc 251c b4bb 8bb8 d53c
00000240: cb58 52bd 2bdf 2abe 2b8f 61bc b984 1ebe
00000250: 2433 abbd 3d80 27be a9cd 933d dd77 0ebe
00000260: ddb3 a1bd 0879 f7bd 26a0 14bd 80c9 b5bd
00000270: 9770 c1bd 7e2d cc3c d0f9 f6bd 11d1 333d
00000280: b3e9 3b3d 59f7 113d 76b7 35be 46ac 3bbd
00000290: 73f7 1c3d 54d9 cebc 96b4 95bd 1259 05bc
000002a0: 39ef 043d 36e7 813d 7301 183d 59d9 77bd
000002b0: 1a2c 1bbe 5469 55bc d11e 53be 5844 82be
000002c0: cf29 85bd 861e 763d d563 ef3c b5c6 adbc
000002d0: eda0 d13b feb6 703e 06ab 323d c7d2 91be
000002e0: d5a9 1e3e c46d b03c d42f 1abc 01c6 9dbd
000002f0: fde3 1b3e 4681 83be 9ce9 2dbe afe3 6ebd
00000300: 17b6 83bd 4d41 bfbd f279 90bb fe5e bebc
00000310: 3835 1a3c d870 b7bc c555 48be 8324 a6be
00000320: c352 abbd 8b49 a0bd 02c5 393e d34a 48bd
00000330: d00c 40bc b824 d33d 4183 42bb 5afb cabd
00000340: a488 09be 4e03 d83c ce8d 453e a253 aabc
00000350: 3652 aabd de4c b8bd ae70 edbc 2ed0 a1ba
00000360: f616 01be 3fdb 18be f233 253d b1b0 ae3b
00000370: 47fa bbbd 1671 d4bc 1e58 adbd 96cf 03bd
00000380: 6896 d33c 12ac a93d 33f6 f43c 49de b7bc
00000390: d637 a13d 9828 89be 2776 363c a743 b13c
000003a0: 03d8 413c ea8d 563d 295b 973d 517c 9bbd
000003b0: 3ae1 b63d d15e 22be 1289 7cbd cb60 c63b
000003c0: 2a4f 85bd ced5 5bbd 83c6 8b3d 16e3 443e
000003d0: 3b41 243d 7f6b 22bc 1126 143d cef3 a63d
000003e0: fe1b c5bd d30a 103e 0514 b33d e30e 8d3b
000003f0: 7f28 04bd f4d6 8f3c 0d06 bfba 876d debc
-0.09755635 -0.2487551 -0.048925538 0.033258878 -0.27082673 -0.06373776 -0.031142546 -0.031326342
-0.019704659 -0.058348235 -0.012068412 0.004342268 0.04472414 0.07578286 0.033227287 -0.0021801984
-0.037370976 0.0014624504 0.14374429 -0.17277738 0.038104963 -0.11037167 -0.40816316 0.09500818
-0.11036154 0.025293164 0.009628151 -0.022155512 0.01931933 0.13182643 -0.023812562 0.0054072943
-0.001352466 0.03418201 0.012377247 -0.008641077 -0.18090223 0.013468783 -0.040411945 -0.061278544
-0.18821292 -0.07341269 -0.042396512 0.015766468 -0.07850581 0.018922376 -0.21231772 0.10291865
-0.14467125 -0.18600534 0.060457047 0.0033574014 0.024306139 0.12091508 0.12789728 0.054657243
-0.018660804 0.05864274 0.03115099 0.09302059 0.08947712 0.09118005 0.008860909 0.020549864
0.015945502 -0.041938595 -0.04568159 -0.030998375 0.054692995 0.014921791 -0.008037282 -0.010223537
0.007810579 -0.051552627 -0.049723003 0.023294834 0.16194776 -0.04059759 -0.07787689 -0.007411927
-0.060160346 -0.09217173 -0.123618335 -0.064225845 -0.13333276 0.09727834 0.09033278 -0.020000618
0.040158216 0.05847736 -0.28123704 0.075270034 0.009287535 0.0066279406 -0.27298394 0.0196535
0.023142833 0.033380985 0.04576123 -0.15706028 -0.10570104 0.0015661833 0.19035496 -0.1332009
0.014116614 -0.0914588 0.041857623 -0.11210845 0.011477087 0.06066241 0.03177433 0.034726135
-0.04788616 0.021253426 0.008181266 0.06660662 -0.03695851 0.006884051 -0.043703564 -0.14268877
-0.010593151 0.21821724 -0.06640006 -0.059105832 -0.032941688 -0.04550452 0.0015717308 -0.077630974
0.055843778 0.09581296 0.25813705 -0.080415376 0.07037402 0.14346579 0.01975894 0.04335941
-0.20465448 0.087236024 -0.10288704 -0.12540202 -0.14134379 -0.023480074 -0.005496519 0.026088974
-0.05135421 -0.16686694 -0.013767044 -0.15480317 -0.08359364 -0.16357513 0.07216961 -0.13912912
-0.07895634 -0.12083632 -0.036285542 -0.08876324 -0.09445303 0.024924036 -0.12059367 0.043900553
0.04587717 0.03563628 -0.17745766 -0.04581859 0.038321923 -0.025250115 -0.07309835 -0.008138912
0.032454703 0.06342928 0.037110757 -0.060510013 -0.15153542 -0.0130256 -0.20617224 -0.25442767
-0.06502115 0.060087703 0.029222408 -0.021212915 0.0063973577 0.23507306 0.043620132 -0.28481123
0.15494473 0.021536715 -0.009410817 -0.07703782 0.1522369 -0.25684565 -0.16983646 -0.058322605
-0.06431215 -0.09338627 -0.0044090683 -0.023238655 0.009412102 -0.022392675 -0.19563968 -0.3244973
-0.08365395 -0.07826527 0.18141559 -0.048899483 -0.011721805 0.10309738 -0.0029680284 -0.09911223
-0.1343103 0.026368763 0.19292375 -0.020791832 -0.08316462 -0.08999036 -0.028984394 -0.0012345368
-0.12606415 -0.14927386 0.040332742 0.005331122 -0.09178596 -0.02593283 -0.08464073 -0.03218039
0.025828555 0.08284773 0.029902553 -0.022444861 0.07871978 -0.26788783 0.011136568 0.021638704
0.011831286 0.052381434 0.07390434 -0.07592071 0.08929677 -0.15856482 -0.061654158 0.006054019
-0.0650924 -0.053670697 0.068249725 0.19227251 0.04010127 -0.009913324 0.036169115 0.08151971
-0.0962448 0.14066629 0.08744053 0.004304753 -0.032265183 0.017558552 -0.0014573947 -0.027151836

model.ec5.0.bias f4 [32]
00000000: b5df 01be 6d9c 2dbd eb7d 263d 1e9e 943e
00000010: 10e0 2ebd f41e 37bd 1e51 88bd cd17 133e
00000020: 6250 4ebd 8b05 c6bc b805 6c3c 5a60 22bd
00000030: cdc6 c93c 1636 fd39 c436 f9bc e74c 45bd
00000040: 198d a3bd 791a 80bc 9ae3 a8bc cb83 d53b
00000050: 0f11 0d3d 1b72 80bd 4644 e1bc b3b2 94bd
00000060: 886c 263d 7b00 88bc 44e8 4fbd 14ff 323c
00000070: 7339 bfbd b2d2 873c 26f4 5e3c b658 673c
-0.12682994 -0.042385507 0.04064743 0.29026884 -0.04269415 -0.044707254 -0.06656097 0.14364548
-0.050369628 -0.024172565 0.01440566 -0.03964267 0.024630928 0.00048296218 -0.030421622 -0.048169043
-0.079858966 -0.015637623 -0.020616341 0.006515955 0.034440096 -0.06271764 -0.027498376 -0.07260647
0.040630847 -0.016601792 -0.050758615 0.010925073 -0.093371294 0.01657996 0.013608014 0.014120271

model.ec6.0.weight f4 [64, 32, 3, 3]
00000000: 88e9 433d 9fd0 e6bd 7774 f8bd 27d5 11bc
00000010: 0433 a93d 5837 41be 1962 f9bd c494 92be
00000020: 26b7 0cbe 942e 753d 865f 1f3e f6a9 a23d
00000030: a2f2 283e fde7 b83d 5293 5bbd d17c 7abd
00000040: 6210 643b 3644 d0bd 0c3b fe3d 26c3 193d
00000050: 7a99 a73b 76d6 09bd 4b3a d0bd 9868 8fbd
00000060: 1c14 0d3d 8395 0d3e 275b 18bd 5589 3f3d
00000070: ef44 813d c63f 983d adfb 573d 7960 e7bd
00000080: cc88 2cbd ce32 ec3d db70 5b3e 3deb bf3d
00000090: 80ee 013d 5bc7 c03d 4ce1 e0bc f102 2f3c
000000a0: 4579 13bd e782 a9bd 08fd 9a3d 15f0 003e
000000b0: 6b3e 153d a3b1 073d b128 703c 87bc 333d
000000c0: 8c91 443e 0720 763e 0e09 ca3d 01b5 403c
000000d0: b83b 483d 3a05 bf3c 83bc 8cbc 7e21 0d3d
000000e0: d448 633d 1c4f f1bd 6d20 d4bd 1cd1 963c
000000f0: 680e 403d fc1e 873d 8af1 93bc 3178 1f3e
00000100: c539 dd3d c75a 273d 4c6b 243c 0f7b 843c
00000110: 3116 b43d 3211 0c3d 2ca7 11bd 5947 1b3d
00000120: 5616 32bd c5c7 27bc db61 fd3c 075a cabc
00000130: 2afc 5d3d ff28 c93d 3ca6 b63c 98a8 b93d
00000140: 741c ae3d 1920 cd3c c087 c6bc 4158 2ebc
00000150: 7981 d83d 68bc 5d3e 95f4 5c3e a2c5 563d
00000160: b963 8b3d 5896 993c e0f3 a33d d8e5 cd3c
00000170: f1b2 cc3d b1f9 0e3e 4d97 593e 7329 223e
00000180: 9c45 10bd 90b0 0d3d 7238 e93c 7fd6 513c
00000190: d374 d2bc 27f5 6abc 4dbc 843c 9dd1 86bd
000001a0: 81e1 86bd b0b2 32be 2732 45be 9893 4bbd
000001b0: f90f c83c e81e 943d 6741 9c3d dacc 203d
000001c0: da25 02bc 0396 43bb 4ceb aabc 36fe 73bd
000001d0: 98e1 06be 3169 a2be 2347 b3be f68d c4be
000001e0: b65e 60be 1718 cdbe 2701 67be 1f7c edbd
000001f0: 4647 c6bd ec08 bbbc 8027 f23d 5da0 a23d
00000200: 2420 e83d 2058 cf3d 12de 343e 6c6b 023e
00000210: 4c80 ff3c 3fab be3b b1e8 f73c cad8 d1bd
00000220: 7960 3cbe 3b78 c8bd 3991 c5bc d30f a13d
00000230: 3cd6 e23d 6262 0a3d 927a 47bc b1ce 8a3c
00000240: b67b e93d 708d 003e 64fe 9c3d 7ecf f13d
00000250: 4b7d 753e caee 8e3d dd83 04bb a538 2b3e
00000260: bf6d f23d 0ddf d0bd 8491 5ebe f950 3fbe
00000270: 5507 d0be 4887 0fbf e6d8 90be b4b5 f2bc
00000280: 983b e23c c984 0c3c a574 2dbe 3960 86bc
00000290: c085 d1bd 53e4 19be 08e3 0fbe c764 49be
000002a0: b46c 88bb 7b51 d23c 2c17 84bd d180 10be
000002b0: 2b9f a1bd 4687 02bd 13d8 11be 9f07 34be
000002c0: 0373 a5bd 3f83 e8bc 5550 cf3c 3135 debc
000002d0: 37d0 c73d 59ef b13c fae0 913d d625 113d
000002e0: 1429 843d 8190 b73d eceb 3a3d 7628 76bb
000002f0: 63fb 2d3d 0b25 183c 0ad3 8e3d f611 bebc
00000300: 418b 13be 69c7 7ebe 38f5 c2bd b22e c13c
00000310: 8185 67bd 0c2f adbd 28b2 0f3e e8f4 803c
00000320: 857b 9f3d d5ac 8d3d 9bf1 e03d 0650 033d
00000330: 0214 7abd 3423 81bc 8250 1f3d 525e 0dbd
00000340: a4b8 113e 303b d03d 7220 733d 996b a1bc
00000350: f69a 14bd 008a fa3b ea2f dbbc 26ad a7bc
00000360: 82aa 6f3d 33ed ab3c 3d77 d2bb 051c bbbd
00000370: e90d 53be 8644 bbbd d6be 933d b0b0 aebd
00000380: 925d 893d af58 67bd f7fe c0bd e6bb 0abe
00000390: 53f2 90be 334f dfbe 40d7 43be 3bcf 57bd
000003a0: 3021 943d 668d 093d 162c 563d 8f45 8f3d
000003b0: 56c4 e83c 966f 1b3d f5df 9d3d b6eb 4fbc
000003c0: 4bc3 8d3d fe45 e6bc ccb3 21bc 5853 93bd
000003d0: accb 5dbb 090c abba d2d1 babd 6a6b debd
000003e0: b41b b6bd 8cd6 0fbc e971 45be 5c85 7cbd
000003f0: 1bd6 23bd 82e4 793d d0bd 113c 7404 463c
0.047830135 -0.1127026 -0.12131589 -0.008900917 0.082616836 -0.18868768 -0.12176914 -0.28629124
-0.1374174 0.059858873 0.15563783 0.07942574 0.16498807 0.09028623 -0.053607292 -0.06115419
0.0034799804 -0.1016926 0.12413606 0.037539624 0.0051147314 -0.03365179 -0.101673685 -0.070023715
0.034443006 0.13826565 -0.037196305 0.04676183 0.06311976 0.07434039 0.05273025 -0.112976976
-0.042122647 0.11533128 0.2142977 0.0937104 0.031721592 0.09413024 -0.02745118 0.010681854
-0.036004324 -0.08276921 0.07567793 0.12591584 0.03643648 0.033128392 0.014658139 0.043880966
0.19196147 0.24035655 0.09865008 0.011761905 0.048885077 0.023317922 -0.017179733 0.03445577
0.055489376 -0.11782667 -0.10357747 0.018410258 0.04688874 0.06597707 -0.01805951 0.15573193
0.10802034 0.040858056 0.010035347 0.01617196 0.08793295 0.034196086 -0.03555982 0.03790984
-0.043478332 -0.0102405 0.03093045 -0.024701132 0.05419556 0.098222725 0.022296064 0.0906536
0.08501521 0.02503972 -0.024234653 -0.010641159 0.1057157 0.21653903 0.21577676 0.05243457
0.0680613 0.018748447 0.080055 0.025134012 0.09995068 0.13962437 0.21249123 0.15836124
-0.035222635 0.03459221 0.028469298 0.0128074875 -0.025690472 -0.014340675 0.01620307 -0.06582949
-0.0658598 -0.17450976 -0.19257413 -0.049701303 0.024421679 0.072324574 0.07629662 0.03925786
-0.007943595 -0.0029844053 -0.020864151 -0.059568606 -0.13171995 -0.3172088 -0.3501521 -0.38389558
-0.2191113 -0.40057442 -0.22559033 -0.1159594 -0.09681563 -0.022831403 0.1182394 0.07940743
0.11334255 0.101242304 0.17662838 0.1273629 0.031189106 0.005818754 0.030262323 -0.10246427
-0.18396176 -0.09788557 -0.0241171 0.07864346 0.11076018 0.03378523 -0.012175219 0.016944261
0.11400549 0.12553954 0.07665709 0.11807154 0.23973577 0.06979139 -0.0020220198 0.16720827
0.11837339 -0.101987936 -0.21735197 -0.18683232 -0.40630594 -0.560658 -0.2829048 -0.029627658
0.027616307 0.00857658 -0.16939028 -0.016403304 -0.10230589 -0.15028505 -0.1405145 -0.1966735
-0.004163349 0.025673619 -0.06449732 -0.1411164 -0.07891687 -0.031867288 -0.14242582 -0.17581032
-0.08078577 -0.028382896 0.02530686 -0.027124973 0.09756511 0.021720575 0.07122989 0.035436474
0.064531475 0.08963109 0.04563515 -0.0037560738 0.04247607 0.0092861755 0.06973846 -0.023201924
-0.1440859 -0.24880756 -0.09519428 0.023581836 -0.056523804 -0.08456239 0.14032805 0.01574178
0.07787231 0.06917731 0.109835826 0.03205874 -0.061054237 -0.015763856 0.038895138 -0.03451378
0.14230591 0.10167539 0.059357114 -0.019704627 -0.036280595 0.0076458454 -0.026756246 -0.020468306
0.05851222 0.020987129 -0.0064229057 -0.09136204 -0.20610775 -0.09143929 0.072141334 -0.08529794
0.067073 -0.05648106 -0.09423631 -0.1354824 -0.2830988 -0.43615112 -0.1912508 -0.052687865
0.072328925 0.033582114 0.052288137 0.06995689 0.028413933 0.037948214 0.07708732 -0.012690475
0.06922015 -0.028109547 -0.009869527 -0.07193631 -0.0033843322 -0.0013049851 -0.09122051 -0.10860331
-0.08892003 -0.008779179 -0.19281735 -0.06165062 -0.03999911 0.061008938 0.0088953525 0.012086023

model.ec6.0.bias f4 [64]
00000000: c00e 813e bfa8 f7bd 15ca e4bc e18c 833d
00000010: 7542 d43d 4f3d 163d bb45 cfbc c2ce f93d
00000020: 8dff 63be f4f1 3b3d 5fcd 43be e55b 9d3b
00000030: 55be 8dbb b2f0 0bbd 763d 8d3d 7c69 943d
00000040: b139 5c3e 6da9 4fbe 9846 593c 2d1e 52bb
00000050: 3686 b93d 6ab5 c73d 8b2f 703e 0b7a 19bd
00000060: fd35 21bd 5e05 d0bc 8d3e b5bc fe09 bb3c
00000070: c5da 303e a4a9 abbd b903 71bd 5f8c 1e3e
00000080: 1c85 0a3d 768e 5dbd 4246 7d3d a96e 9dbd
00000090: 9392 8a3b 5ea2 33bd 458b aebd 2b97 97bd
000000a0: aa2d 5e3e 005c fbbc 36c2 463e d9f6 0fbe
000000b0: 0d22 2dbd 7a0f 80bd fb43 85bd 29cd 54bd
000000c0: 9f4f 093e cd84 24bc 1b7b 883c 2217 dfbd
000000d0: 5a82 34bd 4379 0a3e 97b1 afbd 9aad 0e3d
000000e0: 943d 553d 304a f7bd d36d dbbd a793 a1bd
000000f0: 889f ff3d e58e b3bd ae5e b2bc e9ef 7d3b
0.25206566 -0.12092733 -0.027928391 0.06423355 0.10364238 0.036679562 -0.025301805 0.12197639
-0.22265454 0.04588504 -0.19121312 0.0048022144 -0.004325668 -0.03416509 0.06896488 0.07246682
0.21506383 -0.20279475 0.01326146 -0.0032061443 0.09058802 0.09751399 0.23455636 -0.037469905
-0.039358128 -0.025393184 -0.022124553 0.022831913 0.17270954 -0.08381966 -0.05884144 0.15483235
0.03381835 -0.05409094 0.06183458 -0.076871224 0.004228899 -0.043856017 -0.08522657 -0.0740188
0.21697107 -0.030683517 0.19410023 -0.14059009 -0.0422688 -0.06252952 -0.06507107 -0.05195347
0.1340928 -0.010041428 0.016660264 -0.10893084 -0.044069625 0.1352282 -0.085787944 0.034833528
0.05206068 -0.12074697 -0.10714307 -0.078894906 0.124816 -0.08767489 -0.021773662 0.0038747734
