2D_CMR_Registration/ModelParameters-ACDC/Voxelmorph_Loss_0_Smth_0.01_LR_0.0001_Mode_2_Old/DICE_0.56281_SSIM_0.88727_MSE_0.000855_Epoch_0005.pth (torch, 898940 bytes, 18 tensors)

unet_model.encoder.0.0.main.weight f4 [32, 2, 3, 3]
-0.037640616 -0.09823789 -0.005130687 0.63920546 0.23254983 0.046973523 -0.20630407 -0.11653525
0.08024897 -0.034699243 0.012316491 -0.021385593 0.028192304 -0.6965774 -0.10713162 0.020213304
0.06320173 -0.012856727 0.08987354 0.14617187 -0.013560036 -0.017287506 0.5469227 -0.13457559
-0.13234192 0.68054706 -0.007214548 -0.08104029 -0.25949833 0.0014721286 0.03468134 -0.7550538
-0.059563916 0.010648856 0.017831538 -0.061280433 -0.27816367 -0.0021823149 0.07146031 -0.562353
-0.12784697 0.16567346 -0.28073165 -0.018481197 0.114153974 -0.11207764 0.19056919 0.17778449
-0.20231637 0.3717318 0.4136741 -0.09931433 0.04287781 0.16454485 -0.12948984 -0.06937359
0.005442148 0.0001684072 -0.12797727 -0.014650615 0.559837 0.587543 0.049382 -0.046994366
0.09212756 0.042955462 -0.2524365 -0.89806503 -0.10138549 -0.027577737 0.011898459 -0.030933144
-0.1913404 -0.2824681 -0.119312316 0.23589395 0.1971365 0.03108814 0.33495417 0.4036531
0.1369844 -0.18988569 -0.62565815 -0.253002 0.020861004 -0.10326462 -0.06289937 0.08372029
0.18890102 0.110043876 -0.096090846 -0.29344326 -0.10870596 0.3972239 0.06352917 -0.13113044
0.1489619 0.30816412 0.05215833 0.038607154 0.25401676 0.06309573 -0.30793238 -0.01571906
0.18658674 -0.1348208 -0.3097488 -0.029182082 0.40538707 0.48522714 0.12380695 0.18514404
0.21091972 0.054677766 -0.13531505 -0.15157993 -0.08381413 0.09316132 0.21197583 0.07025144
-0.14614326 -0.6610258 -0.20493874 -0.11722576 -0.31029135 -0.16223967 -0.33657253 -0.45676708
-0.09458877 -0.22236943 -0.37800533 -0.075075656 0.2305388 0.25404143 0.100762144 -0.07307923
-0.16567595 -0.0823217 0.12922826 0.57046074 0.1625779 0.12005736 0.3064467 0.16731976
0.34334102 -0.036758695 -0.21720245 -0.24809235 -1.1460804 -0.43240577 -0.4186683 -0.4446345
0.06316644 0.07547798 -0.09755046 -0.34991488 -0.24193116 -0.9999756 -0.15450175 -0.18851896
0.3874638 0.5052894 0.1054378 -0.09589011 0.0013768391 0.8279481 -0.7075607 0.16507821
0.36405954 -0.3494176 0.10827514 0.10370843 -0.065807566 -0.123403326 0.18083018 0.039433334
-0.47713518 0.115852155 -0.13415523 -0.13003191 0.01558553 -0.68667763 -0.21265018 0.03625359
0.128286 0.018419899 -0.04879387 -0.012412368 0.07525105 0.035705958 -0.11795327 -0.046689987
0.09180907 0.8268511 -0.0016953936 0.042569328 0.012998251 -0.007583006 0.03924372 0.05770309
-0.34346998 0.016336737 0.16779786 -0.5663022 -0.02102704 0.12714314 -0.20198871 -0.012447389
0.16346486 0.0939353 -0.0056419442 0.34548295 0.3979259 -0.02413332 0.08052098 0.09584206
-0.008068643 -0.078042395 0.051311407 0.3050642 -0.48738822 0.17649093 0.27941287 -0.41848576
0.021394277 -0.037334803 0.020237574 0.08299447 0.0037452744 -0.42175156 0.30566755 0.0394749
-0.11352207 0.071673974 0.026699802 0.0011178096 0.0027279637 -0.23160797 -0.7733107 -0.07839034
-0.08302882 -0.061949626 -0.0015778128 0.052127168 0.062051 0.039700165 0.111803904 0.8147149
0.027390692 0.03514545 -0.00805489 -0.00023345738 0.21792056 0.01953119 -0.047200214 0.61909235
00000000: 0c2d 1abd f230 c9bd 521f a8bb f8a2 233f
00000010: 8b21 6e3e 4f67 403d 6041 53be 08aa eebd
00000020: 9259 a43d cb20 0ebd 1ccb 493c d730 afbc
00000030: 8cf3 e63c e652 32bf d367 dbbd 5f96 a53c
00000040: e96f 813d 05a5 52bc 9e0f b83d 14ae 153e
00000050: ea2a 5ebc 879e 8dbc 2003 0c3f 2fce 09be
00000060: a484 07be 5538 2e3f 0468 ecbb 74f8 a5bd
00000070: f7dc 84be 70f4 c03a 050e 0e3d 354b 41bf
00000080: 4bf9 73bd 8a78 2e3c 7213 923c 3101 7bbd
00000090: 786b 8ebe 2b05 0fbb c859 923d 5ef6 0fbf
000000a0: 51ea 02be 4ea6 293e 0fbc 8fbe e165 97bc
000000b0: 8fc9 e93d f688 e5bd 9224 433e 230d 363e
000000c0: 062c 4fbe a153 be3e 17cd d33e 5065 cbbd
000000d0: a4a0 2f3d 727e 283e fc98 04be be13 8ebd
000000e0: 0c54 b23b 7796 3039 790c 03be 2209 70bc
000000f0: 7a51 0f3f 3869 163f c844 4a3d 2a7d 40bd
00000100: 60ad bc3d 11f2 2f3d 5b3f 81be 97e7 65bf
00000110: 32a3 cfbd b5ea e1bc c1f1 423c 8167 fdbc
00000120: bdee 43be a99f 90be 045a f4bd 2f8e 713e
00000130: 27de 493e 8eac fe3c 1d7f ab3e 9eab ce3e
00000140: a345 0c3e 6571 42be 222b 20bf 7a89 81be
00000150: b2e4 aa3c 677c d3bd 63d1 80bd 8b75 ab3d
00000160: 456f 413e af5e e13d 47cb c4bd 323e 96be
00000170: 3ba1 debd ee60 cb3e 951b 823d 0f47 06be
00000180: 7889 183e b0c7 9d3e f9a3 553d 8922 1e3d
00000190: 7c0e 823e 5638 813d 50a9 9dbe 42c5 80bc
000001a0: 9810 3f3e 770e 0abe 6597 9ebe 430f efbc
000001b0: e58e cf3e b16f f83e 808e fd3d 6696 3d3e
000001c0: 57fb 573e cbf5 5f3d 0790 0abe c537 1bbe
000001d0: bea6 abbd 5dcb be3d 3110 593e fddf 8f3d
000001e0: 94a6 15be fd38 29bf 76db 51be 0f14 f0bd
000001f0: 82de 9ebe 2822 26be 3c53 acbe 60dd e9be
00000200: c2b7 c1bd d0b4 63be ea89 c1be 44c1 99bd
00000210: 5d12 6c3e b811 823e 625c ce3d 90aa 95bd
00000220: f5a6 29be 4898 a8bd 6a54 043e b709 123f
00000230: d27a 263e a2e0 f53d 95e6 9c3e df55 2b3e
00000240: 65ca af3e 4990 16bd 526a 5ebe ec0b 7ebe
00000250: c3b2 92bf 4a64 ddbe b15b d6be 22a7 e3be
00000260: 685d 813d 3394 9a3d 89c8 c7bd 0b28 b3be
00000270: cdbc 77be 67fe 7fbf b535 1ebe 1d0b 41be
00000280: a861 c63e a55a 013f c6ef d73d 0962 c4bd
00000290: 0e77 b43a 68f4 533f b322 35bf 430a 293e
000002a0: 0366 ba3e dde6 b2be 5bbf dd3d 1665 d43d
000002b0: 1ec6 86bd e2ba fcbd 8c2b 393e d984 213d
000002c0: 104b f4be e543 ed3d fd5f 09be 1627 05be
000002d0: 735a 7f3c 1bca 2fbf f8c0 59be a57e 143d
000002e0: 685d 033e 54e5 963c 15dc 47bd 3f5d 4bbc
000002f0: 391d 9a3d 6940 123d 7c91 f1bd 003e 3fbd
00000300: 6506 bc3d 84ac 533f f837 deba 2d5d 2e3d
00000310: 9ef6 543c dd7a f8bb 06be 203d 135a 6c3d
00000320: 4cdb afbe 9fd4 853c 34d3 2b3e 2ef9 10bf
00000330: e640 acbc d031 023e 21d6 4ebe 22f0 4bbc
00000340: 5563 273e 2761 c03d 0fe0 b8bb 24e3 b03e
00000350: f2bc cb3e 3eb3 c5bc 2fe8 a43d d848 c43d
00000360: 5732 04bc b1d4 9fbd e92b 523d 6031 9c3e
00000370: f38a f9be 0aba 343e 340f 8f3e c443 d6be
00000380: 0d43 af3c 61ec 18bd 45c9 a53c 01f9 a93d
00000390: 4773 753b d2ef d7be 7580 9c3e 6fb0 213d
000003a0: 427e e8bd cec9 923d 8bb9 da3c 7783 923a
000003b0: a3c7 323b a42a 6dbe b1f7 45bf 1d8b a0bd
000003c0: 040b aabd e4be 7dbd 9dce ceba 4c83 553d
000003d0: 3029 7e3d a49c 223d 72f9 e43d 2891 503f
000003e0: 7262 e03c adf4 0f3d a8f8 03bc 3dcc 74b9
000003f0: 9126 5f3e e0ff 9f3c 0355 41bd d67c 1e3f

unet_model.encoder.0.0.main.bias f4 [32]
0.010208782 -0.06807119 -0.14121947 0.03360706 -0.043722045 -0.067615874 -0.07206709 -0.26370117
0.08363282 -0.004965081 -0.118488625 -0.26985925 0.0896664 -0.01575351 -0.084397785 -0.19429852
0.017934265 -0.32015505 -0.05845302 -0.3425497 -0.11259346 0.043544084 -0.04309336 0.16347058
0.05343672 -0.046056643 -0.028254503 -0.111361966 -0.15466426 -0.27487248 -0.11845111 0.047006838
00000000: bc42 273c e868 8bbd d69b 10be 8ea7 093d
00000010: e315 33bd 317a 8abd e997 93bd d703 87be
00000020: af47 ab3d 1eb2 a2bb 2aaa f2bd fe2a 8abe
00000030: 04a3 b73d 810d 81bc bfd8 acbd 31f6 46be
00000040: e1ea 923c 5deb a3be 6f6c 6fbd ad62 afbe
00000050: 6697 e6bd 485b 323d aa82 30bd d564 273e
00000060: 76e0 5a3d e4a5 3cbd fd75 e7bc be11 e4bd
00000070: 4f60 1ebe 16bc 8cbe 7f96 f2bd 3e8a 403d

unet_model.encoder.1.0.main.weight f4 [32, 32, 3, 3]
-0.029240629 -0.016810613 -0.05667138 -0.009990319 0.8322581 -0.010999866 -0.016605074 0.055407103
0.023860486 0.0002685308 -0.091038264 -0.056670785 -0.08394731 0.30419236 -0.09571501 -0.04011487
0.027490761 -0.026646689 -0.054666888 -0.11179756 -0.0623749 -0.140197 -0.5048001 -0.14080422
-0.08053071 -0.3290675 -0.050327063 -0.025622569 -0.02199033 0.022540355 -0.19918835 -0.34310794
-0.13654281 -0.14024445 -0.26639757 -0.06753729 -0.058743592 -0.2573954 -0.03429854 -0.17771567
-0.937287 -0.08693643 -0.08109077 -0.5453106 -0.029262422 0.0126308575 0.14712052 0.028042419
0.107831046 0.9047049 0.20247883 0.03820686 0.22962517 0.008301926 0.044593334 0.2187527
0.036677394 0.19478323 0.7164839 0.09702804 0.10728178 0.21455136 0.0490802 0.07072307
0.121593 0.025642699 0.29190966 0.73788905 0.07048785 0.061613884 0.41335905 0.013048496
0.16814555 0.2041515 0.086872086 0.07792364 0.28755572 -0.037587542 0.008068403 0.096323535
-0.014228159 0.026762605 0.06302572 0.0007483519 0.08323582 0.09291666 0.005694165 0.052120566
0.110668816 0.009214329 0.022140816 0.04806984 0.03366791 0.04527205 -0.30233094 0.08597861
0.022718392 0.0017578896 0.043166324 0.052565277 0.037315655 -0.018402502 0.37046236 0.23786929
-0.044595134 0.17294273 0.08312149 0.01850205 -0.070152156 -0.046756487 -0.0054742014 -0.116829164
-0.6252818 -0.044275973 -0.039838932 -0.07951414 -0.02399107 -0.03204274 -0.07053414 -0.013388116
-0.13701387 0.28866008 -0.0472375 -0.10074129 -0.105394974 -0.038300186 -0.023682045 -0.0597576
0.016029866 -0.10620073 -0.57225055 -0.12893589 -0.07402673 -0.11672458 -0.03655132 0.0032790618
-0.041621063 0.021225164 -0.026542263 -0.057343006 0.13128687 0.016195996 0.09022442 0.03773857
-0.0036032426 0.027032286 0.012976539 -0.05973765 0.03236423 0.010888212 -0.016589368 -0.06341732
2.3511771e-05 0.07495874 0.29039648 0.058074765 0.11920498 -0.11039552 0.0034936946 -0.056678448
-0.20381701 -0.06293212 0.007720269 0.019799184 0.019847075 0.06433787 0.10658499 0.087744996
0.056350492 0.11379351 0.05320994 -0.1264987 -0.33293054 -0.13150509 -0.32150024 -0.8805294
-0.19659887 -0.06949688 -0.21594161 -0.0836625 -0.059605196 -0.12075305 -0.037324693 -0.1089804
0.29024222 -0.04713551 -0.015382387 -0.08184821 0.008526494 -0.008236843 -0.061091397 -0.00644718
0.07019344 -0.5030428 0.11646046 0.06724379 0.10941915 0.029538365 -0.026277075 -0.05350334
-0.04322903 -0.029933712 -0.16109206 -0.07814854 0.008119074 -0.022973334 -0.024268204 -0.0004829465
0.034369167 0.01904157 0.013508159 -0.12853071 0.08058855 0.02266743 -0.0036882856 0.015296086
0.043438964 0.12813824 -0.00501264 0.06410673 0.16338113 0.11539133 -0.018341579 -0.018066922
-0.012695106 0.015869332 0.037405293 -0.02418545 0.22935502 0.24675915 0.0074371602 0.11490795
0.16309986 0.02295805 -0.103357494 0.019255716 -0.0696743 -0.61449176 -0.3659977 -0.057541344
-0.07162022 0.089294314 0.004678923 -0.011988322 0.06352193 0.050166592 0.087813005 0.56382865
0.11160294 0.05932391 0.23941754 0.0044208537 0.0016495375 -0.037881248 -0.006885681 0.01221854
00000000: 0b8a efbc 69b6 89bc 4020 68bd 6fae 23bc
00000010: de0e 553f c838 34bc 5d07 88bc 8ff2 623d
00000020: 1177 c33c 98c9 8c39 4572 babd a01f 68bd
00000030: 91ec abbd 1abf 9b3e 3b06 c4bd 7d4f 24bd
00000040: 4e34 e13c 284a dabc 63ea 5fbd 1ef6 e4bd
00000050: d37c 7fbd cd8f 0fbe 943a 01bf fb2e 10be
00000060: 49ed a4bd 897b a8be c023 4ebd 6ce6 d1bc
00000070: 1125 b4bc 8da6 b83c 08f8 4bbe d8ab afbe
00000080: e1d1 0bbe 3e9c 0fbe 4365 88be fe50 8abd
00000090: 1f9d 70bd 54c9 83be a07c 0cbd 19fb 35be
000000a0: 0af2 6fbf ba0b b2bd eb12 a6bd 7a99 0bbf
000000b0: bfb7 efbc a8f1 4e3c c3a6 163e 37b9 e53c
000000c0: 86d6 dc3d be9a 673f 9c56 4f3e cc7e 1c3d
000000d0: dc22 6b3e cd04 083c 80a7 363d b500 603e
000000e0: 093b 163d 4175 473e 7d6b 373f a3b6 c63d
000000f0: 8db6 db3d 5ab3 5b3e 5208 493d 42d7 903d
00000100: c005 f93d a310 d23c 2f75 953e 4ce6 3c3f
00000110: ef5b 903d d75e 7c3d cca3 d33e 5cc9 553c
00000120: 592e 2c3e 170d 513e fee9 b13d 6e96 9f3d
00000130: 813a 933e 65f5 19bd 5631 043c 4645 c53d
00000140: 391d 69bc 403d db3c a113 813d 0c2d 443a
00000150: 8b77 aa3d 174b be3d 1e96 ba3b 607c 553d
00000160: 55a6 e23d b2f7 163c a860 b53c e1e4 443d
00000170: 5de7 093d 2f6f 393d 1fcb 9abe 8e15 b03d
00000180: ec1b ba3c fd68 e63a 2ccf 303d b04e 573d
00000190: 4dd8 183d d8c0 96bc 3ead bd3e 0294 733e
000001a0: 63a9 36bd e617 313e 9a3b aa3d 9c91 973c
000001b0: efab 8fbd bb83 3fbd ee60 b3bb 2144 efbd
000001c0: 7812 20bf b95a 35bd 262e 23bd 4fd8 a2bd
000001d0: ec88 c4bc 403f 03bd 3474 90bd d459 5bbc
000001e0: 5d4d 0cbe 41cb 933e 1c7c 41bd 7351 cebd
000001f0: 52d9 d7bd a8e0 1cbd d900 c2bc 63c4 74bd
00000200: 1151 833c c57f d9bd 037f 12bf c507 04be
00000210: 549b 97bd 4c0d efbd d6b6 15bd 87e5 563b
00000220: d97a 2abd 65e0 ad3c 296f d9bc 80e0 6abd
00000230: 1170 063e 77ad 843c 95c7 b83d c293 1a3d
00000240: 6124 6cbb d072 dd3c 8d9b 543c 77af 74bd
00000250: 5b90 043d 7964 323c 6de6 87bc f1e0 81bd
00000260: 253b c537 f883 993d d9ae 943e cedf 6d3d
00000270: be21 f43d 0c17 e2bd 78f6 643b a927 68bd
00000280: 68b5 50be 8ee2 80bd 4ffa fc3b e631 a23c
00000290: 5596 a23c 93c3 833d 3b49 da3d a6b3 b33d
000002a0: c6cf 663d 920c e93d abf2 593d e088 01be
000002b0: df75 aabe 45a9 06be ae9b a4be 606a 61bf
000002c0: 3751 49be 6154 8ebd cc1f 5dbe 3f57 abbd
000002d0: 9424 74bd 604d f7bd c7e1 18bd 1e31 dfbd
000002e0: a19a 943e 2a11 41bd 6806 7cbc 09a0 a7bd
000002f0: b5b2 0b3c d3f3 06bc f93a 7abd de42 d3bb
00000300: 94c1 8f3d 6ac7 00bf d282 ee3d 1db7 893d
00000310: 2617 e03d 71fa f13c 0543 d7bc 5126 5bbd
00000320: ec10 31bd 8b37 f5bc 51f5 24be 570c a0bd
00000330: dd05 053c 9332 bcbc 1dce c6bc fb33 fdb9
00000340: afc6 0c3d 11fd 9b3c 5351 5d3c 8e9d 03be
00000350: 9c0b a53d 0cb1 b93c 2ab7 71bb 6f9c 7a3c
00000360: 0eed 313d ac36 033e 1241 a4bb 644a 833d
00000370: 624d 273e 4a52 ec3d 1441 96bc 1501 94bc
00000380: 22ff 4fbc 6700 823c 4b36 193d 9120 c6bc
00000390: 0bdc 6a3e 6eae 7c3e 6cb3 f33b dc54 eb3d
000003a0: a603 273e 8512 bc3c 18ad d3bd 2abe 9d3c
000003b0: 66b1 8ebd 554f 1dbf 0d64 bbbe 79b0 6bbd
000003c0: 9fad 92bd f0df b63d a751 993b ab6a 44bc
000003d0: c917 823d 7c7b 4d3d 4ed7 b33d 1357 103f
000003e0: 1590 e43d a1fd 723d df29 753e cfdc 903b
000003f0: 4b35 d83a 5e29 1bbd 47a1 e1bb 4530 483c

unet_model.encoder.1.0.main.bias f4 [32]
0.09750189 -0.035547998 0.1924753 -0.064492844 0.28425857 0.05747978 -0.06098363 -0.023828175
-0.18624948 0.18230672 0.10658597 0.08153137 0.051332552 0.22645871 -0.30417636 0.0041386946
0.009650091 -0.045204073 0.051151667 0.16446383 -0.06331926 -0.054532945 0.19214913 -0.059687916
-0.10930172 -0.056178648 0.02171772 -0.21232362 -0.013568901 0.10489695 -0.035838526 0.059823006
00000000: 12af c73d c79a 11bd 3f18 453e d314 84bd
00000010: 578a 913e eb6f 6b3d f9c9 79bd 4e33 c3bc
00000020: 2fb8 3ebe 9dae 3a3e bf49 da3d ebf9 a63d
00000030: 1542 523d cbe4 673e 01bd 9bbe e39d 873b
00000040: 6a1b 1e3c e827 39bd 6984 513d 3569 283e
00000050: 87ad 81bd f05d 5fbd bec2 443e 517b 74bd
00000060: 95d9 dfbd 951b 66bd 5ce9 b13c 5d6b 59be
00000070: 1950 5ebc 36d4 d63d 6bcb 12bd f808 753d

unet_model.encoder.2.0.main.weight f4 [32, 32, 3, 3]
-0.0061574713 0.04272479 -0.008106884 0.021073604 1.0996392 0.011023716 0.008697309 0.020148534
-0.0119541 0.009394724 -0.008757993 0.012920039 0.031288177 -0.58504355 0.050442174 0.016446596
-0.10697919 0.0077092154 -0.00091312185 -0.038710255 -0.023639841 -0.028850336 -0.16954084 -0.036898475
0.010392043 -0.027712148 -0.016046014 -0.015875533 -0.010601172 -0.012934409 0.0050182994 -0.025405234
-0.008342744 -0.010734828 -0.015196258 -0.020383492 0.010668937 0.040766153 0.0059232865 -0.0061614835
-0.078626506 -0.0017064018 0.012858733 0.013726105 0.0075121266 -0.014107245 0.010291766 -0.007986093
-0.010255547 0.017128397 -0.0037121873 0.0005114064 -0.018316168 -0.006954842 -0.0060132286 -0.054803543
-0.038147338 0.017338054 0.20631352 0.060114656 0.002161078 -0.054930344 -0.045059297 -0.003953692
-0.042966165 0.0085711675 -0.056851488 -0.8005965 -0.029869186 0.002937391 -0.05550469 -0.010982553
-0.012167568 -0.018721089 -0.019699078 -0.00698486 -0.058370076 -0.035101738 -0.0037124455 -0.024994934
-0.0015082456 0.018853346 -0.019729745 0.0060426244 -0.029851995 -0.10938769 -0.031060776 0.013173993
-0.0127006695 0.01584252 0.007077392 -0.03820709 0.0006931518 -0.017780252 -0.43438733 -0.057499982
-0.004461834 -0.039504956 0.008424373 0.011842756 0.030449785 0.010600124 0.06253386 0.2902585
0.03048627 -0.005344309 0.03535221 -0.025933424 -0.0024769567 -0.042284347 0.02277047 -0.030068606
-0.3903961 -0.008308003 -0.0015191619 -0.07280042 -0.0016910165 -0.0026982338 0.013767505 -0.018992115
0.006025774 0.058355946 0.007044799 -0.011806545 0.011063894 -0.008378193 0.0040108785 -0.019749576
0.0037619611 0.005370629 -0.03452209 -0.016196338 -0.00020020653 -0.016867818 -0.0023322892 0.012618117
0.013317885 -0.0044142953 -0.02180842 -0.013440154 -0.020950569 0.00167662 0.010444692 0.0032138657
-0.00030649322 -0.0002873119 -0.0044264286 0.010592144 0.049194645 -0.013292862 -0.0037763386 0.017292285
0.007704564 -0.0006907988 -0.035903215 -0.014821482 -0.020370035 -0.45427865 -0.020480638 -0.00961024
-0.023733642 -0.0030478658 0.025491249 -0.000995128 0.013601405 -0.006362429 0.63449156 -0.0034513427
0.015695136 0.024815544 0.0059559094 0.008387042 -0.0050797956 -0.0056830323 -0.009048773 -0.047073137
-0.022573702 -0.02363694 -0.022124715 -0.021337166 0.004392468 0.020773452 -0.006818783 -0.022336928
-0.03363771 0.009249314 -0.01751064 0.00043596508 -0.003263866 0.008125577 0.0011223126 -0.012676966
-0.005062932 -0.25569078 0.0147460215 -0.0031534364 -0.004354855 -0.0004273166 0.018646559 0.005040007
0.0017642684 0.041162 0.10668045 -0.005495751 0.029033933 0.018578522 0.0010453536 0.0036483556
-0.013998531 -0.013561563 -0.2723113 -0.25679737 -0.048653137 -0.0010523247 0.052436322 0.015193134
0.0089200605 0.021807 -0.0024602504 0.010891365 0.14038362 0.021202112 0.003576643 0.0161651
-0.011235097 -0.034877863 0.15910411 -0.009516602 0.007170793 0.5048073 0.012567703 0.019022811
0.011901468 -0.00872682 0.018879853 -0.01304194 -0.0020880913 0.033704124 0.18172356 0.03100478
0.0104318345 0.03217889 0.0032895259 -0.010963761 -0.007166361 0.018634493 -0.023657175 -0.22485931
-0.0115275085 0.0011395116 -0.018752763 0.006437776 -0.030641975 0.023899037 -0.016491123 0.011531217
00000000: 9dc4 c9bb 3000 2f3d bcd2 04bc 8da2 ac3c
00000010: fac0 8c3f d19c 343c 287f 0e3c 8a0e a53c
00000020: 21db 43bc 54ec 193c af7d 0fbc 92ae 533c
00000030: 0828 003d 6ac5 15bf 749c 4e3d 03bb 863c
00000040: e817 dbbd 969d fc3b 925e 6fba a58e 1ebd
00000050: 57a8 c1bc 8a57 ecbc 1d9c 2dbe db22 17bd
00000060: 6343 2a3c 9604 e3bc ee72 83bc 680d 82bc
00000070: 8ab0 2dbc d8ea 53bc 8c70 a43b a31e d0bc
00000080: 01b0 08bc 22e1 2fbc baf9 78bc 48fb a6bc
00000090: c4cc 2e3c 69fa 263d 2118 c23b 45e6 c9bb
000000a0: ef06 a1bd 58a9 dfba 6fad 523c 75e3 603c
000000b0: 4928 f63b 1322 67bc cc9e 283c 1ad8 02bc
000000c0: e206 28bc da50 8c3c 2b48 73bb e70f 063a
000000d0: ca0b 96bc 71e5 e3bb 9e0a c5bb ae79 60bd
000000e0: 6240 1cbd 8908 8e3c da43 533e c93a 763d
000000f0: dfa0 0d3b a4fe 60bd 1990 38bd f98d 81bb
00000100: 4afd 2fbd 156e 0c3c 1bdd 68bd e4f3 4cbf
00000110: 39b0 f4bc 3e81 403b e358 63bd 2af0 33bc
00000120: 7b5a 47bc f85c 99bc f65f a1bc 41e1 e4bb
00000130: 7615 6fbd d7c6 0fbd 804c 73bb 2dc2 ccbc
00000140: 53b0 c5ba 5572 9a3c 46a0 a1bc 3501 c63b
00000150: 2c8c f4bc a706 e0bd 2b73 febc bbd7 573c
00000160: 7816 50bc 2cc8 813c 78e9 e73b 0a7f 1cbd
00000170: a1b4 353a e4a7 91bc 0468 debe 1a85 6bbd
00000180: 9434 92bb f3cf 21bd 6206 0a3c 1e08 423c
00000190: d471 f93c 24ac 2d3c c111 803d c39c 943e
000001a0: 58be f93c 501f afbb 7bcd 103d 5572 d4bc
000001b0: 7054 22bb 5a32 2dbd 2389 ba3c 7052 f6bc
000001c0: ffe1 c7be 4a1e 08bc 9d1e c7ba 6318 95bd
000001d0: 19a5 ddba dad4 30bb 1a91 613c 5a95 9bbc
000001e0: db73 c53b a506 6f3d 0fd8 e63b 3d70 41bc
000001f0: 5645 353c b044 09bc b06d 833b ddc9 a1bc
00000200: 3c8b 763b 1afc af3b 0967 0dbd 2fae 84bc
00000210: 88ee 51b9 612e 8abc 52d9 18bb 38bc 4e3c
00000220: 4233 5a3c cba5 90bb 92a7 b2bc 1734 5cbc
00000230: 87a0 abbc 08c2 db3a 3720 2b3c b89f 523b
00000240: d3b0 a0b9 5aa2 96b9 930b 91bb ac8a 2d3c
00000250: 5380 493d 4eca 59bc 737c 77bb 8da8 8d3c
00000260: 9176 fc3b b916 35ba 400f 13bd cdd5 72bc
00000270: 0fdf a6bc 3697 e8be 03c7 a7bc 4574 1dbc
00000280: 0e6d c2bc b4be 47bb 06d3 d03c f46e 82ba
00000290: 6dd8 5e3c ec7b d0bb 0a6e 223f ec2f 62bb
000002a0: 1693 803c f849 cb3c ca29 c33b ce69 093c
000002b0: 6a74 a6bb bb38 babb 4e41 14bc c3cf 40bd
000002c0: 7cec b8bc 42a2 c1bc e43e b5bc 48cb aebc
000002d0: b1ee 8f3b 162d aa3c 1970 dfbb effb b6bc
000002e0: b2c7 09bd 6f8a 173c 7972 8fbc 3e92 e439
000002f0: 96e6 55bb 2421 053c 901a 933a 0db3 4fbc
00000300: f4e6 a5bb e7e9 82be 4c99 713c e2a9 4ebb
00000310: 2cb3 8ebb 7709 e0b9 abc0 983c a526 a53b
00000320: 063f e73a 7c99 283d 487b da3d b315 b4bb
00000330: 92d8 ed3c fc31 983c 3f04 893a 4019 6f3b
00000340: 185a 65bc 5131 5ebc 636c 8bbe f27a 83be
00000350: 8348 47bd 28ee 89ba 78c7 563d 9fec 783c
00000360: 7225 123c 98a4 b23c 273c 21bb b271 323c
00000370: b9c0 0f3e 0db0 ad3c 1d66 6a3b ac6c 843c
00000380: 6a13 38bc 17dc 0ebd 30ec 223e 86eb 1bbc
00000390: f9f8 ea3b 0d3b 013f c4e8 4d3c bad5 9b3c
000003a0: 60fe 423c f0fa 0ebc eca9 9a3c dcad 55bc
000003b0: 5cd8 08bb 560d 0a3d be15 3a3e bdfd fd3c
000003c0: 49ea 2a3c 03ce 033d 1695 573b 59a1 33bc
000003d0: cbd3 eabb 5da7 983c b1cc c1bc 8541 66be
000003e0: e0dd 3cbc aa5b 953a 659f 99bc fbf3 d23b
000003f0: e104 fbbc eac7 c33c 6418 87bc 6eed 3c3c

unet_model.encoder.2.0.main.bias f4 [32]
0.09607298 0.038622726 0.079280056 0.26843464 -0.045464214 -0.019468263 0.14452854 -0.061819024
0.07256791 -0.029505571 -0.06531552 0.010337372 -0.0017034023 -0.012057844 -0.0020473544 0.4107835
0.081738345 -0.08436678 -0.027016928 0.04406536 -0.28348646 -0.00024191507 0.07047807 0.29205096
-0.11318992 -0.15534322 -0.06375569 0.015574625 0.0087219775 0.120054826 0.2508997 0.22869605
00000000: e9c1 c43d dd32 1e3d 955d a23d 4470 893e
00000010: af38 3abd e87b 9fbc 4aff 133e f235 7dbd
00000020: 7c9e 943d abb5 f1bc 25c4 85bd 155e 293c
00000030: b244 dfba 438e 45bc e82c 06bb 3752 d23e
00000040: 6f66 a73d 7ec8 acbd 9b52 ddbc e17d 343d
00000050: 2325 91be 95aa 7db9 ce56 903d b487 953e
00000060: 1ed0 e7bd 4b12 1fbe 5892 82bd b62c 7f3c
00000070: a0e6 0e3c 4edf f53d ed75 803e 4c2f 6a3e

unet_model.decoder.0.0.main.weight f4 [32, 32, 3, 3]
0.0014382224 -0.0030410101 -0.011373621 -0.009551744 -0.001266509 -0.009694446 -0.0012472982 -0.001394886
-0.014628931 0.012530075 0.004833869 0.024363324 0.015736725 -0.0148889385 0.033793014 0.0008766872
0.0123705845 0.012996607 0.0059766583 0.006385844 0.002935654 0.0063647716 -0.012213105 -0.0071289977
-0.0057737413 0.006536029 -0.006919349 -0.04422443 0.00039634205 -0.0046620416 -0.007174563 0.0027181157
0.008031527 0.015267609 0.042481657 0.032229766 -0.03289104 0.02641564 -0.054131463 -0.018499272
-0.06808535 -0.07068489 0.019084381 0.0070910035 -0.06334811 -0.011775324 -0.009561443 -0.023841843
0.009317766 -0.006707805 -0.03220162 -0.0077825924 -0.018245831 -0.033800926 -0.1052052 -0.006010418
0.17672127 0.051809877 0.074220575 -0.12900567 -0.025930185 0.014897042 0.061508194 -0.0070785685
-0.004885132 -0.022436954 -0.010675727 -0.0013777325 -0.02436315 0.005256058 0.0011403392 -0.04349972
0.008512062 0.016038138 0.0024666423 -0.0072234753 0.0051654107 -0.0077344705 0.0012034797 0.010920041
-0.0018622276 0.005447887 0.007965618 -0.021895893 -0.013428525 0.0022545457 -0.02808472 0.0020453357
0.0015814018 -0.04495768 0.00605773 -0.0011640526 -0.0059758546 -0.013210434 -0.0054595913 0.011309264
0.003214081 -0.008971173 -0.005179177 -0.00028573748 -0.010662635 -0.032123506 -0.0011608234 0.002168043
-0.02092291 -0.00018177742 -0.00810577 -0.055710375 0.016365971 0.006272941 -0.00079895824 0.002409582
-0.01469505 -0.029094072 0.0017271906 0.0005409101 -0.005984287 0.008561398 0.0042810705 0.018510282
0.0028630213 0.008727986 0.0069894027 0.008295682 0.0022902275 0.009381042 -0.007891018 -0.0759122
0.0058113695 0.0018239048 -0.060986705 0.047334883 -0.0043709674 -0.019804517 0.08343046 -0.0034575474
0.0034264675 0.06842643 -0.023098234 0.017074479 0.07360261 0.01445075 0.0478591 0.051950544
-0.003833332 -0.0054049524 -0.002674388 0.00059622456 -0.0039968947 0.005640101 -0.008469867 0.0063854437
-0.006661028 -0.0010359159 -0.007824496 -0.0071298745 -0.013465815 -0.021937953 -0.0057692723 0.009187187
0.0009155697 0.030304683 0.0024558415 -0.00072399224 -0.0019213133 -0.00038895794 0.018163335 -0.015730042
-0.0035305338 0.008297229 -0.015756592 -0.014863337 0.0012224005 -0.009318287 -0.008255266 0.0153436335
0.031070843 0.0015243863 0.002408757 -0.019137342 -0.014517228 0.0034511364 0.03330773 -0.009118579
0.008595081 0.049703322 0.00493252 -0.00828928 0.054534454 0.011933621 -0.0010181976 -0.029824339
-0.003934438 -0.0024060754 -0.024879683 -0.003325294 0.004591313 -0.025883824 0.016700022 0.00035414763
-0.009819614 -0.0022061646 -0.011014258 -0.0211143 -0.0035301289 0.012567811 -0.010167075 0.033077966
-0.030296821 0.010183123 -0.0045054248 -0.02165549 -0.014498585 -0.009629495 -0.0023935142 0.020287454
0.0128146615 -0.014123056 0.027498689 -0.010066951 -0.022298498 -0.014706717 -0.01105845 -0.0034181501
-0.006687559 -0.003045355 -0.0028785048 0.004756586 -0.016418302 -0.0030127484 0.00833955 -0.016188316
0.006600484 0.0025307334 -0.0039431714 -0.002596116 1.9759033e-05 -0.0019044814 0.0034485832 0.003043949
0.0067082653 -0.010477362 0.008832913 0.020801807 -0.033859473 -0.026843514 0.016316073 0.01701379
0.019377166 0.0031831076 -0.04189813 0.009292062 -0.00094023976 -0.0019904508 0.009348082 0.013452953
00000000: bc82 bc3a af4b 47bb 6d58 3abc eb7e 1cbc
00000010: fd00 a6ba 74d5 1ebc 627c a3ba 9cd4 b6ba
00000020: 2fae 6fbc f24a 4d3c 6f65 9e3b 9895 c73c
00000030: 4eea 803c bcf0 73bc 8b6a 0a3d 7bd1 653a
00000040: fead 4a3c b9ef 543c d8d7 c33b 5840 d13b
00000050: 1a64 403b 938f d03b 7a19 48bc 5e9a e9bb
00000060: a731 bdbb 2f2c d63b b5bb e2bb ad24 35bd
00000070: 21cc cf39 0ac4 98bb 9918 ebbb 6a22 323b
00000080: aa96 033c fe24 7a3c 3f01 2e3d 5c03 043d
00000090: c1b8 06bd 9d65 d83c f4b8 5dbd c98b 97bc
000000a0: 5570 8bbd 3dc3 90bd d956 9c3c a65b e83b
000000b0: a7bc 81bd 4aed 40bc 99a7 1cbc f84f c3bc
000000c0: 8ba9 183c 26cd dbbb d9e5 03bd 1e05 ffbb
000000d0: 4878 95bc d772 0abd d375 d7bd 0af3 c4bb
000000e0: 6cf6 343e 9836 543d f500 983d 101a 04be
000000f0: 8a6b d4bc b912 743c 04f0 7b3d 56f3 e7bb
00000100: 7513 a0bb b4cd b7bc 3fe9 2ebc 0895 b4ba
00000110: 3b95 c7bc 033b ac3b 6f77 953a c32c 32bd
00000120: 2d76 0b3c 6a62 833c 64a7 213b e7b2 ecbb
00000130: 9b42 a93b 7171 fdbb 14be 9d3a f9e9 323c
00000140: fd15 f4ba 3084 b23b 3982 023c 045f b3bc
00000150: 5103 5cbc 00c1 133b ed11 e6bc 0a0b 063b
00000160: 0a47 cf3a 8b25 38bd ec7f c63b 2093 98ba
00000170: 1ad1 c3bb 9370 58bc 5fe6 b2bb 7e4a 393c
00000180: 55a3 523b d4fb 12bc 16b6 a9bb 09cf 95b9
00000190: 55b2 2ebc f093 03bd c526 98ba ba15 0e3b
000001a0: 8666 abbc 819b 3eb9 10ce 04bc 9030 64bd
000001b0: ee11 863c 3e8d cd3b 2e71 51ba 14ea 1d3b
000001c0: 82c3 70bc b156 eebc e662 e23a ddcb 0d3a
000001d0: d617 c4bb 1b45 0c3c 3948 8c3b e0a2 973c
000001e0: 87a1 3b3b d4ff 0e3c 5c07 e53b 9dea 073c
000001f0: a417 163b f1b2 193c 5449 01bc db77 9bbd
00000200: 4d6d be3b 1710 ef3a 32cd 79bd 39e2 413d
00000210: 553a 8fbb 153d a2bc 97dd aa3d 0598 62bb
00000220: 968e 603b 2823 8c3d 8238 bdbc c7df 8b3c
00000230: f7bc 963d d7c2 6c3c e707 443d 18ca 543d
00000240: a438 7bbb 071c b1bb c944 2fbb f44b 1c3a
00000250: 62f8 82bb 99d0 b83b 32c5 0abc fc3c d13b
00000260: c144 dabb 92c7 87ba 5132 00bc b9a1 e9bb
00000270: b99f 5cbc 39b7 b3bc 2a0c bdbb db85 163c
00000280: d802 703a 8741 f83c 2ff2 203b 4cca 3dba
00000290: 94d4 fbba 0ded cbb9 46cb 943c 4adc 80bc
000002a0: 8760 67bb 1af1 073c f813 81bc 5b85 73bc
000002b0: f438 a03a baab 18bc 1841 07bc dd63 7b3c
000002c0: 4888 fe3c ebcd c73a 3ddc 1d3b eac5 9cbc
000002d0: abd9 6dbc 762c 623b b06d 083d 1866 15bc
000002e0: 62d2 0c3c b695 4b3d faa0 a13b c3cf 07bc
000002f0: 855f 5f3d 3c85 433c 0b75 85ba 2c52 f4bc
00000300: 75ec 80bb 3faf 1dbb 7ad0 cbbc 2ded 59bb
00000310: ba72 963b 500a d4bc 7cce 883c e4ac b939
00000320: 72e2 20bc 4d95 10bb 2575 34bc e5f7 acbc
00000330: bc59 67bb 38e9 4d3c ce93 26bc c37c 073d
00000340: 0a31 f8bc 1dd7 263c 3ea2 93bb db66 b1bc
00000350: 798b 6dbc 08c5 1dbc 81dc 1cbb e031 a63c
00000360: 96f4 513c 6464 67bc ee44 e13c daef 24bc
00000370: 57ab b6bc 71f4 70bc 802e 35bc 0b03 60bb
00000380: 5023 dbbb 9494 47bb 4ca5 3cbb 23dd 9b3b
00000390: ad7f 86bc 8871 45bb 9ca2 083c 5c9d 84bc
000003a0: df48 d83b a9da 253b b835 81bb 9923 2abb
000003b0: 33c0 a537 cb9f f9ba a001 623b fd7c 473b
000003c0: 02d1 db3b 3ea9 2bbc ecb7 103c 8d68 aa3c
000003d0: 3bb0 0abd eee6 dbbc 49a9 853c 8160 8b3c
000003e0: ddbc 9e3c af9b 503b 609d 2bbd bc3d 183c
000003f0: 6c7a 76ba 3972 02bb b328 193c c669 5c3c

unet_model.decoder.0.0.main.bias f4 [32]
0.05417358 0.31715602 -0.015989468 -0.11967335 -0.0069067455 -0.39914504 0.34581673 0.015072974
0.042071767 -0.13944708 -0.11724079 -0.17055032 -0.14373043 -0.043481894 -0.27185246 -0.09218714
-0.15571767 -0.020797363 -0.3216129 0.07639822 -0.16776301 0.10329747 0.06519711 -0.033903092
-0.46466318 0.04052069 -0.22083597 -0.07145193 -0.089999884 -0.0040923343 0.12092531 0.06553004
00000000: 1ee5 5d3d 4662 a23e 58fc 82bc 4d17 f5bd
00000010: fb51 e2bb bd5c ccbe e40e b13e a3f4 763c
00000020: 7253 2c3d 37cb 0ebe f01b f0bd bea4 2ebe
00000030: 122e 13be 121a 32bd 3f30 8bbe 9ccc bcbd
00000040: 7474 1fbe 3b5f aabc 72aa a4be ac76 9c3d
00000050: 11ca 2bbe a08d d33d 1086 853d f8dd 0abd
00000060: 55e8 edbe 06f9 253d d322 62be 6455 92bd
00000070: dc51 b8bd fd18 86bb b0a7 f73d 9d34 863d

unet_model.decoder.1.0.main.weight f4 [32, 64, 3, 3]
0.0556488 0.00863487 -0.023519877 0.11458392 0.03208834 -0.10141593 -0.098434396 -0.05190737
0.031674504 -0.0059057884 0.014421887 -0.011465266 -0.03999598 0.019216256 -0.0051477905 -0.006572541
0.022097932 0.037663788 0.0083763935 0.040206566 0.052407432 -0.02503767 0.02824918 0.058691043
0.011758585 -0.003324718 -0.00551216 0.042206418 0.0078418 -0.07914156 -0.03927022 -0.009220952
-0.072343566 0.048131764 -0.0009634002 -0.122918405 0.06596356 -0.03531463 -0.009958893 0.059994392
-0.034901287 -0.040140938 0.11373223 0.032457653 -0.04200089 -0.0051129647 -0.0077337464 0.022658288
0.0041081305 0.0069945185 0.015461772 -0.032552905 0.009954542 -0.031263802 -0.056780145 0.01678783
-0.03008122 -0.02154892 0.08973832 -0.0064351796 -0.00077301456 -0.0037845143 -0.03257894 0.010483145
-0.042743195 0.018267749 0.018281441 -0.0044298205 -0.024904862 0.007436305 -0.00014324335 0.014279248
0.032864954 0.007136729 0.012996697 -0.0062488485 -0.0011694658 0.003289391 0.014934002 -0.008070671
0.009289748 -0.006022869 -0.004490111 -0.0119925495 0.0064452807 -0.039570816 0.008757661 0.0017274793
0.0069745206 -0.02948838 -0.011332284 -0.010653642 0.0073639327 0.028297704 -0.008370664 0.010718323
0.056823406 0.022343831 0.0033249583 0.033272363 0.011877367 0.03723062 0.026475707 -0.021480821
-0.01863824 -0.0816414 0.039752252 0.0059829825 0.054967646 -0.017799126 0.02583395 -0.011015002
0.0088532185 -0.06149358 -0.031967822 0.048717458 -0.014888423 -0.09035125 -0.095272146 -0.059265196
-0.027003352 0.043742307 0.0076445676 -0.09426543 -0.04076655 0.02947259 0.032750495 -0.033428807
0.036806714 -0.011700935 -0.04132386 -0.0077735796 -0.016156182 -0.04034454 -0.021658495 -0.08074508
0.005556616 -0.06580416 0.039764248 0.090525895 0.0035732805 -0.09635612 -0.02362147 -0.059043836
-0.02454279 -0.019248089 -0.02301605 0.047345836 0.042733278 0.017816918 0.045283362 -0.07405212
-0.05708809 0.017893264 -0.02925008 0.01634544 -0.010067928 0.003053017 -0.016158726 0.021469628
-0.015508637 0.020563403 0.02799413 0.014866084 -0.033599395 0.015174669 -0.01259536 0.001332083
-0.0021620095 -0.0006330834 -0.0379729 -0.14301652 0.07899798 0.26109874 -0.09800081 0.13124476
0.2786299 -0.14798318 0.1469429 0.2887102 -0.03969445 0.01750838 -0.07551499 0.083322294
0.060457624 -0.06515504 -0.02423448 0.013467583 0.066000186 0.04721962 0.032943174 0.015053542
-0.041209593 0.035328705 0.06611888 -0.07116859 0.02557338 0.035684742 0.09571306 -0.076906905
0.034504663 0.1215941 -0.045212734 -0.002016998 0.12550974 -0.097074516 0.0546511 -0.021327266
0.0036962319 0.08334166 0.020143783 -0.0011788291 0.057129744 -0.028975256 0.028208973 0.06493679
0.030244468 -0.0019464723 -0.041535903 0.007444097 0.040031005 0.012234224 0.06062445 0.02783801
-0.0155645525 -0.036579978 0.04254833 -0.09137535 -0.025375064 0.017365148 -0.026619978 0.007482745
0.065342516 -0.058445677 0.002507022 0.061351504 -0.015235015 -0.02831628 0.025620056 -0.0027885258
-0.03893553 -0.01782829 -0.003382349 -0.012588125 -0.0028861822 0.023020934 -0.060527846 0.021582583
0.013963607 -0.09667476 0.024756482 0.020950412 0.086025015 -0.009282358 -0.05789498 0.061011758
00000000: ffef 633d 4579 0d3c c2ac c0bc f9aa ea3d
00000010: 106f 033d 28b3 cfbd f997 c9bd d39c 54bd
00000020: 20bd 013d 5885 c1bb c749 6c3c d0d8 3bbc
00000030: d3d2 23bd 696b 9d3c ccae a8bb 785e d7bb
00000040: b906 b53c 5845 1a3d 243d 093c a4af 243d
00000050: 2da9 563d cd1b cdbc d36a e73c 0566 703d
00000060: 15a7 403c 83e3 59bb 599f b4bb a3e0 2c3d
00000070: e57a 003c f814 a2bd cfd9 20bd 7a13 17bc
00000080: dd28 94bd d025 453d b18c 7cba a5bc fbbd
00000090: e717 873d 13a6 10bd a02a 23bc aebc 753d
000000a0: a7f4 0ebd d36a 24bd 72ec e83d 51f2 043d
000000b0: 2009 2cbd a88a a7bb 5e6b fdbb e09d b93c
000000c0: 7f9d 863b 4632 e53b 5f53 7d3c 3256 05bd
000000d0: 6018 233c 790e 00bd 4c92 68bd a286 893c
000000e0: e46c f6bc 5c87 b0bc b9c8 b73d 33de d2bb
000000f0: 21a4 4aba 9d05 78bb 7f71 05bd 7fc1 2b3c
00000100: 7d13 2fbd 3fa6 953c f6c2 953c 0728 91bb
00000110: 4805 ccbc 3fac f33b 9833 16b9 82f3 693c
00000120: 679d 063d 39db e93b 19f0 543c 24c3 ccbb
00000130: c348 99ba d392 573b bfad 743c d93a 04bc
00000140: 0734 183c 7d5b c5bb c821 93bb 667c 44bc
00000150: ef32 d33b 0215 22bd 4b7c 0f3c 966c e23a
00000160: 858a e43b 9d91 f1bc 0bab 39bc 9d8c 2ebc
00000170: 254d f13b 96d0 e73c 1c25 09bc e89b 2f3c
00000180: a9bf 683d 690a b73c 8be7 593b 9a48 083d
00000190: 4a99 423c 227f 183d 95e3 d83c 8cf8 afbc
000001a0: 39af 98bc 9b33 a7bd 42d3 223d e50c c43b
000001b0: c125 613d 79cf 91bc b8a1 d33c 4478 34bc
000001c0: 170d 113c b1e0 7bbd b1f0 02bd f58b 473d
000001d0: 92ee 73bc 130a b9bd 0b1e c3bd 10c0 72bd
000001e0: 2236 ddbc 222b 333d 487f fa3b 3c0e c1bd
000001f0: d3fa 26bd 8070 f13c 6225 063d a5ec 08bd
00000200: a3c2 163d 47b5 3fbc 3543 29bd 83b9 febb
00000210: f859 84bc 5140 25bd 286d b1bc ad5d a5bd
00000220: 4614 b63b 55c4 86bd d6df 223d a465 b93d
00000230: b32d 6a3b 5c56 c5bd d081 c1bc f3d7 71bd
00000240: f60d c9bc 2bae 9dbc 288c bcbc b5ed 413d
00000250: 1709 2f3d c9f4 913c 0c7b 393d a3a8 97bd
00000260: 33d5 69bd e594 923c dd9d efbc dfe6 853c
00000270: f3f3 24bc 2015 483b 4e5f 84bc 13e1 af3c
00000280: f017 7ebc 9574 a83c f253 e53c e090 733c
00000290: 859f 09bd 2d9f 783c c55c 4ebc 4a99 ae3a
000002a0: 80b0 0dbb 82f5 25ba 7989 1bbd ec72 12be
000002b0: b1c9 a13d bcae 853e a6b4 c8bd 0765 063e
000002c0: 94a8 8e3e e788 17be 3378 163e d3d1 933e
000002d0: a696 22bd bc6d 8f3c 9aa7 9abd e1a4 aa3d
000002e0: 6aa2 773d 0170 85bd 6387 c6bc 23a7 5c3c
000002f0: 1b2b 873d 5c69 413d 6cef 063d 22a3 763c
00000300: 64cb 28bd d5b4 103d 5669 873d d6c0 91bd
00000310: 447f d13c 2a2a 123d 3505 c43d 5e81 9dbd
00000320: c354 0d3d 5406 f93d fd30 39bd 9c2f 04bb
00000330: a085 003e 01cf c6bd d5d9 5f3d 85b6 aebc
00000340: 7b3c 723b 08af aa3d 9304 a53c f182 9aba
00000350: e100 6a3d 845d edbc 8116 e73c 94fd 843d
00000360: 3fc3 f73c c620 ffba 8d21 2abd 9ded f33b
00000370: 8df7 233d 0e72 483c 5851 783d 8a0c e43c
00000380: 7702 7fbc e3d4 15bd 2847 2e3d 0023 bbbd
00000390: 5edf cfbc 5b41 8e3c 2412 dabc d131 f53b
000003a0: 4cd2 853d bc64 6fbd da4c 243b b74b 7b3d
000003b0: 499c 79bc 8bf7 e7bc 27e1 d13c b3bf 36bb
000003c0: dd7a 1fbd a20c 92bc 66aa 5dbb 6c3e 4ebc
000003d0: 1a26 3dbb 6696 bc3c 0cec 77bd f5cd b03c
000003e0: 9dc7 643c 6bfd c5bd 1bce ca3c 33a0 ab3c
000003f0: e22d b03d 0815 18bc 4923 6dbd 77e7 793d

unet_model.decoder.1.0.main.bias f4 [32]
0.016342808 0.036814816 0.09108404 0.079452 -0.17343566 -0.06192955 -0.006540544 -0.09768892
0.08449352 -0.039069183 -0.13739334 0.10374244 -0.16413048 0.024894468 -0.08734876 0.11258085
-0.16691653 0.008962426 0.030938476 0.034395542 -0.3806966 0.029591268 -0.010987127 -0.18271847
-0.13253035 0.07440806 -0.17934068 0.14751391 -0.1925236 -0.09913508 -0.10191047 -0.24325308
00000000: 5ae1 853c 22cb 163d 458a ba3d bbb7 a23d
00000010: 1e99 31be d7a9 7dbd 0f52 d6bb 2111 c8bd
00000020: f00a ad3d 0207 20bd d7b0 0cbe eb76 d43d
00000030: d211 28be 7cef cb3c e8e3 b2bd ca90 e63d
00000040: 2bec 2abe 24d7 123c b072 fd3c 57e2 0c3d
00000050: aaea c2be 6369 f23c 5a03 34bc 8d1a 3bbe
00000060: 09b6 07be 4163 983d 15a5 37be e30d 173e
00000070: e824 45be 5507 cbbd 70b6 d0bd 5617 79be

unet_model.decoder.2.0.main.weight f4 [32, 64, 3, 3]
-0.09958509 -0.09168533 -0.023390528 0.0079717785 0.0747795 0.12800053 -0.035264444 -0.014760191
0.037620924 0.03354027 0.1253566 0.04522434 0.15713432 0.28561908 0.17322692 0.048242897
0.24331738 0.07861784 -0.023456015 0.031126412 0.03498687 0.029472886 0.06573949 0.0693507
-0.011874741 0.015895782 0.025838131 0.010512734 0.008495291 0.00074717775 0.0047759474 -0.07755263
0.0008745347 0.021153621 0.018366795 0.0041533355 0.09971323 0.12967895 0.015881062 -0.0054250117
-0.02090768 -0.12439521 -0.0032764613 -0.08420352 -0.06438227 -0.02466344 0.046918076 0.010263029
0.020210998 0.002669703 -0.033158913 0.005451428 0.018197505 -0.012379067 -0.04056088 -0.14739265
-0.015600255 -0.17944077 -0.31213057 -0.1122574 -0.010056576 -0.15328081 -0.009700479 -0.005010144
-0.11340153 -0.05830615 -0.054496996 -0.28357095 -0.14843285 0.013647751 -0.11590865 -0.026245847
0.10909355 0.08701147 0.028553478 0.0450114 0.06090514 0.012067893 0.001725293 -0.071574956
-0.023425689 0.20270994 0.14109652 0.13333473 0.038843967 0.0508441 0.024454946 -0.040882178
0.004704311 -0.065209836 0.007789354 0.0257454 0.09462531 -0.17418247 -0.1580689 0.059474647
-0.14457041 -0.1454292 0.046280842 -0.08784181 -0.2989885 -0.111866534 -0.13830283 -0.38974196
-0.17988187 0.04538421 -0.03226101 0.024402004 -0.02712573 -0.1133328 -0.05281778 -0.1095381
-0.2421581 -0.16791663 0.0007834338 -0.12800145 -0.046358634 0.035605006 0.079518236 0.0103224795
0.15034415 0.25984547 0.12213611 0.04023123 0.15458535 0.04025732 0.055050228 -0.036456358
-0.030395199 -0.08433737 -0.048051156 0.02555776 -0.07410309 -0.030298421 -0.009303557 0.11952051
0.052641027 -0.049753774 0.1268966 -0.1431304 -0.2879472 0.061918914 -0.18639484 -0.25096047
-0.032824695 -0.07557055 -0.008403769 -0.04984275 -0.077063836 -0.0055836784 -0.004579404 -0.040062286
-0.0016018816 0.03894327 0.024956482 0.01684082 0.0569707 0.03220194 0.042512696 0.05531481
-0.011210975 -0.004927271 -0.16221033 -0.21208544 -0.21484807 0.07449809 0.023356274 0.08547183
0.07756882 0.044371564 0.023466084 -0.015729457 0.025280759 0.03555637 0.0027062807 0.03745704
0.048371866 0.004448689 0.040626712 -0.010545511 0.067349106 0.029475488 -0.006043128 0.047025964
0.032409947 -0.050269112 0.01479613 -0.08303296 -0.10376339 -0.01389773 -0.018314254 -0.018839348
-0.03188058 -0.042185675 0.017752687 0.020199014 0.04244636 0.04626199 -0.038102917 0.03946586
0.11534943 -0.28692412 -0.21295668 0.12502827 -0.20442934 -0.25709945 0.0845429 0.029469598
-0.018879246 0.011083522 -0.0073628086 -0.20434067 -0.06778713 -0.02006462 -0.10929441 -0.026309973
-0.009044758 0.026833406 0.021818837 0.03834896 0.1200426 0.10236654 -0.04821743 0.04630781
0.026771 -0.07992824 -0.05673857 0.029147705 -0.06861351 0.019510979 0.08016138 -0.023380846
-0.0059557515 0.08657057 0.025134705 0.05136482 0.021340003 0.033184875 0.09429379 0.03883989
0.0077704825 0.04791104 0.006032839 0.009575941 0.007734213 0.014588293 -0.019324593 -0.069497444
0.020482346 -0.012208909 0.0037798448 0.0045964387 0.050246805 0.16787283 0.053950604 0.11500589
00000000: 45f3 cbbd 85c5 bbbd 7e9d bfbc 109c 023c
00000010: ff25 993d 9212 033e 7371 10bd bad4 71bc
00000020: 6618 1a3d 8661 093d 7b5d 003e 283d 393d
00000030: d2e7 203e aa3c 923e 6662 313e 589a 453d
00000040: 3128 793e 6402 a13d d426 c0bc d1fc fe3c
00000050: 644e 0f3d 1f71 f13c 6da2 863d bd07 8e3d
00000060: 468e 42bc df37 823c 7daa d33c 9a3d 2c3c
00000070: d52f 0b3c 40de 433a 8d7f 9c3b ead3 9ebd
00000080: 0841 653a 5c4a ad3c f675 963c b418 883b
00000090: 7336 cc3d 8fca 043e 0019 823c 4cc4 b1bb
000000a0: 9546 abbc eac2 febd e6b9 56bb e572 acbd
000000b0: dada 83bd fc0a cabc 2b2d 403d 4326 283c
000000c0: 8991 a53c 2ff6 2e3b a4d1 07bd e4a1 b23b
000000d0: ef12 953c 92d1 4abc 2a23 26bd 19ee 16be
000000e0: 3698 7fbc 52bf 37be 94cf 9fbe 35e7 e5bd
000000f0: 56c4 24bc a5f5 1cbe c2ee 1ebc 222c a4bb
00000100: 103f e8bd 6ed2 6ebd 3e38 5fbd 3630 91be
00000110: c8fe 17be d19a 5f3c 8461 edbd 8801 d7bc
00000120: 706c df3d 1233 b23d fce8 e93c e05d 383d
00000130: ab77 793d 69b8 453c 3a23 e23a e495 92bd
00000140: 3be7 bfbc 3293 4f3e 9b7b 103e e688 083e
00000150: da1a 1f3d e741 503d bd55 c83c 1274 27bd
00000160: 9f26 9a3b bc8c 85bd d63d ff3b 04e8 d23c
00000170: eaca c13d e45c 32be d0dc 21be b09b 733d
00000180: 440a 14be 64eb 14be fb90 3d3d 68e6 b3bd
00000190: 0515 99be 481a e5bd 429f 0dbe 428c c7be
000001a0: f432 38be cbe4 393d 1f24 04bd b6e6 c73c
000001b0: c736 debc 071b e8bd 7557 58bd 8355 e0bd
000001c0: 4bf8 77be 56f2 2bbe 5a5f 4d3a d012 03be
000001d0: 8de2 3dbd 8ed6 113d 75da a23d 9e1f 293c
000001e0: d1f3 193e 770a 853e 7f22 fa3d 81c9 243d
000001f0: 9f4b 1e3e dce4 243d 597c 613d 4353 15bd
00000200: 5aff f8bc 12b9 acbd 4ad1 44bd 825e d13c
00000210: 5cc3 97bd 6534 f8bc f26d 18bc 2bc7 f43d
00000220: 1e9e 573d 9dca 4bbd 2ff1 013e c790 12be
00000230: d16d 93be b09e 7d3d 4ade 3ebe e47d 80be
00000240: 3073 06bd bcc4 9abd f6af 09bc e927 4cbd
00000250: a5d3 9dbd 4af7 b6bb d30e 96bb 5a18 24bd
00000260: 3af6 d1ba fa82 1f3d 8971 cc3c c2f5 893c
00000270: 1c5a 693d 2ee6 033d cb21 2e3d c891 623d
00000280: 3dae 37bc f274 a1bb 771a 26be ed2c 59be
00000290: 2201 5cbe 7492 983d a855 bf3c db0b af3d
000002a0: 67dc 9e3d f5be 353d f23b c03c 10db 80bc
000002b0: 9819 cf3c 8ea3 113d db5b 313b 8e6c 193d
000002c0: 9421 463d 4fc6 913b 3268 263d 14c7 2cbc
000002d0: 54ee 893d 9476 f13c 6f05 c6bb 4c9e 403d
000002e0: 4bc0 043d fce6 4dbd 786b 723c 2f0d aabd
000002f0: e681 d4bd 4eb3 63bc c607 96bc fa54 9abc
00000300: 3695 02bd e3ca 2cbd 156e 913c 6778 a53c
00000310: 3cdc 2d3d 367d 3d3d ce11 1cbd f4a6 213d
00000320: 523c ec3d b8e7 92be 5111 5abe 6907 003e
00000330: ed55 51be 8aa2 83be d424 ad3d 3a6a f13c
00000340: a6a8 9abc a997 353c b743 f1bb ae3e 51be
00000350: fbd3 8abd 8f5e a4bc bfd5 dfbd 0388 d7bc
00000360: 7730 14bc bbd1 db3c 6bbd b23c cd13 1d3d
00000370: e5d8 f53d 8ca5 d13d a47f 45bd 42ad 3d3d
00000380: db4e db3c 6bb1 a3bd b466 68bd 2bc7 ee3c
00000390: 3d85 8cbd 7dd5 9f3c a62b a43d 3089 bfbc
000003a0: 7728 c3bb e94b b13d 4ce7 cd3c eb63 523d
000003b0: 3bd1 ae3c ddec 073d 1a1d c13d 9416 1f3d
000003c0: 889f fe3b 5e3e 443d 1faf c53b 68e4 1c3c
000003d0: 486f fd3b bc03 6f3c 9c4e 9ebc ad54 8ebd
000003e0: 98ca a73c e007 48bc 46b7 773b b99d 963b
000003f0: 98cf 4d3d dbe6 2b3e 4ffb 5c3d 3588 eb3d

unet_model.decoder.2.0.main.bias f4 [32]
0.2385268 -0.17912503 0.040948693 0.13555327 -0.07857614 0.004644911 0.12091101 -0.053551853
0.14734651 0.13515007 0.117039695 0.072574764 0.1676223 0.055886243 0.06233457 -0.04408469
0.032475855 0.12550938 -0.15069896 0.24763198 0.024623657 0.039503753 -0.017135253 -0.01795861
0.09364983 0.03030875 -0.01646149 -0.25551435 -0.0070711193 0.10250292 0.026127987 0.13417912
00000000: 5f40 743e 8d6c 37be d1b9 273d 7ace 0a3e
00000010: 87ec a0bd 5634 983b 31a0 f73d 3059 5bbd
00000020: 01e2 163e c864 0a3e 82b2 ef3d 14a2 943d
00000030: 2ea5 2b3e f9e8 643d 8952 7f3d 2692 34bd
00000040: 6705 053d 8885 003e d450 1abe 3d93 7d3e
00000050: 8db7 c93c b0ce 213d 3b5f 8cbc ef1d 93bc
00000060: 7bcb bf3d 0e4a f83c 3fda 86bc c7d2 82be
00000070: d9b4 e7bb 0ded d13d 5c0a d63c 4066 093e

unet_model.remaining.0.main.weight f4 [32, 64, 3, 3]
-0.030905327 -0.09988693 -0.060644623 0.011540365 0.057148598 0.10175601 0.10810816 0.09837343
-0.043535776 -0.07649678 0.06929568 0.0010076836 -0.072431244 0.21328574 -0.12880929 -0.104004115
-0.035754602 0.03885128 0.13282098 -0.09465464 -0.1473064 0.0040069995 -0.058994494 0.020423984
0.033519648 0.032849588 0.14514238 -0.35060087 0.15279575 -0.33622244 -0.05334719 0.4308965
0.09641158 -0.10534049 -0.14067169 -0.15200913 0.05611011 0.05551193 0.08449145 -0.0063140267
0.063555084 -0.015887953 0.068618596 0.021119522 0.11928634 0.04835685 0.17408389 0.00863107
0.15657586 0.24680693 0.061288215 -0.06324122 0.022151798 0.017934417 0.06165853 0.107493356
0.03056783 -0.018208979 -0.20636944 -0.01122659 0.15601459 0.20224991 0.16359012 -0.010195429
0.077769525 -0.060589675 0.13147205 0.18844739 -0.04405448 -0.031038426 0.13880287 -0.015668096
-0.008607478 0.09287622 0.12066016 -0.03351205 0.08313196 0.13406132 0.07676301 0.17019501
0.03339482 -0.070184305 0.13408515 0.100533105 0.049261753 0.086882345 -0.0048576384 0.019424027
-0.030470805 0.003805374 0.28486684 0.24047418 0.12584491 -0.053406045 -0.21145502 0.25998828
0.21531855 -0.01166464 0.11283833 0.054415543 -0.03495852 0.04215567 0.005934419 -0.033426642
0.03795365 -0.08526587 -0.07900911 0.048248228 0.058921948 0.012310476 0.07067714 -0.06517684
0.006954101 -0.016214356 -0.032571185 -0.084232636 0.022514567 -0.0017544783 0.09557034 0.049339045
0.14132912 0.2614656 0.145258 -0.01665432 0.09143865 0.0603776 -0.101712435 0.14389768
-0.050216366 0.0039713606 0.16492306 0.025089808 0.06359621 0.1308086 -0.03448266 0.0076751397
0.09056136 0.028681835 0.12222279 -0.15076095 -0.31353757 -0.089736864 -0.14367774 -0.017493341
0.009298297 -0.028184138 0.0091766715 0.030038599 0.051064532 0.0642434 0.045832437 -0.008920733
0.042403325 0.04694913 -0.037914008 -0.074004225 -0.002661396 -0.108512156 -0.16426443 -0.036017217
-0.007015967 0.09411969 0.15859638 -0.0494012 0.042795777 -0.10108085 -0.026711743 0.33991778
-0.13340954 -0.20817554 -0.1699593 0.00592787 0.16369942 0.008775435 0.032156374 -2.1562464e-05
0.028228989 0.18572521 0.08785141 0.12734376 0.010402451 0.13519064 0.18292822 -0.056186013
-0.084712274 0.05446958 -0.093820244 -0.20229456 0.1565271 0.05832359 0.05086686 -0.005367903
-0.032744832 0.0012745605 0.026976494 -0.05074905 -0.09300568 0.033414938 -0.08901037 -0.03685826
-0.014292003 0.023069862 0.11626997 0.11024325 0.12645514 0.18577479 -0.007167231 0.019505357
-0.027986359 -0.02437604 0.0053036083 0.035482585 0.05295608 0.055589102 0.016485907 0.032338623
0.011404825 -0.074623756 -0.22609384 -0.20217045 -0.08418777 -0.044689804 -0.059866145 -0.10006923
-0.026601806 -0.0048156986 0.09444536 -0.03331541 0.09881351 0.11403262 0.104651906 -0.025324639
0.0062776813 -0.050037563 0.008752915 -0.0045808265 -0.12411092 0.024759742 0.01965403 0.030362515
0.1654083 0.13217112 0.03215372 -0.0767204 0.16243644 0.24093929 0.17834315 0.16638157
-0.018415703 -0.07484826 0.036536288 -0.09489719 -0.09570184 -0.031324737 -0.03564252 -0.001681426
00000000: 2b2d fdbc 8591 ccbd 7f66 78bd cd13 3d3c
00000010: a614 6a3d 7465 d03d d067 dd3d 0278 c93d
00000020: 9252 32bd 58aa 9cbd e5ea 8d3d 4014 843a
00000030: d556 94bd 9467 5a3e 95e6 03be 1c00 d5bd
00000040: 6b73 12bd 8522 1f3d 3902 083e 4bda c1bd
00000050: 7dd7 16be 264d 833b 36a4 71bd 3350 a73c
00000060: e64b 093d 4a8d 063d 34a0 143e f581 b3be
00000070: 7d76 1c3e 5925 acbe 9582 5abd 779e dc3e
00000080: 6f73 c53d c1bc d7bd 3d0c 10be 48a8 1bbe
00000090: b7d3 653d 7a60 633d da09 ad3d e5e5 cebb
000000a0: 2b29 823d 7427 82bc e887 8c3d d902 ad3c
000000b0: 664c f43d d511 463d 0c43 323e 5569 0d3c
000000c0: 6c55 203e f5ba 7c3e 5a09 7b3d 9d84 81bd
000000d0: b077 b53c 33eb 923c a88d 7c3d 7a25 dc3d
000000e0: 6369 fa3c ff2a 95bc 8352 53be bbef 37bc
000000f0: 4ac2 1f3e 9a1a 4f3e 2b84 273e bb0a 27bc
00000100: a145 9f3d e12c 78bd 9ca0 063e 5af8 403e
00000110: 7872 34bd 4c44 febc 5722 0e3e 615a 80bc
00000120: 6106 0dbc e335 be3d ad1c f73d ee43 09bd
00000130: 1741 aa3d 5f47 093e ed35 9d3d 9a47 2e3e
00000140: 02c9 083d cabc 8fbd 9e4d 093e 4de4 cd3d
00000150: b1c6 493d 5fef b13d d32c 9fbb 231f 9f3c
00000160: e99d f9bc 9563 793b 11da 913e dd3e 763e
00000170: 7ddd 003e 4cc0 5abd aa87 58be 2f1d 853e
00000180: 777c 5c3e 0c1d 3fbc c817 e73d d5e2 5e3d
00000190: aa30 0fbd 6cab 2c3d 8475 c23b 60ea 08bd
000001a0: 4975 1b3d df9f aebd 87cf a1bd ef9f 453d
000001b0: 2458 713d e1b1 493c 2dbf 903d 6f7b 85bd
000001c0: 3adf e33b f8d3 84bc 5d69 05bd 2982 acbd
000001d0: 7870 b83c 86f6 e5ba 62ba c33d bd17 4a3d
000001e0: 95b8 103e d2de 853e 83be 143e a46e 88bc
000001f0: 3044 bb3d 814e 773d 9c4e d0bd ea59 133e
00000200: adaf 4dbd 3022 823b 97e1 283e 2489 cd3c
00000210: bb3e 823d b1f2 053e b13d 0dbd bd7f fb3b
00000220: 3c78 b93d 2bf6 ea3c f14f fa3d 1461 1abe
00000230: ff87 a0be f6c7 b7bd 4220 13be 324e 8fbc
00000240: e257 183c 6ce2 e6bc c059 163c 8213 f63c
00000250: 0b29 513d 0b92 833d cbba 3b3d 4428 12bc
00000260: 1caf 2d3d bb4d 403d b84b 1bbd 878f 97bd
00000270: d16a 2ebb 9f3b debd ef34 28be ca86 13bd
00000280: 32e6 e5bb d3c1 c03d 1767 223e ea58 4abd
00000290: a04a 2f3d 7a03 cfbd 96d2 dabc b409 ae3e
000002a0: 839c 08be f82b 55be d009 2ebe 943e c23b
000002b0: d2a0 273e d8c6 0f3c 67b6 033d 0ae1 b4b7
000002c0: 7b40 e73c c02e 3e3e 71eb b33d 6766 023e
000002d0: 0b6f 2a3c 6a6f 0a3e 8951 3b3e 4e23 66bd
000002e0: a17d adbd 7f1b 5f3d d424 c0bd 4e26 4fbe
000002f0: a448 203e b7e4 6e3d c559 503d 3ce5 afbb
00000300: 721f 06bd 270f a73a cffd dc3c 3cde 4fbd
00000310: c379 bebd 1ade 083d 124b b6bd b0f8 16bd
00000320: 0129 6abc 02fd bc3c f31e ee3d 37c7 e13d
00000330: 757d 013e bf3b 3e3e 17db eabb b3c9 9f3c
00000340: a643 e5bc 43b0 c7bc e4c9 ad3b 3056 113d
00000350: 79e8 583d 66b1 633d 740d 873c 8175 043d
00000360: 4edb 3a3c 57d4 98bd 2585 67be c505 4fbe
00000370: a36a acbd a80c 37bd 3436 75bd 19f1 ccbd
00000380: 08ec d9bc 02cd 9dbb 926c c13d bd75 08bd
00000390: bd5e ca3d ef89 e93d bd53 d63d 9e75 cfbc
000003a0: 02b5 cd3b 30f4 4cbd 6368 0f3c c21a 96bb
000003b0: de2d febd f1d4 ca3c 7d01 a13c cfba f83c
000003c0: cb60 293e de57 073e 9eb3 033d 961f 9dbd
000003d0: bd55 263e cab8 763e 969f 363e ee5f 2a3e
000003e0: 87dc 96bc 0b4a 99bd 13a7 153d 7559 c2bd
000003f0: 54ff c3bd 5e4e 00bd e4fd 11bd 4b63 dcba

unet_model.remaining.0.main.bias f4 [32]
0.08165269 -0.047433786 -0.009580365 -0.057609607 -0.072819166 -0.052334875 0.0659852 0.10117919
0.019656803 0.05803426 -0.055816818 0.0089771645 0.062399067 0.0045537306 0.0806933 0.036044523
0.08268697 -0.023293108 0.07784601 0.005330791 -0.061977375 0.11456349 -0.0679726 -0.047879353
0.022220349 0.008674464 0.035056137 0.010385251 0.06599575 -0.06425045 -0.086164765 -0.03898708
00000000: 8739 a73d ee49 42bd f7f6 1cbc 0df8 6bbd
00000010: 3722 95bd 185d 56bd 4023 873d 0937 cf3d
00000020: 4e07 a13c 55b5 6d3d 2da0 64bd f514 133c
00000030: 2a96 7f3d 7637 953b 8742 a53d 6ca3 133d
00000040: c957 a93d 30d1 bebc bb6d 9f3d ebad ae3b
00000050: fddb 7dbd 43a0 ea3d 3835 8bbd 241d 44bd
00000060: 7307 b63c 571f 0e3c 0697 0f3d e626 2a3c
00000070: c828 873d bd95 83bd 2777 b0bd ebb0 1fbd
