ModelParameters-ACDC/Model_1_Diffeo_0_Loss_1_Chan_8_FT_24-24_Smth_0.01_LR_0.0001_Mode_0_Pth/DICE_0.32142_SSIM_0.89521_MSE_0.001831_Epoch_0005.pth (torch, 317654 bytes, 27 tensors)

model.eninput.0.weight f4 [8, 2, 3, 3]
00000000: 524b 07be 1fda 293e 9455 9e3c 727d 52be
00000010: c84a 1ebe 6427 95bd 680e 5abe ad0f a5bd
00000020: b58b 88bd 583e 7d3e d9d3 443e 0989 1bbe
00000030: 6b86 e53b 77fc ce3d 8f38 7f3e 29aa 6a3e
00000040: 1ba8 383d 1b15 033b e280 1dbe 5fe5 9cbd
00000050: 7956 bebc 3b59 123e 5611 c23d 7231 96be
00000060: da8c 2abe 381a 483d f918 68be 1295 91bc
00000070: f6c6 6abe f151 053e 471a 01be 7e63 d73e
00000080: 8d8a 7abb 0cbc 653e 0565 903e 39f7 e23c
00000090: 1808 9d3d 7b07 92bb 3e61 233e e670 4abd
000000a0: ae56 82be 265f 28be 4e30 d4be 05ee 00bd
000000b0: 1ef9 283e 7c42 aabd 5f2a ff3d 3c9f 5fbe
000000c0: fe30 dfbd 742f a2bb b809 4c3e 2857 803d
000000d0: ee78 fe3e ee58 a9bc 2ff7 a3be bdbe 3abd
000000e0: 6511 343e b240 233d f03f a73d b1a2 873e
000000f0: 19a3 83be 2340 96be 3d09 d73d 0df7 363e
00000100: 345d 2fbd 22b6 acbd 928d ca3e f56f b6be
00000110: f4d7 3ebe 6a40 b83e b59a 253c 9eb0 9b3c
00000120: 4192 b4be 5afa 3b3e 7b42 b63d fbc3 a8be
00000130: 8363 183e ad30 253e 7113 723d 970a 483e
00000140: 568d 19be 2a48 5a3e a3e4 8b3d e2ff f9bd
00000150: 9357 86be 0be2 9c3e 20e5 c03d a41b 91bd
00000160: 2937 963d eca6 a0bd 857b 8e3d 1566 1dbe
00000170: 7088 febd cc10 9bbe f3a2 2dbd 7391 d63e
00000180: d657 3ebe f89f f03e affc 93bd 7f40 5a3e
00000190: 43f1 653b aa5a 853d 8547 d53d 3ff8 f0be
000001a0: 703c 02be 0931 cebd 548c 1abe 8306 bb3e
000001b0: f551 5e3e ec6a 963e c673 41be 6781 c13d
000001c0: 777d 863e f1f3 88bd eb25 e6bc edb6 303e
000001d0: 793e 073d a7ca 77be fb84 eebd a555 0a3e
000001e0: 0476 eb3c f1a2 27be 18de 90bc cd16 8a3e
000001f0: 24a0 61be ea90 21bc 765b e73e e2ab 3ebe
00000200: 5b39 9e3d 457d 593d adb8 c1be 9e77 a63e
00000210: 661a c2be 2be8 ecbd 6146 3d3e 5728 cebe
00000220: d618 2f3e d338 c2bc d0a5 adbd 8eda 853e
00000230: f7ce 07be b75a d03e 9080 c43d e297 80be
-0.13212326 0.16587113 0.019327916 -0.20555666 -0.15458214 -0.07282904 -0.21294558 -0.080596305
-0.06667272 0.24730814 0.19221438 -0.15188994 0.0070045493 0.101067476 0.24923919 0.22916473
0.045082193 0.0020001594 -0.15381196 -0.076609366 -0.023234593 0.14291851 0.09475963 -0.293346
-0.16655293 0.04885313 -0.22665776 -0.017771278 -0.2292746 0.1301954 -0.1260768 0.42068094
-0.0038229555 0.22435015 0.28202072 0.027705776 0.076675594 -0.004456458 0.15955064 -0.049424075
-0.25456756 -0.16442546 -0.41443104 -0.031476993 0.1650128 -0.08313462 0.124592535 -0.21838087
-0.108980164 -0.0049495045 0.19925582 0.06266624 0.49701637 -0.020672288 -0.32024524 -0.04559206
0.1758476 0.03985662 0.08166492 0.2649131 -0.2571037 -0.29345807 0.10499809 0.1786768
-0.042813495 -0.084331766 0.39561135 -0.3563229 -0.18637067 0.35986644 0.010107686 0.019005116
-0.35267833 0.1835722 0.08899399 -0.3296202 0.1488171 0.1613185 0.059100572 0.1953529
-0.14995322 0.21316591 0.06830718 -0.12207009 -0.2623869 0.30641207 0.09418702 -0.0708535
0.0733474 -0.07844338 0.06957153 -0.15370972 -0.12428367 -0.30286252 -0.04239173 0.41907844
-0.18588194 0.46997046 -0.0722593 0.21313666 0.003508643 0.065114334 0.10414032 -0.47064397
-0.12718368 -0.100679465 -0.15092593 0.36528406 0.21710952 0.2937845 -0.1889182 0.0944851
0.26267597 -0.06687153 -0.028094253 0.1725728 0.033018563 -0.241984 -0.11646458 0.13509233
0.028742798 -0.16370751 -0.017684028 0.2697052 -0.22033745 -0.00986121 0.45186967 -0.18620256
0.077257834 0.053097982 -0.3783621 0.32513136 -0.37910765 -0.1156772 0.18483879 -0.40265152
0.17099318 -0.023708737 -0.08478892 0.26143306 -0.13262545 0.4069421 0.09594834 -0.25115877

model.eninput.0.bias f4 [8]
00000000: 529a 2c3d e959 bb3d e247 243c c1c6 813d
00000010: 34d6 a5bd 877d bc3c 1a3f cabc 58d0 dd3c
0.04213936 0.091480084 0.010026904 0.063367374 -0.08097497 0.023009075 -0.024688292 0.027076885

model.ec1.0.weight f4 [8, 8, 3, 3]
00000000: be8e 403c 4f60 d2bd e55a 033e 67b9 8fbc
00000010: f002 b8bd 5be7 49bb 3b2d db3d b0b5 013d
00000020: 9f33 cc3d d477 b8bc 9128 bfbc 589d 0d3e
00000030: 54f0 dd3c ecd3 753d e48b 083e 4c9d 20ba
00000040: 6160 dc3d 0afd 793d ce6e d2bd 1764 65be
00000050: 2b26 9ebd 86ce 583d 2fdf 38be a851 503d
00000060: 5b94 d1bc 7c02 5ebd 87f9 0d3e 4323 5f3d
00000070: 158e 4fbd 3c64 55bc 64e1 b13c 0de4 93bd
00000080: 6573 c7bc 21bd 6bbd faae aabd 5c61 073c
00000090: f859 7f3e c8bf 2d3e 1fab ab3d 7c63 bb3e
000000a0: bfb9 5e3e bd4e c5bc fb5d f03d 9c03 d43c
000000b0: 6286 fcbd 8a8a 0e3e f437 793d a2a1 8abd
000000c0: 9ce7 713e 3436 883d 2934 29be 8a83 253d
000000d0: bc57 f3bc c105 a33c d31e 2a3e 7e73 7d3d
000000e0: 02cc dabb 01ff 663e 9cbb b73e 2bf2 cc3d
000000f0: b6ab 9f3c 116a b73e 154b 073e ba28 5dbd
00000100: 7de2 17be f025 11be 80af b13c 2136 cdbd
00000110: 79bb 873d f146 043c e0aa 003d bdc7 533e
00000120: 26f1 df3d 94d8 323e 7dd9 c73c f8da 26be
00000130: 4430 893c 73d1 543e 172b 6dbc 547d 20be
00000140: 2d76 fb3d 2bfa 5f3d 97aa 1fbd 9be0 a83d
00000150: 7ba3 053e af27 17be 0505 003e eb4c 3ebd
00000160: b9f3 33bc 63a0 253a a425 51be dfa4 01be
00000170: 0b8f b9bd 2da5 6cbe 8669 eabd 3b98 993d
00000180: 011e babe d5e4 3f3d d172 4ebd 0af7 2ebe
00000190: c92b 13be bf31 8e3d 9bca d33d 9449 6ebc
000001a0: 5d8a f33c ab6c cb3d 1e7c 57be 6aba 55bd
000001b0: e5f5 11be aeab 613c 8c25 febd 0bf6 89bd
000001c0: fefe 3fbd 28eb f43d 7ae4 813d 213b abbe
000001d0: e8ee cd3d 92a3 133d eba3 8ebc 923b 013c
000001e0: a276 cd3e e5b2 0bbb 2d43 13be 7037 a13e
000001f0: 370a 92be 5d90 983b 8bab b1bd 82b7 9fbe
00000200: 3ab6 933d 511f 333e 272d fdbd 1720 bf3c
00000210: d14a 183e 005a 913d 7383 56bd 6d04 81bc
00000220: 1db7 cfbc 3f1c c7bc 4da5 2bbe a1a9 29be
00000230: b6f9 1bbe c99c a1be 681a fe3e c351 223d
00000240: d83f 89bd 64f1 163e 1ab5 97bd 010b 75bd
00000250: e465 5c3e bbe3 db3c 56ea 91bd e173 3f3e
00000260: 1b0b 6e3e 30f9 a23d 3368 da3d 0c43 ec3d
00000270: d582 89bd e1be b83d 97b3 463e 233d da3d
00000280: 73be 913c 3cfd bf3c 6127 a33e f497 5b3e
00000290: a400 543e 5641 843e bc94 163e 221a c3bd
000002a0: cfb8 0e3d 5269 bf3d e987 f6bd 13ab 0cbd
000002b0: 58f4 33bd 2274 073e f175 75bd 46b6 0e3e
000002c0: b124 b73d f829 ffbd 14d2 13be 7d73 d0bd
000002d0: 69e7 e8bd 9851 cdbd e3ea 26be f4a6 0abe
000002e0: 6719 493d c35e 1cbd e53d 27be 9f1d 8bbd
000002f0: 9745 e4bd a6d8 94bd 39ca cebc 8bfa 93be
00000300: 457e 19be 0cfc 4ebd 0976 a4bd bc52 893c
00000310: 9638 b53d 7d1c ddbd abde f43d 243a 3c3c
00000320: 6fb1 013e 8bb6 083d e127 e1bd fe0a fdbc
00000330: 682f 8e3d 2b0a 6bbc 7076 a8bd ed46 583d
00000340: a7b5 913e 768d 213e 8d36 4dbd a23e 573d
00000350: b05b 8eba 97ef ee3d 3bd9 a1bc d157 febd
00000360: 322d 823d 39f2 1d3e 58e6 c63d 2bbb 2a3d
00000370: 85ac a23d e60d babd dd92 86bd c25f b23d
00000380: ae12 993a 5863 833e a959 d73d 9e4f d2bc
00000390: 1f93 863e 57bb 853d 3b9f 19be c7ab d3bd
000003a0: 76ee 15be eef3 093e f25c af3d 105f 61be
000003b0: 26b8 f7bd fe59 613d 2779 26be 0821 2d3c
000003c0: 4c4f 2ebe 4cff c2bd d39c 21be 3d2a bfbd
000003d0: 6155 4c3e 01d6 1d3e e5de c6be 5d61 cc3d
000003e0: 08f6 8d3b 37c6 86bc 6ca7 8f3a 42d2 283e
000003f0: e0f2 a53d 87c9 acbe fe54 1abe a316 5abd
0.011752782 -0.10272276 0.12827642 -0.017544461 -0.08984935 -0.0030808065 0.107019864 0.03166741
0.099707834 -0.022518076 -0.023334773 0.13829553 0.027092136 0.060016558 0.13334614 -0.00061269547
0.1076057 0.061032332 -0.102750406 -0.22401462 -0.07722124 0.05293133 -0.18053888 0.050859123
-0.025583437 -0.054201588 0.13864718 0.054476988 -0.05067261 -0.013024386 0.02171392 -0.072212316
-0.024347017 -0.057553414 -0.083341554 0.008262958 0.24936664 0.1696769 0.08382248 0.36599338
0.21750544 -0.024085397 0.11736675 0.025880627 -0.12330319 0.13920036 0.060844377 -0.0676911
0.23623508 0.066509634 -0.16523804 0.04040865 -0.029704921 0.019900205 0.16613321 0.06187772
-0.0066771517 0.22558214 0.35885322 0.100071274 0.019491058 0.3582311 0.13212235 -0.053993918
-0.14832492 -0.14174628 0.02169013 -0.1002009 0.066275544 0.008073554 0.03141296 0.20681663
0.10934667 0.1746543 0.024395699 -0.16294467 0.016746648 0.20783024 -0.014475605 -0.15672809
0.122783996 0.05468194 -0.038981047 0.08245965 0.13050644 -0.14761232 0.12501915 -0.046460073
-0.010983401 0.000631815 -0.20424515 -0.1266055 -0.090604864 -0.23109885 -0.11445908 0.07499739
-0.36351016 0.04684909 -0.050402466 -0.17086425 -0.14372171 0.06943082 0.10341378 -0.01454391
0.029729063 0.09932836 -0.2104344 -0.05217973 -0.14253958 0.013773842 -0.12409505 -0.06736382
-0.04687404 0.11958915 0.063424066 -0.3344355 0.100553334 0.036044665 -0.017412147 0.007887738
0.40129572 -0.0021316346 -0.14381094 0.31487608 -0.28523418 0.0046558813 -0.08675297 -0.31194693
0.07212491 0.17492415 -0.12362128 0.023330731 0.1487229 0.07097244 -0.052371453 -0.01574918
-0.02535587 -0.024305461 -0.16762276 -0.16568615 -0.15231976 -0.3156493 0.4962952 0.039628755
-0.0670163 0.1474052 -0.07407589 -0.059824947 0.21523243 0.026841989 -0.07124774 0.18696548
0.23246424 0.07957685 0.10664406 0.11536226 -0.06714407 0.09020782 0.19404446 0.10656192
0.017791009 0.023436181 0.3186598 0.21444684 0.2070337 0.25831097 0.14705175 -0.09526469
0.034844216 0.0934626 -0.120376416 -0.034342837 -0.043934196 0.13227895 -0.05992693 0.1393672
0.08942545 -0.12459177 -0.14435607 -0.10178278 -0.11372263 -0.100253284 -0.1630054 -0.1354025
0.04909649 -0.03817631 -0.16332205 -0.06792759 -0.11146086 -0.07267885 -0.025242912 -0.28902087
-0.14989574 -0.05053334 -0.08030326 0.016763084 0.088486835 -0.10796449 0.11956533 0.011488471
0.12665342 0.03337721 -0.109939344 -0.03088903 0.06942636 -0.014345686 -0.08225715 0.052802015
0.28458902 0.1577662 -0.05010085 0.052549966 -0.0010861065 0.11666792 -0.019756904 -0.124190934
0.063562766 0.15424432 0.09711903 0.041682404 0.07943062 -0.09084682 -0.06570981 0.087096706
0.0011678541 0.2566173 0.10515148 -0.02567273 0.2628412 0.06529873 -0.15002148 -0.10335498
-0.14641747 0.13471958 0.0856265 -0.2200892 -0.120956704 0.055017464 -0.16257153 0.010566957
-0.17022437 -0.0952135 -0.1578248 -0.09334228 0.19954444 0.15413667 -0.3884193 0.09979508
0.0043323077 -0.016451938 0.001095993 0.16486457 0.08102965 -0.33747503 -0.15071484 -0.053244244

model.ec1.0.bias f4 [8]
00000000: 8fdd 1cbd b3ae 1aba e34a b03c 0d1a 96bd
00000010: 8655 17bd 8db2 e3ba 2b97 0dbb 3b51 6ebb
-0.038297232 -0.0005900666 0.021520084 -0.073291875 -0.036946796 -0.0017371938 -0.0021604996 -0.0036364335

model.ec2.0.weight f4 [16, 8, 3, 3]
00000000: 7e22 8e3d 87ee 86bd 426a 2e3c 5090 4ebd
00000010: 48b4 bfbd 5164 983c 88e0 1a3e 9015 333d
00000020: c455 3bbd 1a85 19be e9c7 94be 024c 0ebe
00000030: 915d 673d 6986 74bc 5f15 713d 7868 51bd
00000040: 2fa2 82be c85c 283d 8cb9 7fbc a1cc e5bc
00000050: f0a7 39bd 798c 413d e40d a2bd bd0c a13d
00000060: 754a aabb 0377 613d a6d3 52bd c3de 293e
00000070: 8f5b bc3e 6e51 223e 5f15 303e d244 083f
00000080: 95f8 493e 1fed 583d 5031 503e 4ebe 423e
00000090: 7a7c 79bd ba4f b73d 6983 7ebd 5a76 b73d
000000a0: c723 c83c 8afd 24be 2332 b2bd 3062 c7bb
000000b0: dd01 ed3c c69d 283e a841 3a3e 5bdc 50bc
000000c0: 20ff 5b3e a422 123d d305 ab3d 3896 15bd
000000d0: 4eee 07be cb3b 17be 07b6 14bf b52a 10bf
000000e0: 1586 49be 497b 76be 08fb c3be 3af3 0ebd
000000f0: 8f64 46be 39f0 50be bd08 efbd 6e36 16bd
00000100: 7a57 533c 9da8 243e 4946 6c3d b7b2 8fbd
00000110: 38f3 063e 046b b0bd f149 333e cab0 0b3e
00000120: 2b3a 383d d250 313d 06c8 13be 702d 433e
00000130: b0c6 573e 5c00 91bc 1e82 dd3d 1438 583d
00000140: 8c7d 66bd 561e 5c3d 3261 da3e 9fd6 583e
00000150: 28f3 3d3e 8817 9b3e 967e bd3e 7338 f4ba
00000160: 604f 27be 4c7d 083d 6f32 07bd 7ef9 513d
00000170: 22b7 c63d 5be6 2bbe e6ee 83be 6dc7 06be
00000180: 987d 603e 95f0 98bd 9d27 2e3e 431a 96bc
00000190: 0133 8c3d d85c 96bd 4dca 17bf 85f1 03bf
000001a0: 48a5 52be c45d 0abe 8f2e 70be a977 05be
000001b0: 5be7 8cbc af90 3ebe 7f7f 2f3d 5704 3cbe
000001c0: 6173 04bf cb43 15bf 254d 333e 4721 88be
000001d0: 6609 a3be 36fc 643e 667c 973d a87e 10be
000001e0: 10f6 683e e0ce 343e 82ab 163d 4273 0c3e
000001f0: 034a 24bd 76b3 3d3d e35b 513e 0d27 a53e
00000200: 4a0c 583d 1f99 f83e b63d 053f a47e 493e
00000210: 84e3 193e 55b8 c7bc 66ab afbd 6869 5fbd
00000220: 9648 343e eba6 fcbc b6b4 603e 0221 833e
00000230: 3219 ddbb 8727 323e e033 533e 9ee0 293d
00000240: 0932 14bc 5bc0 b2bd f3e0 68bd dc97 02bd
00000250: 0c5a db3c af07 203d 83b3 383e 559d 913c
00000260: d86a 043e c6a3 423e 0b91 103d 26ee b5bd
00000270: 98e7 4d3e 8ab1 023e c1e8 0c3e 6eef 673d
00000280: b177 14ba 896a 283c 5136 043e a6fd 9f3d
00000290: cb8f f23d b8cc 32bc 09cb b5bc 1123 ed3d
000002a0: 4f53 083e 3d53 8ebc 5a77 e0bd c4a3 9cbd
000002b0: 8b27 673d bdd3 083d ed86 6fbd 84c6 6ebd
000002c0: 8f00 843d f312 8abd 9bcb 3d3e 6ff5 31bd
000002d0: fca9 c6ba 1888 823d ab34 03bd dc3a 3bbc
000002e0: 83ad f83d 9e18 c23d fb43 f43b 57a9 f23d
000002f0: ee29 1b3d aaf6 093e 5a98 95bc 537c 0fbe
00000300: 75a0 19be 330d bc3d c004 a6bd e965 e3bd
00000310: 3f8a ca3c e567 0ebe b844 3abe e103 06be
00000320: 6909 02be 2b66 84bd 6df7 64be 55ea 6abd
00000330: 17eb 1fbe 5c21 623c bfd3 4f3d bc09 d03c
00000340: d016 dc3c 1c0c 9a3c 6ec7 0ebe 1ab9 03be
00000350: d257 63bc e579 96bc e183 24be 6c3c 883d
00000360: a062 613d c871 3abd ea2a 10be d1ac 323e
00000370: fb6d 033e 9e52 ba3c 6da4 2b3c a91f 6ebd
00000380: ffb1 d93d 84bc 97bd c529 0cbe 6dc5 0abe
00000390: 8597 88bc 800e 4bbe d7e3 203d 1778 17bd
000003a0: 1b5f af3c 0da7 b83c c860 943d 28c8 18be
000003b0: f831 10be 5a03 fd3a 1c2c ddbd f35f 9ebd
000003c0: 274e bc3d 7419 643c 7340 fabc 4835 ae3d
000003d0: 9780 d43e 5e0d 943e 4822 d23e b6dc 2c3f
000003e0: 96a7 6a3e 72f2 843e 5596 9a3e 4792 ab3d
000003f0: a8b1 5bbe 3e2a 613d e3f1 c13d 6cfd 28be
0.069401726 -0.06588464 0.010645451 -0.050430596 -0.09360558 0.018602522 0.15124714 0.043721735
-0.04573609 -0.1499218 -0.2905877 -0.13896182 0.056485716 -0.014924624 0.05885827 -0.05112502
-0.2551436 0.041104108 -0.015608203 -0.028051676 -0.045326173 0.047253106 -0.07912806 0.07863758
-0.0051968643 0.05504514 -0.051471375 0.16588883 0.36788604 0.15851375 0.17195652 0.5323001
0.19723733 0.05296051 0.20331311 0.19017908 -0.060909726 0.089507535 -0.06213704 0.08958121
0.024431122 -0.16112342 -0.08700969 -0.006084703 0.028931553 0.16466436 0.18189108 -0.012747849
0.21484041 0.035677567 0.0835072 -0.036520213 -0.132745 -0.14768903 -0.5809025 -0.56315166
-0.19680054 -0.24070467 -0.3827746 -0.034899928 -0.19374298 -0.20404138 -0.116715886 -0.036673002
0.012899274 0.16079946 0.057684217 -0.07016509 0.13178718 -0.086141616 0.17508675 0.13641658
0.04497735 0.043289967 -0.14431772 0.19060302 0.21071887 -0.017700367 0.108158335 0.052787855
-0.056272075 0.053739868 0.4265228 0.21175621 0.18549788 0.3029139 0.3701064 -0.0018632546
-0.16338873 0.033322617 -0.03300708 0.051263325 0.097028986 -0.16787092 -0.25768203 -0.13162012
0.2192291 -0.074677624 0.17007299 -0.01832307 0.06845666 -0.07341927 -0.5929306 -0.51540405
-0.20570862 -0.13512331 -0.2345526 -0.13033928 -0.017200163 -0.1860988 0.0428462 -0.1836103
-0.51738554 -0.5830657 0.17509897 -0.2658789 -0.31843108 0.22361836 0.07396774 -0.14110816
0.22750115 0.17657042 0.036784656 0.13715842 -0.040109646 0.046313725 0.20445208 0.32256356
0.052746095 0.48554322 0.5204729 0.19677216 0.15028197 -0.024379889 -0.085776135 -0.054543883
0.17605814 -0.030841311 0.21943936 0.2561112 -0.0067473883 0.17397891 0.20625257 0.041473977
-0.009045132 -0.08728095 -0.056855153 -0.031883106 0.026776336 0.039069828 0.18037228 0.017775217
0.12931383 0.19007787 0.035294574 -0.08883314 0.20107877 0.12763038 0.13760664 0.056624822
-0.00056635874 0.010279306 0.12911345 0.078120515 0.118438326 -0.010913067 -0.022191541 0.11578954
0.1331303 -0.017373675 -0.109602645 -0.07648423 0.056434195 0.033405054 -0.058478285 -0.058294788
0.06445419 -0.067418955 0.185347 -0.043446954 -0.001515686 0.06373614 -0.03203265 -0.011427607
0.1214247 0.094773516 0.007454393 0.11848705 0.037881784 0.13473001 -0.018261123 -0.1401227
-0.15002616 0.09182205 -0.08106375 -0.11103422 0.024724124 -0.1390682 -0.18190277 -0.13087417
-0.12698902 -0.064647995 -0.2236001 -0.057352383 -0.15617023 0.013801899 0.050739046 0.025395267
0.026866347 0.018804602 -0.13943264 -0.1286358 -0.013875918 -0.01836867 -0.16065933 0.066521496
0.055025697 -0.045518667 -0.1407887 0.17448737 0.12834923 0.022744473 0.010476214 -0.058135662
0.10629653 -0.074090034 -0.13687809 -0.13551874 -0.016673813 -0.1982975 0.039279785 -0.03697976
0.021407655 0.022540594 0.07245022 -0.14920104 -0.14081562 0.0019303367 -0.10799429 -0.077331446
0.09194594 0.013922084 -0.03054831 0.08506256 0.41504356 0.28916448 0.4104178 0.6752428
0.22915491 0.2596622 0.3019282 0.083775096 -0.21454489 0.054971926 0.09469964 -0.16502923

model.ec2.0.bias f4 [16]
00000000: fef5 943c d162 d63c e04c b23c bedf 943d
00000010: fe7e 073e db2f 383c 4a8b 63bc deac b6bb
00000020: bb43 743d 6158 14be 7b46 8e3d 2729 473d
00000030: df70 63bd 0e17 88bd 9bab ed3b 32a9 d33d
0.018183704 0.026170166 0.021765172 0.07269238 0.13232037 0.011241878 -0.01388819 -0.0055748066
0.059634905 -0.14486839 0.06947037 0.04862323 -0.055527564 -0.06645022 0.007253123 0.10335006

model.ec3.0.weight f4 [16, 16, 3, 3]
00000000: aca3 0c3c ee7a 3cbc 1ec1 36bc 99fa 623d
00000010: 20c5 3cbd 606d 9c3d 8842 943d f558 b03c
00000020: 032b 85bd eaac 14bd f97d f9bd 2a87 ebbd
00000030: 9259 4abd 7fc8 0cbe 9e31 c9ba fb72 e3bd
00000040: 628c d4b9 4db8 093e 0a79 3abe 5702 453d
00000050: 32c2 233d 85ff a5bd 8aca 19bd 21b5 e2bc
00000060: 0de2 b33d a64c 833d 9b78 993c 8c2f 133e
00000070: 818b cc3d 5887 a43d 83d5 153e 1c2d bfbc
00000080: dd37 043e 10e6 5d3e e0fa c93d 6c5a 4abe
00000090: 84e3 113e 88a9 933e 066f 493e 8153 c23c
000000a0: cbdc 753e 386d 663e 81ab 983d 7f39 863c
000000b0: 0808 c33d fd7f fd3d a5cc 073e 27ed 403d
000000c0: 5b2f b23d 956d a73d d1cc 953a 17ca aa3d
000000d0: f2be 093e 8440 94bc 4561 fabd c990 113e
000000e0: 286e cd3c 926a ba39 3234 6c3d 839c 293d
000000f0: c020 0b3e 5b66 413e 7fc7 1ebd d382 763d
00000100: 4124 8b3d 3c61 8c3d ba6c b63c 6b1b c8bc
00000110: 7445 1d3d 1318 7a3c 7821 bebd bbf8 10bd
00000120: a484 eabc cba8 14bd 07e0 9d3e 2ee5 a5bc
00000130: 6b30 c0bc f9d5 7c3e cebe 16bd f409 5abd
00000140: ed41 813e 1203 c7bc 788e d23c b651 69bd
00000150: 76ee 583b a45e 9cbd 41ac 573c 66f4 033e
00000160: 19bf da3d 46d3 9dbd b74e 1cbe 8c4f 7bbe
00000170: 4d50 e3be fcab a4be 0a4d a1be 0e26 e9be
00000180: d8c7 cfbe c054 84be 043f 0dbd cbfa cf3d
00000190: dfda c03d bd47 ec3d 8840 293e e141 70bd
000001a0: 89ee 013e 1273 b63d 1c18 6d3c e019 bd3d
000001b0: e6a8 4cba 554c 313d 3496 203e 3470 48bc
000001c0: bd38 8f3d c6e6 3e3e 4449 59bd d902 27bd
000001d0: 166d 3d3d 3cb3 743d 4cc0 9b3d 7b98 b4bd
000001e0: 706a 043e e806 8ebb 2673 92bc 7359 543d
000001f0: 39f2 66bd 6f68 603e 933b 40be a914 92bd
00000200: 802e 28be 7993 cfbd 9466 88be 8c93 14be
00000210: 4a76 c7bd 040e 13be c354 5abe 4b5e 8e3d
00000220: d27c 13bd 32dc 1abe 0158 acbc 2e87 553d
00000230: eded 013d 2e13 77bc 5e02 38bd 84d7 d0bd
00000240: f112 ffbc 7915 ac3d 1c32 6cbd 28d3 623d
00000250: 69ee cd3d a2af 4f3d c8de c83d 324c f83d
00000260: e109 50bc c2fa d73c 5eb9 c1bd fa68 39bd
00000270: c321 2e3d afa7 07be 0dc9 a2bd ffd6 adbb
00000280: 4957 49bc 52e7 b0bc 57d7 d0bd 7978 41bd
00000290: 88e2 15bc 6d2c 9f3d b409 0dbd c991 823d
000002a0: e5fe 043e b7ed 013e 4db6 4fbb e155 fdbd
000002b0: cba3 c13d 0850 543e 5598 14be 5431 65bb
000002c0: 3084 e13d e1b9 f13d 1300 8c3c 9c8e 6d3d
000002d0: 0b38 90bd f8a9 58bd 6e58 ea3d 8db6 39be
000002e0: 1f29 32bd 0959 8a3d 9cdc 5bbd 1036 a1bd
000002f0: 972d 1abe f671 bfbd 563a a2bd 62f0 b6bd
00000300: 0df2 85bd 0e5e c03d c68f 6f3d e86a b7bc
00000310: 73e6 ab3d b8c3 d03d 8fc1 03bb 212d 18bd
00000320: bb45 8fbd f7fc f8bd ab05 c53c e79d 9cbd
00000330: 9249 253e 3fcd 643e c373 b13c d40a eebc
00000340: 9394 3c3e 821f 293d 1d44 90bc f3db c93d
00000350: f908 073d e58b 57be 8672 ffbd 08c8 a3bd
00000360: 69a9 dcbe d7d8 8fbe e7ce 85be 1ce4 babc
00000370: 18ff 07be 7cf4 4fbe aa87 bb3c be7f 86bd
00000380: fd6c f93d 3677 3abe 032c 98bd 88a4 02be
00000390: 97ca f2bd c8b9 24be 2283 89bd 2976 113e
000003a0: ff2c cc3d 3776 cfbd 1d83 833d 1a22 b33e
000003b0: 1447 38be f066 7e3c 8c8b d53d 5494 58be
000003c0: 05aa ec3b c2ff 12bd 588d 68be 3be1 91bd
000003d0: 4088 003d 60dc 8b3d ba2d cdbc 3c70 6bbd
000003e0: ef58 293e 959d cb3d 6678 a03d 2c0d 0f3e
000003f0: 6c3a 9abc b37c e13c 2adf dfbd 66a8 ed3d
0.008583944 -0.011503918 -0.011154441 0.05541477 -0.04608643 0.07638049 0.07239252 0.021526793
-0.065023445 -0.036297716 -0.121822305 -0.1150039 -0.049401827 -0.13748358 -0.001534987 -0.11105915
-0.00040540384 0.13449211 -0.18210235 0.048097935 0.03998012 -0.08105377 -0.037546672 -0.02767426
0.0878335 0.06411104 0.018734267 0.14373606 0.09987546 0.08033627 0.1463223 -0.02333694
0.12911935 0.21669793 0.09862304 -0.19761056 0.14246947 0.2884028 0.19671258 0.023721458
0.24010007 0.22502601 0.07454587 0.016384838 0.09523016 0.123779275 0.1326166 0.047101166
0.087004386 0.08175198 0.0011428838 0.08339327 0.13451746 -0.01809717 -0.12225584 0.14215387
0.02507694 0.00035556086 0.057666965 0.041409027 0.13586712 0.18886702 -0.038764473 0.060183357
0.06794024 0.068544835 0.022268642 -0.024427136 0.038396314 0.015264529 -0.092837274 -0.035393458
-0.028627701 -0.036293786 0.30834982 -0.020250883 -0.023460587 0.24690999 -0.03680306 -0.05323215
0.2524561 -0.024293456 0.0257027 -0.05696269 0.0033101118 -0.07635239 0.013163627 0.128862
0.1068098 -0.07706313 -0.15264402 -0.24542063 -0.44397202 -0.32162464 -0.3150409 -0.45536846
-0.40582156 -0.2584591 -0.034483925 0.10155257 0.09416746 0.115371205 0.16528523 -0.058656577
0.1268865 0.08908667 0.01447108 0.09233451 -0.000780715 0.043285687 0.15682298 -0.012233783
0.06993244 0.1864272 -0.053048387 -0.0407742 0.04624661 0.059741244 0.07605037 -0.08818146
0.12931228 -0.0043343194 -0.017877173 0.051843118 -0.056383345 0.21914838 -0.18772726 -0.07132847
-0.16423988 -0.1013555 -0.2664076 -0.1450941 -0.09739359 -0.14360815 -0.21321397 0.06951579
-0.03600771 -0.1512306 -0.021038057 0.05213087 0.031721044 -0.015080256 -0.044924133 -0.10197356
-0.031136962 0.08402533 -0.057664976 0.055377156 0.10055239 0.050704606 0.09808117 0.12123908
-0.012697668 0.026364688 -0.09459184 -0.04526613 0.042512666 -0.1324756 -0.07948504 -0.0053051705
-0.012288877 -0.021594677 -0.10197323 -0.047234032 -0.009148248 0.077721454 -0.03443308 0.063754626
0.1298786 0.12688337 -0.0031694353 -0.12369896 0.09455069 0.20733654 -0.14511235 -0.0034972029
0.11011541 0.11803032 0.01708988 0.05799733 -0.07041939 -0.05289647 0.11442648 -0.18136044
-0.043496247 0.06755263 -0.053677186 -0.0787164 -0.15056454 -0.09347908 -0.07921283 -0.08932568
-0.06540308 0.093929395 0.058486722 -0.022389844 0.08393564 0.101935804 -0.0020104384 -0.037152413
-0.06995722 -0.12157624 0.024050554 -0.07647305 0.16141346 0.2234392 0.021661645 -0.029057898
0.18416052 0.041289814 -0.017610604 0.09856405 0.03296754 -0.2104946 -0.124730155 -0.07997137
-0.43098 -0.28095123 -0.26134416 -0.02281385 -0.13280904 -0.20308107 0.022891838 -0.06567334
0.12178991 -0.18209538 -0.074302696 -0.12758076 -0.11855047 -0.16086495 -0.06714465 0.14205231
0.0996952 -0.101299696 0.06421492 0.34986955 -0.17995864 0.015527472 0.10427007 -0.21150333
0.0072224163 -0.03588844 -0.22710168 -0.071230374 0.031379938 0.068291426 -0.025046218 -0.057480082
0.16537832 0.09942166 0.07835464 0.13969868 -0.018826686 0.027525282 -0.10931237 0.11604385

model.ec3.0.bias f4 [16]
00000000: 85fc 54bc ba1c fd3d fd20 b23d 72cb 1f3e
00000010: b70f 9c3d 4d4d 523b fb30 1cbd 06a8 d8bd
00000020: 6d03 9abc e93f 503d 28d8 6a3d d26b c2bc
00000030: 0fe3 bb3d a2ee 8abd 3500 863d a656 ba3c
-0.0129996585 0.12358995 0.08697698 0.15604952 0.07620185 0.0032089532 -0.03813265 -0.10578923
-0.018800462 0.0508422 0.05733505 -0.023733053 0.09174167 -0.06783797 0.06543008 0.022746395

model.ec4.0.weight f4 [32, 16, 3, 3]
00000000: bdcc 1ebe 1aa5 043d 4fb0 8d3d 9068 17be
00000010: ecc7 c5bd df8d cabc f508 79be fda5 d8bd
00000020: 41a2 f63c 48ae 0abe 2d01 d73d f2b4 ca3b
00000030: 613b 07be 8ecc 133d 2740 d53d 491b 1abe
00000040: a795 723d 2dbd 523e 5e3a 0e3e acc6 913b
00000050: ccf8 8bbd a1a5 193e f4ee d03c 4d0d 81bd
00000060: 8e0a 4e3d a2a3 f13d 53cf c0bd 3c3d 263e
00000070: e95c 783e eb1e 813b 9502 e33d 5c41 283e
00000080: bc50 b6bd b67c 0b3e aed1 5e3e 1225 d93b
00000090: 5af2 18bd 7ade 263e b0a3 43bd 11fd b2bd
000000a0: 01b9 e23c 73be c9bd 70a2 663d 29b1 953c
000000b0: fa1c 63bd 6873 0c3c 522b 2c3b 0c55 8abd
000000c0: 0a0a 85bd 08a1 d83c d5fc 90bc 7295 af3d
000000d0: a6a2 b93c a4e7 ff3c 4636 8b3c 7c49 01be
000000e0: 0838 f93c aadc 383c 1ebb 0b3d 8c34 88bb
000000f0: 88bb e4ba 6dbb 66bc f0e5 7abb ba76 993d
00000100: 6327 f9bd e830 9d3d a98e 323d 34cc cebd
00000110: 662b a2bd 092b b3bd 4a5a c63c 155f c43b
00000120: 449d 9b3d 0d28 1dbd ddcc bcbd 1145 b8bc
00000130: 8538 92ba e44a 46be 1cd2 813c a974 1dbe
00000140: 8316 e4bd e676 b5bb fa3f f9bc 4533 013e
00000150: b43e a93d c480 32be 07e1 823e db69 54bc
00000160: 3561 3b3e 1a03 d23d 4c64 63bc 49c6 123e
00000170: 4ef8 3c3b 3bbc 79bd fa50 d6bd 8402 273d
00000180: 86a6 02bd 70e2 53bd f6e3 d73d 1abc 1fbe
00000190: 1375 74bb a600 da3c 539e c73d 2d9c 60bc
000001a0: 5183 93bd 0ee4 84bd e886 373d 8e70 eabd
000001b0: b4a9 2a3d 0737 31bd 6adb 69bc 5cdb aabc
000001c0: 2143 f33d 3870 0c3d e7e4 e03d 988d 103e
000001d0: 348c 003c b833 f1bd c26a f6bc d7d6 ee3d
000001e0: ed89 18be 18b3 afbe 69cf bf3c b6d8 82be
000001f0: 3ba7 bdbd 7a73 cd3d 8aeb 2e3e 410c 653e
00000200: be03 a0bd 7044 c13d 54a3 833e 881a b53d
00000210: cbf9 54bb 88cc 453e cab0 b73d f974 cb3c
00000220: f9e4 b33d cebb 5abd c506 8e3d 1336 2dbc
00000230: 4239 61bd 9a6c 663d 15f1 93bd 2f32 2fbe
00000240: 1b58 9dbc 63f3 88bc c59a 4cbe 2c47 433d
00000250: 126b 293d bca7 5fbd 7e78 433d 78d4 8aba
00000260: 4613 6d3d 5389 aa3d 3acc 9abd 7cc2 a7bd
00000270: a241 393d 79a3 bd3d 33f5 6fbc d78a 89bc
00000280: fdaa 98bb fb18 6a3d f135 d8bc 266d 2bbd
00000290: 7dee d7bd 36fa 993d 361f 11be 78a8 80be
000002a0: c7ad 683d 11b3 0d3e 5445 dbbd ef0c 573e
000002b0: 7dd3 a93d ed8b 45bc 2ce8 7f3e 2121 263e
000002c0: c482 a43e 21b7 493e 1298 b13d 8b58 96bd
000002d0: 604c f4bc 43fe 5cbc 1877 fcbd b444 c93d
000002e0: 3c19 30bb 40e3 493d 7b69 8a3d 8515 ef3c
000002f0: e353 9b3c db9d 46bc 7b91 603d 68c5 67bd
00000300: bf2e bc3d 69ba 353d e1aa a5bd 306f df3d
00000310: a665 373a 6d8d 26be e75d 0fbd bfee 42bc
00000320: bf1b 3c3d 3cb4 38bc 0c62 febd 6164 60be
00000330: fba9 3b3e 0c78 f2bd b0ef 84be 8b7d 46bd
00000340: 34c2 4c3e e857 533d 27f8 afbd 91e9 d1bd
00000350: 234a f8bd 71a8 8cbd d851 a93d 776f 0a3e
00000360: 0b39 833c ef5f fc3c d493 e3bd f2fe 0fbe
00000370: 25c7 3dbd 0be9 6cbd 1256 40be 862e 68bc
00000380: c0e9 d43d 0b93 24bd 5774 ea3c ec7f 6bbd
00000390: 76e7 fa3c 8076 27be a68a b5be 3218 133c
000003a0: d6c8 acbb 1885 673e e3a7 efbc ef27 7e3c
000003b0: 75cb a43d 55a8 b83d c080 8f3c 02d2 a73d
000003c0: e6b8 b83c f936 673e 32b9 02be 483c 87bc
000003d0: 9346 273d 0670 07be 408c 58be 90b6 833c
000003e0: e5d4 3fbb 4f85 893c e85c 4d3e 208d 273e
000003f0: e705 c5bc 1a70 c13c 419d 663d 76fb 023e
-0.15507789 0.032384016 0.06918394 -0.14785981 -0.09657273 -0.024725853 -0.24319823 -0.10578535
0.030106666 -0.13543046 0.10498271 0.006186121 -0.13206245 0.03608375 0.10412627 -0.15049471
0.05922475 0.20579977 0.13889453 0.0044487324 -0.068345636 0.15004589 0.025504567 -0.06301365
0.050303034 0.117987886 -0.09414544 0.16234297 0.24254192 0.0039404533 0.11084477 0.16431183
-0.089021176 0.13621792 0.21759674 0.0066267336 -0.0373405 0.16295806 -0.047763526 -0.08739675
0.027676107 -0.098507784 0.056307256 0.018272953 -0.055447556 0.008572437 0.0026270938 -0.06754503
-0.064960554 0.026443973 -0.017698685 0.08573426 0.022660565 0.031238385 0.016993653 -0.12625688
0.030422226 0.011283079 0.034113996 -0.0041566547 -0.0017450908 -0.014082772 -0.0038284026 0.074933484
-0.121657155 0.07675344 0.043593083 -0.100975424 -0.07918434 -0.08748443 0.024212975 0.00599278
0.075983554 -0.038368274 -0.09218762 -0.02249387 -0.001115576 -0.19364506 0.015847258 -0.15376534
-0.11137106 -0.0055378554 -0.030426014 0.12617214 0.08263913 -0.17431933 0.25562307 -0.012964691
0.182988 0.10254498 -0.013878893 0.14333452 0.0028834525 -0.060970526 -0.10464664 0.040773883
-0.03189709 -0.05172962 0.10541527 -0.15599099 -0.0037301227 0.026611637 0.09746995 -0.01370911
-0.07202781 -0.064888105 0.04480639 -0.11447249 0.041665748 -0.04326537 -0.014273504 -0.020856552
0.11878038 0.034286708 0.1098116 0.14116514 0.007845927 -0.11777443 -0.030080203 0.11662071
-0.14896365 -0.34316325 0.02341433 -0.25555962 -0.09260412 0.10031791 0.17082039 0.22367956
-0.07813214 0.094368815 0.25710547 0.08842951 -0.003249752 0.19316304 0.08969267 0.02483605
0.087839074 -0.05340176 0.06934885 -0.010571974 -0.054986246 0.056255914 -0.07223717 -0.17108987
-0.019207051 -0.016717618 -0.19980915 0.047675297 0.041361876 -0.054603323 0.047722332 -0.0010591885
0.05787971 0.08326974 -0.075584844 -0.08191392 0.045228608 0.092596956 -0.014645862 -0.016789837
-0.0046590553 0.05715273 -0.026392909 -0.04185214 -0.10543535 0.07518427 -0.14172062 -0.2512853
0.056806352 0.1383784 -0.10706583 0.21001028 0.08292291 -0.012057287 0.2499091 0.16223575
0.32131016 0.19698764 0.08671583 -0.07341107 -0.029821575 -0.013488355 -0.12327403 0.09827557
-0.002687051 0.049288988 0.067584 0.029185066 0.018960899 -0.012122597 0.05482624 -0.056584746
0.091886036 0.044367228 -0.08089233 0.10909879 0.0006996043 -0.16264887 -0.03500166 -0.011897742
0.0459249 -0.01127344 -0.12421045 -0.21913292 0.18326561 -0.118393034 -0.25964117 -0.04845957
0.19995958 0.051597506 -0.08592253 -0.102496274 -0.121235155 -0.06868065 0.082675636 0.13519083
0.016018411 0.030807463 -0.1111218 -0.14062098 -0.046332497 -0.057839435 -0.18782833 -0.014171248
0.10396147 -0.040179294 0.028619928 -0.057495043 0.030627947 -0.16353798 -0.35457343 0.008977937
-0.005272965 0.22609365 -0.02925486 0.015512451 0.08046619 0.09016482 0.017517447 0.08194353
0.022549104 0.22579564 -0.12765959 -0.016508237 0.04083879 -0.13226327 -0.21147251 0.016078264
-0.0029271182 0.0167872 0.20054972 0.16362429 -0.024050666 0.023613025 0.056302313 0.12791237

model.ec4.0.bias f4 [32]
00000000: f83d fd3d c8e6 373e 1dc2 2a3e 32d1 41bd
00000010: ea1e 373d 18f6 32bb 46b2 a0bc 2d45 393d
00000020: 1cf0 223e ac23 063e 76f0 7c3d 9879 133e
00000030: 9fc8 7cbd 1893 373d 073d b23d 425a 4e3e
00000040: db82 a03d c5d0 b43e 951e e23d 29e8 c23d
00000050: d219 3c3e 9231 703d 9dbc 9b3e c8bc 7fbd
00000060: eca5 a7bc 2671 8a3d b003 b6bc f547 d53d
00000070: 2709 473e c7c9 933c 2896 84bd 7024 333c
0.12365335 0.1795913 0.16675611 -0.047318645 0.044707216 -0.0027307328 -0.019616257 0.045231987
0.15911907 0.13099545 0.06175276 0.14401853 -0.061714765 0.044818014 0.08703046 0.20151618
0.07837459 0.3531553 0.11040989 0.09516937 0.18369225 0.058641024 0.30417338 -0.062435895
-0.02046486 0.067598626 -0.022218555 0.10414115 0.19437085 0.01804055 -0.064739525 0.01093398

model.ec5.0.weight f4 [32, 32, 3, 3]
00000000: ab97 c8bb 1be1 0abe 05c2 143d 4926 88bd
00000010: 8582 93be 9c7c 8d3d b16e 0d3d 244a 74bd
00000020: 0dc8 803d 274c 69be 5dda fabd 2b97 c93d
00000030: 4223 00be 5dc6 9d3c 29a8 853d c0f8 f6bd
00000040: 4ba8 0bbe c69c 653e d52a d8bc d55c f5bd
00000050: 0998 e8bd 0185 edbc ba14 b4be b9c5 ba3c
00000060: 4214 b2bd 7dac 213d d097 093e a3ac 5bbd
00000070: bc11 aabd 5b05 263e 18c9 c33d 5ee5 23bd
00000080: 450e 3d3e 266c c73d 223d 0fbe 34f4 0a3e
00000090: bf1d 023e 31ad b3bd 53a0 9cbe ca10 25be
000000a0: 1e44 40be b56d 65ba 935d ba3d 1d1e ad3d
000000b0: 8fc1 3abe af16 a3bd 4c26 8a3d e0d5 a73d
000000c0: 32eb 0e3d cc1d 13be f14a d53d de6a 8f3d
000000d0: 15ec c8bd 9134 3d3d b824 36be 5e7d 8bbd
000000e0: 37cb 793d ce5e 9cb9 ba29 123e ce84 063d
000000f0: c6a7 cf3d b6f9 ccbd 0d05 833e 9b13 9a3d
00000100: 3dde ecbc f25f 773d a31c c5bd b766 5cbe
00000110: 62b3 33bd 1388 33be 8ce8 843c b4e2 a83c
00000120: 7f79 14be d748 e13c 6f33 013e d575 0dbd
00000130: d62a 883d 4f84 17bb 38e9 a2be 24ff 263d
00000140: 6310 163e 2939 a8bd 3060 55bd 5d07 b43c
00000150: 59aa 433d 72f5 4e3e 600c 1c3e 2d5d c03c
00000160: 17f4 d8bd 808f babe ab78 c7bd d216 dfbb
00000170: 7aa6 b6ba 86db b2bd cdf9 933c 983c ea3d
00000180: 957e 02be a22e 90bc 997b 343e 3267 b03d
00000190: c11e 7f3d 3390 dabd 8549 3a3d 2476 123e
000001a0: e17d 963c b4a2 a83d b867 b8bd d110 b4be
000001b0: f4a3 9f3d 6050 8dbd 61ca 00bc 7175 1fbe
000001c0: e1f2 bcbc 04db d33c 3072 813d 7f03 943d
000001d0: edd0 18be e5a6 fbbd ffd1 6fbc 22f4 8d3d
000001e0: 4de0 8dbc 25ac d03d 3b1e ee3c 0fdb 4e3d
000001f0: f263 7fbd a5a3 bf3d 2572 883e e819 51bd
00000200: a2e9 a2bd 2de9 1f3e 44f5 e13d 903a 343c
00000210: d5ef d53d acab f9bc f3c6 46be a491 69bd
00000220: a50c 5abd 6a90 623c 0b7d ad3d cfdc c03d
00000230: 2cb7 113e 4f37 9a3d 07d2 14bd 5b6c fe3c
00000240: f05c 07be 97f4 0fbe adc1 7bbd f1ac 14be
00000250: 7a35 3d3e b2a3 b3bd 06af 16be bcce d23c
00000260: dcb0 1a3e 6c8a d5bd ba90 84be 1ef7 49be
00000270: 4113 8bbd c860 2d3e df79 233e 003a a2bd
00000280: 4e33 213d b9bb 323e 9197 f43d 8903 a1bd
00000290: 58ef 79be 10da 6c3d 513f 593d 4210 fabd
000002a0: 8f9c ad3d 57e1 23bd 1d02 8abe 19b3 aabd
000002b0: e3fe cf3d 5d19 37bd 4425 aa3d f739 383e
000002c0: b249 3cbc 4d06 4c3d b767 0dbe 9dca f8bd
000002d0: af29 b0bc 324f 213e 4858 d63c 0587 833d
000002e0: c194 9ebd 4009 24bd c2f9 943d 0f54 ddbd
000002f0: 3769 973b f046 6a3d fcca b8bc 7422 8d3d
00000300: c288 e2bd a149 9ebe 02c9 983d 58bb f63d
00000310: 82f1 5c3c 1bb4 543d f6c7 253d a6b0 b3bb
00000320: c2d4 1ebe 6d80 973d 8bdc 183e 220d 4d3e
00000330: 4786 633c fbef dd3b 9a8b 91be 2a92 01be
00000340: 7804 34bc 5685 cbbb 79aa 97bd f5ea f23d
00000350: 6b78 fa3d fc09 03be aa89 14be f56e 913e
00000360: 33a1 77bd 542c 83be ba4e 00be 4e3d 2dbe
00000370: beb5 253e ed30 153e cc46 c2bc d571 7ebb
00000380: 23f6 0c3e 6a45 9cbd 7c58 bd3d 1e2c 2d3e
00000390: 9c26 97bd 07f9 e8bd 7470 a3bd 9e71 30be
000003a0: 7f83 8b3d bec0 c13d eecb d33c 785d 97bd
000003b0: e875 bf3d 8b88 61bd f03a 96be e257 d23c
000003c0: ae16 8d3d 32cb 013e c4f8 fd3d cbf9 efbd
000003d0: cf2d cebc fffa b7bd 997f 51be a47a ba3d
000003e0: 8690 d23d 010f f1bd c294 ac3c 16b0 c13d
000003f0: 65fb b63c 7dd8 253e c652 95bd e6f2 fb3d
-0.006121596 -0.13562433 0.036317844 -0.06647927 -0.28810516 0.06908533 0.03452939 -0.05964102
0.06288157 -0.22782956 -0.12248681 0.09843286 -0.1251345 0.019259626 0.06526215 -0.12059164
-0.13638417 0.22423086 -0.026387611 -0.11980597 -0.113571234 -0.028994085 -0.35172063 0.02279936
-0.0869527 0.03947114 0.13436818 -0.053631436 -0.08304164 0.1621298 0.0955984 -0.040013663
0.18462475 0.097374246 -0.13988164 0.13569719 0.1270666 -0.08773268 -0.30591068 -0.16119686
-0.18775985 -0.00087520044 0.09099879 0.08453009 -0.18237899 -0.07963311 0.06745586 0.0819509
0.03489227 -0.14366835 0.104146846 0.07002805 -0.09810654 0.04619271 -0.17787445 -0.06811021
0.060984816 -0.00029825274 0.1427373 0.032841496 0.10139422 -0.10008566 0.2558979 0.07523271
-0.028914565 0.060394235 -0.09624603 -0.21523558 -0.043872245 -0.17532377 0.016224168 0.020615913
-0.14499472 0.027500553 0.12617277 -0.0345362 0.06648795 -0.0023119634 -0.31818557 0.040770665
0.14654689 -0.082140274 -0.052093685 0.021976167 0.047769878 0.20210817 0.15239096 0.02348193
-0.105934314 -0.36437607 -0.097398125 -0.0068081403 -0.0013935112 -0.08733277 0.01806345 0.114373386
-0.127436 -0.017600361 0.17625274 0.08613433 0.06228519 -0.10672035 0.04548027 0.1430288
0.01837057 0.08234158 -0.09004158 -0.3516908 0.077949435 -0.06900096 -0.007860751 -0.15572144
-0.023065032 0.02586127 0.06320608 0.07227229 -0.14923449 -0.12287692 -0.014637469 0.0693133
-0.017318869 0.10189084 0.02906715 0.05050188 -0.062351175 0.093573846 0.26649585 -0.051050097
-0.07954718 0.15616293 0.11033109 0.0110002905 0.10446135 -0.030477367 -0.1941183 -0.05702366
-0.053234715 0.013828376 0.08471116 0.09417116 0.14230031 0.075300805 -0.03633311 0.031057527
-0.13219047 -0.14058147 -0.061464 -0.14519097 0.18477431 -0.08771457 -0.14715204 0.025733344
0.15106529 -0.104267925 -0.25891668 -0.19723174 -0.06790782 0.1693145 0.15964459 -0.07921219
0.03935557 0.17454423 0.119429715 -0.078620024 -0.24407709 0.057825148 0.0530389 -0.12210132
0.08477127 -0.040009823 -0.26954737 -0.083349414 0.10156038 -0.044701923 0.08307889 0.17990862
-0.01149218 0.049810696 -0.13809095 -0.121480204 -0.021504251 0.15752867 0.026165143 0.06422237
-0.07743216 -0.040047884 0.072742 -0.108070485 0.004620697 0.057196558 -0.022557728 0.06891337
-0.11061241 -0.3091555 0.07460214 0.12047452 0.013485314 0.051929574 0.0404739 -0.0054837046
-0.15510848 0.07397542 0.1492788 0.20024541 0.013886995 0.0067729927 -0.2842682 -0.12653413
-0.010987394 -0.0062109632 -0.07405562 0.11861221 0.12229999 -0.12796777 -0.1450564 0.28404966
-0.060456466 -0.25619757 -0.12530032 -0.16917917 0.1618261 0.14569445 -0.0237154 -0.0038825173
0.13765769 -0.07630427 0.09245393 0.1691136 -0.07380411 -0.11375623 -0.07980433 -0.17230842
0.0681219 0.09460591 0.025854077 -0.073908746 0.09348661 -0.05506186 -0.2934184 0.025676671
0.068890914 0.12675169 0.12400964 -0.11717566 -0.025168328 -0.089834206 -0.20458831 0.09105423
0.10281472 -0.1177044 0.021067027 0.09457414 0.022336671 0.16195865 -0.072911784 0.123021886

model.ec5.0.bias f4 [32]
00000000: ed88 4bbe 0dfe 443d 4bfe 743d b1e6 743e
00000010: 7704 0e3d 68e4 003f fe51 ee3d dfda 343e
00000020: 904e ff3d 33ed a93c cc48 243e ed42 b9bc
00000030: 21dc 0a3e 4e5b a03d 9be1 01bd e788 0cbd
00000040: ea01 363e 5f9d 193e 1585 a43d 6679 82bd
00000050: dc76 4c3e 0349 383e b338 2e3d 5747 993d
00000060: bf43 4f3e 56f8 333c b385 553e 4233 e83d
00000070: af94 ddbc 9cce 3a3e 5492 ce3e 51c8 623e
-0.19876452 0.048093844 0.059812825 0.23916127 0.034672227 0.5034852 0.116367325 0.17661618
0.124661565 0.020742988 0.16043395 -0.02261492 0.13560535 0.07829915 -0.031709295 -0.034310248
0.17774168 0.15001439 0.08033196 -0.06370811 0.19967216 0.17996602 0.04253454 0.0748431
0.20240687 0.010984501 0.20851783 0.11337902 -0.027048437 0.18242878 0.40346014 0.22146727

model.ec6.0.weight f4 [64, 32, 3, 3]
00000000: 88e3 2fbe 8654 11be c2e9 a13d 13cc 453c
00000010: efa4 e83d 43a9 a23d 0ab1 efbd b166 80be
00000020: 50e7 c53e 18b1 f83d 5237 663e d696 f0bc
00000030: 056b f6bd 3f97 d7bc bb1f 93bc e8ee 70bc
00000040: 112f b13c 908f dbbd 4156 f6bd 7695 7fbe
00000050: d9f9 3e3c ae82 b23d 1423 4abd ef3a 86be
00000060: a701 f6bd a801 e2bd 883f 9ebd c952 283e
00000070: cc84 9ebd 347f 96bb 1187 873c b1a0 273e
00000080: 7a14 a0bc c82a a13d 352a eabd 720c 8ebe
00000090: f986 45bd 7668 1bbc e689 f9bd 4d4f 07be
000000a0: e9ed 0bbe c27c e5bc 92b4 3ebd 289f a7bd
000000b0: b068 2dbe cf7b 19bd 210e 073e 1de1 df3d
000000c0: 4176 23bd 6d94 a8be 7e0f 09bd 04b3 d2bc
000000d0: a833 c53d a431 873d cd11 0c3e 71d8 e5bc
000000e0: 7b85 b9bd ada3 e5bd 024e 67bd 2d54 873d
000000f0: cc4e 803c 778e 19bc e555 2bbe 8261 20bd
00000100: cfc6 143d dc87 003d 2e2a 023e 6db1 bcbd
00000110: ef5f a2bd 3799 2e3e 3adb 75bc ed4b cb3d
00000120: b65b 3c3b 8c09 6ebc 312f 3e3d 8bba e93b
00000130: f4d8 3cbc 840a 973c 7793 6b3d b4b0 d8bd
00000140: 8343 533e ecd2 1c3e dda5 c13d d656 a83c
00000150: 92b2 e1bc f281 a93c 25ff 0b3e 790b 0cbd
00000160: 67db 223e 23a8 46be 04fb d93d 19b0 a1bb
00000170: f199 273d 2fa7 27bd 31a7 723d e3b9 583c
00000180: aba3 9e3d 410b 003e b361 9abd eb83 3bbd
00000190: 6477 53be 4986 093c 4448 82be a87e 06be
000001a0: 51e5 8f3d 34a9 cfbd 3a7d 87bd 6283 1b3b
000001b0: 858c b03d 4612 6f3d cb7c b5bd 5f48 263e
000001c0: 5bb9 783d b8ec 15bd a38e 0e3e 3cae 053c
000001d0: a4d5 6bbe 96c9 243e 089f d1bc 2f3b 903d
000001e0: 90fa 513d 774c 8f3c 3297 1dbd 1750 c4bd
000001f0: 9f2e 113e ba85 c73d 6263 a9bb c12c 87bd
00000200: d6ec 0ebe 0ef2 89bd dfe9 2dbe 7a73 16be
00000210: c0e1 ddbd c965 0dbe 46ad 3d3d 043f a5bd
00000220: dc75 da3b 7cae 513e b973 1fbe 9351 71bc
00000230: da4b 103d 7f45 65bd 8e5b bc3d 56e4 453e
00000240: e0fe c93d 4754 adbd a673 2c3e 7f2c 34bd
00000250: feef 693d 63c0 f53d 96ae 23bd 90f9 be3c
00000260: 1057 e0bd a40d c1bd 7a76 b5bd dc72 b9bd
00000270: 4142 f5bb 743c 673e 7c5f 87bd e067 913e
00000280: 4699 cf3d df76 9cbe 091c 70bc 58e1 b43c
00000290: efcc 47be 9d1d e9bd 200f c83d 6886 9e3d
000002a0: fd07 b93c 437a 253e dac9 16bd da01 0fbe
000002b0: 249b 09bd 5d56 83bd 5e57 24be 134f ec3c
000002c0: 4cfa 123d d770 4abe 43bc 99be f859 20be
000002d0: e326 3b3d fa99 553d 9fa8 9e3d af52 203e
000002e0: 3068 183e 7dbe a0bd 14e9 143e 1f6b f73c
000002f0: 4c58 49bc b6a1 0ebe dbb7 8d3c 9533 a9bd
00000300: fe25 7cbd 3ab3 b2bc 98d2 a9bd 01a0 86bc
00000310: 5798 b03d a026 8e3c 696a 1a3e 74c2 e3bd
00000320: 52e6 ba3e f864 09bd 4955 83bd 4fcf 6dbc
00000330: 7d7d 2dbd c2a0 10be d297 033e a44a 243d
00000340: ce6e 133e 05ef a73c b5a0 253d aea2 0b3e
00000350: c81e 183d e5c6 703d 1ab4 9abd 8232 2fbe
00000360: 2a17 aebb ba24 053e 94ac 353e 54bf 2cbe
00000370: fb1e d83d 9041 623d 7ed6 073d e424 62be
00000380: 5115 893d 8954 64bd 3226 873c 8d89 ea3c
00000390: 6374 80bd 5be7 903c 783e a2bd f2b0 873d
000003a0: 632e 0abe e6cb 0abe d4ae 0dbc f8ec ac3e
000003b0: 425a 783d 434c f53d 3ae1 0dbe e6c1 a83c
000003c0: 05f7 4cbe e5ca 20be 2b56 4f3e 7d4f 64bd
000003d0: 0443 1f3d 9697 ab3d ed40 34be 8c12 87be
000003e0: 82e5 d8be d308 d23d 5262 62bc c80d 93bd
000003f0: c21a 7f3d d43b 89bd ad69 ee3d 23dc c9bc
-0.1717664 -0.141924 0.07905914 0.012072581 0.113595836 0.0794244 -0.117036894 -0.25078347
0.3865304 0.12143153 0.2248204 -0.0293688 -0.12032131 -0.026317237 -0.017959466 -0.014705397
0.021628888 -0.10720742 -0.120281704 -0.24959359 0.011656248 0.087163314 -0.04934986 -0.26216838
-0.12012034 -0.11035472 -0.077269614 0.1643783 -0.07740173 -0.0045928005 0.016543897 0.16369893
-0.019541014 0.07869488 -0.114338316 -0.2774387 -0.048224423 -0.009485355 -0.12184505 -0.13213845
-0.13664974 -0.02801359 -0.046558924 -0.081846535 -0.16934466 -0.03747159 0.13188984 0.10931609
-0.039907698 -0.3292574 -0.03346204 -0.025720127 0.09628993 0.06601265 0.13678665 -0.028057309
-0.090586625 -0.11212859 -0.05647088 0.06607852 0.015662573 -0.009372345 -0.16731985 -0.03915549
0.03632241 0.031379566 0.12711403 -0.09213529 -0.07928454 0.17050634 -0.015005881 0.09926591
0.0028741187 -0.014528643 0.046431724 0.0071328334 -0.011526335 0.018437631 0.05751368 -0.105805784
0.20631222 0.15314835 0.09455464 0.02054922 -0.02755097 0.020691846 0.13671549 -0.03419063
0.15904008 -0.19400077 0.106435806 -0.0049343226 0.040918294 -0.040930923 0.059241477 0.013227913
0.07746061 0.12504293 -0.07538166 -0.045780104 -0.20651013 0.0083938325 -0.2544576 -0.13134253
0.070261605 -0.10139695 -0.06615682 0.0023729433 0.08620552 0.058367036 -0.08861693 0.16238545
0.060723644 -0.036602706 0.13921599 0.0081592165 -0.23030716 0.16092524 -0.025588527 0.070425384
0.051264346 0.017492516 -0.03847427 -0.095855884 0.14177941 0.09742303 -0.005169318 -0.06600333
-0.13957533 -0.067356214 -0.16983746 -0.14692488 -0.10834074 -0.13808359 0.046307825 -0.0806866
0.006666882 0.20476717 -0.15571488 -0.014728921 0.035228588 -0.05597448 0.0919715 0.19325384
0.09863067 -0.0846334 0.16840991 -0.043987747 0.05711364 0.119995855 -0.03996142 0.02331236
-0.10954106 -0.0942643 -0.08860488 -0.09055111 -0.0074847047 0.22581655 -0.06610009 0.28399563
0.101366565 -0.3055944 -0.014655122 0.022080109 -0.1951177 -0.113826014 0.0976851 0.0774048
0.022586817 0.1615992 -0.036813594 -0.1396555 -0.03359522 -0.06412957 -0.16048953 0.0288463
0.035883233 -0.19769607 -0.30026445 -0.1565932 0.045691382 0.052148797 0.07747006 0.15656541
0.14883494 -0.07848833 0.14542037 0.030202447 -0.012289118 -0.13928875 0.017299583 -0.082617916
-0.06155967 -0.021813978 -0.08292121 -0.016433718 0.086228065 0.017352402 0.15079655 -0.11121073
0.36503845 -0.033543557 -0.06412751 -0.014514758 -0.042356003 -0.14123824 0.12850884 0.040110245
0.14397737 0.020499716 0.040436465 0.13636276 0.03713873 0.05878343 -0.07553883 -0.17109111
-0.00531282 0.13002291 0.17741615 -0.16869861 0.10552784 0.055238307 0.03316354 -0.22084385
0.06693519 -0.05574468 0.016497705 0.028630042 -0.06272199 0.017688444 -0.07922071 0.066255465
-0.13494258 -0.13554344 -0.008647639 0.33774543 0.06063295 0.119774364 -0.13855448 0.02060027
-0.20016105 -0.15702398 0.20247714 -0.05573987 0.03888227 0.08378522 -0.17602892 -0.26381338
-0.423626 0.10255589 -0.013817387 -0.07180363 0.062281378 -0.067008644 0.1164125 -0.024641102

model.ec6.0.bias f4 [64]
00000000: 9460 733e 4c01 0d3e 39c4 be3d d037 a4bd
00000010: c0b5 053e 4187 713e ab86 78bc b51b 353e
00000020: 9d77 b13e ba03 873e f413 473e 4fd2 7b3e
00000030: 6f36 f63d d33f f93d da9b b53d e2c1 da3d
00000040: 5309 6e3d 7b1c 8e3d 7f18 f73d 161b 4b3e
00000050: ea0a 0bbc 175b 223e e797 253d d3c5 913e
00000060: 68d3 c03c 1611 8f3e 9503 b03d c0c1 cf3d
00000070: 7e36 5b3e a744 d83d 97b3 0d3e 679a 253d
00000080: 5cf4 33be 05b0 143e 6635 ea3d b95a dabd
00000090: 68aa 6f3d e95e 8e3d f3fd d6b9 f03a 19bd
000000a0: f094 9abd 6e2b 1d3d b050 6a3d 6f17 3f3e
000000b0: 526f 9f3e f12c 5cbd 6e4c 013e 3ff3 163e
000000c0: d0e3 183e b415 893d d490 c53d f252 753e
000000d0: 30b6 9d3d f687 ccbd c7c0 1ebe 9d98 c63c
000000e0: a0d0 0b3e ae1f 753e 8957 553e 3b82 42bc
000000f0: 3ae3 623e 1538 64bd c5af 9a3c 3e53 043d
0.2376731 0.13770026 0.0931477 -0.08018458 0.13057613 0.23586752 -0.015168826 0.1768635
0.3466157 0.2637003 0.19441205 0.24591945 0.12022101 0.12170377 0.08867617 0.106815115
0.05811436 0.06939026 0.12065219 0.19834551 -0.008486489 0.1585506 0.04042807 0.2847124
0.023538306 0.27942723 0.08594433 0.10144377 0.21407506 0.105599694 0.1383804 0.040430453
-0.17573684 0.14520271 0.11435966 -0.10661835 0.05851212 0.069516964 -0.00041006468 -0.037409723
-0.07547939 0.038371496 0.057205856 0.18661283 0.31139618 -0.053753797 0.12626812 0.14741229
0.14930654 0.06693593 0.096467644 0.23957422 0.07700765 -0.0998687 -0.15503226 0.024242694
0.13653803 0.23937866 0.20834173 -0.01187187 0.22156993 -0.055717546 0.018882642 0.03230595
